results/ppo/MoveToGoal/checkpoint.pt (torch, 440939 bytes, 36 tensors)

network_body._body_endoder.seq_layers.0.weight f4 [128, 6]
00000000: b83f eabe a59a 293f 5975 053f 18c8 313e
00000010: 10c2 e53e 402a d43e 52e8 083f 0f45 813f
00000020: 0ce2 16bf 119d 3a3e 2e9e 0ebf a008 08bc
00000030: f087 913e f622 dfbe d27c 1fbb bda9 53be
00000040: eae2 253f 3098 42bf e73a 5fbe f0ab 90be
00000050: 1ccc 1b3f b739 74bf a6c3 a4bd 723d 8c3f
00000060: 6ab1 02be 130d 323e 37e8 f6be 4f1f a93e
00000070: 1677 083f a5de 6abd ccf9 313e 9940 f8be
00000080: f4ee c3bd d2c2 c4be c8ed 5bbf 81e4 ebbd
00000090: 2a34 233f 7d28 84be 8914 86be 827d d1be
000000a0: a183 e73e f120 fbbd a47f 943e 5c3a 653e
000000b0: 36c3 1dbd 0f8c ea3e f1a0 0a3f 7f85 313e
000000c0: 5daa 153f eb2b 84bd b43d 913e 5514 903e
000000d0: 7a10 46bc 93a7 15bf 8af4 31be ff6c 9b3e
000000e0: f222 91be 9d7d 56be b00f a93e b2d1 583d
000000f0: b45a 003f 739d 00bc 6b75 f73e 89ca 4ebf
00000100: 002f bebc a102 3b3e b811 b0be 48c6 94be
00000110: 47f6 c03d abb6 5bbf 303c a3be 318e 9e3e
00000120: f47d 123e 2a58 ce3e 22ab 29bd d062 c9be
00000130: 8e76 343e 205d bbbd 911b 0ebd c9d2 63be
00000140: e62a 80be 0f74 173e f91b f93d 5ee7 95bd
00000150: 5e36 01bf 9e53 8cbd 97f1 92be ce21 29be
00000160: 9cc6 ce3d 47c7 80be e84e 34bf 4150 b0be
00000170: bc01 b23d 1f28 f6be 4611 803e 3ea6 f4bd
00000180: 3f07 5b3e cab7 8ebc 4504 cdbe 450b 1c3f
00000190: 3857 bb3e 7225 c9be 7226 3e3f eae5 7e3d
000001a0: abc9 1e3f cf8b 213e 9b46 24be 3273 f1bd
000001b0: 0b0c 5b3e 9f32 3dbe 9c0e d6be 3ebb 083f
000001c0: 822f 14bf c512 923d c1c5 603f 0e07 2e3e
000001d0: a92e 12bf e434 99bb 04b9 f5be 02a0 bcbd
000001e0: 7323 f7bc 334e a3bd 97de 9bbd 43e5 243e
000001f0: 7332 c33e 1e87 97bd a11b 043f eb96 e6be
00000200: 8aed 863e 6eca 92bf a8bc 80be 56c5 ee3d
00000210: d9d8 4b3c 8d2b a93c 1b0d ecbd ea65 ab3e
00000220: e2c7 25bf 2f0a be3d 62be 2ebf 574c 6abf
00000230: c346 c43c 7662 dfbc 64bd 29be d3cb c63e
00000240: 529c b43e d53b 8b3d 21fd 453f 2094 09be
00000250: 665d 153c 4855 8a3d 2175 3cbe 5038 253d
00000260: 7d29 bcbd 17fe 80bc e150 123f 33f9 71bd
00000270: 0858 013f 86a5 fa3e 46ee 453f 807f 013f
00000280: eb12 6d3d 534f 1f3e d3b4 823e 5a74 cd3e
00000290: fcd3 9a3d 0f35 883e fea7 21bf 9460 6c3d
000002a0: c88d 93be 8185 90bd 5f15 2a3d e09c 8a3e
000002b0: 8902 59be cc46 ff3c 2d6c 1fbf e13e 18bf
000002c0: f1cf 8dbf f7d7 c0bd 61bc 49be ebab dfbe
000002d0: f29a 923e 619a f7bd 376d 02bf fdb0 71be
000002e0: f34e 873e 9f5a afbe defb 5cbe 1276 443e
000002f0: 801b 293f f2c0 27be 274b 933d f71a 143e
00000300: 3a2e a7be 6833 e9be 0a31 c93e d242 403e
00000310: 9beb bcbe ee60 8d3d eca9 0dbe 4f6e 4f3f
00000320: 317e c93e 0c63 a6bb 62fb 6b3f 70b5 0a3e
00000330: 9e12 1dbe 0406 813d 5009 6ebe fd4a b8be
00000340: 1568 83be 4d5a c4bd a842 b93d 73ae d73d
00000350: a15c 4abd 44e4 013f e190 e2bd 8267 00bc
00000360: 3820 903e 74ec 2fbe e8c4 16be d25e 0f3f
00000370: 2532 123e 5d65 71be 539f 5bbb ab7c 54be
00000380: fdf8 c53c 17ee a83e 3c4a 4e3e 1811 543e
00000390: 27da 12bf c652 87bf 5549 04bf a286 abbe
000003a0: 1306 b33e 3e8d 95be e8a1 6abf 3562 123f
000003b0: ad60 6f3f 8627 2f3e dc3c 70bf b045 a73d
000003c0: a3f2 85be 8eae b23e 10b0 3a3e 91b0 453e
000003d0: 68c5 343f 7f6b b63d f8f0 e4bc 1b2b 203f
000003e0: ed2c 7b3e 8441 003f 0cb4 0e3e 3b21 8a3d
000003f0: 0419 9cbe 0f61 f6be d779 5fbd 4637 99be
-0.4575174 0.66251594 0.52132183 0.17361486 0.4487462 0.41438484 0.5347949 1.00992
-0.5893867 0.18223979 -0.55710113 -0.008302838 0.28424025 -0.4358136 -0.0024335873 -0.20670219
0.6479937 -0.7601347 -0.21799813 -0.28256178 0.6085832 -0.95400566 -0.080451295 1.0956252
-0.1276299 0.173878 -0.4822404 0.330317 0.5330671 -0.057341237 0.17380446 -0.48486784
-0.09567061 -0.38429886 -0.859097 -0.11518193 0.6375147 -0.2581214 -0.26187542 -0.40916067
0.45217612 -0.122621424 0.29003632 0.22385544 -0.038516246 0.4580998 0.5415183 0.17336081
0.5846308 -0.06453689 0.28367388 0.28140512 -0.012088889 -0.5845882 -0.1737844 0.30356595
-0.28346974 -0.20946355 0.3301978 0.052934356 0.501384 -0.007850039 0.4833177 -0.80777794
-0.02321577 0.18262722 -0.34388518 -0.29057527 0.09421974 -0.85825604 -0.31881857 0.30967858
0.1430586 0.4030164 -0.04142297 -0.393332 0.1762335 -0.091486216 -0.034694258 -0.22248377
-0.2503273 0.14790367 0.121635385 -0.073195204 -0.5047358 -0.06851886 -0.28699943 -0.16516802
0.100964755 -0.25152037 -0.704329 -0.3443623 0.08691737 -0.48077485 0.2501318 -0.11945771
0.21389483 -0.017421622 -0.4004232 0.60954696 0.3658998 -0.3928638 0.7427741 0.062230982
0.6202647 0.15775989 -0.16042559 -0.1178955 0.21391313 -0.18476342 -0.4180802 0.5341071
-0.5788499 0.07132486 0.8780175 0.16994879 -0.5710245 -0.0046754945 -0.47992718 -0.092102066
-0.03016827 -0.079739 -0.07610815 0.16103081 0.38124427 -0.073988184 0.5160466 -0.45037016
0.26353103 -1.1468027 -0.25143933 0.116587326 0.012441837 0.02065065 -0.11525937 0.33476192
-0.6475812 0.09279286 -0.6825925 -0.91522735 0.023959523 -0.02726863 -0.16576153 0.3882738
0.35275513 0.067985214 0.7733937 -0.13435411 0.009116506 0.06754547 -0.18404056 0.040336907
-0.09187601 -0.01574616 0.5715466 -0.059075546 0.5052495 0.4895441 0.773167 0.50585175
0.05787937 0.15557604 0.25528583 0.40127832 0.07559964 0.2660298 -0.6314696 0.05770929
-0.28819108 -0.07056714 0.041524287 0.2707281 -0.21192373 0.031161688 -0.6227444 -0.59470946
-1.1079084 -0.09416192 -0.19700767 -0.4368585 0.2863384 -0.12089992 -0.509479 -0.23602672
0.2642742 -0.34248826 -0.21580455 0.19185665 0.66057587 -0.16382197 0.071920685 0.14463411
-0.32652456 -0.45547032 0.39295226 0.1877549 -0.36898503 0.069032535 -0.13834351 0.8102769
0.3935409 -0.0050777253 0.92180455 0.13545775 -0.15339133 0.062999755 -0.2324574 -0.35994712
-0.25665346 -0.09587536 0.09045917 0.105313204 -0.049404744 0.5073893 -0.1106279 -0.007837178
0.2814958 -0.17180043 -0.14723551 0.5600406 0.14276941 -0.23573823 -0.0033511713 -0.20750682
0.024166578 0.32994148 0.20145506 0.20709646 -0.57364124 -1.0572135 -0.51674396 -0.33501154
0.34965572 -0.29209322 -0.916533 0.571811 0.9350689 0.1710492 -0.93842864 0.08167589
-0.2616168 0.348988 0.18231225 0.19305636 0.7061372 0.08907222 -0.027946934 0.62565774
0.24528857 0.5009997 0.1393587 0.067446195 -0.30487835 -0.48120925 -0.054559555 -0.29924983

network_body._body_endoder.seq_layers.0.bias f4 [128]
00000000: 21a7 4cbc e87d 6bba 65c2 1b3b 6373 96bb
00000010: 8982 213b 89cb 04bb 321d 8f3b 6be1 fd39
00000020: 1694 6bbb 4b26 fd3a d859 80bb 2129 78bb
00000030: 70a8 86bb 991d 25bb fa92 453b b18b 0cbb
00000040: c851 cfbb 2c2a 16b9 399a c5bb 8074 61bb
00000050: 695d f6ba f4f5 6139 6885 89bb b633 b93b
00000060: 1651 68bb d07b 61bb a54d 9f3b 76b4 8ebb
00000070: 7bc7 f03a 7855 c939 ac22 2fbb d5b4 3b3a
00000080: 00b9 98bb 5fa7 18bc 69b4 82ba 97f1 733b
00000090: bce1 f3ba 4108 69bb 8fec 54bb bd9e ab3b
000000a0: 2cf6 81bb 91e0 443b 6641 47bc 590f 25bb
000000b0: ebb0 873b 9d97 e7bb 4eb1 dbb9 af28 5eba
000000c0: a572 9bba f95e d2ba df97 fcb9 7d3a d83b
000000d0: fd5f 7e3b da79 c2bb e941 f0ba 9e8c 843a
000000e0: bb5d 87b9 07cd 02bc 91a3 3ebc d62c e93a
000000f0: b13d 16bb 659c 953a 8256 95b8 d2cc 7b3b
00000100: 5944 83bb 5e2e 2ebb 890e 223b 97bd 21bb
00000110: 8bb2 beba 5a5c 9abb 795b 5cbb 772f abb9
00000120: 62a0 0dbb ac19 08ba f80f 8838 0f30 52ba
00000130: 9734 1abb f462 acb9 b8d8 dbb7 cfd3 8bbb
00000140: 3411 8cbc 2017 a73b d7aa 2d39 ce61 81bb
00000150: 50f7 28bb 9681 393a f5a4 34b9 592f 033b
00000160: 684b f13b cdf9 3ebb ed3d 16bc 90be bd3b
00000170: 273e 483b fc8b 7eba 21f7 d2ba ab0c 7ebb
00000180: 4808 4c3b 2741 ac3a 5912 3d3b 5250 98bb
00000190: 981b 90bb 1d39 dcbb e971 b93b 0e08 8f3b
000001a0: e1c8 48bb f9b1 31bb 3068 b7b9 e200 0e3c
000001b0: e012 59bb 3f9a 5c3b f2ee 133c 232e 543b
000001c0: 55d7 4f3b 01cd a0b9 c0da 243a 7aa8 d836
000001d0: 5446 b039 4c84 61bb dae9 90bb 1809 28bc
000001e0: 215b 05bc 47f5 623a 66c4 4f37 0162 83bb
000001f0: 066b fa3a f7a7 f63a 9e9a 35bb 23c4 3838
-0.0124910185 -0.00089833 0.0023766991 -0.004591392 0.0024644455 -0.0020262918 0.004367494 0.0004842387
-0.003594642 0.001931378 -0.00391696 -0.0037866312 -0.004109435 -0.0025194644 0.003014742 -0.0021445567
-0.0063268878 -0.00014320825 -0.0060303477 -0.0034401715 -0.0018796149 0.00021549297 -0.0041968115 0.0056519164
-0.0035448722 -0.0034406073 0.004861551 -0.0043550087 0.0018369997 0.00038401387 -0.0026723547 0.000716043
-0.0046607256 -0.009317248 -0.0009971979 0.0037222856 -0.0018606703 -0.0035557898 -0.0032489633 0.005237429
-0.0039661136 0.0030041079 -0.012161588 -0.002518615 0.0041409633 -0.0070676343 -0.00041903037 -0.000847469
-0.0011859728 -0.0016050033 -0.00048178338 0.006598769 0.0038814538 -0.005934936 -0.001833019 0.0010112708
-0.0002581904 -0.007983453 -0.011635677 0.0017789851 -0.0022924955 0.0011414407 -7.120987e-05 0.0038421643
-0.0040059504 -0.002657793 0.0024727902 -0.0024679655 -0.001454906 -0.004710716 -0.0033623858 -0.00032651026
-0.0021610488 -0.00051918137 6.48796e-05 -0.00080180255 -0.002352988 -0.00032880122 -2.6207752e-05 -0.004267193
-0.017098047 0.0050991923 0.00016562208 -0.003948427 -0.0025782175 0.00070765 -0.00017227589 0.0020017235
0.0073637255 -0.0029140592 -0.009170038 0.005790539 0.0030554624 -0.00097101904 -0.0016095379 -0.0038764875
0.0031132866 0.0013141976 0.0028850047 -0.004648247 -0.0043978207 -0.0067206756 0.005659331 0.004364974
-0.0030637311 -0.0027114137 -0.00034982106 0.008667203 -0.0033122823 0.0033661274 0.009029137 0.0032376132
0.0031714041 -0.00030670318 0.00062887 6.456915e-06 0.00033621734 -0.003441113 -0.0044224085 -0.010256074
-0.008139403 0.0008657765 1.2383889e-05 -0.0040094857 0.0019105382 0.0018818368 -0.0027710567 4.4051685e-05

network_body._body_endoder.seq_layers.2.weight f4 [128, 128]
00000000: 5e65 7cbd 25f7 6b3d 2499 89bc 0da0 a73d
00000010: a869 443d 6c29 e43d 2a51 663e 7cd8 ee3d
00000020: aee1 3ebc a731 6e3d fff7 33be 4604 993c
00000030: 1c87 27be bade 863d 5ef3 bebd 3eb9 c73d
00000040: 10a9 bd3d aa8a 7e3b d85f 363e 6348 c13d
00000050: 58bc 67bc ae77 e5bb a017 0a3d f595 533c
00000060: c113 d73c 43b3 b4bb 9cea 04be 5eb1 2ebe
00000070: c26c b2bd 3c35 a9bd 9176 94bd d14b ab3c
00000080: 8836 133d 5430 27bd 5f49 2a3e 8d9e 8fbc
00000090: ca85 973d 2404 07be cf45 ab3d 8ddf 143d
000000a0: 8bcb cdbd 3061 dabc 284c 053e c5a4 683c
000000b0: 959d 3e3c 8e9f 823c 232d 123d 4f03 603d
000000c0: 1abd 54bb 2771 173d e7c0 1ebd 0b5d f7bd
000000d0: 87d8 b5bd 7ad9 163d b0af 173d 40da 343d
000000e0: ec48 44bc f9ce 27bd 68f9 c8bb 5e55 7e3d
000000f0: cdd6 e0bc d1b4 92bc 3c43 a2bd 3ae8 75bd
00000100: fcc9 0a3d 1a2b 9ebd 6a72 9abc 9774 b83d
00000110: ef70 ae3d 0176 c5bd 9e34 acbe 706c fdbc
00000120: 70d9 75bd 6298 823c 56c3 6dbc 4b24 aa3d
00000130: e799 e53d dcf6 d6bd 3b56 37be e39b 963d
00000140: 0c44 a1bd 1ca5 5dbe 77e5 5ebd 2cf3 873d
00000150: cfe6 893c 368f 23bd a582 8aba 52b2 a23c
00000160: ed9d 143e 538d 0abc 117f 273d cedf 733d
00000170: 59e2 dfbd d221 47bd f5f4 8b3d ea84 a23d
00000180: 1542 0cbd d563 263e 9a5d ba3d f447 a3be
00000190: 378f 1f3e 0937 15ba dded b2bd f448 ba3d
000001a0: fe83 1e3c 9135 e43c 834f bf3d aa31 2fbd
000001b0: 2e6d 91bd 10f4 84bd 1ee7 d53d 2bb1 9a3d
000001c0: 0706 0d3d 1242 92bd 5881 833d e7d5 f13d
000001d0: bfe6 e0bc 79fd 40bd 0ef7 81be d17e 9e3d
000001e0: 06ee fdba 0f1f ba3c 4096 36bd a556 9abd
000001f0: 556f c5bc 12ad 463d 51f0 7bbd 1538 c9bd
00000200: b8c9 9e3b c876 9cbd 2185 b5bd d9a3 a9bc
00000210: 5907 dabc 85f5 3dbc b000 acbc e704 95bc
00000220: e412 e43c 468e e33d 5323 f7bc ad81 d53d
00000230: 68f6 863c 7aac 123d 85c6 163c 0868 673d
00000240: 9496 103d 3b34 dfbc 38d2 d3bc bd4d 18bd
00000250: a615 ac3d a2a5 1fbb 40e0 723d 18e8 443d
00000260: 306a aebd b01b 363e 5226 15bd 98dc e5bd
00000270: f9a5 84bd 77bf 9c3d 401e 903c b815 b73c
00000280: 9683 253e ad6b 2b3d c390 263d 3ced 7abd
00000290: 645e 283c d469 533d fd48 633d 014f 2dbc
000002a0: a906 ccbd 1f73 9dbd 9525 843d 249c 493d
000002b0: d778 803c 34e8 983c 8ad1 b23d 54de e6bc
000002c0: 80e6 92bd ac35 f53d c373 bebd a8e9 3e3d
000002d0: 2b3f 0e3d 7141 29bd eb50 39bd e105 8fbd
000002e0: 99e3 c63d 5eca 043c 70f5 cc3c 6be7 15bd
000002f0: d97c e2bc 6cca 65bb 4a57 e93d 6957 ae3d
00000300: 3e66 e63c 116f 1fbd daef d6bc 3dfb 273e
00000310: 311b a33c b9f5 bbbd 8e09 973c 9c4e 583d
00000320: 63d8 ca3d 514b ab3d 31fe 28bc ca44 943a
00000330: 97c2 543d e30d ca3d b75d 543d 96b8 af3b
00000340: 4839 0cbd 5a51 79be 85c5 10bd f146 5d3d
00000350: cb60 103e 2ded b83c 2a80 bf3d 9bc0 adbc
00000360: 1899 ccbd c341 553e 851e 77bd 36d7 4c3d
00000370: e221 e1bd 0d4c 69be 241e b3bd 7435 703d
00000380: aa90 273d 1d8f a3bd 949f 9fbd 4394 8ebd
00000390: bdae e9bc 31ab a93d 3759 0a3e 71ce 8b3d
000003a0: bb28 8ebc aed8 c8bd 1445 9d3d 6443 c3bc
000003b0: 01af 8fbd 4f10 133e 8860 a93d b5ee fb3d
000003c0: b922 f5bd a5f8 193d f157 c4ba d3f7 9ebd
000003d0: 6f16 cab9 2014 d23d ac80 95bd 535a a73d
000003e0: 7f16 dbbd a94e acbc c29a dbbd de6b 01bd
000003f0: 5465 1ebd 35d2 083e d4c4 ecbc 7ce6 c7bd
-0.06162011 0.057608742 -0.016796656 0.08184824 0.047952324 0.11140713 0.22491899 0.11662385
-0.011650486 0.05815282 -0.17575072 0.018678796 -0.16360134 0.065854505 -0.09323762 0.09752129
0.09260762 0.0038839974 0.17809999 0.09437635 -0.014144026 -0.0070027923 0.033713937 0.0129141705
0.026254537 -0.0055145337 -0.12980121 -0.17059848 -0.0871215 -0.08262107 -0.07249177 0.020910176
0.035940677 -0.040817574 0.16629551 -0.017531658 0.07398565 -0.13185173 0.08362924 0.036346007
-0.10048588 -0.02665767 0.13017333 0.01419944 0.01163425 0.015945222 0.035687577 0.054690655
-0.0032461346 0.036973145 -0.038758185 -0.120782934 -0.0887919 0.036828496 0.037032783 0.044153452
-0.011980277 -0.04096887 -0.006133247 0.06209313 -0.027446175 -0.017908486 -0.0792298 -0.06003592
0.033884034 -0.07723065 -0.018853385 0.09006613 0.08517634 -0.09641648 -0.33633894 -0.030935496
-0.060021818 0.015941802 -0.014511904 0.083077036 0.11210995 -0.104963034 -0.17903988 0.07353952
-0.07874307 -0.21645015 -0.054418053 0.06638178 0.01683369 -0.0399315 -0.00105675 0.01986042
0.14513369 -0.008456546 0.040892664 0.05953961 -0.10931844 -0.048616238 0.06833831 0.079355076
-0.03424271 0.1624902 0.09099884 -0.31890833 0.15581976 -0.00056921 -0.08736775 0.09095946
0.009675024 0.027857574 0.093413375 -0.042771973 -0.071009025 -0.06491864 0.10444473 0.07553323
0.034429576 -0.07141508 0.06421155 0.11808377 -0.027453778 -0.04711673 -0.253838 0.07739032
-0.0019373305 0.022719888 -0.044576883 -0.075360574 -0.024100939 0.048504896 -0.06150848 -0.0982515
0.004845824 -0.07639843 -0.08863283 -0.020708011 -0.026614832 -0.011594181 -0.020996422 -0.018190814
0.027841039 0.11111121 -0.030168211 0.10425124 0.016474918 0.035809018 0.009202604 0.056495696
0.035299852 -0.027246585 -0.025857076 -0.037183512 0.084025666 -0.00243602 0.059295893 0.048072904
-0.085163474 0.17784 -0.0364135 -0.112237155 -0.06476969 0.076537065 0.01759255 0.022349223
0.16163477 0.041850735 0.0406654 -0.0612614 0.010276411 0.051614597 0.05548953 -0.010577918
-0.09962208 -0.07687973 0.06452481 0.049221173 0.01568262 0.01866541 0.08731373 -0.028182186
-0.07172871 0.11973128 -0.092994235 0.04660955 0.03472821 -0.041322175 -0.045243185 -0.06983543
0.097113796 0.008104889 0.025019377 -0.03659765 -0.027647423 -0.003506328 0.11393602 0.08512766
0.028124925 -0.03892428 -0.026237417 0.16404434 0.019910427 -0.09177727 0.018437173 0.052809343
0.09904554 0.08363975 -0.01031451 0.0011312005 0.051943388 0.0986593 0.051847186 0.0053625805
-0.034234315 -0.2434744 -0.03534462 0.054022733 0.14099424 0.022574032 0.09350617 -0.021210006
-0.09990138 0.20825867 -0.06033184 0.05000993 -0.10992791 -0.22782917 -0.08745983 0.058644727
0.040909447 -0.07986281 -0.07794109 -0.069618724 -0.028525705 0.08284605 0.13510595 0.06826485
-0.017353406 -0.09806953 0.07679191 -0.023835845 -0.07015801 0.1436169 0.08270365 0.12301389
-0.119695134 0.03759064 -0.0014979822 -0.077621125 -0.00038545157 0.10257745 -0.07299933 0.08171525
-0.1069765 -0.021033602 -0.10722877 -0.03159701 -0.038670853 0.13361438 -0.028902449 -0.09760758

network_body._body_endoder.seq_layers.2.bias f4 [128]
00000000: 8ba0 b83b 1c73 5aba ebef 1e3b f00d 1dbb
00000010: 13fb d4b7 0fbf 2b3b 80f2 e83a 2e0b 0fb9
00000020: 2303 dc39 c253 3abb 9256 faba 0172 98bb
00000030: 0c56 6bbb 484d 8bba c62c 1bba c2b0 64b9
00000040: c165 32bb 37b3 b6bb e2ef 7d3b 11c8 5bbb
00000050: 7d4d 11bb f0ee 233a 9d06 84bb 8355 09bb
00000060: fa80 2139 f078 07bc a1db 00bb 3cf6 32bb
00000070: 7a45 92bb 0897 723b 86b3 4a3b 5979 ff3a
00000080: 8f3e e83a d799 ca3a 25f8 d0ba f39d 74bb
00000090: d43a 51bb cfa4 d2bb d740 a7bb 2fa1 20ba
000000a0: 3a87 b3ba 1bfe 3f3a ed07 0bbb 8b0a 463b
000000b0: a466 153b 7dbc 4639 6cb0 f4ba 34d0 9f3b
000000c0: 6ef0 eeba ee09 ffbb 05bd 803b 7b73 0abb
000000d0: 2ac7 c3b7 af75 de3a 5fce 543b 4861 4c3b
000000e0: a262 233b f587 cfba 6ae3 9fbb ffc2 323b
000000f0: 4ea2 34bc 8346 99b9 2edf 0b3b 241b 513b
00000100: a0f4 1a3a 60ca 05bb b18b 5b3b fbe2 34bb
00000110: 80d4 0b3c cfe7 8dbb 62eb 07ba 36e6 74bb
00000120: 3580 193b 9dc7 fdba 2e9c 92bb 7fb4 ae3b
00000130: 5139 bf3b 769f c73a 030d 47bb fd3c 37bb
00000140: d0c1 bb3a 917b 2a39 6a1f 20bb 474b 9ebb
00000150: e3bf 2bbb 84b2 9cbb 8d7a 26bb 1b80 4639
00000160: b8af 3cbb ff33 0bbb 1f8c 973b e8fb 813b
00000170: ccf3 12ba 93ad 073c a0f7 7f39 430d 5abb
00000180: f2ac adbb 0581 533b 3dba 483b e6e2 7e3b
00000190: b4d0 df3a ca27 9ebb 57d8 70ba 1d5e 62bb
000001a0: 2707 02bb 5707 b63a ac47 56ba b4af 90b9
000001b0: 7312 df3a 685c d8ba b7ba 30ba 6557 07bb
000001c0: 9557 923b 9347 213a 4dea 3c3a 30b1 ec3a
000001d0: 7623 b5bb b65a acba 38e2 883b 1c4c 533b
000001e0: 3764 4ebb 631c a43c b09c 17bb e771 8f3b
000001f0: 8e0d 383b 9c50 1abc 35c9 68bb ffc7 70bb
0.0056343726 -0.00083331927 0.002425189 -0.0023964606 -2.5389285e-05 0.002620641 0.0017772466 -0.00013641707
0.00041964007 -0.0028431271 -0.0019099286 -0.004652262 -0.0035909442 -0.001062789 -0.00059194525 -0.00021809622
-0.0027221295 -0.0055755633 0.0038747718 -0.0033535997 -0.002217143 0.0006253561 -0.0040291087 -0.002095551
0.00015402204 -0.00826858 -0.001966216 -0.0027307412 -0.0044638487 0.0037016291 0.0030929758 0.001949112
0.0017718839 0.0015457225 -0.0015943093 -0.003732559 -0.0031925933 -0.006428338 -0.005104165 -0.0006127534
-0.0013696917 0.00073239364 -0.002121444 0.0030218686 0.0022796774 0.00018952969 -0.00186683 0.0048771147
-0.0018229613 -0.007783166 0.003928783 -0.002112596 -2.3338554e-05 0.0016972328 0.003247164 0.0031185914
0.0024930616 -0.0015833365 -0.004879405 0.0027276871 -0.011025025 -0.0002923497 0.0021342742 0.0031907046
0.0005911086 -0.0020414814 0.003350001 -0.0027601111 0.008534551 -0.0043306123 -0.0005184916 -0.0037368662
0.0023422365 -0.0019361858 -0.0044741845 0.0053315754 0.00583569 0.0015230018 -0.0030372746 -0.0027959936
0.0014324728 0.00016258495 -0.0024432787 -0.004830751 -0.0026206903 -0.004782023 -0.0025402636 0.00018930474
-0.002879126 -0.002124071 0.004624858 0.003966797 -0.00056057866 0.008281129 0.00024410943 -0.0033272065
-0.0053001577 0.0032272947 0.0030628585 0.0038892566 0.0017075748 -0.0048265206 -0.00091875106 -0.003454096
-0.001984069 0.0013887685 -0.0008174132 -0.0002759673 0.0017019048 -0.0016507031 -0.000674169 -0.0020651456
0.004466007 0.0006152328 0.00072065444 0.0018058177 -0.005527909 -0.0013149593 0.004177358 0.003224141
-0.0031492838 0.020033067 -0.0023134165 0.004377592 0.002808425 -0.009418633 -0.003552032 -0.00367403

action_model._continuous_distribution.log_sigma f4 [1, 2]
00000000: 25fb 53bc fe25 e2bc
-0.0129382955 -0.027606007

action_model._continuous_distribution.mu.weight f4 [2, 128]
00000000: 02d1 d1ba 35ff acbc b584 943c 8ac9 843c
00000010: 2abb e2bb ddd8 e2bb b305 aebb b970 0dbd
00000020: 9419 82bc 0e5a 5ebc 1ece e7bc 5135 ae3b
00000030: 2c85 5b3b cc5f e1bc 1238 083b ce8d c43c
00000040: 5f93 92bc 3ab7 943c 2de7 ab3b e323 8b3c
00000050: e251 5a3d 6d52 643c fe80 91bb 2d40 9cbc
00000060: b72c a2bc 4b27 18ba bea2 833d 90eb 9a3b
00000070: 4b97 33bc 636d 05bc 630c 9b3c efac 253d
00000080: defa e53a 6e95 b8b9 9ba5 86bc aab0 0b3d
00000090: f64e fc3c 4825 d03a 9f11 f43c 7589 c8bc
000000a0: 5746 933b 43f5 943c 3a4c b73c 90a4 d9ba
000000b0: b3f3 4a3c f4c6 aebc a9d0 d03c 65b2 b53c
000000c0: 8713 453c 964a 0e3b d2ca 84bc 6df8 1f3c
000000d0: 2060 97bc 8583 a1bc b134 b13a fa5f eb3b
000000e0: dfef c2b9 4368 0cbc 2849 d13b 7319 f4bb
000000f0: cf7e 0abc fd90 92bc 6caf 92bc 3b17 82ba
00000100: 6157 e33c 533a a53b 31e4 2fbd 4779 d6bc
00000110: b9fb ca3c 5487 08ba bfe0 88bc 4197 eab9
00000120: 7e92 2d3c 914a cfbc c97f 543c daf2 e63c
00000130: ae88 fa3b 7e3a 053c f905 1fbc 5004 85ba
00000140: 2ad7 8ebb b1af 053d 236c e63b 3c71 8bba
00000150: 0805 97bc fec1 68bc 5e89 653a 202e 20bb
00000160: 529a a6bb d61b af3c 8484 76bb 1297 c43c
00000170: 1e31 9abc 22a9 9abb cd5b 0c3c 6a35 133c
00000180: 6363 f43c 3e2f 83bc 1b46 9c3b 4f23 9f3c
00000190: 75d8 92bc 28b7 d1b9 7799 f23c eceb 483b
000001a0: 26b5 043d 4d48 e1bc b3c4 e83a 1458 e7b9
000001b0: 591e 29bb afe0 153c a352 42bd ea27 80bc
000001c0: 44a4 aebc e6bd 413c a668 4cbc cf92 17bc
000001d0: 7050 f3ba 386a b7bc 7a71 c0bb 553d 2ebc
000001e0: 2a39 403c ab97 223d bc27 03bc 7839 babc
000001f0: f8b5 b23c 6307 8a3b 77c3 d5bb b3c4 0bbc
00000200: 0741 2c3c cfef cdbb 5f38 b73c c360 6fbc
00000210: 902a a23c 7631 4f3c 023c 4e3c c9cf 91bc
00000220: 9e42 053b 6ded 90bb d05d e7bc a555 31bb
00000230: 1443 d7bc 4ae6 46bc 7406 77bc e3aa 2ebc
00000240: 7ac8 773b ba96 353c b472 823c 8da7 4bbc
00000250: 4876 90bc 52b3 db3b 625a e5ba 1eef 9cbc
00000260: e1d2 903c 2f60 b8b9 dc8a 973c bb3a 4bbb
00000270: 0a80 afbc a283 043c 7061 943b 2db8 d83c
00000280: 5af2 1e3c c984 c33c 13a5 b8bc f7c6 28bc
00000290: 3e70 a9bc e7cd c6bb 4ad4 b0bc 3a21 b2ba
000002a0: 5c71 313c a0a4 1e3c 6cb8 d3bb b544 82bc
000002b0: 9d0b 0cb9 c6e6 b93c b4b0 ebba da18 95bc
000002c0: 7186 38bc 1573 88bc a2b0 693b 004f 27ba
000002d0: 64d8 b03b 47e1 013c ab10 4a3c 6d3c 813c
000002e0: 6614 253c 9cc2 9f3a c166 17bc c68a b03c
000002f0: c9e2 71bc f493 923c 6630 333c 940f df3b
00000300: 8617 ae3b 7bd6 a63c 694e f439 7c46 51bd
00000310: 2672 c2bb a3da edbc ee3e e9bb df47 f6bc
00000320: deeb 88bc 0887 68bc 7ec9 09bd e2d4 a7bc
00000330: f168 06bd f5ea 893c 2c8c 62bc d128 b7bc
00000340: 8ada 673c fb93 f3bb 12b2 34bb d3bc 8abc
00000350: df76 02bd 26f6 c1bc 0221 c5bc fb04 983b
00000360: 7df5 08bc ec3c 973b 28c3 883c 3c6d 8dbc
00000370: e394 b23c f33d 473d 563d ca3b 1c28 2fbb
00000380: eeb1 95bc ae02 39bb 9654 1e3d 5023 24bc
00000390: 1926 13bc 1027 8abc 1b04 94bc f6be fcba
000003a0: dbc7 15bd d839 40bb 0bf0 89bc a255 bc3c
000003b0: fc09 153b 5184 6a3c 3e00 0e3c 8bb6 183b
000003c0: 8e3b bb3c 9925 e03c 39a3 b33a d045 c03b
000003d0: 3214 5ebc d808 873b 82ed 033c 37bf 13bd
000003e0: 7f50 fe38 335a a93c 7c61 abbb b3e3 173d
000003f0: 06bf a03c c2b5 113c 980e a7bc f5e8 8ebc
-0.0016007724 -0.021117786 0.018129686 0.016209383 -0.0069192844 -0.006922825 -0.005310738 -0.03453133
-0.015881337 -0.013571275 -0.028296527 0.0053164144 0.0033496125 -0.0275115 0.0020785374 0.023993399
-0.017892538 0.018153775 0.005246064 0.016984886 0.053300746 0.013935667 -0.004440426 -0.01907357
-0.019796712 -0.0005804195 0.06427525 0.0047277883 -0.010961364 -0.008143756 0.018926805 0.040448125
0.0017546078 -0.0003520655 -0.016436389 0.034104027 0.03079937 0.0015880251 0.029793559 -0.024479607
0.004494469 0.018183356 0.022375215 -0.001660483 0.012387204 -0.021335103 0.025490122 0.022179792
0.012028581 0.0021711937 -0.016209994 0.009763819 -0.018478453 -0.019716034 0.0013519732 0.007183072
-0.0003718128 -0.00856978 0.0063868947 -0.007449323 -0.008453085 -0.017891401 -0.017905913 -0.0009925136
0.027751626 0.005042353 -0.04294223 -0.026180876 0.024778234 -0.0005208154 -0.01670873 -0.0004474465
0.0105940085 -0.02530411 0.0129699195 0.028191973 0.007645688 0.008131621 -0.009706014 -0.001014838
-0.0043591456 0.032638256 0.007031934 -0.0010638605 -0.018435016 -0.014206408 0.0008756126 -0.0024441555
-0.0050843144 0.021375578 -0.0037615607 0.023997817 -0.018822249 -0.0047198692 0.008566809 0.008984903
0.029832548 -0.016013738 0.0047690994 0.019426016 -0.01792548 -0.00040000048 0.029614193 0.0030658199
0.03239932 -0.027500296 0.0017758816 -0.00044125377 -0.0025805442 0.009147807 -0.04744209 -0.015644033
-0.021318562 0.0118250605 -0.012476122 -0.0092513105 -0.0018563401 -0.022389516 -0.0058729025 -0.01063474
0.011732379 0.039695423 -0.008005079 -0.022732481 0.021815285 0.0042123063 -0.0065235454 -0.0085307835
0.010513551 -0.006284691 0.022365747 -0.014610472 0.019795686 0.01264607 0.012587549 -0.017799275
0.0020333896 -0.0044228346 -0.028242975 -0.0027059105 -0.026277103 -0.012139866 -0.015077222 -0.01066086
0.0037808702 0.011083299 0.015923835 -0.012430084 -0.017634526 0.0067047263 -0.001749825 -0.019156989
0.01767868 -0.00035166877 0.01849883 -0.0031010348 -0.021423358 0.008088024 0.004528217 0.02645501
0.009701336 0.023867028 -0.022539651 -0.010301343 -0.020683404 -0.006067026 -0.021585602 -0.0013590225
0.01083025 0.009682804 -0.006461194 -0.015901903 -0.00013355767 0.02269305 -0.0017981739 -0.018200327
-0.011262522 -0.016656438 0.003565826 -0.00063823164 0.0053968895 0.007927245 0.0123330755 0.015775884
0.010075664 0.0012188735 -0.009240807 0.021550547 -0.014763542 0.017892815 0.010936832 0.006807277
0.005312863 0.020365944 0.00046597727 -0.05109261 -0.0059340177 -0.029034918 -0.0071180975 -0.030063568
-0.016714033 -0.01419235 -0.033639424 -0.020487253 -0.032814924 0.016835669 -0.013827365 -0.02235833
0.014151225 -0.007433412 -0.0027571958 -0.016935742 -0.031851646 -0.023676943 -0.02406359 0.0046392656
-0.00835931 0.0046154168 0.01669462 -0.017264001 0.02179951 0.048643064 0.0061718626 -0.0026726788
-0.01827332 -0.0028230357 0.038654886 -0.010018185 -0.008981251 -0.01686433 -0.018068364 -0.0019282985
-0.03656755 -0.0029331353 -0.016838094 0.022990052 0.0022741547 0.014313773 0.00866705 0.0023302163
0.022855546 0.027361678 0.001370526 0.0058676973 -0.01355462 0.0041209273 0.008052232 -0.03607103
0.000121266574 0.020672893 -0.005230127 0.037082385 0.019622337 0.008893432 -0.020392701 -0.017445067

action_model._continuous_distribution.mu.bias f4 [2]
00000000: 13ed 2fba d176 643b
-0.0006711047 0.003486086

exp_avg f4 [128, 6]
00000000: ce8a cd39 b4db 71b7 1c91 31b9 9bd0 093a
00000010: 0a2b e4b6 d18f c5b9 e4dc 253a 8ba5 8a36
00000020: f436 6438 b600 4e3a 70cc 0236 0cae d938
00000030: 8090 163b 7bc6 28b8 3a0a 0439 107f 193b
00000040: d838 9fb7 50d8 c339 5af4 a5ba 0183 2b38
00000050: 3125 8aba 6e2c a3ba b3cd a137 1076 99ba
00000060: 266f edba a86d 60b8 039e 1c3b dd31 d6ba
00000070: 91b9 d3b7 35e6 003b 4f3e d73a f086 dcb7
00000080: 7205 4d3a c65f fb3a 5b0b 50b7 74ed 253a
00000090: 7833 12ba 0a61 ddb7 01d5 8d3a 702c b0b9
000000a0: 24d9 50b7 b6cb 933a f060 f03a 2f87 0238
000000b0: 41c2 63ba d433 d53a 8747 7637 04d2 c3b9
000000c0: 8657 1bbb 7300 48b8 2b99 8c3a 7e09 0ebb
000000d0: 4fae bcb7 f2b1 db39 481e 1fb9 e2fe 37b8
000000e0: 5a0f ae3a 24f5 dcb9 b294 adb7 cd68 ce3a
000000f0: 8837 273a de0d eab7 eeff 6db9 a225 183a
00000100: 4cce 5cb7 5d0e 16b9 9828 6eb7 629a b2b6
00000110: d6e1 e239 6715 eab8 5a7e 28b6 a39c c339
00000120: 0482 7d3b c514 a0b8 0d2e cc3a 5bc2 733b
00000130: 1b05 17b8 474d 1b3b 7bf9 aa3b 809f 4438
00000140: 22d9 6aba 5c00 a63b 527e b937 d773 a5b9
00000150: 4e70 a0b9 7f86 bd37 c25d 2bba ba4d 16ba
00000160: 24cc 3237 b553 1aba f49b 993b 4316 d5b8
00000170: 0f55 793b 47ed 9e3b 8606 49b8 3dfb 763b
00000180: a828 d3b9 5897 fb36 f495 a3ba b22b fab9
00000190: 9559 6d36 ddc2 9dba c46a 903b 2aca b738
000001a0: 47bd 10bb 6cf2 863b f562 2d38 c674 f1ba
000001b0: dc16 2cba bae5 79b7 d783 233b a7ca 31ba
000001c0: 86c0 ebb6 effe 183b b196 4cba 2089 df34
000001d0: 6676 1d3a d189 35ba 60de 5234 dc19 3b39
000001e0: aa02 36bb b59d 58b8 948f 143b 4469 2dbb
000001f0: cf5a ccb7 cb85 003b 9a8a 483b c691 4fb8
00000200: c0e5 6f3a 06c9 3e3b fad1 c3b7 5ac3 c53a
00000210: 49eb 20bb 3916 93b8 65f8 e13b 20c4 1abb
00000220: dac2 0ab8 53e1 bc3b fcc2 efba 930e ed37
00000230: 57b3 b1b9 e429 c4ba 7da3 5f37 6e8e 17ba
00000240: 7fd2 4439 7ba2 e1b7 5446 acb9 299a 0039
00000250: e8dc 54b7 f1de b5b9 79fe 483a 10f8 6b35
00000260: edc0 07ba 4422 773a 809d de34 5610 75ba
00000270: d380 25ba 2f65 23b7 9ca8 a139 130c 26ba
00000280: 7c25 9ab6 7eca b439 fcb1 a239 94ba aa36
00000290: 3ef9 a63a 96d6 4839 b010 2136 1638 8b3a
000002a0: b9ea 833a afd1 8ab8 82f7 0aba 881d 9e39
000002b0: 1ff6 02b8 7475 9838 05b1 903b 22a1 1f38
000002c0: d6d8 b0ba 3db2 973b 0a98 9637 8a74 9eba
000002d0: 81a4 81bb 7eee 88b8 f4c1 9f3b 7edb 68bb
000002e0: 452e 01b8 fa2f 843b 51b6 9039 006a c333
000002f0: a818 7938 180d 5839 805b 3833 e0dd a137
00000300: 0fba 4138 80fd 3437 a544 bf39 efdc 7d39
00000310: dcbe aa36 f8e3 7d38 6e04 06ba 42b5 82b8
00000320: e6aa 93ba b0d2 0cba 769e f6b7 48de 88ba
00000330: 9859 01bb 4589 0838 da92 d5ba 9feb 0bbb
00000340: cace 8037 400a f7ba 4f38 b43a 112c ed37
00000350: 9ceb dcba 0e43 a53a 49bf 5f37 6ea0 88ba
00000360: 9801 03ba 2f26 8ab6 730f 8d39 095e aeb9
00000370: 4654 02b6 b07d 2cb8 4bdf d2ba ac1b d4b7
00000380: 1613 f239 c171 a3ba 1c1a 48b7 668a c539
00000390: 805f d13a 686c 66b8 7382 d43a 4e8a e53a
000003a0: 7661 d9b7 326e fb3a 81c7 8b3a c937 18b8
000003b0: 36e2 a83a 9a76 aa3a 0f9a 8fb7 605e 9a3a
000003c0: 2ff0 2a3a 6b8e 0fb8 6fe8 0aba 3c66 163a
000003d0: 346e 87b7 b0fb 00ba fe17 593b 4ac7 3c38
000003e0: a1e7 15bb f551 4b3b cb17 b237 068f f6ba
000003f0: 8c95 b73a eda8 07b8 4b3e 763a e7bc bb3a
0.00039204065 -1.4415873e-05 -0.00016934093 0.000525722 -6.79994e-06 -0.0003768192 0.0006327166 4.1319922e-06
5.4410615e-05 0.00078583823 1.9490508e-06 0.00010379785 0.0022974312 -4.023917e-05 0.0001259231 0.0023421682
-1.8980747e-05 0.00037354464 -0.0012661323 4.0891584e-05 -0.0010539648 -0.0012449154 1.9288482e-05 -0.0011708159
-0.001811479 -5.3507887e-05 0.0023897893 -0.0016341765 -2.5239571e-05 0.0019668464 0.0016421768 -2.6288879e-05
0.0007820941 0.0019178323 -1.240041e-05 0.0006329634 -0.00055771274 -2.639044e-05 0.0010820926 -0.00033602444
-1.2448323e-05 0.001127592 0.0018339437 3.1120315e-05 -0.0008688309 0.0016266056 1.4679396e-05 -0.00037349772
-0.002370329 -4.7684134e-05 0.00107268 -0.0021673138 -2.2492515e-05 0.00041903515 -0.00015174702 -4.3867978e-05
0.0013279722 -0.00042144314 -2.0692449e-05 0.0015747786 0.0006378819 -2.7901431e-05 -0.00022697423 0.00058039476
-1.3161054e-05 -0.00014310465 -1.4195357e-05 -5.322786e-06 0.0004327434 -0.00011161976 -2.5107497e-06 0.00037310002
0.0038682232 -7.633263e-05 0.0015577689 0.0037194702 -3.600596e-05 0.0023697184 0.0052177287 4.6878587e-05
-0.0008958747 0.005065961 2.2112541e-05 -0.0003155756 -0.00030601252 2.2593185e-05 -0.00065371033 -0.0005733628
1.0657157e-05 -0.0005887107 0.0046877805 -0.00010160778 0.0038045084 0.004850063 -4.792821e-05 0.003768637
-0.00040275347 7.4980017e-06 -0.0012480603 -0.0004771627 3.5367896e-06 -0.0012036223 0.0044072587 8.763776e-05
-0.0022085474 0.0041182544 4.1338575e-05 -0.0018421642 -0.00065646856 -1.4895044e-05 0.002495041 -0.0006782212
-7.0259584e-06 0.0023345312 -0.0007804437 4.1636758e-07 0.00060067174 -0.00069251383 1.9638674e-07 0.00017843343
-0.0027772584 -5.164529e-05 0.0022668587 -0.0026460448 -2.4360981e-05 0.0019610997 0.003060019 -4.9488408e-05
0.0009151362 0.0029111519 -2.334359e-05 0.0015088127 -0.0024554303 -7.0136455e-05 0.006896066 -0.0023615435
-3.3083234e-05 0.0057641654 -0.0018292363 2.8259388e-05 -0.0003389369 -0.0014966098 1.3329901e-05 -0.00057814165
0.00018770433 -2.6897751e-05 -0.00032858795 0.0001226446 -1.2687618e-05 -0.00034689115 0.0007667314 8.79053e-07
-0.00051785895 0.0009427408 4.146532e-07 -0.00093484425 -0.0006313447 -9.739116e-06 0.00030833937 -0.00063341967
-4.5939214e-06 0.00034483144 0.00031031657 5.0881154e-06 0.0012739075 0.00019153426 2.4000583e-06 0.0010621573
0.001006446 -6.6194094e-05 -0.0005301164 0.0003015811 -3.1223633e-05 7.269802e-05 0.0044156336 3.805862e-05
-0.0013492357 0.004629402 1.7952192e-05 -0.0012089175 -0.003956378 -6.529408e-05 0.004875416 -0.0035531218
-3.079909e-05 0.0040340396 0.00027601657 9.0996764e-08 5.938919e-05 0.00020604243 4.2924057e-08 1.9296014e-05
4.6188066e-05 1.0787859e-05 0.00036481503 0.00024210264 5.0886138e-06 6.0532213e-05 -0.00051123544 -6.232645e-05
-0.0011266142 -0.0005371971 -2.9399274e-05 -0.0010442222 -0.001973724 3.255277e-05 -0.0016294376 -0.0021350158
1.5355083e-05 -0.0018847659 0.0013749691 2.8273122e-05 -0.0016854885 0.0012608485 1.3336373e-05 -0.0010423788
-0.0004997491 -4.1171656e-06 0.00026905126 -0.00033257928 -1.9420563e-06 -4.112505e-05 -0.0016088275 -2.5285255e-05
0.00046172057 -0.0012469814 -1.1927008e-05 0.00037677883 0.0015973896 -5.4937234e-05 0.0016213193 0.0017512531
-2.59138e-05 0.0019182621 0.0010664315 -3.6291578e-05 0.0012884799 0.0013005317 -1.7118668e-05 0.0011777394
0.00065207755 -3.4226494e-05 -0.00052989175 0.000573728 -1.6144571e-05 -0.0004920317 0.0033125873 4.5008295e-05
-0.0022873657 0.0031024192 2.1230333e-05 -0.0018810935 0.001400636 -3.2343833e-05 0.00093934376 0.0014323265

exp_avg_sq f4 [128, 6]
00000000: 3474 b537 f5c4 1632 c677 f635 5efc a337
00000010: 332f 0631 b465 ca35 1dc0 1738 9560 8732
00000020: a504 8d38 7285 1838 a1f8 7031 2542 8338
00000030: ae75 9138 86ca 6333 52fd 9d39 5b38 9938
00000040: bbbb 4a32 ea92 9439 ed62 9738 5fa9 d032
00000050: 255d d036 deda 9938 4eb5 b931 171b c936
00000060: 6181 5738 572d f032 836a 1e39 3b28 5c38
00000070: b9c1 d531 5e09 1539 a91b 7638 df44 d732
00000080: 8288 bb38 dade 7e38 a896 bf31 a65e af38
00000090: 2126 c738 e2f5 8533 0271 ac39 fa28 c838
000000a0: e772 6e32 a9e8 a039 0e0f 5138 3136 a932
000000b0: b1d3 a838 e550 4f38 0999 9631 f31e 9a38
000000c0: 69ab 8038 c187 2833 4d39 4c39 8bc6 8338
000000d0: e1fd 1532 5306 3c39 d845 4637 baed 3b32
000000e0: 51c4 8038 c584 4637 6441 2731 d191 6f38
000000f0: 4daf 3937 94d3 a431 518e c535 d165 3a37
00000100: e8b1 9230 bb2b db35 1c05 fb36 3c8d 7931
00000110: f783 5537 2117 0337 ba19 5e30 7151 4a37
00000120: fde2 2e39 ca3c c133 3f02 bd39 82e6 3339
00000130: 0ffb ab32 1b8c b239 e62c fb38 c409 4b33
00000140: 15a4 4e39 bcaf fa38 17b4 3432 d0d7 3c39
00000150: 9b9e 8838 69eb 2233 abb5 4339 03ac 9038
00000160: 76ff 1032 19b4 3a39 bb51 1039 5557 8233
00000170: 2772 8239 a83e 1739 8601 6832 52be 7a39
00000180: 528d 4438 0a4f be32 e121 0239 4ab4 4538
00000190: d05f a931 91d6 f738 775b 2239 c73a 4433
000001a0: 5483 0a39 b765 2239 c2a4 2e32 ce65 ff38
000001b0: 6193 1438 c413 fb32 9abf 4139 e17c 1538
000001c0: 2675 df31 d0d6 3739 b7bc 2c39 0bf0 b833
000001d0: 7844 c439 d543 2c39 e597 a432 7dd3 b339
000001e0: aa88 c938 ad24 1833 d9f3 0839 53b1 c438
000001f0: 3b68 0732 c6a1 0039 904b 2939 b350 7433
00000200: b80d 8738 6748 3239 9270 5932 f36e 8238
00000210: 8c1e 7739 50ea 1934 f634 4e3a f1bc 7a39
00000220: e1fb 0833 b2cc 3b3a 0a9b 2938 271d 8332
00000230: ffc7 1237 a29c 2b38 df61 6931 6c21 0b37
00000240: af1d 7b37 48fe d731 964f bc35 1347 5437
00000250: b53b c030 9981 9835 ab68 2138 d78f ac32
00000260: aa0e bf38 712c 2838 6694 9931 8daa b438
00000270: e6de 0537 3f60 2a31 8f90 4a36 de35 ef36
00000280: 5da2 1730 01e8 5336 1cbf db37 e6d3 3032
00000290: 82fe 2038 5dc3 df37 4860 1d31 7627 1038
000002a0: f84f 1538 d3dd 8432 d149 db36 78b4 0e38
000002b0: 6080 6c31 0ae1 bf36 c8f9 a839 2f8b 2634
000002c0: dbd9 2c3a 041e b139 3739 1433 8a07 223a
000002d0: a8d2 4d39 3bf9 c233 01e2 cf39 cfec 5539
000002e0: 7986 ad32 a11d c039 3c1e 8037 a50b a731
000002f0: 343d 7c35 289c 8137 89ab 9430 caa8 5c35
00000300: c16e 1938 d964 4c32 5296 1d36 1c61 1138
00000310: e9e8 3531 e57a f235 ab00 df36 6ab2 c231
00000320: cb3e aa35 38d8 ba36 9847 ad30 e9f9 a735
00000330: 6e70 0338 8d22 7432 0101 7338 6b89 0538
00000340: 6c47 5931 7135 6038 5df8 8c38 b83e 1733
00000350: 13aa 3739 ea6f 9238 8d9b 0632 0479 2639
00000360: a2c8 5e38 eded 1033 1d56 4339 d3e7 6338
00000370: 90fc 0032 399d 3739 ee05 9537 ff07 b331
00000380: fbcc 9d36 8af9 8b37 4f56 9f30 6986 a036
00000390: 4985 de38 e937 9633 f573 bc39 03d7 e638
000003a0: 9eb1 8532 c57a b239 eab5 4b38 84fb 9f32
000003b0: b1ef f736 f4b4 4b38 5162 8e31 a73d f336
000003c0: 38df de37 c846 3732 2b0f 1736 2333 d437
000003d0: 9c1d 2331 fb93 e935 8c4f 9238 5595 ad32
000003e0: 2ac6 ba37 f2d8 8e38 147d 9a31 9d3a a737
000003f0: 144e 3e37 8a7b 9231 6c0e 7836 9a88 4037
2.1630993e-05 8.775932e-09 1.8363287e-06 1.9548632e-05 1.9526396e-09 1.5079772e-06 3.6180125e-05 1.5759989e-08
6.724269e-05 3.6363905e-05 3.5065926e-09 6.258887e-05 6.936058e-05 5.303675e-08 0.00030134112 7.3061055e-05
1.18006325e-08 0.0002833822 7.2186675e-05 2.4291408e-08 6.2097265e-06 7.336376e-05 5.4048206e-09 5.9934205e-06
5.1380488e-05 2.7960295e-08 0.00015107733 5.2489555e-05 6.2211396e-09 0.00014213237 5.867673e-05 2.5060613e-08
8.9422814e-05 6.0765866e-05 5.5759592e-09 8.36228e-05 9.4961615e-05 6.238021e-08 0.00032890594 9.544376e-05
1.3879549e-08 0.00030690923 4.9843504e-05 1.9698833e-08 8.050295e-05 4.9427985e-05 4.3829727e-09 7.349057e-05
6.135443e-05 3.9239016e-08 0.00019476302 6.283548e-05 8.730667e-09 0.00017931433 1.1817981e-05 1.0938885e-08
6.1400824e-05 1.18326325e-05 2.4338869e-09 5.7117843e-05 1.1067675e-05 4.797082e-09 1.4719063e-06 1.111017e-05
1.0673462e-09 1.6329499e-06 7.4809777e-06 3.6314551e-09 1.2726515e-05 7.813594e-06 8.079969e-10 1.20591e-05
0.00016678493 8.99832e-08 0.00036050563 0.00017156641 2.0021188e-08 0.00034055192 0.00011976976 4.7273502e-08
0.00019706816 0.00011953662 1.0518327e-08 0.00018009474 6.514528e-05 3.793267e-08 0.00018664326 6.898495e-05
8.439988e-09 0.00017805434 0.00013763357 6.069482e-08 0.00024880582 0.00014423823 1.3504524e-08 0.00023912758
4.6861656e-05 2.2154854e-08 0.00012410387 4.7136367e-05 4.92944e-09 0.00011817844 0.00015483597 4.5688264e-08
0.00013209629 0.00015487416 1.0165595e-08 0.0001217831 3.5423207e-05 2.9229234e-08 0.00018477291 3.564067e-05
6.5034724e-09 0.00017532264 0.000164735 8.611831e-08 0.00037435046 0.00016428468 1.9161186e-08 0.00034299112
9.6098825e-05 3.5423614e-08 0.00013060811 9.3790375e-05 7.8817335e-09 0.00012267297 0.00016145245 5.6884073e-08
6.439857e-05 0.00017002375 1.2656658e-08 6.219549e-05 0.00023567135 1.4334478e-07 0.0007866168 0.00023912244
3.189405e-08 0.0007163986 4.043713e-05 1.5263664e-08 8.748843e-06 4.0915453e-05 3.3961596e-09 8.292827e-06
1.4967677e-05 6.286232e-09 1.4030254e-06 1.2652733e-05 1.3986808e-09 1.13626e-06 3.848287e-05 2.0088846e-08
9.110321e-05 4.009571e-05 4.469757e-09 8.6148364e-05 7.979315e-06 2.4792965e-09 3.018449e-06 7.129026e-06
5.516421e-10 3.1576494e-06 2.6195827e-05 1.02927284e-08 3.8384e-05 2.6674645e-05 2.2901236e-09 3.4369026e-05
3.5598845e-05 1.5467696e-08 6.535302e-06 3.4023513e-05 3.4415493e-09 5.7184416e-06 0.0003222956 1.551059e-07
0.00065937423 0.00033782434 3.4510972e-08 0.0006180933 0.00019628799 9.079164e-08 0.00039650503 0.00020401481
2.0201002e-08 0.0003664317 1.5272868e-05 4.8616635e-09 9.396638e-07 1.5450714e-05 1.081717e-09 8.2202007e-07
3.658119e-05 1.1897293e-08 2.348232e-06 3.4661134e-05 2.647136e-09 1.8066172e-06 6.6459957e-06 5.6664264e-09
1.2684262e-06 5.568403e-06 1.2607755e-09 1.2515203e-06 3.1337542e-05 1.4210525e-08 5.793665e-05 3.183765e-05
3.1618255e-09 5.3455533e-05 6.7219815e-05 3.521447e-08 0.00017515598 6.982668e-05 7.835195e-09 0.00015876075
5.311578e-05 3.3744005e-08 0.00018628729 5.433692e-05 7.508007e-09 0.0001751081 1.7764945e-05 5.2104947e-09
4.7028275e-06 1.6686292e-05 1.1593303e-09 4.784019e-06 0.00010610611 6.995089e-08 0.0003594455 0.00011007304
1.5564009e-08 0.00034042276 4.8568392e-05 1.8624412e-08 7.3890774e-06 4.8567497e-05 4.143921e-09 7.2491416e-06
2.6568407e-05 1.0668096e-08 2.2509582e-06 2.5296182e-05 2.3736453e-09 1.7402921e-06 6.976639e-05 2.0207759e-08
2.2265205e-05 6.811497e-05 4.4962096e-09 1.9935245e-05 1.13430615e-05 4.263204e-09 3.6963274e-06 1.1475897e-05

exp_avg f4 [128]
00000000: e89a 8eb7 8b7f a336 0907 47b8 1c41 4a38
00000010: fd53 84b8 1807 02b8 b787 02b8 b6ec 1938
00000020: e4d9 6bb8 def9 58b8 f000 0ab8 ed9d d2b6
00000030: 62c6 bcb8 e4dd 6738 2a7f df37 2448 fbb8
00000040: 0058 1437 b0bb d838 5d58 93b7 90cc 0335
00000050: 8271 7fb8 76c6 74b8 8e73 adb8 2dc6 0b38
00000060: 120a 05b8 5022 8b35 daae 40b7 b854 c936
00000070: a4b3 a3b8 083e 3c38 d679 a1b8 006f e633
00000080: 906e 5537 0a23 9ab8 7e02 2138 8fd7 0b38
00000090: 63e9 a2b6 a320 fab7 e8dc 87b8 9580 33b8
000000a0: c049 29b8 be9d 5e38 edf9 1fb8 608e f435
000000b0: d689 e0b6 6143 5837 c23d 06b8 4f1d 8e36
000000c0: 52ba 8038 43dd 9b37 1ebc a638 6b52 1cb8
000000d0: 645a 13b8 11ba beb8 a847 6fb8 165f dbb7
000000e0: 5df7 e938 9389 94b7 e234 98b6 5aba 21b8
000000f0: 62ba e737 0a87 b8b8 6faf b738 a037 7036
00000100: 6078 e9b7 ec24 1938 edf3 8038 b464 3538
00000110: 2042 9fb4 405c f936 2a6e 8638 aa18 c237
00000120: afc6 7437 8ac9 e037 0b86 b736 246c 3638
00000130: 6c4b beb7 b267 5b37 feff e537 e071 efb7
00000140: 3adc 8337 9cf3 8237 c9b4 0138 a08a 7535
00000150: 54a9 09b8 7230 2038 e4c1 a838 af96 56b8
00000160: 80a4 63b6 95fd 9e38 e2ac 25b7 8242 5237
00000170: 378d 8936 86f5 9d38 08f8 2136 3098 24b6
00000180: 6ad4 2937 acbf c738 10d5 59b6 6229 8db8
00000190: 2550 c937 7766 5bb8 e610 3838 7bd3 a737
000001a0: b787 f1b7 df48 0838 b3c6 9db7 2af1 b6b7
000001b0: dd09 aab7 5587 e836 9e59 97b7 a8cd 80b5
000001c0: ea09 35b8 b4cd 9138 8e46 de36 69df 6eb7
000001d0: cf4a 93b8 ed48 bc37 ba68 0d37 ca1b 20b8
000001e0: 62b8 b2b7 134a 07b8 46ec d2b7 08fd c3b8
000001f0: 0451 9f37 4eaf cfb7 f434 f837 f5de 9eb8
-1.6999853e-05 4.8726265e-06 -4.745185e-05 4.822119e-05 -6.3098945e-05 -3.1001022e-05 -3.112081e-05 3.6698497e-05
-5.6231293e-05 -5.173112e-05 -3.2902637e-05 -6.2768727e-06 -9.00149e-05 5.5281344e-05 2.6642887e-05 -0.0001198205
8.8419765e-06 0.00010334642 -1.7564913e-05 4.909898e-07 -6.090245e-05 -5.8358964e-05 -8.2708066e-05 3.3324748e-05
-3.171905e-05 1.0366293e-06 -1.1484803e-05 6.0001294e-06 -7.805906e-05 4.4880464e-05 -7.699772e-05 1.07304004e-07
1.2721532e-05 -7.349819e-05 3.8387712e-05 3.3340937e-05 -4.855146e-06 -2.981752e-05 -6.4784486e-05 -4.2796677e-05
-4.0361425e-05 5.3075833e-05 -3.8141316e-05 1.8220853e-06 -6.6917664e-06 1.2890291e-05 -3.2005606e-05 4.2353417e-06
6.1382205e-05 1.8580473e-05 7.9505364e-05 -3.7270056e-05 -3.5131714e-05 -9.0945636e-05 -5.7048775e-05 -2.6151112e-05
0.00011156381 -1.7707038e-05 -4.5361094e-06 -3.8558945e-05 2.7624137e-05 -8.798957e-05 8.758797e-05 3.5795165e-06
-2.7831818e-05 3.651243e-05 6.14895e-05 4.324755e-05 -2.966417e-07 7.4315176e-06 6.4101376e-05 2.3138087e-05
1.4589793e-05 2.679673e-05 5.4694297e-06 4.3492895e-05 -2.2684886e-05 1.3077561e-05 2.7418133e-05 -2.8544047e-05
1.5718968e-05 1.5610647e-05 3.0924366e-05 9.147134e-07 -3.2821044e-05 3.819209e-05 8.046979e-05 -5.116191e-05
-3.3921388e-06 7.5812604e-05 -9.875019e-06 1.25324605e-05 4.0993577e-06 7.532076e-05 2.4135243e-06 -2.452649e-06
1.01226415e-05 9.524761e-05 -3.2459538e-06 -6.731112e-05 2.3998387e-05 -5.2309097e-05 4.3884756e-05 2.000643e-05
-2.8792636e-05 3.2492793e-05 -1.8808385e-05 -2.1808391e-05 -2.0270172e-05 6.9298935e-06 -1.8042334e-05 -9.596597e-07
-4.3162996e-05 6.952454e-05 6.624329e-06 -1.4237922e-05 -7.0234404e-05 2.2445305e-05 8.4286385e-06 -3.8172853e-05
-2.1305113e-05 -3.2255495e-05 -2.5143974e-05 -9.345455e-05 1.8992003e-05 -2.4757956e-05 2.9588562e-05 -7.575556e-05

exp_avg_sq f4 [128]
00000000: bea9 5132 2e42 bc32 9d62 9e33 a715 1133
00000010: 69ff 2633 b9ad 1533 cb49 ba33 1c4f eb32
00000020: a85c 6a33 24ab 8232 fa35 e531 0784 ad31
00000030: 245c 0634 9b2c 8d33 1d8f 6233 3a41 b533
00000040: d952 0433 b870 8833 8e93 2e33 af96 0034
00000050: c092 5333 f9df a933 7f09 5634 6a54 b632
00000060: a82e 1632 cbf7 ef32 8eed 6c31 77e6 7532
00000070: 49c4 b832 4b99 6734 0e91 0734 ed4b e831
00000080: 001e 8e32 f05f 0732 cebf a932 fa52 5233
00000090: 8b8a 4933 c2f6 f831 8ae5 d033 be79 de32
000000a0: 45de 7e32 6163 f132 92b3 cb31 088a 0f34
000000b0: 30a9 8333 9169 d832 ca84 f632 8d8c e733
000000c0: b911 9d33 18ac 7432 4c84 fd33 8700 7231
000000d0: e148 a632 5e9a a433 4a3c b833 ee11 5433
000000e0: a8c3 6d33 687c ec31 81a1 e630 ff72 5233
000000f0: 45f1 d432 d072 2e34 4662 2a33 62c7 7231
00000100: de04 4431 b710 3033 d763 6133 82f1 1434
00000110: c956 3833 d8c9 8532 ccc5 4734 5806 d732
00000120: e90e f032 3646 7c33 710f ac33 8357 e332
00000130: ece6 9432 7fd8 7e33 96a5 fe32 af08 ad32
00000140: 6aac 4931 390d 6632 82b1 8c32 3c73 aa33
00000150: 9cf9 0933 925e cb33 535b fa32 2a4b d933
00000160: ca8e 8e32 7af2 c933 cdf5 8a31 0721 5c33
00000170: 22d5 ee31 93a7 9233 7489 2432 2ac9 0e32
00000180: 1f90 a632 7bb9 fd33 cefc 6433 631d 2533
00000190: dca6 3032 ab46 b532 8f07 3232 78ef 6832
000001a0: a3b0 c132 266c 5a32 8580 6031 9c73 a031
000001b0: 36c4 1534 e5e8 4532 edc5 ad31 973c 6632
000001c0: 65ac b733 8fd4 5033 33c9 8633 2e93 7132
000001d0: e268 d433 f289 3f34 a036 9e33 05d2 7632
000001e0: 566d 7e32 2663 ab33 226d b132 ec4b cf33
000001f0: 39d4 e133 4ca6 6a32 cf55 9433 017a cd32
1.2203996e-08 2.1916176e-08 7.375386e-08 3.3780136e-08 3.888218e-08 3.4849766e-08 8.674723e-08 2.7393575e-08
5.456664e-08 1.5211818e-08 6.6709136e-09 5.0499724e-09 1.2513243e-07 6.573938e-08 5.2749886e-08 8.440334e-08
3.0808994e-08 6.353497e-08 4.0646732e-08 1.1975747e-07 4.9260734e-08 7.910416e-08 1.9933758e-07 2.1225976e-08
8.7417575e-09 2.7935945e-08 3.4477554e-09 1.4313279e-08 2.150968e-08 2.1569319e-07 1.2625625e-07 6.7607204e-09
1.6544618e-08 7.879848e-09 1.9761412e-08 4.8969902e-08 4.6924963e-08 7.245803e-09 9.727508e-08 2.5899563e-08
1.4835284e-08 2.8101285e-08 5.9284924e-09 1.3368128e-07 6.130938e-08 2.5193716e-08 2.8698555e-08 1.0782342e-07
7.314106e-08 1.4241799e-08 1.1805295e-07 3.5215935e-09 1.9358085e-08 7.664924e-08 8.579134e-08 4.9376403e-08
5.535881e-08 6.8826473e-09 1.6780605e-09 4.8999024e-08 2.4789765e-08 1.6246781e-07 3.967059e-08 3.532897e-09
2.852452e-09 4.0993395e-08 5.24777e-08 1.3871434e-07 4.291977e-08 1.5575026e-08 1.8605277e-07 2.5032179e-08
2.7946458e-08 5.873718e-08 8.012183e-08 2.6466074e-08 1.7334479e-08 5.9335886e-08 2.9644792e-08 2.01438e-08
2.9347356e-09 1.33907685e-08 1.6378866e-08 7.937203e-08 3.2124817e-08 9.4701264e-08 2.914536e-08 1.0118522e-07
1.6595909e-08 9.403898e-08 4.044273e-09 5.125278e-08 6.950942e-09 6.8291364e-08 9.57731e-09 8.311227e-09
1.9390482e-08 1.1814969e-07 5.331531e-08 3.8443783e-08 1.0282488e-08 2.110331e-08 1.0362682e-08 1.3558626e-08
2.2548482e-08 1.271386e-08 3.2669345e-09 4.669756e-09 1.3948087e-07 1.1519863e-08 5.0574642e-09 1.34015385e-08
8.55296e-08 4.8622095e-08 6.276459e-08 1.4061511e-08 9.8910974e-08 1.7838445e-07 7.3673846e-08 1.43668375e-08
1.4809606e-08 7.980843e-08 2.065514e-08 9.652999e-08 1.0515982e-07 1.3658404e-08 6.9073955e-08 2.3920622e-08
