results/ppo/MoveToGoal/MoveToGoal-22925.pt (torch, 441305 bytes, 36 tensors)

network_body._body_endoder.seq_layers.0.weight f4 [128, 6]
00000000: a9e6 963e 07f5 40bf dd72 833e f336 953e
00000010: fa5a 0a3f 1743 a33d 101b da3e 65eb aa3d
00000020: 64ea 0e3e f1cb fb3e aadd 8cbd bcd3 1dbf
00000030: cbc9 da3e a368 32bd 5ed8 7c3e aef4 38bc
00000040: 0bea 933e 4118 3c3b 2df3 88be f98b 4cbf
00000050: 4a56 8bbe 718b a3be 7488 e6bd e9e5 01bd
00000060: 70d0 2ebf c54f 963e 810e 27bf ed76 823d
00000070: a328 933e 7669 0abf 958f 8fbe 01ca cebc
00000080: b615 adbe 84e8 9abe 2e32 373e 1fac f1be
00000090: 0289 26be a922 ac3e e52a e1be 2e4d 963e
000000a0: 040e 1cbe c38c af3e de66 883e ac01 943e
000000b0: c247 7b3f 95b1 a7be 666c edbe 8a08 c7be
000000c0: bb29 12bf 8106 6f3d dcb4 4ebf 9f4e 55be
000000d0: df63 3e3d a7c1 843e 5037 e23e b984 95be
000000e0: c337 ae3e 05bd c5be b5c1 153d 1efe 493e
000000f0: d868 47be 518e a93e c7b5 213e d5b9 9b3e
00000100: 23f4 d5be 5668 173f 77bd c6be 32a2 54be
00000110: cf77 9a3d 2d6c 293f 96d1 b63c 497f 7cbe
00000120: ed13 933c 5d05 8bbe 28cc 6abe 6130 aabe
00000130: 217d 8c3f 46e7 acbe d44c 10be c2e7 83be
00000140: 67bc fc3d 1175 05bf eee6 15be 4fc6 953e
00000150: d528 0d3f 294b 03bf d314 083e f933 0fbf
00000160: ccc5 22bc a814 18bf 04bc 88be 1570 9abd
00000170: 4ef0 d5be e86c 403e b89c c6be d43a fc3e
00000180: 4148 e7bd 08ff 52be ba4f b53d 6be9 14bf
00000190: 592a cfbd df33 35bd acf2 f6be db65 0b3d
000001a0: 6019 22bf 11bb ebbc ee4e b1bd 6305 963e
000001b0: 8e73 953f 154e 3f3e 39ed 093f 05fa abbe
000001c0: b998 07bf ad9d 94bf ee4c a93c d97d 38be
000001d0: b3dd c53e 38d8 e0bd eb02 293f a994 74be
000001e0: 128a 163f 7dbb 313c d92d 123f 78ce 0abf
000001f0: e6f5 a6bd a825 263e a0e3 0dbf 781e 93bd
00000200: c29a 0abe 0f27 57bf 32bb 50bf c8c2 19bf
00000210: 3380 433e 35d0 04be e14f e13c 74c6 123b
00000220: b8a5 393f f99c df3e 17fc 14bf e10b d4be
00000230: 2c60 623f 2725 b9be 6b4d 2cbf ed10 a3be
00000240: 3ac8 fc3e 0c61 66be 1e3c c3be eb61 cdbd
00000250: 2a30 2fbe 50f2 2bbe c4a4 0d3f ddc5 19bf
00000260: cc7e b33e 804e c3be 0603 b6bd a360 3b3d
00000270: 19eb d73e a58d e4bc 1ad6 4d3e 3ff6 c8be
00000280: 53ec aebe a601 94be a938 373d 0a8b 3f3f
00000290: 9d81 353d d721 123f e384 503f f4b2 c9be
000002a0: da40 e03c b0ec cdbc 8488 dabd f817 81bf
000002b0: 568c 533e f8c8 febd 8f5a a8be 85ce e23e
000002c0: 3d8e 3cbf 3c96 10bf e5b3 34bf 984c 973e
000002d0: fd60 613f 98ea 373d 678c 25bf 99d6 2ebe
000002e0: 722a 15be ef8e 113d c31d 61bf c517 a43d
000002f0: 6586 233e 275d 4b3e 5451 a3bd 420e 433e
00000300: abc4 38bf 82bf 7bbd bb7f a1be dc6c 14bf
00000310: b677 debd 07eb 41bf a594 b8be 5101 7dbd
00000320: c2b3 4d3e 26ad 373e 723d 98be 82dc d33e
00000330: 23fd 4d3e c5f3 3a3f 57e3 3c3f 5d86 2dbf
00000340: 34ea 03bd 6672 12bf 3121 013f 05eb 5d3d
00000350: 4ed3 79bd 3cd4 893c 3797 7e3c 3dec 03bf
00000360: f561 5dbe d05a cbbe 7a95 8ebf 6749 103e
00000370: 7520 19bf 9465 51be 8051 083e 1709 5cbd
00000380: 0e30 90bd 09d2 47bf 5278 32be 44f3 123d
00000390: 8c17 053e 6067 e43e 3c16 863e 9ad6 1cbf
000003a0: e7a6 953e 8f76 fdbe a449 b5bd e0ac a1bd
000003b0: a44b 573c 2eb6 153f bf81 723d b908 883e
000003c0: 24b3 dbbe 20d7 09bf edba a13e 3248 33be
000003d0: 9953 213e f13e cf3d 0324 f13e e5dc 85be
000003e0: e25b b8bb 3be2 cf3d 7f2f 8f3e edc9 a73e
000003f0: 29a2 babe efaf 63be 2095 1fbd 2a19 7abe
0.29472855 -0.7537388 0.2567357 0.29143485 0.5404507 0.07971781 0.42598772 0.08345679
0.139566 0.49179032 -0.068782166 -0.61651206 0.4273208 -0.04355682 0.24691913 -0.011288805
0.28889498 0.002870098 -0.26748028 -0.7990108 -0.2721427 -0.31942323 -0.11256495 -0.0317134
-0.682868 0.29357734 -0.65256506 0.063703395 0.2874194 -0.5406717 -0.28039232 -0.025242807
-0.33805627 -0.3025552 0.17890236 -0.4720163 -0.16263202 0.33620194 -0.43978038 0.29355758
-0.15239722 0.3428708 0.2664098 0.28907526 0.9815637 -0.32752672 -0.46371764 -0.38873702
-0.57094926 0.058355812 -0.8074472 -0.20830773 0.046481963 0.25928995 0.44182825 -0.29202822
0.34026918 -0.38620773 0.036561687 0.19725844 -0.19473588 0.3311639 0.15791999 0.30415216
-0.41787824 0.5914358 -0.38816425 -0.20764998 0.07542383 0.6618069 0.022316735 -0.2465793
0.017953837 -0.2715253 -0.22929442 -0.33240035 1.0975686 -0.33770198 -0.14091808 -0.25762755
0.123406224 -0.52131754 -0.14638874 0.2925286 0.5514043 -0.5128656 0.13289194 -0.5593868
-0.009934854 -0.5940652 -0.26705945 -0.07540909 -0.417849 0.18791544 -0.38791442 0.49263632
-0.11293078 -0.20605099 0.08853097 -0.5816867 -0.10115499 -0.04423892 -0.4823202 0.034032684
-0.6331997 -0.028775724 -0.08657633 0.29300985 1.167589 0.1868213 0.538776 -0.33589187
-0.5296741 -1.1610619 0.020666566 -0.18016757 0.38645706 -0.109787405 0.6602008 -0.23884834
0.5880443 0.010847923 0.5710121 -0.54221296 -0.0815237 0.16225302 -0.55425453 -0.07183546
-0.13535598 -0.84043974 -0.8153564 -0.6006284 0.19091873 -0.1297005 0.02750391 0.002239612
0.7251849 0.43674448 -0.5819716 -0.41415313 0.88427997 -0.36161157 -0.6730563 -0.3184885
0.4937151 -0.22497958 -0.38131803 -0.10028442 -0.17108217 -0.16791654 0.5532954 -0.6006754
0.35057676 -0.38145828 -0.088872954 0.045746457 0.42171553 -0.027899573 0.20101205 -0.3925037
-0.34164676 -0.28907508 0.04473177 0.7482153 0.044313062 0.57082886 0.8145277 -0.39394343
0.027374674 -0.025137275 -0.106705695 -1.008544 0.20659003 -0.124406755 -0.3288159 0.44298187
-0.7365454 -0.5647924 -0.70587 0.29550624 0.8803862 0.04490146 -0.6466736 -0.1707405
-0.14566973 0.035536703 -0.8793604 0.08012346 0.15969236 0.19859754 -0.079744965 0.19048408
-0.7217509 -0.061461933 -0.31542763 -0.57978606 -0.10862677 -0.7574925 -0.36050907 -0.061768834
0.20088103 0.17937145 -0.2973438 0.41379172 0.20116095 0.7302821 0.73784393 -0.6778315
-0.032205775 -0.5720581 0.5044127 0.05417921 -0.06099253 0.016824834 0.015538982 -0.51532346
-0.21619399 -0.39717722 -1.1139367 0.14090501 -0.5981515 -0.20448905 0.1331234 -0.053719606
-0.07040416 -0.78054863 -0.17428711 0.035876527 0.12997264 0.4461012 0.26188838 -0.61264956
0.292289 -0.49504516 -0.088519365 -0.078943014 0.013140593 0.5848111 0.059205767 0.26569155
-0.4291011 -0.5384388 0.31587926 -0.17508009 0.15754546 0.10119427 0.47097787 -0.26145092
-0.0056261877 0.10150572 0.27965924 0.32771245 -0.36451843 -0.22235082 -0.038960576 -0.24423662

network_body._body_endoder.seq_layers.0.bias f4 [128]
00000000: 29a7 3f3a 6ce6 4039 4dfe 87b9 83c6 dcba
00000010: c253 0039 a741 dab8 6271 b639 e325 9fba
00000020: 7263 08ba 5ccd 073b 3c8e 93bb c28f a339
00000030: f57f 0bba f160 21ba 941d 1939 8659 55bb
00000040: d5b5 b8b7 fcf9 dc39 360b 94bb 3ef4 1bb9
00000050: e619 85bb 192a f9b9 2663 4f39 a4c1 95ba
00000060: bb12 95b9 6082 04bb 54ce d9b9 d10d ef38
00000070: 8c23 a439 f913 53ba 8440 69ba f149 7539
00000080: e4f7 95b9 50f5 dab8 17f3 9239 63e2 e839
00000090: efae 9ab9 4c51 d0b6 7270 77b9 edbb 053a
000000a0: 1272 adba 9a58 40ba 2d3a eeb9 64a4 cd38
000000b0: 6473 1e38 c0aa 6db6 eb8b 7ab7 3c79 b739
000000c0: 258a a53a 28ca 2bba c686 833a 54ca 5e38
000000d0: 9497 35b9 186b 2db9 a170 2fbb 2506 56b8
000000e0: 385c 60b7 3104 a438 1c94 7639 ddea 10bb
000000f0: 5409 2f38 6ad3 aeb9 c665 6cba aa7f dc39
00000100: 4d57 cbb8 d240 fa38 4d86 91b8 59ee 16b9
00000110: 450f 8fb7 4f33 72b9 4b5e ccb9 cd2d ccb9
00000120: 5a54 00ba 7032 6bb9 5268 6ab9 9bcf 8aba
00000130: 32a3 8eb8 075c f9b8 339d c2ba 97f1 06b9
00000140: 87b3 bfb7 68ac 99ba 00df 06b9 74d8 3ab8
00000150: 3db1 5139 0833 2bb5 ebac 13b9 f0ab dcb9
00000160: a4d4 7538 62d6 773a 39bb ae3a ab32 2abb
00000170: ee5b be3a 3656 3fb8 bec3 2d39 956c f739
00000180: 1ab4 c1b6 d8e2 a138 3c86 2aba 971a 3439
00000190: fa47 c838 0d71 9e39 6811 9636 c028 f737
000001a0: c279 a93a 2585 2fba 3dc2 1cba be8f 3439
000001b0: 66ca 8c3a 4054 82b9 40a3 26b9 c5a0 80b8
000001c0: ab6c 99ba b0df 25b9 a1a1 fab9 c5a1 b5b9
000001d0: 35b7 64b9 2963 07b9 9e56 fbb9 90ed 6eb9
000001e0: e72a 2eb9 6b49 9839 cf18 60ba 703e 0a3b
000001f0: d8f7 9db9 ef5b 713b ad0d adb8 5b42 bcb9
0.00073109806 0.00018396386 -0.00025938675 -0.0016843829 0.00012238233 -0.00010407279 0.00034798222 -0.0012142028
-0.0005202807 0.002072177 -0.0045030396 0.0003119689 -0.0005321496 -0.0006156108 0.00014602236 -0.003255458
-2.2019181e-05 0.00042147923 -0.004517938 -0.00014872939 -0.004061925 -0.00047524346 0.00019777994 -0.0011425507
-0.0002843345 -0.002021931 -0.00041543192 0.000113989816 0.00031307002 -0.00080519874 -0.0008897858 0.00023392566
-0.00028604188 -0.00010440743 0.00028028406 0.0004441916 -0.00029503505 -6.2083473e-06 -0.00023597645 0.00051015505
-0.0013232848 -0.00073374214 -0.00045438242 9.805782e-05 3.77776e-05 -3.5415142e-06 -1.4933738e-05 0.00034994807
0.0012629671 -0.0006553256 0.0010034672 5.3117357e-05 -0.00017317972 -0.00016538461 -0.0026770013 -5.10273e-05
-1.3372912e-05 7.82091e-05 0.00023515563 -0.0022112646 4.173194e-05 -0.00033345382 -0.0009017851 0.00042056787
-9.696055e-05 0.00011933003 -6.939154e-05 -0.00014393906 -1.7054039e-05 -0.00023098032 -0.00038980166 -0.00038944036
-0.0004895382 -0.00022430136 -0.00022354841 -0.0010590436 -6.801485e-05 -0.00011890387 -0.0014847874 -0.00012869235
-2.2852573e-05 -0.0011724355 -0.0001286231 -4.4547443e-05 0.0001999782 -6.3776724e-07 -0.0001408343 -0.00042089773
5.861059e-05 0.0009454248 0.0013330943 -0.0025970142 0.0014523247 -4.561824e-05 0.00016571485 0.0004719241
-5.772815e-06 7.719331e-05 -0.0006504988 0.00017176043 9.55015e-05 0.00030220338 4.4723747e-06 2.946367e-05
0.0012929963 -0.00066955603 -0.00059798715 0.00017219686 0.0010741472 -0.00024858303 -0.00015891809 -6.133461e-05
-0.0011705359 -0.00015818956 -0.0004780414 -0.00034643538 -0.00021812024 -0.00012911543 -0.00047938986 -0.00022785948
-0.00016609915 0.000290464 -0.00085486186 0.0021094345 -0.00030130032 0.0036828478 -8.25183e-05 -0.00035907593

network_body._body_endoder.seq_layers.2.weight f4 [128, 128]
00000000: ac50 103d 84cd 2b3d c6fa d13d 6461 983c
00000010: 0968 8dbd eae4 11be 72eb c9bd e897 6abb
00000020: f9ad 813b dbec e13d 41a7 2fbe 11f8 bc3d
00000030: b33a ad3c 1008 1abd 6711 763c 319c 06bd
00000040: 35c6 80bd 7e02 fb3d fd80 d6bc 0b9d 66bd
00000050: 92b7 7a3d e562 2dbc 6a35 31bc a03e 693d
00000060: 045a 98bd 0059 d6bc 920b 81bc 0961 98bd
00000070: 2d1f 12bd 5453 22bd 61c0 a13c c188 b93d
00000080: 2f47 83bd ba6d 96bd d75a 0f3e 6b5c a23c
00000090: 3c56 77bd bc17 b0bc cf08 4fbd 2868 3ebd
000000a0: 7fa7 0abd 8d53 543d 1c55 11bd 7e87 e53c
000000b0: 9afb a83d 20b6 753d 7d5f 493d c317 c7bd
000000c0: a612 053d 029f 4c3c 7799 4a3c 76a8 37be
000000d0: 2292 f83c e9d4 13bd cf6f 45bd 9fab a73c
000000e0: 029b a9bd e498 80bd a17d 883d 4e7f 523d
000000f0: 4e00 7a3c 024a 8b3d 6019 3f3d 092c 2e3e
00000100: e0ea 89bd 89aa e33c 3215 8e3d 0c5d b93d
00000110: 54ba 2cbd 9f1b 29be b25a 03be cc53 a1bd
00000120: 12e9 debd fe6a 603e 416e aebc 5ad0 9dbd
00000130: 1877 d9bc 0f70 98bd 5789 a9bd 0657 76bc
00000140: 536d 8b3b 25c0 41bc d09b 173d 2c93 6dbd
00000150: 7ee9 0dbd 5448 cc3d ed03 143e 6253 493c
00000160: 7bf4 5bbd dfe6 b83d dc37 43bd 8967 6fbc
00000170: d60b 063e 9862 4bbb edac d0bd ec10 2a3e
00000180: 6194 02bd 0976 5abd cacd 72bd 84b9 83bd
00000190: c7eb 2cbc 7ee2 1c3e 8c5d cd3d c994 2b3e
000001a0: 8935 0f3d bb75 8ebc eaa2 9bbd 7b72 213b
000001b0: 8b69 52bd f431 d83c b1ad 983d 767d c03d
000001c0: 238f 903b 1ac0 ebbd 4ff3 aabd 5661 80bd
000001d0: a71b 82bd 6cf3 963d f03c aebd fc94 fb3c
000001e0: 09e3 a4bc b773 d5bd 6429 a83d 926a 99ba
000001f0: c251 e23d e176 b63d 8bf8 d33d 27b2 1ebe
00000200: c390 81bc 9f08 393d 3d2f 193c 9da8 073d
00000210: bc08 a7bd 03d8 543b 1473 a0bc 4d5a b4bd
00000220: b725 8bbd 2bc0 4b3b ca28 833d bbf8 173c
00000230: 7dc5 043e 7cf5 42be 2b94 a63d 9764 54bd
00000240: e655 703d d716 50bd 8a5c 373e 66ec 823c
00000250: 7178 0fbe 738c 603b 995d 49bd c7ca 393e
00000260: 2e6d 9bbd b866 1b3d 6d55 97bd fde3 c1bd
00000270: e1a3 a23d 5ae5 95bd 75e2 3ebc 8beb 50bd
00000280: 861b 8a3d 646c 803d 109d b0bd 4a43 f0bb
00000290: c85e 363d cc5e cfbd 30c0 39bd 9b47 9c3d
000002a0: c769 00bd 75db 1d3d 95fd 91bc 6489 cabd
000002b0: 4d40 5c3b 4cdb 92bc 020f 2a3e 6527 413d
000002c0: 5a4b 66bd 605b a13c 659e 16be 0d42 3c3d
000002d0: 8359 efbb e269 fcbd 8496 673d 683a ab3c
000002e0: 857b 4a3c d23f 30be bca4 fa3c 0080 dd3d
000002f0: 2cbd 90bd c108 183d a9e4 0b3d 76e2 403c
00000300: f208 c1bb 6615 5b3c 8de7 493d 4921 953d
00000310: 8823 233c 3dea 233e c46f d33d 0f65 4bbd
00000320: be57 f8bc 84be 573d 00ae 55bd f6e3 15bc
00000330: 6020 54be c9a6 5abd a4dc 19be 76ed b73d
00000340: 9d21 153d 3ca8 a43d e52c c1bd fb25 b8bc
00000350: 9291 f63d 5463 49be f4f7 243d 5b8a 7fbe
00000360: 5f9a 8c3d 5acb 583c ecd8 1abe e268 a0bd
00000370: 3c32 87b8 db68 7e3a 8734 94bd 7da7 81bd
00000380: 9f7e 16bc afe4 11be 94c4 0f3d 860c 673d
00000390: dd8f a43c dbb1 dc3c d8c1 c9bb 7c1d 91bd
000003a0: c38a e5bc 30b3 963d 78ce 273d a042 383d
000003b0: 141c 8a3d a7ab debb 694d 43bd 518b 6ebd
000003c0: 6fe4 d73c bacf 4f3c 18d9 d0bc 5d2a 1a3d
000003d0: b28d e9bd 107c ee3c 3aa1 51bd e77e 0e3c
000003e0: e2f4 7e3d 4498 e33d 2d19 90bd f4bc 353d
000003f0: 2ec6 ddbd 173b 283d b5c4 993c 389b dbbc
0.035233185 0.04194404 0.10252909 0.018601127 -0.06904609 -0.1424748 -0.09859361 -0.003579611
0.0039575067 0.11031505 -0.17153646 0.092270024 0.021146154 -0.037605345 0.0150187975 -0.0328638
-0.06287805 0.12256335 -0.026184553 -0.05630211 0.061210223 -0.01058266 -0.010815958 0.05694449
-0.07439044 -0.026165485 -0.015752587 -0.07440383 -0.035674263 -0.03963025 0.019745054 0.09059287
-0.064100616 -0.073451474 0.13999496 0.019819459 -0.060384974 -0.021495692 -0.05054551 -0.04648605
-0.033851143 0.051837493 -0.035481557 0.02801871 0.08251114 0.05998814 0.04916333 -0.09721329
0.032488488 0.012489082 0.01236569 -0.17935356 0.030343119 -0.03609172 -0.048202332 0.020467578
-0.082815185 -0.062791616 0.06664587 0.05139094 0.015258862 0.06801225 0.04665506 0.17008986
-0.06734252 0.027791278 0.069376364 0.090509504 -0.042169884 -0.16514443 -0.12827566 -0.07877311
-0.108842984 0.21915814 -0.021292808 -0.077057555 -0.026546046 -0.074432485 -0.082781486 -0.015035396
0.004254976 -0.011825596 0.03701383 -0.058001682 -0.034646504 0.09974733 0.14454623 0.012287946
-0.05369995 0.0902841 -0.047660694 -0.014612087 0.13090453 -0.0031034108 -0.10189233 0.16608018
-0.031879786 -0.053335223 -0.059278287 -0.06431869 -0.010554261 0.15320775 0.10027608 0.16755976
0.034963164 -0.017390123 -0.07599433 0.0024634886 -0.051370185 0.026391007 0.07455004 0.0939893
0.0044115945 -0.1151125 -0.08347189 -0.06268565 -0.063529305 0.07370648 -0.08507717 0.03071069
-0.02012779 -0.104224615 0.0821102 -0.0011704734 0.1105075 0.08909393 0.1035014 -0.15497647
-0.015816098 0.045174237 0.009349641 0.033119787 -0.08155963 0.0032477386 -0.019586124 -0.08806286
-0.06794303 0.0031089883 0.06404264 0.009275611 0.12965961 -0.19038957 0.081337295 -0.051853742
0.05867567 -0.05080303 0.17906395 0.015981864 -0.14010789 0.0034263402 -0.049161527 0.1814376
-0.07589184 0.037939757 -0.073893405 -0.094673134 0.07941414 -0.07319136 -0.011650671 -0.05100588
0.06743531 0.06270674 -0.08623707 -0.00733224 0.044523984 -0.10125503 -0.0453493 0.07630845
-0.031350877 0.03853937 -0.017821113 -0.098894864 0.0033607662 -0.017926835 0.16607288 0.04715671
-0.056224205 0.019696891 -0.1470886 0.04596143 -0.007304372 -0.12324883 0.056540027 0.020901874
0.012358551 -0.17211846 0.03059613 0.1081543 -0.07067332 0.037117723 0.034153614 0.0117727425
-0.005890959 0.013371801 0.04929309 0.07281739 0.009957202 0.16007324 0.10324052 -0.049656924
-0.030315276 0.052671924 -0.052167892 -0.009148588 -0.20715475 -0.053381715 -0.15025574 0.08980839
0.03640901 0.08039901 -0.09432391 -0.022479048 0.12039484 -0.19666797 0.04027553 -0.24955122
0.068653814 0.013232077 -0.15121812 -0.07832505 -6.4466585e-05 0.0009704956 -0.07236581 -0.06330774
-0.009185462 -0.14247392 0.03509958 0.056408428 0.02008813 0.026940277 -0.006157141 -0.07085702
-0.028020268 0.07358396 0.04096839 0.044985414 0.06743637 -0.006795365 -0.047681246 -0.05823833
0.026354043 0.012683803 -0.025494143 0.037638057 -0.11403979 0.029111892 -0.05117915 0.008697248
0.062245257 0.11113027 -0.07036052 0.044369653 -0.108288154 0.041071977 0.018770555 -0.026807413

network_body._body_endoder.seq_layers.2.bias f4 [128]
00000000: 6c72 963a 7ed7 55b9 dd85 f9b9 561d 25b7
00000010: b11a f6b8 0163 0039 fd90 62b8 3188 62b8
00000020: 9c81 19ba 355d a7ba 738a 8937 d996 9cba
00000030: 5ba9 023c 36ad c8b9 8fb7 9abb 69e0 eb3a
00000040: af48 ba3a 1f9b 49ba 9126 0abb b4a5 ceb8
00000050: 1800 a739 2188 51b9 da74 5db8 ab6d 16ba
00000060: 1f77 cbb8 112e bfba 655b 5c39 cd5f cbb9
00000070: bd52 06b9 2cc4 b0b9 16eb 3e3a 383a 6839
00000080: abec 01b9 7608 ba39 0699 2939 f60f 29bb
00000090: a839 b5b6 b788 12b9 417b 4bb9 7a86 d138
000000a0: 55fa 16ba 5630 27b8 7655 33b9 e83e 51ba
000000b0: 34cf a9b8 32df 8bba 596a 6cba 069b 87b9
000000c0: 3900 47ba 3f7c a0ba 3cec b738 00d9 8536
000000d0: b906 0cbb 54f4 dbb9 d193 193b e18d e5b8
000000e0: b24d c1b9 40c4 10b9 e606 a5b8 60f1 11ba
000000f0: 4ab4 92b9 9c0e 32b9 830f 86b8 fdee a438
00000100: fdbb 34ba adc1 9fba c40e 8bb9 ee27 9ebb
00000110: 648e 24ba 215b 28ba 8426 57b9 6b0f 53b9
00000120: 7eb0 ba3a eea0 dbb9 01da a837 5ad2 2a39
00000130: b79d b339 fac6 8436 3d14 8538 03e3 d139
00000140: 8b7c 5339 3038 15b9 4b95 31b7 c378 b6b9
00000150: 5162 7fb8 1aed 16ba 4835 3439 c7bc e5b9
00000160: 7c14 6937 bc70 09b8 62a2 70b9 f855 d1b8
00000170: b39f 10ba 0013 07ba 34cd db36 eebf db39
00000180: 0a9e e438 0781 79ba 20d5 49b9 a7b9 10bb
00000190: 0133 0939 96d8 703b 6db4 0fba 0e87 8839
000001a0: 609f ebb9 b8e9 bd38 7c97 d138 94e8 feb8
000001b0: 05a3 21ba 944c 87b9 2ec2 53b9 3c97 dd37
000001c0: ce03 a03a a356 77ba 22d7 48b9 f290 7b38
000001d0: f6df 8339 925e c4b8 1fc7 ffb9 9bbf 9fba
000001e0: 96dc 92b9 e85a 98bb 2a67 19b9 bcc9 8bb9
000001f0: 8189 4fba 10ad f136 6ddc 4db9 d22e 42ba
0.0011478192 -0.0002039354 -0.00047592717 -9.841597e-06 -0.00011735166 0.00012243913 -5.401763e-05 -5.4009437e-05
-0.00058558 -0.0012768867 1.6396143e-05 -0.0011946812 0.007974948 -0.00038276025 -0.004721589 0.0017995957
0.0014212335 -0.00076906563 -0.0021080116 -9.85371e-05 0.00031852792 -0.00019982505 -5.2799332e-05 -0.00057383877
-9.701982e-05 -0.0014585872 0.00021014882 -0.00038790554 -0.00012810058 -0.00033715495 0.00072829553 0.00022146932
-0.00012390564 0.00035482988 0.00016174102 -0.0025796867 -5.4009324e-06 -0.00013974575 -0.00019405504 9.990945e-05
-0.0005759348 -3.986092e-05 -0.00017102607 -0.0007982091 -8.0971426e-05 -0.0010671376 -0.00090185326 -0.00025864708
-0.0007591281 -0.001224406 8.770122e-05 3.988971e-06 -0.0021366312 -0.00041952974 0.0023434053 -0.00010945998
-0.00036869716 -0.00013806019 -7.869098e-05 -0.0005567279 -0.00027981616 -0.00016980845 -6.392507e-05 7.8646444e-05
-0.00068944675 -0.0012188457 -0.00026523147 -0.0048265373 -0.00062773214 -0.00064222707 -0.00020518346 -0.00020128272
0.0014243273 -0.00041890837 2.0128677e-05 0.00016290825 0.00034259047 3.9570705e-06 6.345704e-05 0.00040032723
0.00020168924 -0.00014230679 -1.0584782e-05 -0.0003480372 -6.0888302e-05 -0.0005757377 0.00017185987 -0.00043818934
1.3892652e-05 -3.2768337e-05 -0.00022948676 -9.9819095e-05 -0.0005516961 -0.00051526725 6.5505974e-06 0.00041913934
0.00010901324 -0.0009517823 -0.00019248249 -0.0022083314 0.00013084339 0.003675019 -0.00054819026 0.00026040565
-0.00044941436 9.055756e-05 9.994113e-05 -0.00012154985 -0.00061659544 -0.00025806262 -0.00020194866 2.6415677e-05
0.0012208165 -0.0009435212 -0.0001915363 5.9978054e-05 0.0002515313 -9.3636234e-05 -0.00048785747 -0.001218784
-0.0002801164 -0.0046495087 -0.00014629649 -0.0002666245 -0.0007916913 7.202507e-06 -0.00019632438 -0.00074074895

action_model._continuous_distribution.log_sigma f4 [1, 2]
00000000: 86e5 2dbb ea49 89bb
-0.0026534512 -0.0041897194

action_model._continuous_distribution.mu.weight f4 [2, 128]
00000000: 4293 173d ed11 93ba 1bec b3bb fbd3 ae3c
00000010: 8a02 603c 1075 b0bc 7a4b 613c 96b0 f03b
00000020: 1c0b 63bc ae8e 47bc 2952 823c 2948 b4bc
00000030: 4910 82bc ef1a 15bb 6b34 8ebc 9a8a ca3c
00000040: e59d 093c 10cd 1e3b f2f8 1fbc 6eac 01bc
00000050: 4c5e 133d a479 1e3d 1804 223b 46a1 643c
00000060: 01bb 493b e105 a4bc bdc1 533c 61d1 cdbc
00000070: 0304 8c3c 0fcf 0ebd 02b5 e1bb 42da 88bc
00000080: aed6 a33c 5d72 1c3c 4f26 03bd 97a0 c5bc
00000090: 3ce3 683c c0d1 e4bb 8a01 4bbc eb59 b43c
000000a0: 31b4 f4bb b8c9 733c 9475 11bc 7e57 88bc
000000b0: 7fee 433c 3c49 5c3c 32a3 a63b f61c b83b
000000c0: 21ec 2d39 bc3e d33a 1ac8 1cbc f4eb c13b
000000d0: 321b 86bb e4ca a13c 2844 7f3c d431 a53c
000000e0: 2361 2c3d a417 28bc 84d0 8bbc ec41 ffbb
000000f0: 3c76 fc3c 27e4 00bd 047a 233c 8bf4 633c
00000100: 21ed 1ebc cc97 42bc b6b6 02bd fe82 9c3c
00000110: 124e dbbc 5c85 31bd 27f5 04bd 15fb 55bc
00000120: 06e0 25bc e721 ccbc 4000 a93c 8d05 0f3d
00000130: 6579 0e3d 98c2 443c fa36 593c d99b a43c
00000140: ff3b 0e3d b93c 18ba e20a 5b3c 9b1b 1ebd
00000150: b479 2f3c 29cb 04bb 4e04 9c3c 4ff8 0eba
00000160: 7732 3f3c f31c c0bc 3827 4dbc 3c63 50bc
00000170: 38cc 5abc 552a a8bc e036 5e3c 6c94 c53c
00000180: 30bd d53c cb5c 14bc 26f0 40bb f1a5 3c3c
00000190: f80d 49bc df9a 88bb 1f61 e73c 147a 463c
000001a0: 6c6d 193c 5d6e ec3c 6559 e53c 524a c43a
000001b0: 06e2 45bc bc3c a3bb 0cbf 8e39 7480 7bbc
000001c0: e678 cbbb 8f3b 86bc c061 d4bc 87f9 adbb
000001d0: f278 193c 3196 923c 4b5a 51bc ba36 f9bb
000001e0: 2a9b 3cbc f851 01bd d4c2 de3c 740f 5ebc
000001f0: 1402 473c a4f8 6f3b fd6f d8ba 6afc d7bc
00000200: 0d26 0f3d 9f06 bc3c 0703 b7bb 4b74 9e3c
00000210: 2cf6 d63c 6519 eabb a51b 623c 62b6 503c
00000220: e65e d5ba ebf5 c8bc a815 a13c 36bd 783c
00000230: 7f7a 30bc b954 a63b 9de5 733c c119 84bc
00000240: 2e96 273c 9804 c1bb bcd2 bd3b 0404 c03c
00000250: 685d 54bc fb09 25bc 453f b8bc 1e93 a2bc
00000260: 5797 3c3c d014 203c 763f 593b 6c94 c2bc
00000270: 23e3 1c3d 1cd7 01bd a8d1 e3bc f395 73bc
00000280: 2d63 5abb ccc3 c7ba ba04 153d eec8 3f3c
00000290: 87d0 70bc 26d4 ca3b 3821 e6bc 6d1f 21bc
000002a0: 6408 0939 7b90 553c ccf1 acbc 4645 03bc
000002b0: 5cfd 903a ee9e 2bbc 4a88 b9bc 9755 69ba
000002c0: 3ddd c03c f229 913a 1e1f 9c3c efa9 1d3d
000002d0: fc51 aebc cfe0 3c3c 1ff0 863b 7f25 793c
000002e0: bbea 373c 93c2 b6bc 6209 f83b e6ec 1abc
000002f0: 2d69 be3b 2ceb 0ebd ee36 5d3c 9868 993c
00000300: c25c febb 0a70 b63c e4c4 7ebc da23 7c3c
00000310: 0c99 f73c decb 37bd cc19 0d3c 3ee3 3bbc
00000320: e8e0 6abc d6a2 01bb 5372 1dbc d270 1f3a
00000330: 63f7 7a3b 76f8 af3b 7e4c cbb7 3be4 943b
00000340: 4e46 48bb 8a3a ed3c bded db3b a198 67bc
00000350: 633f 99bc 53a3 8cbb deac 0cbc 41f1 c63b
00000360: f9b3 cabc 8d19 c0bc 4e32 a2bc fe38 31bc
00000370: a407 19bb 428e 97bb 0d2a db3c 6179 403b
00000380: 6acc 43bc 8d65 0a3b b155 15bc 32b5 46bb
00000390: 957d e9bb 06b3 da3c 4cfd 263c 7d19 be3c
000003a0: 82c2 a33b e3a6 d2bc 3d0b 743b 4a1a 1c3c
000003b0: 3183 303c 9a11 76bc 841e 86bc 0b4e 403c
000003c0: 7a5d f839 5c8b afbc bd7c ecbc d539 e93c
000003d0: 8523 633b db75 9e3c 900a d7bb 4f57 313b
000003e0: ed5a 1cbc d3c3 273b 431c bbbc 0da4 353c
000003f0: 5ac5 71ba 4a01 423c 738b 353c fb09 ceb8
0.03700567 -0.0011220552 -0.0054907924 0.021341315 0.01367248 -0.021540195 0.013750905 0.0073452694
-0.013857629 -0.012180014 0.015908318 -0.022007065 -0.015876906 -0.002275165 -0.01735898 0.024724294
0.008399461 0.0024231113 -0.009763943 -0.007914646 0.0359786 0.038690224 0.0024721678 0.013954466
0.003078163 -0.020022335 0.012924609 -0.025124254 0.017091757 -0.034865435 -0.006888033 -0.016705636
0.019999828 0.009548751 -0.032018956 -0.024124427 0.014214333 -0.006983012 -0.012390504 0.022015532
-0.0074677696 0.0148796365 -0.0088781305 -0.016643282 0.011958717 0.013445195 0.0050853724 0.005618687
0.0001658653 0.0016116719 -0.009569192 0.0059180204 -0.0040925974 0.019750066 0.015580215 0.020165361
0.042084824 -0.010259543 -0.017067201 -0.007789841 0.030818097 -0.031467583 0.009977821 0.013913284
-0.009700091 -0.0118770115 -0.031912528 0.01910543 -0.026770625 -0.043340072 -0.032460358 -0.013060351
-0.010124212 -0.02491851 0.020630002 0.034917403 0.03478374 0.012009285 0.013257736 0.020093845
0.034725185 -0.0005807388 0.013369294 -0.038600545 0.010710169 -0.0020262694 0.019045021 -0.0005453871
0.011669747 -0.023451304 -0.0125215575 -0.012718972 -0.013354354 -0.020527998 0.013562888 0.024118625
0.026091188 -0.009055327 -0.0029440015 0.011514173 -0.012271397 -0.0041688527 0.028244553 0.012114067
0.009364467 0.028861219 0.027996728 0.0014975762 -0.012077814 -0.0049816053 0.00027226692 -0.01535045
-0.0062094806 -0.016385822 -0.025925517 -0.005309287 0.0093672145 0.017893882 -0.012777875 -0.007605401
-0.011511603 -0.031572312 0.02719251 -0.013553489 0.012146492 0.0036616707 -0.0016512867 -0.026365478
0.034948397 0.022952376 -0.0055850777 0.019342562 0.02624043 -0.0071441405 0.013800536 0.012738796
-0.0016278892 -0.024531325 0.019663647 0.01518183 -0.010771393 0.0050760177 0.014886287 -0.016125562
0.010228677 -0.00589044 0.0057929438 0.023439415 -0.012961723 -0.01007318 -0.022491107 -0.019845542
0.011510692 0.009770587 0.0033149398 -0.023752414 0.038302552 -0.031699285 -0.027809933 -0.014867294
-0.0033323274 -0.0015240847 0.03638146 0.01170562 -0.014698154 0.006189841 -0.028092012 -0.009834153
0.00013068464 0.013034935 -0.021111391 -0.008012122 0.0011061835 -0.0104749035 -0.022647996 -0.00089009985
0.023542995 0.0011075123 0.019057807 0.03849214 -0.021279328 0.011528208 0.00411798 0.015206694
0.011225398 -0.022309577 0.007569478 -0.009455895 0.005810878 -0.034892246 0.013501866 0.018726632
-0.0077625224 0.022270221 -0.015549872 0.015389407 0.030224346 -0.044872157 0.0086121075 -0.011467753
-0.014335848 -0.0019780896 -0.009609777 0.000608218 0.0038294427 0.005370195 -2.4235105e-05 0.0045438088
-0.0030559483 0.028958578 0.00671169 -0.014135511 -0.018706983 -0.0042919307 -0.008586137 0.00607124
-0.02474402 -0.023449684 -0.019799378 -0.010816811 -0.0023350501 -0.0046251127 0.02675345 0.0029369222
-0.011950592 0.0021117658 -0.009114669 -0.0030320403 -0.0071255662 0.026696693 0.010192227 0.023205513
0.0049975524 -0.025714343 0.0037238144 0.009527752 0.010773466 -0.015018845 -0.016371973 0.011737357
0.00047371892 -0.021428756 -0.028868074 0.02846996 0.0034658622 0.019343307 -0.0065625384 0.0027060097
-0.009543163 0.0025598898 -0.022840625 0.011086476 -0.0009222828 0.011841128 0.011080611 -9.8247045e-05

action_model._continuous_distribution.mu.bias f4 [2]
00000000: c8f5 9739 660c 5a37
0.00028984086 1.2996699e-05

exp_avg f4 [128, 6]
00000000: bbdb 8639 f4e8 7735 52af 6cb9 ad29 4039
00000010: 70e0 e934 ecf1 82b9 38e3 0d3a eb3a bc36
00000020: 239b 99ba ca20 4b39 4f93 3136 12f1 9cba
00000030: 1cae 503a 9632 ce37 9ebb abba a3b6 503a
00000040: ad86 4237 d323 91ba bd52 573a 4ad5 5cb7
00000050: d47c e8b8 f0c2 a239 4e55 d0b6 ec85 053a
00000060: a036 e3b7 fbd7 5db6 7e10 2fb9 2e2b b5b9
00000070: 2b49 d1b5 c046 b4b6 5283 3ebb da39 12b8
00000080: b86c cd3b 4003 9fba f7f2 89b7 4770 b33b
00000090: d55f 40ba f169 9a37 b186 e3b9 7c2c 37ba
000000a0: 66ac 1137 dacf e0b8 6031 adb9 89eb 2136
000000b0: 24e0 76b8 7aa2 b7b9 42c1 9835 1b53 aab8
000000c0: 7461 cb3a ff5e 1a37 d5ee 0bbb 945e 2c3a
000000d0: 30a2 9136 649e d8ba 0fe2 353a fae2 38b7
000000e0: a2c9 ea37 0e1e 5c3a dd6b aeb6 888c c9b7
000000f0: 277a 0fba 330b 8936 1099 36b5 31f4 1aba
00000100: 5b49 0136 1a0d 6c37 3982 45ba 4cb0 3d37
00000110: 500c 0ebb ccba 79ba 94f3 b236 8142 1fbb
00000120: 7a73 daba d85f 8537 9026 33b9 86ce aaba
00000130: 54a6 fb36 7623 29ba c135 95ba 5101 0937
00000140: 3e9b 18b7 10ce a9ba 1240 8136 a315 e139
00000150: a104 63ba 7f8a f036 1bf2 37b9 1b8d 91b9
00000160: 04ed 6236 57b7 53ba 7db6 8a3a 72d1 acb7
00000170: 9468 c8b9 4afe 003a 3609 23b7 96df d438
00000180: be44 aa3a d308 d6b7 be4a f739 9412 543a
00000190: 5feb 49b7 3a2a a63a 2c37 6cb8 44aa 2d37
000001a0: a620 67ba 81fd 0eba bed5 a336 33b4 58ba
000001b0: 7c55 8d3a 4a38 91b6 e6e6 3639 bd01 803a
000001c0: 0000 09b6 fd2b 0e3a efb6 a13a 686f dcb7
000001d0: 0c8c 2339 96df 173a 2cf5 4fb7 bbf7 093a
000001e0: 6240 25b9 2c17 7c37 d688 ccb8 8476 a5b9
000001f0: 3ad2 ed36 e463 7bb7 f539 1039 fa95 9eb5
00000200: 822d 833a 5342 293a 109c 15b5 4c68 823a
00000210: 5cd0 ad38 d3c5 0a37 2363 17b9 1037 f236
00000220: edea 8236 7ebb 0139 20ad 35bb e8bf 2138
00000230: ce5a 05bb 4cc6 40bb 1298 9837 9a87 0abb
00000240: 39a7 52ba dce6 ffb6 5bf1 d43a 28af 0dba
00000250: d06a 71b6 5cb8 dd3a c4d2 2eba 5189 5b37
00000260: 67cb 0f38 0020 81ba 1e1c cf36 7d1a 1f39
00000270: a3a0 02ba 34ab fcb7 22f6 4b3b b4e8 4939
00000280: e45d 6eb7 dba2 283b fa87 b53a f2da ac37
00000290: 8a97 85ba c858 b03a 3012 2337 bc3f 18ba
000002a0: ae9c b039 35e1 fbb7 ed81 843b 110b c63a
000002b0: 529f 6db7 b3b8 6b3b 1bd2 4bba 6ef7 9537
000002c0: d404 88ba cad9 44ba 527a 0d37 5898 96ba
000002d0: 169a b7ba 7698 c4b7 5654 163b 2c81 97ba
000002e0: a877 39b7 bcef f83a 3195 a03a 3a06 7bb7
000002f0: 2356 503a c1c0 a13a bed0 ecb6 a235 673a
00000300: c6a1 5f3a 9c27 27b8 40a6 533b 37d6 943a
00000310: 73b1 9db7 64d2 6c3b 72b9 6139 fbd7 06b5
00000320: d66b 4fb8 4a0d 3639 0c6c 7eb4 280b adb7
00000330: f272 a33a 2c01 bcb7 76de 0139 86dc 653a
00000340: e55c 31b7 99cb 023a 7cc8 6739 88e4 a935
00000350: 19f4 91ba cae6 1839 d246 2035 b79c acba
00000360: b9fa 25ba b551 97b7 95bb 0dba baa0 adb9
00000370: 02c1 0eb7 26b4 88ba 1ef0 333a 5a73 42b8
00000380: 36ee 9f3b d658 c93a a671 b7b7 1185 a83b
00000390: b03d 003b f536 d6b7 c070 f43a f4fb a43a
000003a0: dc16 4ab7 ca09 383b b346 9239 0056 86b6
000003b0: 50d7 a439 4896 5239 b476 fdb5 74d0 1039
000003c0: a7ce 78ba f153 3637 36fa 8cb9 230e 47ba
000003d0: ed01 ac36 5cb6 cdb9 4387 f339 8b22 8736
000003e0: 444d cdb9 e2fb e039 aef8 fe35 d51b abb9
000003f0: 5a5f 19bb 3f4f 0a38 ced5 2cba 524e deba
0.00025722184 9.235366e-07 -0.00022572026 0.00018326072 4.3562932e-07 -0.00024975778 0.00054125814 5.6096956e-06
-0.0011719208 0.00019371804 2.64608e-06 -0.00119737 0.00079605146 2.458067e-05 -0.0013102179 0.00079617853
1.1594658e-05 -0.0011073299 0.0008213928 -1.3162682e-05 -0.00011085873 0.00031044288 -6.208814e-06 0.0005093503
-2.7085945e-05 -3.3057283e-06 -0.00016695444 -0.00034555182 -1.5593008e-06 -5.3726544e-06 -0.0029069972 -3.486299e-05
0.006269064 -0.0012131706 -1.6444812e-05 0.005476031 -0.0007338499 1.8407563e-05 -0.00043397167 -0.00069875247
8.682813e-06 -0.00010719868 -0.0003303392 2.412797e-06 -5.8859718e-05 -0.00035025534 1.1381128e-06 -8.121711e-05
0.0015516714 9.201233e-06 -0.0021352072 0.00065753725 4.340218e-06 -0.0016526696 0.00069382874 -1.1020102e-05
2.7988866e-05 0.00083968125 -5.198161e-06 -2.4026507e-05 -0.0005473219 4.084222e-06 -6.802302e-07 -0.0005911021
1.9265196e-06 1.4069747e-05 -0.00075343583 1.1306325e-05 -0.002167482 -0.0009526431 5.3331696e-06 -0.0024301114
-0.0016666495 1.5899466e-05 -0.00017085136 -0.001303152 7.499746e-06 -0.00064521225 -0.0011383818 8.166143e-06
-9.096051e-06 -0.0012955088 3.8519584e-06 0.00042931465 -0.00086600526 7.1686804e-06 -0.00017542431 -0.00027761687
3.3814586e-06 -0.0008076331 0.001058295 -2.0601528e-05 -0.0003822489 0.00049207045 -9.717702e-06 0.00010150594
0.0012990457 -2.5514897e-05 0.00047167198 0.00080899266 -1.2035335e-05 0.001267738 -5.6318167e-05 1.0351247e-05
-0.00088168157 -0.0005454645 4.8826614e-06 -0.0008266598 0.0010782923 -4.3278897e-06 0.00017442889 0.0009766143
-2.041459e-06 0.0005423425 0.0012337844 -2.6277921e-05 0.00015597063 0.000579351 -1.2395245e-05 0.000526305
-0.0001575961 1.5025766e-05 -9.752966e-05 -0.00031559553 7.087624e-06 -1.4984023e-05 0.00013754501 -1.1815566e-06
0.0010008069 0.00064567215 -5.5733926e-07 0.0009949296 8.288093e-05 8.2715005e-06 -0.00014437413 7.218572e-06
3.901651e-06 0.00012372245 -0.0027721599 3.8564118e-05 -0.0020348313 -0.002941507 1.8190625e-05 -0.0021137954
-0.00080357824 -7.626468e-06 0.0016246246 -0.00054048235 -3.5973972e-06 0.0016915905 -0.000666898 1.3085389e-05
3.428329e-05 -0.0009851456 6.172354e-06 0.0001517329 -0.0004983043 -3.0120464e-05 0.0031122048 0.00019255542
-1.4207766e-05 0.0025731835 0.0013849728 2.0605952e-05 -0.0010192257 0.0013454193 9.719792e-06 -0.0005807837
0.0003368607 -3.0026402e-05 0.0040438087 0.0015109499 -1.41633955e-05 0.0035968244 -0.00077751436 1.7877403e-05
-0.0010377415 -0.000750926 8.432735e-06 -0.0011489494 -0.0014007713 -2.3436016e-05 0.0022938452 -0.0011558882
-1.1054719e-05 0.0018992345 0.0012251494 -1.4962216e-05 0.00079474057 0.001234077 -7.057649e-06 0.00088199426
0.0008530881 -3.985279e-05 0.0032295138 0.0011355345 -1.879849e-05 0.0036136145 0.00021526756 -5.0233183e-07
-4.9453076e-05 0.00017361823 -2.36949e-07 -2.0628402e-05 0.001247017 -2.2411892e-05 0.00012385272 0.00087685173
-1.0571651e-05 0.0004989445 0.00022104563 1.2657993e-06 -0.0011135369 0.00014581825 5.97077e-07 -0.0013169263
-0.0006331611 -1.803865e-05 -0.0005406675 -0.00033116882 -8.508798e-06 -0.0010429665 0.00068640884 -4.6360634e-05
0.004880692 0.0015361558 -2.1868222e-05 0.005142816 0.0019568019 -2.553638e-05 0.0018649325 0.0012587295
-1.2045461e-05 0.0028082007 0.00027899965 -4.003523e-06 0.00031440938 0.00020083145 -1.8884516e-06 0.00013810565
-0.0009491243 1.08675895e-05 -0.00026889303 -0.0007593354 5.1262236e-06 -0.00039236515 0.0004644935 4.027335e-06
-0.00039158214 0.00042912277 1.899685e-06 -0.00032636398 -0.0023402781 3.2975568e-05 -0.00065931387 -0.0016960597

exp_avg_sq f4 [128, 6]
00000000: 2236 0d36 3d5a fc2f b14e 4d36 261a cd35
00000010: c297 e02e 5484 2236 b781 3637 e449 e531
00000020: 2dbf 1e38 c1df 0337 e910 cc30 13ff 1438
00000030: e2e0 9237 49de 8b31 a19f 9137 d060 6437
00000040: f4f6 7830 00f0 6a37 b7be 4d37 19fd 9c31
00000050: 215c 1337 5c02 7737 2cb8 8b30 cb1e 2937
00000060: 0b51 f936 efdc 6731 9288 b037 e3bf f336
00000070: 715b 4e30 70f0 b037 2486 6238 a3ad c933
00000080: d226 e939 aa13 8a38 357e b332 6fbc f739
00000090: bff3 c936 0656 9b31 803c ff37 c470 a036
000000a0: a43f 8a30 d9fe f737 c1b9 6435 df89 992f
000000b0: c66c 8f32 981a 9f35 18a6 882e 3074 9532
000000c0: 0b01 b837 1b3c a932 7994 a538 0c7c ff37
000000d0: 4e9e 9631 8572 b338 5908 7a35 5169 ed2f
000000e0: 5ce8 7c32 c9d8 a535 9c4b d32e 9c5e 6432
000000f0: c5af c433 9df8 c22e 5609 d930 025c c833
00000100: 1086 ad2d 74ac 8631 2a8e 7535 1872 0431
00000110: 52c9 6a37 fcc6 6f35 a3c0 eb2f 8cad 8237
00000120: a913 b737 7fb8 8432 3d4b 8d38 8fe3 bd37
00000130: ec3d 6c31 bdc4 8a38 5324 2e37 047c 6a31
00000140: 73ad 8836 fd8e 6337 bab0 5030 2b3a a136
00000150: d03f df37 65df 5832 56c4 d337 7cfe 1438
00000160: 0f04 4131 a7a3 ea37 d5f3 2e37 f1f7 4c31
00000170: 3c47 2636 f243 4637 da6b 3630 848c 0336
00000180: 2eea e837 bf87 2532 3ea2 8837 93c6 1038
00000190: 4752 1331 a2a8 9f37 c001 2836 d793 3b31
000001a0: 158d 4a37 4211 8336 7ff1 2630 618a 6337
000001b0: 75b3 cf35 f3e6 b82f 3612 ef35 35e1 d735
000001c0: f08f a42e 3a93 f635 357e 5737 9adc 9c31
000001d0: ebdc 0436 a3ed 9637 3b9b 8b30 3223 5436
000001e0: d6cb f934 06cd 822f 3ce3 aa31 b84a ee34
000001f0: 25d3 682e fd67 ff31 ffc9 8737 12f9 2632
00000200: c73c 2f38 df44 b437 fa9a 1431 3756 5138
00000210: f07b 8d35 3330 d82f f01e 0b33 706c 7235
00000220: 2368 c02e 05f1 5732 c75d e237 5cd9 1732
00000230: 6b95 5b37 c314 1038 2925 0731 d187 8837
00000240: 078c ae37 fb15 9b32 fa14 0839 317e a737
00000250: a006 8a31 aadf 1139 8552 1235 974f 3f2f
00000260: 4bf6 c732 3fa5 2f35 1c44 2a2e 29ee 9d32
00000270: 0f2b e537 0136 0833 9e95 0d39 4906 2138
00000280: 6874 f231 bb10 1b39 e6f3 cf36 1f37 0032
00000290: 845c 4c38 d9c2 8e36 ed38 e430 123b 5938
000002a0: 1564 0238 343c a532 3649 8238 4d8a 3438
000002b0: 0f0f 9331 0e5d 9a38 6353 d935 3d81 2431
000002c0: d90d 7137 b232 0036 a368 1230 2c10 8137
000002d0: 9fe5 3037 ccb6 7832 e10a c238 765e fb36
000002e0: cc5a 5d31 b2e9 ca38 dc58 1337 ae9c 5131
000002f0: 0eac 4336 d1bc 4737 d88d 3a30 8fbc 6f36
00000300: 70f5 e736 b749 1932 7ed1 3a38 ca90 1b37
00000310: fe6c 0831 b27d 5238 35c3 a234 d32e 2b2f
00000320: d01c 5031 5f97 0735 2a5a 182e ace0 6f31
00000330: f6e4 1337 23dd 7531 a5d8 9c36 a915 4b37
00000340: 65d1 5a30 e67c c536 daae 6e36 797c 5731
00000350: 8f27 8a37 1aab 6a36 38c8 3f30 fbb5 9437
00000360: 9880 7f37 7ccd 5a32 38ff 8a38 f342 6637
00000370: cfbb 4231 ef5c 8d38 91a9 9f37 6b22 8732
00000380: aa4f 8638 00db e337 db89 7031 0d2e 9e38
00000390: dc67 4538 2b12 e832 7c77 c538 3e3e 8138
000003a0: d88a ce31 76ff dd38 e8a3 8f37 6fa4 9b31
000003b0: 6089 5a37 1abd 7f37 6b85 8a30 661e 3037
000003c0: 502c 1036 474a 5830 14da 9934 d3f4 4736
000003d0: 607f 402f 29ea 9f34 3c57 9e36 b31d a230
000003e0: f89f a836 9058 6c36 5f48 902f 8c3b 8336
000003f0: 9c3a 2338 138b 5432 b0da 7737 637f 4738
2.1042147e-06 4.590265e-10 3.0593185e-06 1.52813e-06 1.0213298e-10 2.4216906e-06 1.0878247e-05 6.6731776e-09
3.784818e-05 7.860305e-06 1.484776e-09 3.5523506e-05 1.7509275e-05 4.0707033e-09 1.735968e-05 1.36124e-05
9.0572816e-10 1.4003366e-05 1.2263356e-05 4.5689714e-09 8.783333e-06 1.4722897e-05 1.0165926e-09 1.00803545e-05
7.430213e-06 3.374051e-09 2.104443e-05 7.264303e-06 7.507231e-10 2.1092797e-05 5.4007527e-05 9.391376e-08
0.00044470147 6.5840155e-05 2.0895735e-08 0.00047251905 6.0186426e-06 4.5208735e-09 3.0426541e-05 4.7814992e-06
1.0058909e-09 2.9563367e-05 8.5206926e-07 2.79285e-10 1.6696855e-08 1.1854163e-06 6.214068e-11 1.7398719e-08
2.1934995e-05 1.9701522e-08 7.895468e-05 3.0456133e-05 4.3835717e-09 8.556716e-05 9.3144405e-07 4.318488e-10
1.4721163e-08 1.2356551e-06 9.6086e-11 1.3292858e-08 9.1589335e-08 8.866261e-11 1.5791481e-09 9.329962e-08
1.9727359e-11 3.919519e-09 9.147649e-07 1.9273383e-09 1.399436e-05 8.9324e-07 4.2883128e-10 1.5578022e-05
2.1824455e-05 1.5450722e-08 6.737418e-05 2.2636521e-05 3.4377718e-09 6.616998e-05 1.0379666e-05 3.4121976e-09
4.073308e-06 1.3563546e-05 7.59211e-10 4.8049455e-06 2.6613387e-05 1.2623649e-08 2.5244586e-05 3.5522957e-05
2.8087503e-09 2.797118e-05 1.042798e-05 2.9826845e-09 2.4777391e-06 1.1817539e-05 6.636448e-10 1.9602312e-06
2.7765604e-05 9.635129e-09 1.6288013e-05 3.4517212e-05 2.1438085e-09 1.9032803e-05 2.503497e-06 2.7296119e-09
1.20729865e-05 3.9061133e-06 6.0733635e-10 1.3562473e-05 1.5474931e-06 3.3633504e-10 1.7812188e-06 1.6084292e-06
7.483425e-11 1.8371277e-06 1.28443835e-05 4.565277e-09 1.9798124e-06 1.7992052e-05 1.01577e-09 3.1610948e-06
4.6528174e-07 2.379254e-10 4.9734847e-09 4.438532e-07 5.2938227e-11 7.433299e-09 1.6187316e-05 9.719104e-09
4.1779855e-05 2.1489743e-05 2.1624929e-09 4.9909777e-05 1.0541389e-06 3.932442e-10 3.2391597e-08 9.030982e-07
8.7496475e-11 1.2569449e-08 2.6984968e-05 8.838779e-09 1.3088206e-05 3.435161e-05 1.9666209e-09 1.6275708e-05
2.0807622e-05 1.805437e-08 0.00012977785 1.9966714e-05 4.017082e-09 0.00013911599 5.450932e-07 1.7399625e-10
2.327865e-08 6.5433045e-07 3.8714018e-11 1.8385508e-08 2.7318978e-05 3.1714084e-08 0.00013502545 3.8391245e-05
7.056361e-09 0.00014788184 6.1974742e-06 7.463114e-09 4.8723552e-05 4.254613e-06 1.6605363e-09 5.1791845e-05
3.1087624e-05 1.9235905e-08 6.21252e-05 4.3044147e-05 4.279975e-09 7.360625e-05 1.6192029e-06 2.3938604e-09
1.4367944e-05 1.9102995e-06 5.326319e-10 1.5385529e-05 1.054388e-05 1.4477063e-08 9.252667e-05 7.4913796e-06
3.2211345e-09 9.67564e-05 8.782572e-06 3.0502565e-09 2.9157413e-06 1.1905287e-05 6.786798e-10 3.572353e-06
6.912909e-06 8.922533e-09 4.454096e-05 9.272431e-06 1.985256e-09 5.0184964e-05 3.0316883e-07 1.5568995e-10
3.0284362e-09 5.0511693e-07 3.464088e-11 3.4906789e-09 8.815192e-06 3.5777894e-09 4.674383e-06 1.2104786e-05
7.9605506e-10 5.8855976e-06 3.556654e-06 3.1357372e-09 1.6469303e-05 3.4968311e-06 6.9769923e-10 1.7727716e-05
1.5229125e-05 1.2735992e-08 6.627891e-05 1.3724656e-05 2.8337472e-09 6.740714e-05 1.9033238e-05 1.573172e-08
6.4044565e-05 2.7162489e-05 3.5002958e-09 7.542605e-05 4.7065187e-05 2.7016616e-08 9.415948e-05 6.162793e-05
6.011174e-09 0.000105856845 1.7123253e-05 4.5297877e-09 1.3025798e-05 1.5243213e-05 1.0078741e-09 1.0497495e-05
2.1483465e-06 7.8685897e-10 2.8657144e-07 2.9795817e-06 1.7507551e-10 2.9786432e-07 4.7189224e-06 1.1795492e-09
5.025413e-06 3.521829e-06 2.624487e-10 3.9110364e-06 3.8916813e-05 1.2371646e-08 1.4773264e-05 4.7563935e-05

exp_avg f4 [128]
00000000: 482c 9235 21f8 dd36 5828 f337 4e35 82b7
00000010: d8cd 82b6 b46f 2cb8 8017 b637 77f1 3e36
00000020: 9c0a 3637 d506 5ab7 b29b a136 7db0 5f37
00000030: fa47 9d37 1290 2137 29d4 0d37 88cb cbb7
00000040: 3566 fcb7 2ecb 4c37 fa3f abb6 3bf9 01b8
00000050: 65a3 9437 6e03 bbb5 a7a5 2337 13be 3e38
00000060: c1e2 16b7 8f71 8137 b1fa 14b8 bad6 cb37
00000070: 9683 14b8 e4d8 b037 9ad5 e7b7 7402 94b7
00000080: cd1d 45b8 9003 1fb5 1fb4 ddb7 6458 c835
00000090: 3d71 b2b7 0f4e 65b8 879c fcb7 526a 9eb6
000000a0: 6c02 5737 615b 9f36 d019 2338 7073 5f38
000000b0: 71c2 59b7 16f0 6937 0cb6 d1b5 3f59 b1b7
000000c0: 24c3 a9b7 5bd0 43b6 7495 b9b5 66ae 1036
000000d0: 484e 0ab8 185b ba36 6ec2 2337 45c0 0fb7
000000e0: 09e6 9eb7 80d8 9237 8ddc a935 371a 7f36
000000f0: 223f a638 e3ff 0a38 51da 0bb7 604a b8b6
00000100: d219 45b7 7ea1 f537 b7b6 15b8 1e9b 2938
00000110: 750f d2b8 94a2 2737 f8fe d835 8ea2 f337
00000120: de48 b836 805f 52b7 569c ca36 dc14 53b5
00000130: 44a9 5b38 2698 11b7 be18 58b6 6c85 5138
00000140: ce4c ea36 ce31 0537 8679 f238 e73c 9537
00000150: 2f93 7038 fac4 cd36 01d1 8c38 88c3 8e37
00000160: 2dd8 9837 962a 2937 59a7 2fb7 3ac5 8737
00000170: d105 20b7 2243 9fb6 4a51 07b7 6ff4 6937
00000180: aa8c d1b7 b057 1838 6547 0a38 bcf9 fcb7
00000190: d35d 9eb8 aaa5 5938 79db 85b7 1ec7 af37
000001a0: c65a f5b6 594d 68b6 0a2f 0138 0e79 feb7
000001b0: 558a 0bb7 5bed 00b8 8143 62b6 5626 8ab6
000001c0: e374 5f36 413a c838 48c8 d536 7aa6 7438
000001d0: 4a05 92b7 7790 f937 8736 fe37 a6da 1b38
000001e0: 5954 6bb7 d0af 9a37 300f 57b5 208d 8fb6
000001f0: f0d7 2cb8 36e7 dab7 cb3e ce36 b436 08b8
1.0890735e-06 6.6151993e-06 2.8986644e-05 -1.552203e-05 -3.8982653e-06 -4.1112027e-05 2.1707034e-05 2.8452757e-06
1.08505155e-05 -1.2995403e-05 4.816299e-06 1.3332928e-05 1.8749375e-05 9.629892e-06 8.453652e-06 -2.4294262e-05
-3.0088335e-05 1.2206654e-05 -5.103645e-06 -3.098811e-05 1.7719061e-05 -1.3933584e-06 9.754126e-06 4.547655e-05
-8.993492e-06 1.5430878e-05 -3.5519424e-05 2.4299476e-05 -3.54085e-05 2.1081833e-05 -2.7636812e-05 -1.7644117e-05
-4.6996214e-05 -5.92373e-07 -2.6429128e-05 1.4926886e-06 -2.1271984e-05 -5.4670552e-05 -3.011363e-05 -4.7211443e-06
1.28155625e-05 4.749207e-06 3.8886268e-05 5.3274853e-05 -1.297948e-05 1.3943782e-05 -1.5624696e-06 -2.1141603e-05
-2.023724e-05 -2.9178543e-06 -1.3827071e-06 2.1559185e-06 -3.297467e-05 5.5538367e-06 9.760826e-06 -8.56823e-06
-1.8942186e-05 1.7505372e-05 1.265567e-06 3.801322e-06 7.927256e-05 3.3140077e-05 -8.335876e-06 -5.4922857e-06
-1.1748127e-05 2.9281477e-05 -3.5694535e-05 4.0437204e-05 -0.000100164594 9.991829e-06 1.616746e-06 2.9043553e-05
5.49211e-06 -1.2539211e-05 6.038269e-06 -7.863398e-07 5.237131e-05 -8.678098e-06 -3.220091e-06 4.9953742e-05
6.9826847e-06 7.939014e-06 0.00011562095 1.7790544e-05 5.7357534e-05 6.132407e-06 6.71465e-05 1.701877e-05
1.8220477e-05 1.00831e-05 -1.04697765e-05 1.6185095e-05 -9.538097e-06 -4.7463845e-06 -8.065554e-06 1.3944794e-05
-2.4980243e-05 3.632129e-05 3.2968255e-05 -3.0157033e-05 -7.551503e-05 5.189112e-05 -1.5957035e-05 2.0954347e-05
-7.3121364e-06 -3.4615716e-06 3.0799805e-05 -3.033553e-05 -8.317254e-06 -3.0738633e-05 -3.3715917e-06 -4.1171834e-06
3.3297626e-06 9.547594e-05 6.3712105e-06 5.8329177e-05 -1.740702e-05 2.9750385e-05 3.030455e-05 3.7158512e-05
-1.402673e-05 1.84401e-05 -8.011584e-07 -4.278161e-06 -4.1209103e-05 -2.6095291e-05 6.1465885e-06 -3.2475873e-05

exp_avg_sq f4 [128]
00000000: 8a76 2f30 386d 1f32 ec80 c231 c04f da31
00000010: 7437 a131 983a 0c34 6803 d831 8483 d52f
00000020: 5657 eb32 0e13 2530 bc90 072f 7e2e 3831
00000030: 5d90 b832 150a a331 32cb 9632 3e84 8e31
00000040: 8f30 6632 a96c 8231 7490 0030 8a22 da31
00000050: f5e4 b52f 2732 6832 5951 1630 0a2a 5332
00000060: 59aa d732 3605 852f ed6a 3d33 764c 3232
00000070: 80c7 e532 77c3 6431 edee ac32 ccbe 9131
00000080: 472a 5532 df0c 6e2f 97f3 aa31 64d4 9531
00000090: b622 9832 b2eb bb32 785c 2133 7270 d831
000000a0: 7d63 9630 1271 e130 8cc8 9332 87b1 2233
000000b0: 270b 7532 25a4 8e30 3974 1931 c6b3 0f32
000000c0: cf16 5930 b943 3431 a185 2030 f20c ba2f
000000d0: 2eb5 a533 202c da31 28d6 8930 bc1a f131
000000e0: 8292 9130 172d 1232 5ed8 a631 1e44 972e
000000f0: 680f 7433 401a 7532 0c7c d330 0cce ab30
00000100: 219a 9832 f284 a432 b137 ca31 0861 d132
00000110: 3b08 1c34 00f4 c532 6ba3 9d32 4d64 0932
00000120: 7baf 1632 f1d0 0033 958b 9e31 e4af 0b32
00000130: e5c7 cf32 934f 1331 9617 212f 2906 2a33
00000140: 2cad 4e32 a9da 5831 fd70 e833 450e e632
00000150: fce9 db32 8b90 6531 b8cd 8733 56aa a332
00000160: ed48 0d31 5c4d a530 1934 9330 088a b52f
00000170: d0d2 8630 75cd 3230 0025 d532 e7e8 6f31
00000180: 026f 7b32 979e 2332 8a6e 2b32 7f3b e633
00000190: 991f 4033 c02b 4633 6a8e 2d31 b634 ad31
000001a0: e65a ac2f 049f f42f 8d6f a731 8f1a 3332
000001b0: 9fda 742f ac05 3831 ba08 462e 2207 2631
000001c0: a1e3 1830 22e9 1634 9184 8f32 6829 9332
000001d0: c9b5 6a31 5456 9e30 78df e731 8cb2 2d33
000001e0: 3861 af32 f278 0c32 918b 6d30 89d6 f130
000001f0: 26e0 fa32 986d e92f 0221 e031 3bc4 b632
6.3833083e-10 9.2798516e-09 5.6608e-09 6.3537016e-09 4.692021e-09 1.3059832e-07 6.2868146e-09 3.8837922e-10
2.7397316e-08 6.005373e-10 1.2329598e-10 2.6801952e-09 2.1486068e-08 4.7450706e-09 1.75547e-08 4.147778e-09
1.3398803e-08 3.795851e-09 4.677141e-10 6.3485617e-09 3.3086392e-10 1.3515581e-08 5.4685284e-10 1.2291375e-08
2.510676e-08 2.4196262e-10 4.410224e-08 1.0378349e-08 2.674983e-08 3.3289476e-09 2.0132086e-08 4.2417465e-09
1.24078445e-08 2.1650547e-10 4.975344e-09 4.3606168e-09 1.7710914e-08 2.1876847e-08 3.7569833e-08 6.299211e-09
1.0942213e-09 1.6403041e-09 1.720425e-08 3.7880024e-08 1.4263413e-08 1.0378512e-09 2.2330495e-09 8.364571e-09
7.8976553e-10 2.6231943e-09 5.839756e-10 3.38424e-10 7.7163676e-08 6.3496515e-09 1.0028929e-09 7.0170625e-09
1.0591779e-09 8.508571e-09 4.855834e-09 6.878785e-11 5.682469e-08 1.42668455e-08 1.5387527e-09 1.250045e-09
1.7765219e-08 1.915257e-08 5.885305e-09 2.4374927e-08 1.4531626e-07 2.3044777e-08 1.835152e-08 7.997255e-09
8.771049e-09 2.9992353e-08 4.614274e-09 8.130858e-09 2.4188873e-08 2.1436548e-09 1.4651244e-10 3.9586812e-08
1.2030153e-08 3.155643e-09 1.0823894e-07 2.6782013e-08 2.560136e-08 3.340605e-09 6.3238474e-08 1.9053157e-08
2.0559654e-09 1.2027317e-09 1.0710465e-09 3.3021785e-10 9.8097e-10 6.5047995e-10 2.481329e-08 3.4911467e-09
1.4635363e-08 9.523908e-09 9.978644e-09 1.0721032e-07 4.473222e-08 4.6140258e-08 2.5255766e-09 5.040955e-09
3.1351205e-10 4.449633e-10 4.8730215e-09 1.042521e-08 2.226934e-10 2.6778748e-09 4.502774e-11 2.4160234e-09
5.562076e-10 1.4054652e-07 1.6707675e-08 1.7131882e-08 3.4154815e-09 1.1520549e-09 6.7483903e-09 4.044209e-08
2.0416891e-08 8.176572e-09 8.6418434e-10 1.7596032e-09 2.9205761e-08 4.2460324e-10 6.5230106e-09 2.1276824e-08
