results/ppo/MoveToGoal/MoveToGoal-2688.pt (torch, 145300 bytes, 11 tensors)

network_body._body_endoder.seq_layers.0.weight f4 [128, 1]
0	0x3fee6ba6	1.8626602
1	0xbf1c9b79	-0.6117473
2	0x3f7c5552	0.9856769
3	0x3f8667d6	1.0500438
4	0xbfc701e0	-1.5547447
5	0x3efe02ee	0.4961161
6	0xbf0bbab9	-0.5458179
7	0xbf0bbe1c	-0.5458696
8	0x3f0d23ee	0.5513295
9	0x3fa88acf	1.3167361
10	0xbe115478	-0.14192379
11	0x40397416	2.8977103
12	0x3cdbe483	0.026842361
13	0xbf4a6bf9	-0.79071003
14	0x3e547b2f	0.20750116
15	0x3f132a9a	0.5748688
16	0xbd1c93f4	-0.038227037
17	0xbfbf0a8c	-1.4925094
18	0x3e4ebf66	0.201902
19	0xbdfd46a8	-0.12366992
20	0x3f2f24c2	0.6841546
21	0x3fba86d6	1.4572399
22	0x3e5108bb	0.20413487
23	0x3e335a3a	0.17514887
24	0x3ea0970d	0.31365243
25	0x3f02b79d	0.5106142
26	0x3f9afd6e	1.2108591
27	0xbf493977	-0.7860331
28	0xbf352d56	-0.707723
29	0xbecf014d	-0.4043068
30	0x3f59315c	0.8484094
31	0xbfa7e0cd	-1.3115479
32	0xbf462842	-0.7740518
33	0xbf22f629	-0.6365686
34	0xbf1e5c50	-0.6185961
35	0xbeb6019a	-0.35548097
36	0x3efbca08	0.49177575
37	0xbf7c5b54	-0.98576856
38	0xbd8d8767	-0.069105916
39	0x3e0ea8ae	0.13931534
40	0x3f9569c5	1.1672903
41	0x3f43b6b4	0.7645066
42	0xbe90322f	-0.28163287
43	0x3c31c802	0.010850908
44	0xbed163f8	-0.40896583
45	0xbf8024b9	-1.0011207
46	0xbf5c839c	-0.8613832
47	0x3f34354d	0.7039383
48	0xbfc02113	-1.5010093
49	0xbefee7ed	-0.4978632
50	0xbf4f9ba7	-0.8109688
51	0xbd62d102	-0.055375107
52	0xbeaf7911	-0.34272054
53	0x3e380ca9	0.1797358
54	0xbea0f2f4	-0.3143536
55	0x3fbdfd65	1.4842955
56	0xbf3882f2	-0.72074807
57	0xbf2d1700	-0.6761322
58	0xbfab212c	-1.3369498
59	0xbdc1fe83	-0.094723724
60	0x3e8ddf81	0.27709582
61	0xbe6af546	-0.22945127
62	0x3ebf81f8	0.37403846
63	0xbde6182e	-0.11235081
64	0xbf1a8dd3	-0.60372657
65	0x3f116e65	0.56809074
66	0x3fb0d3c0	1.3814621
67	0x3eca2e0c	0.39488256
68	0x3fd98866	1.699475
69	0x3f2329e7	0.6373581
70	0x3f0de237	0.554233
71	0x3ef47c50	0.47751093
72	0x3dd4f349	0.103979655
73	0x3e3651ed	0.1780469
74	0x3fd03bef	1.626829
75	0xbeb5d9cb	-0.35517725
76	0xc00238cf	-2.0347173
77	0xbfb49d52	-1.411051
78	0xbfdc5b57	-1.7215375
79	0xbefd3a34	-0.49458468
80	0xbf6b14e4	-0.9182875
81	0xbe3b643e	-0.18299958
82	0xbf5c9cd4	-0.861768
83	0xbf219a3b	-0.6312596
84	0xbe2ec93a	-0.1706895
85	0x3fa281ad	1.2695824
86	0xbfd4119d	-1.6567875
87	0xbf966a1c	-1.1751132
88	0x3d851942	0.06498958
89	0x3d732814	0.059364393
90	0x3ec2a344	0.38015187
91	0x3d931994	0.07182613
92	0x3e6b4362	0.22974923
93	0x3f538f21	0.8264027
94	0xc048e3a7	-3.1388948
95	0xc00435c5	-2.0657818
96	0xbf1a3427	-0.6023583
97	0x3ee22065	0.4416534
98	0x3fae6ace	1.3626344
99	0x3e6fa84e	0.23404047
100	0xbfad3809	-1.3532726
101	0xbf4c18ff	-0.7972564
102	0xbedfff54	-0.43749487
103	0x3fcb29ff	1.5872191
104	0x3f2757f5	0.65368587
105	0x3f53313d	0.82497007
106	0x3dbbcbdd	0.09169743
107	0x3ebc5aad	0.3678793
108	0x3ebb02ff	0.36525723
109	0x3d7447fa	0.059638955
110	0x3c1ff839	0.009763771
111	0x3fdf6aa3	1.7454418
112	0xbf797a97	-0.9745268
113	0x3f1ed3be	0.6204184
114	0xbf1b600f	-0.6069345
115	0xbf55c21b	-0.83499306
116	0xbf84aaa1	-1.0364572
117	0xbf90f2b2	-1.1324065
118	0xbf6a0ed8	-0.914289
119	0x3ff08d36	1.8793094
120	0x3e279f11	0.16369273
121	0x3ed83c0b	0.4223331
122	0x3fe0a9e2	1.7551844
123	0xbfc15269	-1.5103275
124	0xbd9034fe	-0.070413575
125	0xbfe4893c	-1.7854381
126	0xc005d555	-2.0911458
127	0x400036e4	2.0033503

network_body._body_endoder.seq_layers.0.bias f4 [128]
0	0x00000000	0.0
1	0x00000000	0.0
2	0x00000000	0.0
3	0x00000000	0.0
4	0x00000000	0.0
5	0x00000000	0.0
6	0x00000000	0.0
7	0x00000000	0.0
8	0x00000000	0.0
9	0x00000000	0.0
10	0x00000000	0.0
11	0x00000000	0.0
12	0x00000000	0.0
13	0x00000000	0.0
14	0x00000000	0.0
15	0x00000000	0.0
16	0x00000000	0.0
17	0x00000000	0.0
18	0x00000000	0.0
19	0x00000000	0.0
20	0x00000000	0.0
21	0x00000000	0.0
22	0x00000000	0.0
23	0x00000000	0.0
24	0x00000000	0.0
25	0x00000000	0.0
26	0x00000000	0.0
27	0x00000000	0.0
28	0x00000000	0.0
29	0x00000000	0.0
30	0x00000000	0.0
31	0x00000000	0.0
32	0x00000000	0.0
33	0x00000000	0.0
34	0x00000000	0.0
35	0x00000000	0.0
36	0x00000000	0.0
37	0x00000000	0.0
38	0x00000000	0.0
39	0x00000000	0.0
40	0x00000000	0.0
41	0x00000000	0.0
42	0x00000000	0.0
43	0x00000000	0.0
44	0x00000000	0.0
45	0x00000000	0.0
46	0x00000000	0.0
47	0x00000000	0.0
48	0x00000000	0.0
49	0x00000000	0.0
50	0x00000000	0.0
51	0x00000000	0.0
52	0x00000000	0.0
53	0x00000000	0.0
54	0x00000000	0.0
55	0x00000000	0.0
56	0x00000000	0.0
57	0x00000000	0.0
58	0x00000000	0.0
59	0x00000000	0.0
60	0x00000000	0.0
61	0x00000000	0.0
62	0x00000000	0.0
63	0x00000000	0.0
64	0x00000000	0.0
65	0x00000000	0.0
66	0x00000000	0.0
67	0x00000000	0.0
68	0x00000000	0.0
69	0x00000000	0.0
70	0x00000000	0.0
71	0x00000000	0.0
72	0x00000000	0.0
73	0x00000000	0.0
74	0x00000000	0.0
75	0x00000000	0.0
76	0x00000000	0.0
77	0x00000000	0.0
78	0x00000000	0.0
79	0x00000000	0.0
80	0x00000000	0.0
81	0x00000000	0.0
82	0x00000000	0.0
83	0x00000000	0.0
84	0x00000000	0.0
85	0x00000000	0.0
86	0x00000000	0.0
87	0x00000000	0.0
88	0x00000000	0.0
89	0x00000000	0.0
90	0x00000000	0.0
91	0x00000000	0.0
92	0x00000000	0.0
93	0x00000000	0.0
94	0x00000000	0.0
95	0x00000000	0.0
96	0x00000000	0.0
97	0x00000000	0.0
98	0x00000000	0.0
99	0x00000000	0.0
100	0x00000000	0.0
101	0x00000000	0.0
102	0x00000000	0.0
103	0x00000000	0.0
104	0x00000000	0.0
105	0x00000000	0.0
106	0x00000000	0.0
107	0x00000000	0.0
108	0x00000000	0.0
109	0x00000000	0.0
110	0x00000000	0.0
111	0x00000000	0.0
112	0x00000000	0.0
113	0x00000000	0.0
114	0x00000000	0.0
115	0x00000000	0.0
116	0x00000000	0.0
117	0x00000000	0.0
118	0x00000000	0.0
119	0x00000000	0.0
120	0x00000000	0.0
121	0x00000000	0.0
122	0x00000000	0.0
123	0x00000000	0.0
124	0x00000000	0.0
125	0x00000000	0.0
126	0x00000000	0.0
127	0x00000000	0.0

network_body._body_endoder.seq_layers.2.weight f4 [128, 128]
0	0xbc110a1a	-0.008852506
1	0x3dec43b8	0.11536354
2	0xbcf48c61	-0.029852094
3	0xbdfb0096	-0.12255971
4	0xbe14c8af	-0.1452968
5	0xbd8daa7b	-0.06917282
6	0x3dd2bd91	0.10290063
7	0x3d85f84e	0.06541501
8	0x3ce67537	0.028132064
9	0xbb88916a	-0.0041677253
10	0x3ca38b72	0.019963954
11	0x3c974e7d	0.018470043
12	0xbdb4f6e4	-0.08836153
13	0x3daec433	0.08533516
14	0xbd6aa9d7	-0.05729088
15	0x3cb3eaf3	0.021962618
16	0xbe0c289a	-0.13687363
17	0x3ce41a49	0.027844565
18	0x3d4c0f30	0.04981917
19	0x3d6a44f5	0.05719467
20	0x3d247d6f	0.040158685
21	0xbdc56bd2	-0.09639706
22	0x3e2a4c14	0.16630584
23	0x3dd58df7	0.10427468
24	0xbd183545	-0.037160177
25	0xbd22e0b6	-0.039765082
26	0x3dcc2ad7	0.099691086
27	0xbd9ab862	-0.075546995
28	0xbcd1b53b	-0.025599113
29	0x3d9fb78f	0.07798683
30	0x3cc9bf60	0.024627388
31	0x3d5a5cf5	0.053311307
32	0x3da1cc0a	0.079002455
33	0x3e1d4512	0.1535838
34	0xbe01084d	-0.12600823
35	0x3d03d32d	0.032183815
36	0x3e433595	0.19063409
37	0xbd84975f	-0.06474184
38	0xbcc43d66	-0.023955058
39	0x3cb10362	0.021608058
40	0x3d9d4599	0.0767929
41	0xbdad24fe	-0.08454321
42	0xbd36637b	-0.044528466
43	0x3e2648c4	0.16238695
44	0xbd986c4e	-0.074425325
45	0x3cf0abe9	0.029378848
46	0xbcfff0f3	-0.031242823
47	0xbd8f2c74	-0.06990901
48	0xbe20ab18	-0.15690267
49	0xbc912066	-0.017715644
50	0xbd514a90	-0.0510965
51	0x3e12d396	0.14338526
52	0x3cfd91d8	0.030953333
53	0xbd944f8e	-0.07241736
54	0x3c1625ba	0.009164268
55	0x3deb097d	0.11476419
56	0xbd9c70a5	-0.07638673
57	0xbd19cbbd	-0.037547816
58	0x3e54848d	0.20753689
59	0x3d6ee1ea	0.058320917
60	0xbd7a50e5	-0.061112303
61	0x3cf6439d	0.030061537
62	0xbd86e87e	-0.06587313
63	0xbd82f524	-0.06394413
64	0x3db8010a	0.08984573
65	0x3c324ba1	0.010882289
66	0x3c601a38	0.013678126
67	0x3d900980	0.07033062
68	0xbda922ee	-0.082586154
69	0x3cbd9943	0.02314437
70	0x3d830c82	0.0639887
71	0xbd3fa18c	-0.046784922
72	0xbdd231d2	-0.10263409
73	0xbe1ffc5e	-0.15623614
74	0x3db9816f	0.090578906
75	0xbde931ff	-0.11386489
76	0x3d31af22	0.04337991
77	0xbce83f54	-0.02835051
78	0xbd29e3e0	-0.041477084
79	0x3db17f04	0.086668044
80	0xbe11e4a3	-0.14247374
81	0x3caafcfa	0.020872582
82	0x3dbbcf0a	0.09170349
83	0x3c8d92d1	0.017281922
84	0x3e0572bd	0.1303205
85	0xbdaefa89	-0.085438795
86	0xbc8f5442	-0.017496232
87	0xbe03b76d	-0.1286294
88	0x3b6536d7	0.0034975314
89	0x3aabcec8	0.001310789
90	0x3cc8fade	0.024533685
91	0x3d88315e	0.06650041
92	0xbcc76e07	-0.024344457
93	0xbe4aea19	-0.19815864
94	0xbc96d813	-0.01841358
95	0xbd82c172	-0.06384553
96	0x3e3b7d1f	0.18309449
97	0x3cd41e97	0.025893493
98	0x3db6c584	0.08924392
99	0x3b9ab09a	0.0047207596
100	0xbc4ec212	-0.012619512
101	0xbba51055	-0.0050373473
102	0xbd3b4e78	-0.04572913
103	0x3c91d516	0.017801803
104	0x3d89e991	0.067340024
105	0x3d8efc7b	0.069817506
106	0x3d6bbb44	0.057551637
107	0x3ca27cba	0.019834865
108	0xbc900b0d	-0.017583394
109	0xbce2cc2b	-0.027685245
110	0x3d9c0589	0.07618243
111	0x3dd9a52b	0.106272064
112	0x3e23921a	0.15973702
113	0xbd27a2a2	-0.040926583
114	0xbd0152ef	-0.031573232
115	0x3c510a6d	0.012758833
116	0x3dfb27d6	0.122634575
117	0xbdf51b08	-0.119680464
118	0x3d762af8	0.060099572
119	0x3cdadf58	0.026717827
120	0x3dee549d	0.116372325
121	0xbda18c48	-0.07888085
122	0x3d82238c	0.06354436
123	0xbc334374	-0.010941375
124	0x3da57947	0.080797724
125	0xbd5f54eb	-0.054524343
126	0xbda23a63	-0.07921293
127	0x3d3e4340	0.046450853
128	0x3c7dfb39	0.015501791
129	0xbbc948a9	-0.006142695
130	0x3d3f1ad4	0.046656445
131	0xbdd2c1fb	-0.10290905
132	0x3d3e6d2f	0.046490844
133	0x3d4431cb	0.04789905
134	0xbe14e560	-0.14540625
135	0x3bd9e68b	0.0066497973
136	0x3d573bbe	0.05254721
137	0xbde4de9a	-0.111752704
138	0x3d8e96bb	0.06962343
139	0xbdda0623	-0.10645702
140	0xbd68dac1	-0.056849245
141	0xbdea6750	-0.114454865
142	0xbd9b9014	-0.0759584
143	0xbd91cce7	-0.0711916
144	0x3d19b097	0.037521925
145	0x3dca7dca	0.098872736
146	0xbbcab7b6	-0.006186451
147	0x3d5386d4	0.051642254
148	0x3dc269b4	0.094928175
149	0x3d8786ea	0.0661753
150	0xbcaec86b	-0.021335801
151	0xbdf1716c	-0.11789212
152	0xbe33f9dd	-0.17575784
153	0xbddbdcfb	-0.10735508
154	0xbcc24aa8	-0.02371724
155	0x3ccba045	0.024856696
156	0xbb160b4f	-0.0022894924
157	0x3e136348	0.14393342
158	0xbe061b54	-0.13096362
159	0xbd619671	-0.055075113
160	0x3dd86720	0.105665445
161	0x3de75426	0.11295347
162	0x3db915ac	0.09037337
163	0x3c3f29c8	0.011667676
164	0xbe488036	-0.19580159
165	0x3d5ec26f	0.054384645
166	0xbbc4177a	-0.005984244
167	0x3d551d07	0.052029636
168	0x3e018a02	0.12650302
169	0xbd3ba3eb	-0.04581062
170	0xbdd25387	-0.10269838
171	0x3e45468f	0.19265197
172	0x3cc90c02	0.024541859
173	0x3cc1ba38	0.023648366
174	0xbdfed35e	-0.12442659
175	0xbd161259	-0.03663859
176	0xbe19a1f0	-0.1500318
177	0x3d97fc17	0.07421129
178	0x3d0e25b0	0.03470391
179	0xbc78bdcf	-0.015181973
180	0x3dbc11f3	0.09183111
181	0xbb400b4a	-0.0029303604
182	0x3e2c8449	0.16847338
183	0x3d04605b	0.032318454
184	0x3ddb89fd	0.107196786
185	0xbe12ac3f	-0.14323519
186	0x3ce2dfba	0.027694572
187	0x3e357d9c	0.17723697
188	0xbdc252f6	-0.0948848
189	0x3cb86603	0.02250958
190	0x3daf5a94	0.08562198
191	0x3d289545	0.04115798
192	0x3cd6c54c	0.026217125
193	0x3defb1c5	0.11703829
194	0x3c8c57f0	0.017131776
195	0xbd434a1e	-0.047678106
196	0xbe0505d9	-0.12990512
197	0xbd59a5b1	-0.05313653
198	0xbdfc7ff0	-0.1232909
199	0x3e43e002	0.19128421
200	0x3e299594	0.16560966
201	0x3d7e6912	0.06211192
202	0xbd14fd81	-0.036374573
203	0xbc5bbcbc	-0.013411697
204	0xbba806c5	-0.00512776
205	0xbe361b65	-0.17783888
206	0xbda090c1	-0.078401096
207	0xbe07d3a6	-0.13264331
208	0xbe40b0a0	-0.18817377
209	0x3d2d39c8	0.042291433
210	0xbd28ccdd	-0.041210998
211	0xbe5650d6	-0.20929274
212	0x3d145a05	0.03621866
213	0xbbe33bcf	-0.00693462
214	0xbd75aad0	-0.059977353
215	0xbe6a6d61	-0.22893287
216	0x3e014117	0.12622486
217	0x3b3eee46	0.0029133721
218	0x3d50c983	0.050973427
219	0xbe18c460	-0.14918661
220	0xbd90ee51	-0.07076705
221	0xbe23f740	-0.16012287
222	0x3e1cf12f	0.15326379
223	0xbd978393	-0.07398143
224	0x3caf0741	0.021365764
225	0xbc712d52	-0.014720278
226	0xbd0166ab	-0.031592052
227	0x3ae027bc	0.0017101686
228	0x3d785339	0.060626242
229	0x3d4de505	0.05026724
230	0x3d8ed5aa	0.06974347
231	0x3be7ab8b	0.00707001
232	0xbd9258b1	-0.07145823
233	0x3d9d6975	0.0768613
234	0xbd6aa879	-0.057289574
235	0xbb46f6e8	-0.003035957
236	0x3d4f5165	0.050614733
237	0x3d8360c0	0.06414938
238	0xbe09c1ff	-0.1345291
239	0x3d15c850	0.036567986
240	0xbda05a0e	-0.078296766
241	0x3e26c8ba	0.16287509
242	0xbb76e3bf	-0.0037672368
243	0x3dd0bcdf	0.10192274
244	0x3d1f7a75	0.038935144
245	0x3d22ffa3	0.039794575
246	0x3d9c880d	0.07643137
247	0x3db4aa11	0.088215
248	0x3cf9c46c	0.030489169
249	0x3d16bcdb	0.0368012
250	0xba877de3	-0.00103372
251	0xbde8c59a	-0.113658145
252	0xbe1f4532	-0.1555374
253	0x3cac6452	0.02104393
254	0x3d2791de	0.040910594
255	0xbd86c3d6	-0.065803215

network_body._body_endoder.seq_layers.2.bias f4 [128]
0	0x00000000	0.0
1	0x00000000	0.0
2	0x00000000	0.0
3	0x00000000	0.0
4	0x00000000	0.0
5	0x00000000	0.0
6	0x00000000	0.0
7	0x00000000	0.0
8	0x00000000	0.0
9	0x00000000	0.0
10	0x00000000	0.0
11	0x00000000	0.0
12	0x00000000	0.0
13	0x00000000	0.0
14	0x00000000	0.0
15	0x00000000	0.0
16	0x00000000	0.0
17	0x00000000	0.0
18	0x00000000	0.0
19	0x00000000	0.0
20	0x00000000	0.0
21	0x00000000	0.0
22	0x00000000	0.0
23	0x00000000	0.0
24	0x00000000	0.0
25	0x00000000	0.0
26	0x00000000	0.0
27	0x00000000	0.0
28	0x00000000	0.0
29	0x00000000	0.0
30	0x00000000	0.0
31	0x00000000	0.0
32	0x00000000	0.0
33	0x00000000	0.0
34	0x00000000	0.0
35	0x00000000	0.0
36	0x00000000	0.0
37	0x00000000	0.0
38	0x00000000	0.0
39	0x00000000	0.0
40	0x00000000	0.0
41	0x00000000	0.0
42	0x00000000	0.0
43	0x00000000	0.0
44	0x00000000	0.0
45	0x00000000	0.0
46	0x00000000	0.0
47	0x00000000	0.0
48	0x00000000	0.0
49	0x00000000	0.0
50	0x00000000	0.0
51	0x00000000	0.0
52	0x00000000	0.0
53	0x00000000	0.0
54	0x00000000	0.0
55	0x00000000	0.0
56	0x00000000	0.0
57	0x00000000	0.0
58	0x00000000	0.0
59	0x00000000	0.0
60	0x00000000	0.0
61	0x00000000	0.0
62	0x00000000	0.0
63	0x00000000	0.0
64	0x00000000	0.0
65	0x00000000	0.0
66	0x00000000	0.0
67	0x00000000	0.0
68	0x00000000	0.0
69	0x00000000	0.0
70	0x00000000	0.0
71	0x00000000	0.0
72	0x00000000	0.0
73	0x00000000	0.0
74	0x00000000	0.0
75	0x00000000	0.0
76	0x00000000	0.0
77	0x00000000	0.0
78	0x00000000	0.0
79	0x00000000	0.0
80	0x00000000	0.0
81	0x00000000	0.0
82	0x00000000	0.0
83	0x00000000	0.0
84	0x00000000	0.0
85	0x00000000	0.0
86	0x00000000	0.0
87	0x00000000	0.0
88	0x00000000	0.0
89	0x00000000	0.0
90	0x00000000	0.0
91	0x00000000	0.0
92	0x00000000	0.0
93	0x00000000	0.0
94	0x00000000	0.0
95	0x00000000	0.0
96	0x00000000	0.0
97	0x00000000	0.0
98	0x00000000	0.0
99	0x00000000	0.0
100	0x00000000	0.0
101	0x00000000	0.0
102	0x00000000	0.0
103	0x00000000	0.0
104	0x00000000	0.0
105	0x00000000	0.0
106	0x00000000	0.0
107	0x00000000	0.0
108	0x00000000	0.0
109	0x00000000	0.0
110	0x00000000	0.0
111	0x00000000	0.0
112	0x00000000	0.0
113	0x00000000	0.0
114	0x00000000	0.0
115	0x00000000	0.0
116	0x00000000	0.0
117	0x00000000	0.0
118	0x00000000	0.0
119	0x00000000	0.0
120	0x00000000	0.0
121	0x00000000	0.0
122	0x00000000	0.0
123	0x00000000	0.0
124	0x00000000	0.0
125	0x00000000	0.0
126	0x00000000	0.0
127	0x00000000	0.0

action_model._discrete_distribution.branches.0.weight f4 [5, 128]
0	0x3beb1a32	0.0071747536
1	0xbbedd44b	-0.0072579733
2	0x3b71e908	0.003691258
3	0x3bd0fff0	0.0063781664
4	0x3c835907	0.016033662
5	0x39d90403	0.00041392454
6	0xbc2f49a7	-0.010698712
7	0xbbea71c3	-0.0071546747
8	0x3bdf488f	0.0068140696
9	0xbb0a0765	-0.0021061536
10	0xbb8fd789	-0.0043897075
11	0x3c8d5be9	0.01725574
12	0x3c0b022d	0.008484405
13	0x3c1b8dd0	0.00949426
14	0xbbaba549	-0.0052382094
15	0x3c6b7a3f	0.014372407
16	0xbba6701c	-0.0050792824
17	0xbbf1a8ab	-0.007374843
18	0xbaa2e5b9	-0.0012428082
19	0xbbc7b653	-0.006094733
20	0x3ba67403	0.0050797476
21	0x3c23d5a7	0.009999669
22	0xbc35e5a6	-0.011102116
23	0xbb134ade	-0.0022475044
24	0xbbcbcb89	-0.0062193316
25	0x3b2d4e84	0.0026444504
26	0xbb7a5f7a	-0.003820388
27	0xbbb79998	-0.0056030266
28	0x3c5e277a	0.013559217
29	0xbb9514ed	-0.0045496137
30	0xbc0679aa	-0.008207718
31	0x3c9cbe13	0.019133603
32	0x3a828f82	0.0009960982
33	0xbb7185a3	-0.0036853335
34	0xbb97143a	-0.0046105655
35	0xbc912d4f	-0.0177218
36	0xbbb2157c	-0.00543469
37	0xbc4df7d7	-0.012571297
38	0xba2d04fb	-0.00066001684
39	0xbc7d260f	-0.015450968
40	0x3b22ce5f	0.0024842245
41	0x3b8fe21b	0.0043909675
42	0x3c853fe7	0.016265823
43	0xbc5e07b7	-0.013551644
44	0x3ca5b7bb	0.020229211
45	0xbc616ad8	-0.013758384
46	0xb9dd475b	-0.0004220557
47	0x3bbe76af	0.005812488
48	0xbb59bbeb	-0.003322358
49	0xbbbe3e64	-0.0058057774
50	0xba8a5696	-0.0010554369
51	0xbc9d5379	-0.019204842
52	0xbba2baa1	-0.0049660956
53	0x3c400164	0.011719082
54	0x3c3458af	0.011007472
55	0xb8a26329	-7.743232e-05
56	0x3bd82832	0.0065965885
57	0xbc5158b0	-0.012777492
58	0xbc016907	-0.007898576
59	0x3c9bdb1d	0.01902538
60	0x3a497e2e	0.0007686344
61	0x3c2a110e	0.010380043
62	0x3c018c0b	0.007906924
63	0x3c526dbf	0.012843548
64	0x3c830f5f	0.01599854
65	0x3bf07f25	0.0073393756
66	0x3caa37db	0.020778587
67	0xba051f27	-0.00050781894
68	0x3c48d997	0.012258909
69	0xbbc09b12	-0.005877861
70	0x3b338707	0.0027393715
71	0xbc537842	-0.01290709
72	0x3b1e26b8	0.0024131965
73	0xba9f64f4	-0.0012160824
74	0xbb5e5b6a	-0.0033928999
75	0x3bfed19d	0.0077764527
76	0xbbf0b290	-0.007345505
77	0xbc1f0731	-0.009706304
78	0xbc516f18	-0.0127828345
79	0x3c9234da	0.017847467
80	0xba459f07	-0.00075386505
81	0xbc7183e7	-0.014740921
82	0xbc8a8d75	-0.016913155
83	0x3b40f9ed	0.0029445842
84	0xbc3172ab	-0.010830562
85	0xbc135110	-0.008991495
86	0xbb0b0873	-0.0021214753
87	0xbc3f0adb	-0.011660303
88	0xbc2e325f	-0.010632127
89	0x3b2edf39	0.0026683344
90	0xbc3667b9	-0.011133128
91	0xbc44cb77	-0.0120114
92	0x3aa40cb0	0.0012515988
93	0x3b06fb54	0.002059658
94	0xbb32a833	-0.00272609
95	0x3c2af79e	0.010435013
96	0x3c2c7318	0.010525487
97	0xbb81c0e7	-0.0039597633
98	0x3ba4bf56	0.005027692
99	0xbb01c749	-0.001980262
100	0xbba093a9	-0.004900415
101	0x3c5342f8	0.012894385
102	0x3a2dd258	0.000663077
103	0x3c69620b	0.014244567
104	0x3c4cb3ab	0.012494008
105	0x3bb3c76f	0.005486421
106	0x3bc1fc1d	0.005919947
107	0xba967961	-0.0011480266
108	0x3c330597	0.010926626
109	0x3c208412	0.009797113
110	0x3c1be1bd	0.009514269
111	0xbb91f0cb	-0.0044537536
112	0xbb5df6a8	-0.0033868942
113	0x3ce2625a	0.027634788
114	0x3bb81d17	0.005618702
115	0x392e8b85	0.00016645908
116	0x3c854a69	0.016270833
117	0xbb590898	-0.0033116695
118	0xbb051c5f	-0.00203111
119	0x3ae1ffe8	0.0017242404
120	0xbc32b4a4	-0.010907326
121	0x3bb574de	0.0055376133
122	0x3c5550f2	0.013019787
123	0xbb9438bd	-0.0045233653
124	0xbaf61378	-0.0018774113
125	0xbbf52e0d	-0.0074822963
126	0xbc17837a	-0.009247655
127	0x38c90224	9.5848256e-05
128	0xbbd2ebe2	-0.006436811
129	0x3c0139ff	0.0078873625
130	0x3b899acf	0.004199363
131	0xbc0860c8	-0.008323856
132	0xbb52d378	-0.0032169502
133	0x3afc5387	0.0019250967
134	0x3ca0a5d1	0.019610317
135	0xbc008e6f	-0.007846459
136	0xbb13fa3f	-0.0022579578
137	0x3b092e89	0.0020932278
138	0x3a210993	0.0006143089
139	0x3c8bb5ef	0.017054526
140	0xbb3c4958	-0.002873024
141	0x3b6255d5	0.0034536023
142	0x3c8962e1	0.016770782
143	0x3c93fc5f	0.018064676
144	0x3c08cb9b	0.008349325
145	0xbbe1673a	-0.0068787606
146	0xbac2ee25	-0.0014871998
147	0x3b80f3d2	0.0039353156
148	0x3b939f97	0.0045051086
149	0xbb935e77	-0.004497345
150	0x3b41a2e8	0.0029546563
151	0x3b5cafcd	0.0033674121
152	0xbc27be1b	-0.010238196
153	0x3a160f83	0.00057243573
154	0x3b914de4	0.004434334
155	0x3b9c9b6a	0.004779269
156	0x3ca2b14b	0.01985993
157	0xbc13cafe	-0.009020565
158	0xbc18aa66	-0.00931797
159	0x3c08036f	0.0083016
160	0x3b01f97f	0.001983255
161	0x3c6aa2f0	0.014321074
162	0x3b3c095f	0.002869211
163	0x39d160e8	0.00039935787
164	0x3bb999a6	0.0056640683
165	0xbbba37c3	-0.005682917
166	0x37bcdffe	2.2515651e-05
167	0xbc24b4c1	-0.010052861
168	0x3c5b5b07	0.013388402
169	0xbc5edf73	-0.013603079
170	0x3b852219	0.0040629026
171	0x3beea843	0.007283242
172	0xbc03a4f8	-0.008034937
173	0xbc06d215	-0.008228798
174	0x3c1ae045	0.009452884
175	0x3c0e6343	0.008690658
176	0xbc93b359	-0.018029856
177	0x3c4e0fef	0.012577041
178	0x39fbb4fa	0.0004800929
179	0xbb5b6e57	-0.0033482516
180	0xbc843639	-0.016139137
181	0x3c116535	0.008874227
182	0xbc8b2261	-0.016984167
183	0xbc3955c5	-0.011311953
184	0x3be86fbf	0.0070933993
185	0xbac3a40f	-0.0014926213
186	0x3c176e83	0.009242657
187	0x3c3c18d0	0.011480525
188	0x3c64ee10	0.013972774
189	0x39f6b26a	0.00047053705
190	0x3b1be06c	0.002378489
191	0x3bfbbfc7	0.0076827738
192	0x3b005d97	0.0019587034
193	0x3a36f7e3	0.0006979687
194	0x3c943bd3	0.018094933
195	0xbc2e3396	-0.010632416
196	0xbc1e1e71	-0.0096508125
197	0xb7349565	-1.076362e-05
198	0xbc252d4f	-0.010081603
199	0xbb83d276	-0.0040228916
200	0xbcbf70cd	-0.023369217
201	0xbc7fc2bd	-0.015610394
202	0xba73a0db	-0.00092936837
203	0xba85732b	-0.0010181417
204	0xbc36e95f	-0.011164038
205	0x3c0d31a2	0.00861779
206	0x3b40fbf8	0.002944706
207	0x3bfbee5d	0.007688327
208	0x3bcd94ea	0.0062738555
209	0xbba68737	-0.005082037
210	0xbc0ed493	-0.008717674
211	0xbb8459d0	-0.004039027
212	0xb72d4ea9	-1.0329918e-05
213	0x3be4a4f2	0.006977671
214	0x3c02705e	0.007961361
215	0x3b26f283	0.0025474138
216	0x3b84b46d	0.0040498287
217	0xbc509d5a	-0.012732828
218	0xbb308308	-0.002693357
219	0xbc0e9df5	-0.008704652
220	0xbc300f70	-0.010745868
221	0xba49be50	-0.00076959
222	0x37f7169a	2.945522e-05
223	0xbb9573bf	-0.004560917
224	0x3c33228e	0.010933531
225	0x3c76d9d2	0.015066581
226	0xba7326f0	-0.00092755165
227	0x3c37809f	0.011200099
228	0x3c1917e7	0.009344078
229	0x3a4c847c	0.0007801724
230	0x3b9172a0	0.004438713
231	0x3bc27eca	0.0059355246
232	0x3a0875b5	0.0005205528
233	0xbb7e4cf3	-0.003880319
234	0xbbb60eef	-0.0055559794
235	0x3bb4429a	0.0055011036
236	0xbc2dcf97	-0.010608575
237	0x3b6fc473	0.0036585599
238	0x3b74da20	0.0037361458
239	0x3bd66155	0.0065423646
240	0x3baeacd8	0.005330663
241	0x3b9fd777	0.0048779803
242	0xbc82d3b2	-0.015970085
243	0xbb3f4297	-0.0029183978
244	0xbbcba9c7	-0.0062153074
245	0x3a9e2371	0.0012065006
246	0xbae407fa	-0.0017397397
247	0xbbc471c5	-0.0059950077
248	0xbb230867	-0.0024876834
249	0x3b267abe	0.002540275
250	0xbc7c6b93	-0.015406507
251	0xbc78a123	-0.015175137
252	0xbc51bfd3	-0.012802082
253	0x3aed5dfa	0.0018109672
254	0x3b3b6883	0.002859623
255	0xbbd530d5	-0.0065060654

action_model._discrete_distribution.branches.0.bias f4 [5]
0	0x00000000	0.0
1	0x00000000	0.0
2	0x00000000	0.0
3	0x00000000	0.0
4	0x00000000	0.0

network_body._body_endoder.seq_layers.0.weight f4 [128, 1]
0	0xbf5a181f	-0.85193056
1	0x3f3d4205	0.7392886
2	0x3d99ca36	0.07509272
3	0xbf467c3c	-0.77533317
4	0xbefbc042	-0.4917012
5	0x3f86d01f	1.0532264
6	0x3fa6623c	1.2998729
7	0xbeee6f9a	-0.4656952
8	0x3f27e62a	0.6558558
9	0xbf15d52b	-0.58528394
10	0x3fc78624	1.5587811
11	0x3ef7704f	0.48327872
12	0xbed78260	-0.42091656
13	0x3e99c23b	0.30031
14	0x3fcc63e7	1.5967988
15	0x3f9cd8a4	1.2253613
16	0xbf975ac4	-1.1824574
17	0x3f0cb2c7	0.5496029
18	0x3fab92de	1.3404195
19	0xbf3c251c	-0.73494124
20	0xbe069033	-0.13140945
21	0xbd887a9a	-0.066640094
22	0xbdb0fd67	-0.08642083
23	0x3c4554e0	0.012044162
24	0xbeb718f7	-0.35761234
25	0x3f1938b2	0.59852135
26	0x3fb68bac	1.4261374
27	0x3f654e34	0.89572453
28	0x40078791	2.1176493
29	0x4005d59d	2.091163
30	0xbe4608b8	-0.19339263
31	0x3dd0cbd1	0.10195125
32	0xbf20dacd	-0.62833863
33	0xbf17cf74	-0.59300923
34	0x3e7cbe48	0.24681962
35	0x3f90f069	1.1323367
36	0xbe6f2483	-0.23353772
37	0x4018c7b7	2.3871896
38	0x3fa35969	1.2761661
39	0x3fbe741e	1.4879186
40	0xc0136448	-2.3029957
41	0xbf296c3d	-0.66180784
42	0x3f494fcc	0.78637385
43	0x3f1d2ccd	0.61396486
44	0xc03fb68d	-2.995517
45	0x3d2f8e4b	0.04286031
46	0xbf832059	-1.0244247
47	0x3f520c69	0.82050186
48	0xbf45e357	-0.7730002
49	0x3eb3131a	0.3497551
50	0x3faf2e13	1.3685936
51	0x3fa84573	1.3146194
52	0x3de0b732	0.10972442
53	0x3fdb6ca4	1.714253
54	0xbcdd1990	-0.026989728
55	0x3fe132cf	1.759363
56	0x3fbfa98b	1.4973615
57	0xbfd67237	-1.6753606
58	0x3edb03b0	0.4277625
59	0xbff7c948	-1.9358301
60	0x3fc2b00f	1.5209979
61	0x3ed42631	0.41435388
62	0x3e06b7ef	0.13156103
63	0x3f0c60a4	0.5483496
64	0x3f7e4f8e	0.9934014
65	0xbfa54064	-1.2910275
66	0x3ebae75a	0.36504632
67	0xbf55a7a8	-0.8345895
68	0xbf10555d	-0.56380254
69	0xbf8d8f8e	-1.1059434
70	0x3f158bdd	0.5841654
71	0xbfccd4cd	-1.6002442
72	0xbdaa82ea	-0.08325751
73	0x3feb9487	1.8404702
74	0xbfe97ca6	-1.8241165
75	0x3f42fca3	0.76166743
76	0xba599b09	-0.0008300995
77	0x3f4d74f9	0.8025661
78	0xbf334dcd	-0.7004059
79	0x3f91c5f4	1.1388535
80	0x3f8d15d7	1.102229
81	0xbf411adf	-0.7543163
82	0xbea37983	-0.31928644
83	0xbf549178	-0.8303447
84	0xbf492f31	-0.78587633
85	0xbdd49d94	-0.10381618
86	0xbec5887e	-0.38580698
87	0x3f277c82	0.6542436
88	0x3d5c9a5f	0.053858157
89	0x3f8ff7a8	1.1247454
90	0x3e523fa8	0.20532095
91	0xbe608c61	-0.2192855
92	0xbf65e6cb	-0.8980529
93	0xbfc4cff5	-1.5375963
94	0x402048c5	2.5044415
95	0x3fa90271	1.320387
96	0x3f2077a6	0.6268257
97	0xbf0aeba5	-0.54265815
98	0xbf9158f1	-1.1355268
99	0xbf23d058	-0.6398978
100	0xbf92e270	-1.1475353
101	0x3ed79546	0.42106074
102	0x3e9db4d4	0.30802023
103	0xbfbfb7f2	-1.4978011
104	0x3f76d5c4	0.9641993
105	0xbf3106ea	-0.69151175
106	0x3d42cc26	0.047557972
107	0x3f3f586b	0.7474429
108	0xbf834ba6	-1.0257461
109	0x3ed4b04b	0.4154075
110	0x3f26b759	0.65123516
111	0xbf3c6aa5	-0.73600227
112	0x3ebbf594	0.367108
113	0xbe538794	-0.20657188
114	0xbf1b848a	-0.60749114
115	0xbf245105	-0.64186126
116	0x3f80a9f0	1.0051861
117	0x4017c46e	2.371364
118	0xbfa52d51	-1.2904454
119	0xbf3901f6	-0.7226862
120	0xc0065c67	-2.0993898
121	0xbff89243	-1.9419636
122	0xbe912ebf	-0.28355977
123	0xbeac0090	-0.3359418
124	0x3f50d57b	0.81575745
125	0x3dc2a74d	0.09504566
126	0xbfcdb3bc	-1.6070476
127	0xbf04b79f	-0.51842684

network_body._body_endoder.seq_layers.0.bias f4 [128]
0	0x00000000	0.0
1	0x00000000	0.0
2	0x00000000	0.0
3	0x00000000	0.0
4	0x00000000	0.0
5	0x00000000	0.0
6	0x00000000	0.0
7	0x00000000	0.0
8	0x00000000	0.0
9	0x00000000	0.0
10	0x00000000	0.0
11	0x00000000	0.0
12	0x00000000	0.0
13	0x00000000	0.0
14	0x00000000	0.0
15	0x00000000	0.0
16	0x00000000	0.0
17	0x00000000	0.0
18	0x00000000	0.0
19	0x00000000	0.0
20	0x00000000	0.0
21	0x00000000	0.0
22	0x00000000	0.0
23	0x00000000	0.0
24	0x00000000	0.0
25	0x00000000	0.0
26	0x00000000	0.0
27	0x00000000	0.0
28	0x00000000	0.0
29	0x00000000	0.0
30	0x00000000	0.0
31	0x00000000	0.0
32	0x00000000	0.0
33	0x00000000	0.0
34	0x00000000	0.0
35	0x00000000	0.0
36	0x00000000	0.0
37	0x00000000	0.0
38	0x00000000	0.0
39	0x00000000	0.0
40	0x00000000	0.0
41	0x00000000	0.0
42	0x00000000	0.0
43	0x00000000	0.0
44	0x00000000	0.0
45	0x00000000	0.0
46	0x00000000	0.0
47	0x00000000	0.0
48	0x00000000	0.0
49	0x00000000	0.0
50	0x00000000	0.0
51	0x00000000	0.0
52	0x00000000	0.0
53	0x00000000	0.0
54	0x00000000	0.0
55	0x00000000	0.0
56	0x00000000	0.0
57	0x00000000	0.0
58	0x00000000	0.0
59	0x00000000	0.0
60	0x00000000	0.0
61	0x00000000	0.0
62	0x00000000	0.0
63	0x00000000	0.0
64	0x00000000	0.0
65	0x00000000	0.0
66	0x00000000	0.0
67	0x00000000	0.0
68	0x00000000	0.0
69	0x00000000	0.0
70	0x00000000	0.0
71	0x00000000	0.0
72	0x00000000	0.0
73	0x00000000	0.0
74	0x00000000	0.0
75	0x00000000	0.0
76	0x00000000	0.0
77	0x00000000	0.0
78	0x00000000	0.0
79	0x00000000	0.0
80	0x00000000	0.0
81	0x00000000	0.0
82	0x00000000	0.0
83	0x00000000	0.0
84	0x00000000	0.0
85	0x00000000	0.0
86	0x00000000	0.0
87	0x00000000	0.0
88	0x00000000	0.0
89	0x00000000	0.0
90	0x00000000	0.0
91	0x00000000	0.0
92	0x00000000	0.0
93	0x00000000	0.0
94	0x00000000	0.0
95	0x00000000	0.0
96	0x00000000	0.0
97	0x00000000	0.0
98	0x00000000	0.0
99	0x00000000	0.0
100	0x00000000	0.0
101	0x00000000	0.0
102	0x00000000	0.0
103	0x00000000	0.0
104	0x00000000	0.0
105	0x00000000	0.0
106	0x00000000	0.0
107	0x00000000	0.0
108	0x00000000	0.0
109	0x00000000	0.0
110	0x00000000	0.0
111	0x00000000	0.0
112	0x00000000	0.0
113	0x00000000	0.0
114	0x00000000	0.0
115	0x00000000	0.0
116	0x00000000	0.0
117	0x00000000	0.0
118	0x00000000	0.0
119	0x00000000	0.0
120	0x00000000	0.0
121	0x00000000	0.0
122	0x00000000	0.0
123	0x00000000	0.0
124	0x00000000	0.0
125	0x00000000	0.0
126	0x00000000	0.0
127	0x00000000	0.0

network_body._body_endoder.seq_layers.2.weight f4 [128, 128]
0	0xbd11a1f1	-0.03555483
1	0x3d911e09	0.07085807
2	0xbb7de853	-0.0038743212
3	0xbdd6e1a0	-0.10492253
4	0xbdbbf24f	-0.09177076
5	0xbc113dc9	-0.008864828
6	0x3d462760	0.048377395
7	0x3d013a46	0.031549715
8	0xbd970931	-0.073748
9	0xbc572eb2	-0.013133692
10	0xbe04b96e	-0.12961361
11	0xbdabb379	-0.08383841
12	0xbd039f1a	-0.032134153
13	0x3d6eaf84	0.058272853
14	0x3e17f15e	0.14838168
15	0x3cc6cdfb	0.024268141
16	0xbd1e4143	-0.038636457
17	0x3c495888	0.012289174
18	0xbd9c76f4	-0.07639876
19	0xbc0be65f	-0.0085388115
20	0x3dcdcb1d	0.100485064
21	0xbc7c10f5	-0.015384902
22	0x3c687c01	0.014189721
23	0xbe235cfc	-0.1595344
24	0x3c297b43	0.010344329
25	0xbd55ebde	-0.052226894
26	0xbd0c9316	-0.03431996
27	0x3cbeb7ab	0.02328094
28	0xbd61fe48	-0.055174142
29	0xbe6413eb	-0.22273223
30	0x3c94d30c	0.018167041
31	0xbdd46620	-0.10371041
32	0x3d977765	0.073958196
33	0x3e376f91	0.17913653
34	0xbdb29231	-0.0871929
35	0xbd812180	-0.06305218
36	0x3e0472db	0.12934439
37	0x3d50f6c1	0.051016573
38	0x3d899d3a	0.06719442
39	0x3c967c6e	0.01836988
40	0x3e0c7b25	0.13718851
41	0x3d85bf9c	0.06530687
42	0xbde7855d	-0.11304734
43	0xbd8ad2ce	-0.06778489
44	0xbc51509e	-0.012775568
45	0x3d9147cd	0.07093773
46	0x3b1b85e9	0.002373094
47	0x3c813c7b	0.01577591
48	0xbe3715d8	-0.17879426
49	0xbe149432	-0.14509657
50	0xbc4ad05a	-0.012378776
51	0x3e1a2c43	0.15055947
52	0xbdbb1f1a	-0.091367915
53	0x3dd144c6	0.102181956
54	0xbe04d9f2	-0.12973765
55	0xbcec6613	-0.028857267
56	0xbcef3ca5	-0.029203722
57	0x3d9ff62e	0.07810627
58	0xbca269f2	-0.01982591
59	0x3d263efb	0.040587407
60	0xbe152b22	-0.14567235
61	0x3d9021b1	0.07037676
62	0x3d15dcd8	0.036587566
63	0xbd9ea215	-0.077457584
64	0xbd06581a	-0.032798864
65	0x3d05dd71	0.032681886
66	0x3da662f6	0.08124344
67	0xbde1af75	-0.11019794
68	0x3dab86a5	0.08375291
69	0xbe0f4320	-0.1399045
70	0x3e4dc763	0.20095591
71	0x3d6af331	0.05736083
72	0x3d86dc14	0.06584945
73	0x3e1371da	0.143989
74	0xbde2196c	-0.11040005
75	0x3d9cdfdb	0.076598845
76	0xbb8ac4ec	-0.0042349007
77	0xbd26ec9b	-0.04075299
78	0xbe2074c1	-0.15669538
79	0xbdd27de8	-0.10277921
80	0x3dc44f40	0.09585428
81	0xbd41ae35	-0.047285277
82	0x3dd34a77	0.103169374
83	0xbc0fe743	-0.008783164
84	0x3d67e3c3	0.056613695
85	0x3c91e29b	0.01780825
86	0xbe22278d	-0.158354
87	0x3db2fe5a	0.0873992
88	0x3c6a8d9a	0.014315987
89	0x3c204ce9	0.009783962
90	0xbd8072a0	-0.06271863
91	0xbccb07bd	-0.024783963
92	0x3cd09ff1	0.025466891
93	0x3e3095ba	0.17244616
94	0x3e01169c	0.12606281
95	0x3c888ae7	0.016667796
96	0xbcd21af6	-0.025647622
97	0xbcf610a9	-0.030037241
98	0x3d893628	0.066997826
99	0x3ce25d47	0.027632369
100	0xbd829051	-0.063751824
101	0xbda30898	-0.079606235
102	0x3d6290ae	0.05531376
103	0x3e2a381f	0.16622971
104	0xbda41e2b	-0.080135666
105	0x3dcd7829	0.10032684
106	0x3d3bdc82	0.04586459
107	0x3c90729c	0.017632775
108	0xbe0502f7	-0.12989412
109	0x3cf84f3b	0.030311218
110	0xbc6fbc54	-0.014632303
111	0xbc9be653	-0.019030726
112	0xbe133de3	-0.14379077
113	0xbdaea94b	-0.08528384
114	0x3c55f088	0.013057835
115	0x3c9032d9	0.017602371
116	0x3b6d0904	0.0036168704
117	0xbd0ce708	-0.034400016
118	0xbd63a94e	-0.055581383
119	0x3e140dce	0.14458391
120	0x3cf45440	0.02982533
121	0x3ce367aa	0.027759392
122	0x3c00598f	0.007833852
123	0x3ca00e4b	0.019538065
124	0xbdc278cd	-0.09495697
125	0xbc5a1c73	-0.013312447
126	0xbcbb1ad9	-0.02283995
127	0xbdda4325	-0.10657338
128	0x3d46b663	0.04851378
129	0xbe1f7355	-0.1557134
130	0x3e2d5927	0.1692854
131	0xbdd8f25c	-0.105931014
132	0x3c69b196	0.014263531
133	0x3cbf7f77	0.02337621
134	0xbd4d9d7e	-0.050199024
135	0xbd5fe1e0	-0.05465877
136	0x3dd6db2e	0.10491024
137	0xbcf2f380	-0.029657125
138	0xbd7ea29c	-0.062166795
139	0xbd4ef8b4	-0.05053015
140	0x3d93fd39	0.07226033
141	0xbd18562a	-0.037191547
142	0x3cb14184	0.021637686
143	0xbd07417e	-0.033021443
144	0x3d9f003f	0.07763719
145	0xbdba0fa0	-0.090850115
146	0xbde13f64	-0.10998419
147	0xbe7205bf	-0.23635004
148	0xbe123146	-0.14276609
149	0x3d9eb750	0.07749808
150	0xbd1f8d3d	-0.038953055
151	0x3c08153c	0.008305844
152	0x3db562d6	0.08856742
153	0xbcbbb756	-0.02291457
154	0x3cf90f90	0.030402929
155	0xbccce88a	-0.025013227
156	0x3d4d1589	0.050069366
157	0xbe0504fc	-0.12990183
158	0x3d29ca7d	0.041452873
159	0xbdee7f1a	-0.116453364
160	0xbe033c91	-0.12816073
161	0x3e2185ea	0.1577374
162	0xbdbeca53	-0.09315934
163	0x3c0f03bc	0.008728918
164	0xbdcb339d	-0.09921954
165	0xbca06581	-0.01957965
166	0xbd5f50f5	-0.054520566
167	0x3ddb964b	0.107220255
168	0xbd06ce5d	-0.032911647
169	0xbda2d99d	-0.07951663
170	0x3d8861c9	0.06659276
171	0xbe3b6571	-0.18300416
172	0xbde78527	-0.11304694
173	0x3da835cd	0.08213387
174	0xbd4040f1	-0.046936933
175	0xbd7ad87d	-0.061241616
176	0x3c47611b	0.012169148
177	0xbceac161	-0.028656663
178	0x3cbb2304	0.022843845
179	0x3d3d08f6	0.046151124
180	0xbdcd615b	-0.10028335
181	0xbdb3b77d	-0.08775232
182	0xbc253107	-0.01008249
183	0x3e18f855	0.14938481
184	0x3d58f1e2	0.052965052
185	0x3cc06464	0.02348537
186	0xbcf70e31	-0.030158134
187	0xbd892972	-0.06697358
188	0x3dba4b1c	0.09096357
189	0xbd6847b9	-0.056709025
190	0x3d4fcf25	0.050734658
191	0x3df43b47	0.11925369
192	0xbd1e0856	-0.03858217
193	0x3dbf9cfc	0.09356114
194	0xbd4d6cdf	-0.050152656
195	0x3d688703	0.056769382
196	0x3e39d2b6	0.18146786
197	0x3e2e41d7	0.17017303
198	0x3e7f7e63	0.24950556
199	0xbe42772c	-0.18990773
200	0xbdfa55d1	-0.122233994
201	0xbd11ba15	-0.035577852
202	0xbb7669e9	-0.0037599748
203	0xbca748d2	-0.020420466
204	0xbce7a30c	-0.028275989
205	0xbca82f94	-0.0205305
206	0xbd8f9944	-0.07011655
207	0x3ce1b476	0.02755187
208	0x3d625f83	0.05526687
209	0xbd9c7776	-0.07639973
210	0x3c635171	0.013874398
211	0x3cd4359f	0.025904475
212	0xbdb0a98f	-0.08626091
213	0xbe0bf39e	-0.13667151
214	0x3d259d3b	0.04043315
215	0xbe27d66e	-0.16390392
216	0xbcdeee57	-0.027213259
217	0x3dab19b8	0.08354515
218	0xbd6671bf	-0.05626082
219	0xbd23ebdd	-0.04001986
220	0x3e080cb7	0.132861
221	0xbdaba10f	-0.08380329
222	0x3ddcaf9c	0.10775682
223	0xbe13468f	-0.14382385
224	0x3d9dbd47	0.077021174
225	0x3e017a72	0.12644365
226	0xbd1a22c6	-0.03763082
227	0x3d29ff0b	0.041502994
228	0xbbcc7863	-0.006239937
229	0xbc48b35a	-0.012249792
230	0xbda8e1a2	-0.08246161
231	0x3d107d7d	0.035275925
232	0x3d9634de	0.07334302
233	0xbcd505a5	-0.026003668
234	0xbdfe0b6a	-0.12404521
235	0xbe1f270e	-0.15542242
236	0xbe1e968d	-0.15487118
237	0x3d4cc316	0.049990736
238	0x3e813853	0.25238284
239	0x3c822257	0.015885515
240	0xbd199fc5	-0.037505884
241	0xbcaaee0a	-0.020865459
242	0xbd04cf1f	-0.03242409
243	0xbde68aed	-0.11256967
244	0x3dd68904	0.104753524
245	0x3c6cfba5	0.014464294
246	0xbda5d1fd	-0.08096693
247	0xbd02afc2	-0.031905897
248	0x3a543bbb	0.0008096059
249	0x3c3efc4c	0.011656832
250	0xbdeb35a9	-0.11484844
251	0xbd847904	-0.064683944
252	0x3d17d7e2	0.037071116
253	0xbdb3b477	-0.08774655
254	0x3e2e2b12	0.17008618
255	0x3caf6725	0.021411488

network_body._body_endoder.seq_layers.2.bias f4 [128]
0	0x00000000	0.0
1	0x00000000	0.0
2	0x00000000	0.0
3	0x00000000	0.0
4	0x00000000	0.0
5	0x00000000	0.0
6	0x00000000	0.0
7	0x00000000	0.0
8	0x00000000	0.0
9	0x00000000	0.0
10	0x00000000	0.0
11	0x00000000	0.0
12	0x00000000	0.0
13	0x00000000	0.0
14	0x00000000	0.0
15	0x00000000	0.0
16	0x00000000	0.0
17	0x00000000	0.0
18	0x00000000	0.0
19	0x00000000	0.0
20	0x00000000	0.0
21	0x00000000	0.0
22	0x00000000	0.0
23	0x00000000	0.0
24	0x00000000	0.0
25	0x00000000	0.0
26	0x00000000	0.0
27	0x00000000	0.0
28	0x00000000	0.0
29	0x00000000	0.0
30	0x00000000	0.0
31	0x00000000	0.0
32	0x00000000	0.0
33	0x00000000	0.0
34	0x00000000	0.0
35	0x00000000	0.0
36	0x00000000	0.0
37	0x00000000	0.0
38	0x00000000	0.0
39	0x00000000	0.0
40	0x00000000	0.0
41	0x00000000	0.0
42	0x00000000	0.0
43	0x00000000	0.0
44	0x00000000	0.0
45	0x00000000	0.0
46	0x00000000	0.0
47	0x00000000	0.0
48	0x00000000	0.0
49	0x00000000	0.0
50	0x00000000	0.0
51	0x00000000	0.0
52	0x00000000	0.0
53	0x00000000	0.0
54	0x00000000	0.0
55	0x00000000	0.0
56	0x00000000	0.0
57	0x00000000	0.0
58	0x00000000	0.0
59	0x00000000	0.0
60	0x00000000	0.0
61	0x00000000	0.0
62	0x00000000	0.0
63	0x00000000	0.0
64	0x00000000	0.0
65	0x00000000	0.0
66	0x00000000	0.0
67	0x00000000	0.0
68	0x00000000	0.0
69	0x00000000	0.0
70	0x00000000	0.0
71	0x00000000	0.0
72	0x00000000	0.0
73	0x00000000	0.0
74	0x00000000	0.0
75	0x00000000	0.0
76	0x00000000	0.0
77	0x00000000	0.0
78	0x00000000	0.0
79	0x00000000	0.0
80	0x00000000	0.0
81	0x00000000	0.0
82	0x00000000	0.0
83	0x00000000	0.0
84	0x00000000	0.0
85	0x00000000	0.0
86	0x00000000	0.0
87	0x00000000	0.0
88	0x00000000	0.0
89	0x00000000	0.0
90	0x00000000	0.0
91	0x00000000	0.0
92	0x00000000	0.0
93	0x00000000	0.0
94	0x00000000	0.0
95	0x00000000	0.0
96	0x00000000	0.0
97	0x00000000	0.0
98	0x00000000	0.0
99	0x00000000	0.0
100	0x00000000	0.0
101	0x00000000	0.0
102	0x00000000	0.0
103	0x00000000	0.0
104	0x00000000	0.0
105	0x00000000	0.0
106	0x00000000	0.0
107	0x00000000	0.0
108	0x00000000	0.0
109	0x00000000	0.0
110	0x00000000	0.0
111	0x00000000	0.0
112	0x00000000	0.0
113	0x00000000	0.0
114	0x00000000	0.0
115	0x00000000	0.0
116	0x00000000	0.0
117	0x00000000	0.0
118	0x00000000	0.0
119	0x00000000	0.0
120	0x00000000	0.0
121	0x00000000	0.0
122	0x00000000	0.0
123	0x00000000	0.0
124	0x00000000	0.0
125	0x00000000	0.0
126	0x00000000	0.0
127	0x00000000	0.0

value_heads.value_heads.extrinsic.weight f4 [1, 128]
0	0xbe13d08b	-0.14435022
1	0x3d9750e8	0.073884785
2	0x3e2085e4	0.15676075
3	0x3ce2a040	0.027664304
4	0x3e1387b4	0.14407235
5	0xbdae09b0	-0.084979415
6	0x3e4c37d4	0.19943172
7	0xbe4af811	-0.19821192
8	0xbc87a630	-0.016558737
9	0xbe1e33aa	-0.15449396
10	0xbd45dee0	-0.048308253
11	0xbd9e91f2	-0.077426806
12	0x3c85d040	0.016334653
13	0xbdec895c	-0.11549637
14	0x3dd31bc4	0.1030803
15	0xbe2a8a6b	-0.16654365
16	0xbe124e10	-0.14287591
17	0xbd4ed414	-0.050495222
18	0x3e442604	0.19155127
19	0xbe12f75e	-0.14352176
20	0x3d841944	0.064501315
21	0xbcd7ca80	-0.026341677
22	0xbdfdb901	-0.12388802
23	0x3e19dd5c	0.15025848
24	0x3d6d1080	0.057877064
25	0x3e3c5ac0	0.18393993
26	0xbda2ae64	-0.079434186
27	0x3de0a470	0.10968864
28	0xbd878e56	-0.06618945
29	0xbe49bf70	-0.19701934
30	0xbe14e324	-0.14539772
31	0xbda026f4	-0.0781993
32	0x3e42ee24	0.19036156
33	0xbe40076b	-0.1875283
34	0x3e482fbe	0.19549462
35	0xbd3f8164	-0.046754256
36	0xbd5af060	-0.053451896
37	0x3ddb4214	0.10705963
38	0x3da11ee0	0.07867217
39	0x3dc44f44	0.09585431
40	0xbdbec07a	-0.09314056
41	0x3e50685a	0.20352307
42	0xbda7f6ae	-0.08201347
43	0xbda1c8c6	-0.078996226
44	0x3e142412	0.14466885
45	0x3e256cb6	0.16154751
46	0x3e25810e	0.16162512
47	0xbd8bcb6e	-0.068259105
48	0xbd8a721a	-0.067600444
49	0x3e19b602	0.15010837
50	0x3dc124c8	0.094308436
51	0xbe32f07d	-0.17474551
52	0x3d0b824c	0.034059808
53	0x3e513150	0.20428967
54	0xbe3ab00a	-0.18231216
55	0xbdb6298a	-0.08894642
56	0x3e3b826e	0.18311474
57	0x3d694a28	0.056955487
58	0x3e15f32c	0.14643544
59	0x3e4d8f92	0.20074299
60	0xbc0d8b80	-0.008639216
61	0x3e0817da	0.13290349
62	0x3cdbfb80	0.026853323
63	0x3e1971de	0.14984843
64	0x3d9b5114	0.07583824
65	0xbdadb436	-0.08481638
66	0x3e20918e	0.15680525
67	0x3d8b8bd4	0.068137795
68	0x3dd72e38	0.105068624
69	0x3e52cd7a	0.20586196
70	0x3e235ca6	0.15953311
71	0xbd77fb3c	-0.06054233
72	0x3e3c27ba	0.1837453
73	0x3c771ad0	0.015082076
74	0xbd5cf60c	-0.053945586
75	0x3e198978	0.14993846
76	0xbd55cc94	-0.052197054
77	0x3e4bf468	0.19917452
78	0x3ddf8cdc	0.10915539
79	0xbdb31e1c	-0.08745977
80	0xbcd8d730	-0.026469797
81	0x3dc20e64	0.09475401
82	0xbe2c5270	-0.16828322
83	0x3dc45d2c	0.095880836
84	0xbe3a4c0e	-0.18193075
85	0xbe315e21	-0.17321064
86	0xbe5b323e	-0.21405885
87	0xbdfbcf6e	-0.122954234
88	0x3cc66450	0.024217755
89	0x3e46b748	0.19405854
90	0x3df7b0d4	0.12094274
91	0x3e08ea8a	0.1337072
92	0xbe44b1c4	-0.19208437
93	0x3dc110f8	0.09427065
94	0xbdaec084	-0.08532813
95	0x3e53537e	0.20637318
96	0x3e009c6e	0.12559673
97	0x3c51cfc0	0.012805879
98	0xbb44aac0	-0.0030009001
99	0x3bca1260	0.0061667413
100	0x3e45d8ec	0.1932103
101	0x3dff66f8	0.124708116
102	0x3d64daf8	0.055872887
103	0x3d052338	0.03250429
104	0x3d207c48	0.039181024
105	0x3e099388	0.13435185
106	0xbcb663c0	-0.022264361
107	0x3d6e6ff8	0.05821225
108	0xbe4e91da	-0.20172825
109	0xbd32af94	-0.043624476
110	0xbdbf733c	-0.09348151
111	0xbe46205a	-0.19348279
112	0xbc3f2570	-0.011666641
113	0x3e0356f8	0.12826145
114	0xbe29ffd7	-0.16601501
115	0x3e031090	0.12799287
116	0x3cfcaee0	0.030845106
117	0xbdf52615	-0.11970154
118	0xbda77b42	-0.081778064
119	0xbddca6cc	-0.107740015
120	0xbdad45b4	-0.084605604
121	0xbe2696ea	-0.16268507
122	0x3dadf248	0.08493477
123	0x3e462974	0.1935175
124	0xbdbe837c	-0.093024224
125	0x3d92f26c	0.071751446
126	0xbe0131c3	-0.12616639
127	0xbe462941	-0.19351675
