results/ppo/MoveToGoal/MoveToGoal-1600.pt (torch, 143449 bytes, 10 tensors)

network_body._body_endoder.seq_layers.0.weight f4 [128, 1]
-0.055034287 -0.7916821 0.5417105 0.7713541 2.1584127 1.5531292 -0.78937924 -1.0609908
-0.5743233 -1.1205816 -1.0928806 1.4016135 0.19718686 -0.23462333 -1.3122327 0.41438082
-1.0038265 -0.2479003 0.9623317 -0.47519246 -0.09515889 0.318123 1.551881 0.9534475
0.7747045 -0.9212099 -0.45740065 -0.9915612 -0.46378753 0.05308391 -0.5970321 1.0274298
0.80714655 1.0322074 0.9607314 0.73277366 0.14954032 2.3593562 1.0246392 -1.0442208
0.17501245 0.6052788 -0.6741203 1.129082 0.016619937 0.4283553 0.018183254 -0.9380103
-0.501167 -1.5294873 -0.5169715 -0.87465656 -0.33040386 -1.2733042 1.5823183 0.9592044
0.8360679 -0.19037996 -0.023069812 -0.32380483 -0.0062697288 0.7913229 -0.5321046 0.9861198
-0.24875426 1.8769219 0.6993128 0.29677135 -0.5588791 1.2808266 -0.18022253 0.44550195
0.6966821 -1.0254306 1.7298348 -0.7249837 0.34553158 0.16818175 1.3544487 0.16063622
-0.37993395 0.5003107 1.7410622 -0.0648683 -0.39264506 0.15060489 0.96375495 1.5916728
0.08026505 0.23511899 -2.1686947 -1.9965191 -1.2070049 1.5308703 0.42026153 -0.71338594
-0.39852485 1.1849713 -0.18266287 -0.32455778 -0.80189943 -1.0219281 -1.3122246 0.3779417
-0.21024166 -0.33843976 3.0888562 0.31170326 -0.46992666 0.055477347 -0.17703854 -0.046408735
0.70433503 0.3488609 -1.0278238 -1.7448795 0.52452207 -0.9420813 2.1876574 0.11484008
-0.57478625 2.079396 0.9936418 -1.6167556 -0.055312425 0.1420327 -0.23482099 -0.88339615
00000000: a26b 61bd aeab 4abf 8aad 0a3f 7677 453f
00000010: 6f23 0a40 f0cc c63f c214 4abf 8cce 87bf
00000020: da06 13bf 386f 8fbf 83e3 8bbf 1268 b33f
00000030: 5aeb 493e 1941 70be 3ef7 a7bf b929 d43e
00000040: 637d 80bf 94d9 7dbe 5f5b 763f 6d4c f3be
00000050: aae2 c2bd 05e1 a23e 09a4 c63f 2315 743f
00000060: 0953 463f 69d4 6bbf 6b30 eabe f4d6 7dbf
00000070: 8f75 edbe 846e 593d 19d7 18bf d282 833f
00000080: 28a1 4e3f 5f1f 843f 7ef2 753f 0e97 3b3f
00000090: 1921 193e b1ff 1640 6127 833f 07a9 85bf
000000a0: 7736 333e 8df3 1a3f 2693 2cbf c285 903f
000000b0: 8926 883c 6351 db3e 0cf5 943c 7121 70bf
000000c0: 7b4c 00bf 3dc6 c3bf 3f58 04bf 7ee9 5fbf
000000d0: b22a a9be a2fb a2bf 6889 ca3f 6b8e 753f
000000e0: 8c08 563f f7f2 42be e7fc bcbc bfc9 a5be
000000f0: 4c72 cdbb 2394 4a3f 0238 08bf 5972 7c3f
00000100: 70b9 7ebe fa3e f03f 2a06 333f 6af2 973e
00000110: b312 0fbf 20f2 a33f 418c 38be d518 e43e
00000120: c259 323f 4f41 83bf 3a6b dd3f 8898 39bf
00000130: 84e9 b03e d637 2c3e 935e ad3f d27d 243e
00000140: b486 c2be 5d14 003f 20db de3f acd9 84bd
00000150: c608 c9be 2b38 1a3e a5b8 763f efbb cb3f
00000160: 0162 a43d 08c3 703e e5cb 0ac0 f08d ffbf
00000170: 237f 9abf 8ff3 c33f 852c d73e 76a0 36bf
00000180: 730b ccbe 24ad 973f fa0b 3bbe 702c a6be
00000190: 4849 4dbf 8ace 82bf faf6 a7bf 9381 c13e
000001a0: 9749 57be fa47 adbe d2af 4540 9297 9f3e
000001b0: 3a9a f0be 373c 633d 9749 35be 1617 3ebd
000001c0: 4d4f 343f e59d b23e bb8f 83bf 3658 dfbf
000001d0: 1447 063f 3d2c 71bf 9402 0c40 4731 eb3d
000001e0: 3125 13bf d314 0540 4f5f 7e3f d9f1 cebf
000001f0: 488f 62bd 0571 113e ea74 70be 4026 62bf

network_body._body_endoder.seq_layers.0.bias f4 [128]
0.0 0.0 0.0 0.0 0.0 0.0 0.0 0.0
0.0 0.0 0.0 0.0 0.0 0.0 0.0 0.0
0.0 0.0 0.0 0.0 0.0 0.0 0.0 0.0
0.0 0.0 0.0 0.0 0.0 0.0 0.0 0.0
0.0 0.0 0.0 0.0 0.0 0.0 0.0 0.0
0.0 0.0 0.0 0.0 0.0 0.0 0.0 0.0
0.0 0.0 0.0 0.0 0.0 0.0 0.0 0.0
0.0 0.0 0.0 0.0 0.0 0.0 0.0 0.0
0.0 0.0 0.0 0.0 0.0 0.0 0.0 0.0
0.0 0.0 0.0 0.0 0.0 0.0 0.0 0.0
0.0 0.0 0.0 0.0 0.0 0.0 0.0 0.0
0.0 0.0 0.0 0.0 0.0 0.0 0.0 0.0
0.0 0.0 0.0 0.0 0.0 0.0 0.0 0.0
0.0 0.0 0.0 0.0 0.0 0.0 0.0 0.0
0.0 0.0 0.0 0.0 0.0 0.0 0.0 0.0
0.0 0.0 0.0 0.0 0.0 0.0 0.0 0.0
00000000: 0000 0000 0000 0000 0000 0000 0000 0000
00000010: 0000 0000 0000 0000 0000 0000 0000 0000
00000020: 0000 0000 0000 0000 0000 0000 0000 0000
00000030: 0000 0000 0000 0000 0000 0000 0000 0000
00000040: 0000 0000 0000 0000 0000 0000 0000 0000
00000050: 0000 0000 0000 0000 0000 0000 0000 0000
00000060: 0000 0000 0000 0000 0000 0000 0000 0000
00000070: 0000 0000 0000 0000 0000 0000 0000 0000
00000080: 0000 0000 0000 0000 0000 0000 0000 0000
00000090: 0000 0000 0000 0000 0000 0000 0000 0000
000000a0: 0000 0000 0000 0000 0000 0000 0000 0000
000000b0: 0000 0000 0000 0000 0000 0000 0000 0000
000000c0: 0000 0000 0000 0000 0000 0000 0000 0000
000000d0: 0000 0000 0000 0000 0000 0000 0000 0000
000000e0: 0000 0000 0000 0000 0000 0000 0000 0000
000000f0: 0000 0000 0000 0000 0000 0000 0000 0000
00000100: 0000 0000 0000 0000 0000 0000 0000 0000
00000110: 0000 0000 0000 0000 0000 0000 0000 0000
00000120: 0000 0000 0000 0000 0000 0000 0000 0000
00000130: 0000 0000 0000 0000 0000 0000 0000 0000
00000140: 0000 0000 0000 0000 0000 0000 0000 0000
00000150: 0000 0000 0000 0000 0000 0000 0000 0000
00000160: 0000 0000 0000 0000 0000 0000 0000 0000
00000170: 0000 0000 0000 0000 0000 0000 0000 0000
00000180: 0000 0000 0000 0000 0000 0000 0000 0000
00000190: 0000 0000 0000 0000 0000 0000 0000 0000
000001a0: 0000 0000 0000 0000 0000 0000 0000 0000
000001b0: 0000 0000 0000 0000 0000 0000 0000 0000
000001c0: 0000 0000 0000 0000 0000 0000 0000 0000
000001d0: 0000 0000 0000 0000 0000 0000 0000 0000
000001e0: 0000 0000 0000 0000 0000 0000 0000 0000
000001f0: 0000 0000 0000 0000 0000 0000 0000 0000

network_body._body_endoder.seq_layers.2.weight f4 [128, 128]
-0.035298202 0.13180004 -0.11421367 0.16413657 0.042231087 0.18425639 0.007433263 -0.078478895
0.0053392528 -0.037316065 0.080908015 0.038928848 0.073776454 0.17774644 0.03959462 0.093393244
0.014270781 -0.052378517 -0.08538299 -0.01483713 -0.100540444 -0.03039363 0.026128396 0.100764155
0.057595618 -0.04322867 -0.00078694575 -0.037362184 -0.2296425 -0.15849486 0.121239014 0.11988068
0.009740028 0.08943832 -0.13451661 -0.04962787 0.0026863643 0.016040144 0.07372215 -0.08417101
-0.00608434 0.080404684 -0.12803747 0.22725993 0.0052507822 0.14864802 0.031967513 0.056634475
-0.1305826 -0.14073816 -0.11096786 0.14396599 0.011581925 0.033943314 -0.08261458 -0.082326055
-0.04797228 -0.08325953 -0.054279912 0.053252332 -0.031529382 -0.043697443 0.13585663 0.047587126
-0.05442956 -0.10007491 -0.12581943 -0.02513 0.066970535 -0.07231047 -0.02835897 -0.009473166
-0.014300156 -0.062400885 -0.075558364 -0.061054006 -0.1674221 -0.016187178 -0.05998275 -0.052380968
6.0594317e-05 0.07755439 0.19615021 0.09995955 0.06193957 -0.10735951 -0.016765736 0.090148106
0.04072396 -0.015560465 -0.04126367 -0.12632665 -0.07533503 0.026962584 0.13052039 0.04011314
-0.113029934 0.07056289 0.09244081 0.11844366 -0.1480025 -0.0047565503 -0.08765469 0.057376042
-0.19548507 0.053291257 -0.14951187 0.110712506 0.08948271 0.005345789 -0.10646081 0.08637302
-0.016669542 -0.018352611 -0.05838089 0.058240037 -0.08547947 -0.0611178 0.04901698 0.09095923
-0.13707241 -0.0523375 0.13141756 -0.10294718 -0.22283323 0.005930972 0.024846092 0.08459032
0.0073468443 -0.064074166 0.050521865 0.07502286 -0.029414844 0.013905747 -0.22384088 0.08249785
0.10249266 -0.097398646 -0.10621993 -0.0060931416 -0.05855263 0.07692669 -0.11626553 -0.035220526
-0.102356024 0.064297095 0.00068123016 0.08279587 -0.022102796 -0.112552464 0.16641589 0.054432627
-0.034552652 0.0963035 -0.026977278 0.01957906 0.13066474 0.04733739 -0.023451023 -0.024673952
0.016059812 0.14479755 -0.095534176 0.07303436 0.017776042 0.050632756 -0.020305753 -0.10197038
-0.058269612 -0.028450754 -0.059947 -0.07550311 -0.13589337 -0.12256922 -0.039191853 0.10295079
-0.04326763 0.07010307 -0.023382006 -0.0149856685 -0.103628755 -0.019005235 0.29466718 -0.043929044
-0.008178337 0.011730771 -0.14742702 0.07613451 0.02036776 -0.04990514 -0.043635726 0.049598858
0.18326484 0.035824925 -0.11731019 -0.02860202 0.10998517 0.061000008 -0.04905679 0.11325965
0.032929596 0.03834564 -0.14014722 -0.04459498 0.06318537 0.018811233 -0.016356288 -0.036701195
0.14615132 -0.120361306 -0.00013321707 0.023086885 0.08319063 0.07499277 0.11055057 -0.060583804
-0.048090216 -0.026730133 0.010050337 0.0036966186 0.048001997 0.08415474 -0.059739385 -0.08006526
0.015543998 0.11163391 0.042809036 -0.084919 -0.013505129 -0.015791802 0.014970917 -0.070749894
0.029360013 0.13606134 -0.16916417 0.02476608 -0.04426707 0.071303494 -0.137473 -0.065780886
0.032347083 0.009700303 0.034503687 0.012054396 0.09204016 0.03360397 0.08405714 0.0065157847
-0.11093093 -0.0048246235 0.05047892 -0.021155484 0.036305264 0.11793446 0.1568256 -0.13826627
00000000: d994 10bd 97f6 063e dbe8 e9bd 6b13 283e
00000010: 81fa 2c3d b5ad 3c3e bb92 f33b 8bb9 a0bd
00000020: e6f4 ae3b bbd8 18bd 1ab3 a53d db73 1f3d
00000030: 1c18 973d 2a03 363e f82d 223d f544 bf3d
00000040: fecf 693c db8a 56bd 47dd aebd 6f17 73bc
00000050: 26e8 cdbd 10fc f8bc 380b d63c 705d ce3d
00000060: 62e9 6b3d 8c10 31bd 094b 4eba 1709 19bd
00000070: 6727 6bbe 7a4c 22be 294c f83d 0184 f53d
00000080: a394 1f3c 702b b73d b9be 09be 9846 4bbd
00000090: b70d 303b 9f66 833c a3fb 963d da61 acbd
000000a0: 255f c7bb 36ab a43d 411c 03be d4b6 683e
000000b0: c10e ac3b 3037 183e 5ef0 023d 8df9 673d
000000c0: 72b7 05be aa1d 10be 1e43 e3bd d26b 133e
000000d0: 1dc2 3d3c 2508 0b3d d531 a9bd 909a a8bd
000000e0: 957e 44bd f983 aabd 9d54 5ebd 1e1f 5a3d
000000f0: f424 01bd 17fc 32bd 001e 0b3e b8ea 423d
00000100: 88f1 5ebd 13f4 ccbd cfd6 00be 6edd cdbc
00000110: d927 893d 8317 94bd 1251 e8bc 5735 1bbc
00000120: 344b 6abc 1298 7fbd 58be 9abd c413 7abd
00000130: b370 2bbe f99a 84bc 79b0 75bd 6d8d 56bd
00000140: a726 7e38 d6d4 9e3d 9adb 483e 98b7 cc3d
00000150: 59b4 7d3d 4edf dbbd 4c58 89bc 929f b83d
00000160: 2bce 263d 52f1 7ebc 1804 29bd c65b 01be
00000170: 4149 9abd a3e0 dc3c 23a7 053e ad4d 243d
00000180: 3d7c e7bd 4783 903d 9b51 bd3d 9792 f23d
00000190: f88d 17be d6dc 9bbb 4d84 b3bd 2403 6b3d
000001a0: 3d2d 48be ef47 5a3d a419 19be 3dbd e23d
000001b0: b642 b73d ba2b af3b 2008 dabd 57e4 b03d
000001c0: 908e 88bc 3758 96bc cd20 6fbd 1b8d 6e3d
000001d0: dc0f afbd a956 7abd 07c6 483d d548 ba3d
000001e0: b65c 0cbe d95f 56bd 5392 063e f9d5 d2bd
000001f0: 652e 64be 9958 c23b 088a cb3c b13d ad3d
00000200: ccbd f03b 5139 83bd 04f0 4e3d 96a5 993d
00000210: 66f7 f0bc eed4 633c 8b36 65be a2f4 a83d
00000220: ace7 d13d f178 c7bd d689 d9bd faa8 c7bb
00000230: e2d4 6fbd be8b 9d3d 9f1c eebd 6643 10bd
00000240: 09a0 d1bd 32ae 833d 9594 323a e290 a93d
00000250: ec10 b5bc e881 e6bd ed68 2a3e bff4 5e3d
00000260: 1587 0dbd c53a c53d 74ff dcbc 4464 a03c
00000270: facc 053e dae4 413d 5c1c c0bc 0721 cabc
00000280: de8f 833c cf45 143e 6ca7 c3bd 0a93 953d
00000290: 109f 913c 4b64 4f3d 4058 a6bc d9d5 d0bd
000002a0: 1eac 6ebd 8e11 e9bc fc8a 75bd 60a1 9abd
000002b0: a227 0bbe 9205 fbbd a387 20bd ddd7 d23d
000002c0: 6639 31bd 3392 8f3d 9f8b bfbc 7386 75bc
000002d0: 503b d4bd deb0 9bbc 9ede 963e f1ee 33bd
000002e0: 6efe 05bc 6b32 403c 1cf7 16be 69ec 9b3d
000002f0: 4ada a63c 5569 4cbd 60bb 32bd 2c28 4b3d
00000300: c7a9 3b3e 28bd 123d 5340 f0bd c94e eabc
00000310: e83f e13d 25db 793d c6ef 48bd adf4 e73d
00000320: 2fe1 063d 5110 1d3d c182 0fbe 3aa9 36bd
00000330: 5567 813d 041a 9a3c 9ffd 85bc fe53 16bd
00000340: b1a8 153e fd7f f6bd 2fb0 0bb9 b520 bd3c
00000350: d95f aa3d cf95 993d 5668 e23d b926 78bd
00000360: 3ffa 44bd 27f9 dabc 2baa 243c f842 723b
00000370: be9d 443d 5259 ac3d 49b1 74bd 41f9 a3bd
00000380: 41ac 7e3c 52a0 e43d 8758 2f3d 03ea adbd
00000390: 9e44 5dbc cf5d 81bc 9448 753c 52e5 90bd
000003a0: 6984 f03c aa53 0b3e 5f39 2dbe 3ce2 ca3c
000003b0: 6351 35bd 9107 923d b9c5 0cbe 21b8 86bd
000003c0: 607e 043d 05ee 1e3c bd53 0d3d cd7f 453c
000003d0: 8d7f bc3d 51a4 093d 2626 ac3d 5d82 d53b
000003e0: c12f e3bd e017 9ebb fcc2 4e3d 444e adbc
000003f0: d4b4 143d 9f87 f13d e496 203e ac95 0dbe

network_body._body_endoder.seq_layers.2.bias f4 [128]
0.0 0.0 0.0 0.0 0.0 0.0 0.0 0.0
0.0 0.0 0.0 0.0 0.0 0.0 0.0 0.0
0.0 0.0 0.0 0.0 0.0 0.0 0.0 0.0
0.0 0.0 0.0 0.0 0.0 0.0 0.0 0.0
0.0 0.0 0.0 0.0 0.0 0.0 0.0 0.0
0.0 0.0 0.0 0.0 0.0 0.0 0.0 0.0
0.0 0.0 0.0 0.0 0.0 0.0 0.0 0.0
0.0 0.0 0.0 0.0 0.0 0.0 0.0 0.0
0.0 0.0 0.0 0.0 0.0 0.0 0.0 0.0
0.0 0.0 0.0 0.0 0.0 0.0 0.0 0.0
0.0 0.0 0.0 0.0 0.0 0.0 0.0 0.0
0.0 0.0 0.0 0.0 0.0 0.0 0.0 0.0
0.0 0.0 0.0 0.0 0.0 0.0 0.0 0.0
0.0 0.0 0.0 0.0 0.0 0.0 0.0 0.0
0.0 0.0 0.0 0.0 0.0 0.0 0.0 0.0
0.0 0.0 0.0 0.0 0.0 0.0 0.0 0.0
00000000: 0000 0000 0000 0000 0000 0000 0000 0000
00000010: 0000 0000 0000 0000 0000 0000 0000 0000
00000020: 0000 0000 0000 0000 0000 0000 0000 0000
00000030: 0000 0000 0000 0000 0000 0000 0000 0000
00000040: 0000 0000 0000 0000 0000 0000 0000 0000
00000050: 0000 0000 0000 0000 0000 0000 0000 0000
00000060: 0000 0000 0000 0000 0000 0000 0000 0000
00000070: 0000 0000 0000 0000 0000 0000 0000 0000
00000080: 0000 0000 0000 0000 0000 0000 0000 0000
00000090: 0000 0000 0000 0000 0000 0000 0000 0000
000000a0: 0000 0000 0000 0000 0000 0000 0000 0000
000000b0: 0000 0000 0000 0000 0000 0000 0000 0000
000000c0: 0000 0000 0000 0000 0000 0000 0000 0000
000000d0: 0000 0000 0000 0000 0000 0000 0000 0000
000000e0: 0000 0000 0000 0000 0000 0000 0000 0000
000000f0: 0000 0000 0000 0000 0000 0000 0000 0000
00000100: 0000 0000 0000 0000 0000 0000 0000 0000
00000110: 0000 0000 0000 0000 0000 0000 0000 0000
00000120: 0000 0000 0000 0000 0000 0000 0000 0000
00000130: 0000 0000 0000 0000 0000 0000 0000 0000
00000140: 0000 0000 0000 0000 0000 0000 0000 0000
00000150: 0000 0000 0000 0000 0000 0000 0000 0000
00000160: 0000 0000 0000 0000 0000 0000 0000 0000
00000170: 0000 0000 0000 0000 0000 0000 0000 0000
00000180: 0000 0000 0000 0000 0000 0000 0000 0000
00000190: 0000 0000 0000 0000 0000 0000 0000 0000
000001a0: 0000 0000 0000 0000 0000 0000 0000 0000
000001b0: 0000 0000 0000 0000 0000 0000 0000 0000
000001c0: 0000 0000 0000 0000 0000 0000 0000 0000
000001d0: 0000 0000 0000 0000 0000 0000 0000 0000
000001e0: 0000 0000 0000 0000 0000 0000 0000 0000
000001f0: 0000 0000 0000 0000 0000 0000 0000 0000

action_model._continuous_distribution.mu.weight f4 [1, 128]
0.028172676 -0.0012217499 -0.04394139 0.0017128995 0.0044291075 -0.009801766 0.018299395 -0.0013646929
-0.012427397 -0.011286686 -0.011121675 -0.0026776488 -0.0056593805 -0.013748285 -0.0029734496 -0.0060451366
-0.0004495951 0.0080101 0.023751682 -0.018853206 0.018947152 -0.022395872 0.015876837 -0.007521894
-0.0182227 0.013226757 -0.003592204 -0.0037883592 0.017584978 -0.00035706937 0.019105641 -0.004304495
-0.06804326 0.011612239 -0.024433827 0.00017125155 0.01563772 0.0049332003 -0.024259923 0.019149384
0.0078236 -0.004928298 0.027653525 1.7019647e-05 -0.010141326 0.0141186165 0.007491074 -0.0033945248
-0.0046764263 -0.030222675 0.015978737 0.01974378 -0.0061047603 -0.0063670077 -0.007841307 -0.019289074
-0.0075624594 -0.028338416 0.0035219376 -0.004153592 0.010153649 -0.0024503611 -0.00988477 -0.0057620485
0.00596027 0.025995215 -0.022517689 -0.00780095 -0.02608927 0.01275856 0.00038236042 -0.016289055
-0.017782195 0.015834028 0.035913963 -0.023812154 0.034057457 0.0027951403 -0.012086674 -0.008937525
-0.018346816 0.00085141463 -0.008631918 0.004169497 -0.0037752462 -0.0017518181 -0.021616368 0.028197408
0.0049242126 0.019228203 -0.016921412 -0.032777917 -0.014076071 0.015468314 -0.008124209 -0.022513974
-2.278193e-06 0.008228966 0.016209876 -0.012404192 -0.030779803 -0.012897327 -0.007828768 -0.009925004
0.012487771 -0.014318856 -0.0087776575 0.029170116 0.015595272 -0.014864497 -0.008711165 -0.03112154
0.0016978652 -0.03079695 -0.0014014764 -0.016614223 0.0072055534 0.008789373 0.009997424 0.030868603
0.019715773 0.023512391 -0.014131567 0.0026622822 0.036007173 -0.0065165474 0.0049067205 -0.020291382
00000000: 62ca e63c 2023 a0ba e3fb 33bd 5f83 e03a
00000010: 0c22 913b 9697 20bc 9de8 953c 7fdf b2ba
00000020: 489c 4bbc cbeb 38bc b037 36bc 7e7b 2fbb
00000030: 5372 b9bb 7d40 61bc 35de 42bb 4816 c6bb
00000040: a2b7 ebb9 cb3c 033c e392 c23c 0a72 9abc
00000050: 0f37 9b3c 8c77 b7bc 2410 823c 387a f6bb
00000060: c647 95bc 0ab5 583c 2f6b 6bbb 1f46 78bb
00000070: 5f0e 903c 0a35 bbb9 6f83 9c3c b90c 8dbb
00000080: 445a 8bbd 4341 3e3c 7329 c8bc fd91 3339
00000090: ad1a 803c afa6 a13b bfbc c6bc 2bdf 9c3c
000000a0: 8f2e 003c 8f7d a1bb a589 e23c 6ac5 8e37
000000b0: ce27 26bc c551 673c af77 f53b ad76 5ebb
000000c0: b53c 99bb 8b95 f7bc d7e5 823c b5bd a13c
000000d0: 710a c8bb 55a2 d0bb d378 00bc 1f04 9ebc
000000e0: 82ce f7bb f725 e8bc 4fd0 663b db1a 88bb
000000f0: 7e5b 263c 3d96 20bb bbf3 21bc 91cf bcbb
00000100: 5e4e c33b ebf3 d43c 0477 b8bc 1d9f ffbb
00000110: 2ab9 d5bc 4709 513c 8c77 c839 a070 85bc
00000120: f7ab 91bc 5db6 813c 851a 133d b511 c3bc
00000130: d57f 0b3d ac2e 373b 2f07 46bc b26e 12bc
00000140: 104c 96bc 7831 5f3a e36c 0dbc 47a0 883b
00000150: 1f6a 77bb 439d e5ba cf14 b1bc 40fe e63c
00000160: 4a5b a13b 7784 9d3c c69e 8abc 2342 06bd
00000170: 529f 66bc d06e 7d3c 671b 05bc 3a6f b8bc
00000180: 0fe3 18b6 c9d2 063c 93ca 843c f43a 4bbc
00000190: ed25 fcbc 4f4f 53bc 3c44 00bc 7c9c 22bc
000001a0: 8299 4c3c a399 6abc 2ad0 0fbc 2bf6 ee3c
000001b0: 5083 7f3c 388a 73bc 46b9 0ebc 9af2 febc
000001c0: e78a de3a e349 fcbc bfb1 b7ba 8d1a 88bc
000001d0: 901c ec3b 4d01 103c 3ccc 233c 27e0 fc3c
000001e0: f982 a13c 0f9d c03c 1788 67bc af79 2e3b
000001f0: 427c 133d c388 d5bb 8ec8 a03b 1d3a a6bc

network_body._body_endoder.seq_layers.0.weight f4 [128, 1]
-0.7920704 1.237657 -0.4012211 0.08930665 0.7483779 1.5864127 0.9792141 1.538249
-0.3560669 -1.8579166 0.4653842 0.43891335 0.48317224 0.6099098 1.4227414 -0.60706824
0.5163704 1.0415586 0.54595053 -0.61848706 -0.90530336 0.50126505 0.28776902 -0.33859387
0.86706984 0.35441336 0.71684134 0.1622373 1.2886161 -0.20257013 -0.53780663 -0.6797078
-2.608862 -0.5334606 -0.29921514 0.1337619 1.1805832 0.13531074 -0.6251361 -1.4899216
-0.252662 0.882333 2.5907931 0.7575461 -0.44145742 0.34512982 0.6154869 0.5410297
0.78074926 1.4737965 -0.38164696 2.0039904 0.3699899 -2.5247295 -0.8470414 -0.6945966
-1.0275621 -2.1252708 -0.8825387 -0.25167546 0.34507734 -0.7092174 0.0013031131 0.2585249
2.6665041 -0.20565346 0.060794417 1.7053291 -0.065963455 -0.20764327 1.5842766 -0.61436796
0.72394514 -0.6734322 1.8387442 0.9720642 0.2878344 -1.3227329 -0.57394 -0.16380034
-0.10533089 0.35112876 0.7358358 0.68898255 -1.3221151 1.701256 -0.10662519 0.30470806
-0.37239543 -1.0235938 -0.5213853 0.61264026 -1.6983646 -0.9919419 0.91934305 0.19918014
-0.26001742 -0.9985874 -1.2569724 -0.17385867 0.9327195 0.85765576 -0.10476293 2.0053275
1.3356383 -0.024327572 0.5963423 -0.06966933 0.8769995 -1.933162 0.98507947 0.60084504
-0.89075917 1.7066771 -0.86694235 -0.7148613 1.4883727 0.463699 0.48535973 -1.2193395
2.1664302 1.1420699 -1.2252737 -0.89722747 0.82263297 -0.62168103 -1.0937213 0.50645995
00000000: 20c5 4abf 8b6b 9e3f da6c cdbe 68e6 b63d
00000010: b295 3f3f 920f cb3f c6ad 7a3f 58e5 c43f
00000020: 674e b6be 36d0 edbf d646 ee3e 40b9 e03e
00000030: 5a62 f73e 0c23 1c3f 641c b63f d368 1bbf
00000040: da30 043f cb51 853f 6ac3 0b3f 2b55 1ebf
00000050: f6c1 67bf e852 003f 7656 933e 2d5c adbe
00000060: 4af8 5d3f ab75 b53e ea82 373f 8921 263e
00000070: 5ff1 a43f 8b6e 4fbe b2ad 09bf 5501 2ebf
00000080: 98f7 26c0 e090 08bf ba32 99be e1f8 083e
00000090: 5a1d 973f e68e 0a3e eb08 20bf c0b5 bebf
000000a0: ea5c 81be 93e0 613f 8ecf 2540 8bee 413f
000000b0: b506 e2be dbb4 b03e 8d90 1d3f ec80 0a3f
000000c0: 2fdf 473f 5da5 bc3f 3b67 c3be 6141 0040
000000d0: 516f bd3e 2b95 21c0 b5d7 58bf 15d1 31bf
000000e0: 2887 83bf 7004 08c0 0eee 61bf 9bdb 80be
000000f0: faad b03e 468f 35bf 38cd aa3a 605d 843e
00000100: 01a8 2a40 d296 52be 9103 793d 3948 da3f
00000110: d917 87bd 70a0 54be 93c9 ca3f 3847 1dbf
00000120: 7854 393f 0d66 2cbf f85b eb3f 33d9 783f
00000130: 085f 933e 504f a9bf bbed 12bf 47bb 27be
00000140: b9b7 d7bd 26c7 b33e bc5f 3c3f 2961 303f
00000150: 113b a9bf c2c2 d93f 4f5e dabd b202 9c3e
00000160: 9daa bebe 1f05 83bf 8279 05bf fed5 1c3f
00000170: 0364 d9bf e8ef 7dbf 115a 6b3f e1f5 4b3e
00000180: 0121 85be 6da3 7fbf 79e4 a0bf 0208 32be
00000190: b5c6 6e3f 548f 5b3f f28d d6bd 4957 0040
000001a0: 32f6 aa3f 9e4a c7bc e4a9 183f cbae 8ebd
000001b0: 0a83 603f da71 f7bf 2b2e 7c3f fbd0 193f
000001c0: cb08 64bf 6574 da3f efef 5dbf 2601 37bf
000001d0: ff82 be3f f569 ed3e 1281 f83e 5113 9cbf
000001e0: cba6 0a40 592f 923f c5d5 9cbf b3b0 65bf
000001f0: 1398 523f 7d26 1fbf 0fff 8bbf 5ca7 013f

network_body._body_endoder.seq_layers.0.bias f4 [128]
0.0 0.0 0.0 0.0 0.0 0.0 0.0 0.0
0.0 0.0 0.0 0.0 0.0 0.0 0.0 0.0
0.0 0.0 0.0 0.0 0.0 0.0 0.0 0.0
0.0 0.0 0.0 0.0 0.0 0.0 0.0 0.0
0.0 0.0 0.0 0.0 0.0 0.0 0.0 0.0
0.0 0.0 0.0 0.0 0.0 0.0 0.0 0.0
0.0 0.0 0.0 0.0 0.0 0.0 0.0 0.0
0.0 0.0 0.0 0.0 0.0 0.0 0.0 0.0
0.0 0.0 0.0 0.0 0.0 0.0 0.0 0.0
0.0 0.0 0.0 0.0 0.0 0.0 0.0 0.0
0.0 0.0 0.0 0.0 0.0 0.0 0.0 0.0
0.0 0.0 0.0 0.0 0.0 0.0 0.0 0.0
0.0 0.0 0.0 0.0 0.0 0.0 0.0 0.0
0.0 0.0 0.0 0.0 0.0 0.0 0.0 0.0
0.0 0.0 0.0 0.0 0.0 0.0 0.0 0.0
0.0 0.0 0.0 0.0 0.0 0.0 0.0 0.0
00000000: 0000 0000 0000 0000 0000 0000 0000 0000
00000010: 0000 0000 0000 0000 0000 0000 0000 0000
00000020: 0000 0000 0000 0000 0000 0000 0000 0000
00000030: 0000 0000 0000 0000 0000 0000 0000 0000
00000040: 0000 0000 0000 0000 0000 0000 0000 0000
00000050: 0000 0000 0000 0000 0000 0000 0000 0000
00000060: 0000 0000 0000 0000 0000 0000 0000 0000
00000070: 0000 0000 0000 0000 0000 0000 0000 0000
00000080: 0000 0000 0000 0000 0000 0000 0000 0000
00000090: 0000 0000 0000 0000 0000 0000 0000 0000
000000a0: 0000 0000 0000 0000 0000 0000 0000 0000
000000b0: 0000 0000 0000 0000 0000 0000 0000 0000
000000c0: 0000 0000 0000 0000 0000 0000 0000 0000
000000d0: 0000 0000 0000 0000 0000 0000 0000 0000
000000e0: 0000 0000 0000 0000 0000 0000 0000 0000
000000f0: 0000 0000 0000 0000 0000 0000 0000 0000
00000100: 0000 0000 0000 0000 0000 0000 0000 0000
00000110: 0000 0000 0000 0000 0000 0000 0000 0000
00000120: 0000 0000 0000 0000 0000 0000 0000 0000
00000130: 0000 0000 0000 0000 0000 0000 0000 0000
00000140: 0000 0000 0000 0000 0000 0000 0000 0000
00000150: 0000 0000 0000 0000 0000 0000 0000 0000
00000160: 0000 0000 0000 0000 0000 0000 0000 0000
00000170: 0000 0000 0000 0000 0000 0000 0000 0000
00000180: 0000 0000 0000 0000 0000 0000 0000 0000
00000190: 0000 0000 0000 0000 0000 0000 0000 0000
000001a0: 0000 0000 0000 0000 0000 0000 0000 0000
000001b0: 0000 0000 0000 0000 0000 0000 0000 0000
000001c0: 0000 0000 0000 0000 0000 0000 0000 0000
000001d0: 0000 0000 0000 0000 0000 0000 0000 0000
000001e0: 0000 0000 0000 0000 0000 0000 0000 0000
000001f0: 0000 0000 0000 0000 0000 0000 0000 0000

network_body._body_endoder.seq_layers.2.weight f4 [128, 128]
0.15853694 0.008188139 0.037219994 0.07983562 -0.032564726 -0.21190354 0.052272514 -0.023915444
0.06758083 0.018075937 -0.08599285 -0.16806602 0.1096505 -0.04606444 0.044054314 0.087225884
0.036741443 -0.07873417 0.011324976 -0.004974393 -0.044391926 0.13130204 0.14941163 -0.016311055
0.090875305 0.08254059 0.067458116 -0.023515217 0.0017439802 0.038841948 -0.09603454 0.0502222
0.04636226 -0.036677647 0.029137684 -0.040263154 0.11930289 -0.21842949 -0.06918063 -0.06328352
-0.016836975 -0.07747642 0.18269193 -0.083868794 0.07735757 -0.10874094 -0.028519863 0.018059762
-0.09327099 0.08406909 0.09721004 -0.022411415 0.033474214 -0.115036905 0.19870822 -0.09310272
-0.08473089 0.08237379 0.044740498 0.07414445 0.027988346 0.14702083 0.05839615 0.07857512
-0.006125078 -0.052049913 0.11987964 0.05810027 0.040642604 -0.032073118 -0.19809546 0.005095948
-0.049561284 -0.08120201 -0.014666754 0.046028715 0.1137901 -0.013340798 0.084981665 0.0031584874
-0.09757772 -0.1218749 0.021966359 -0.0797083 0.05778255 0.08516283 -0.048888616 -0.030008636
-0.08027573 -0.12538639 0.04879961 -0.01393946 -0.0054299175 -0.052714154 0.007976588 -0.030312013
0.13002533 0.028603407 -0.0077023734 0.13443625 -0.09713528 0.07395428 -0.064590305 -0.05648102
-0.012158578 -0.10170896 0.04038369 -0.20881966 -0.086225934 0.088130325 -0.09919543 -0.111141145
0.21172023 -0.0042005316 -0.07974855 -0.02969513 -0.0103599895 0.0070047784 -0.07861118 0.008509151
0.020742385 0.08712071 -0.0023080006 -0.018979201 -0.12891957 0.061948955 -0.09942449 0.022571791
0.013865447 0.012083918 -0.032654114 0.08607685 0.0109296795 0.06801866 0.07461295 -0.053050928
-0.21084525 -0.014408353 -0.115426995 -0.1002645 -0.038009062 0.034361877 -0.06476485 0.11111366
0.18634577 -0.041830473 0.05846326 -0.060848847 -0.03179103 0.077045605 -0.035305236 0.023282707
-0.13657995 -0.19588251 0.0682771 -0.07189082 0.02322486 -0.14728071 -0.07417867 0.08132115
-0.050938055 -0.054435387 0.11154845 -0.038714662 0.034921825 -0.07650816 0.046537437 -0.16634293
0.047132056 0.03837051 -0.011535991 -0.1640367 0.05906045 0.023934959 0.006870406 0.005145628
0.2847141 -0.046582837 -0.09088938 0.14181103 -0.040014785 -0.11302238 0.101082 0.10349361
0.03938839 -0.0012567103 0.080539145 0.09608982 -0.10198804 -0.019184357 -0.084096156 0.09284569
-0.048011098 -0.026625808 0.079110496 -0.029567035 0.030190336 -0.029654639 0.051788703 -0.005934786
-0.06386441 0.10121732 -0.049020745 0.028076172 -0.09324354 -0.20287444 -0.10369203 0.038069133
-0.060974386 -0.07976969 0.17921256 -0.039211586 -0.086436115 0.032090455 -0.010961367 -0.32372895
-0.039236173 -0.14966595 0.062164173 0.1597103 -0.20710862 0.096044935 -0.19294348 0.06718828
-0.032501567 0.12716644 0.0011585742 0.03601507 0.052750748 -0.018640468 0.043533675 -0.024953425
0.013071198 0.059291296 -0.113242544 0.009665409 -0.060770612 0.005951349 0.08387573 -0.07560288
-0.09382325 0.030924816 -0.007678497 -0.041616373 -0.010950222 0.051844783 0.16311291 -0.07865365
0.072923444 -0.15498121 0.08851994 -0.00784986 -0.05869096 -0.18197685 -0.018755225 0.053089492
00000000: 8257 223e 8b27 063c fe73 183d dc80 a33d
00000010: 9762 05bd 3efd 58be b41b 563d 52ea c3bc
00000020: d167 8a3d fd13 943c 051d b0bd 8019 2cbe
00000030: 7190 e03d 11ae 3cbd 4c72 343d 7ca3 b23d
00000040: 327e 163d 613f a1bd 648c 393c 3c00 a3bb
00000050: 4fd4 35bd 0b74 063e 5dff 183e c39e 85bc
00000060: d51c ba3d 0a0b a93d 7b27 8a3d fca2 c0bc
00000070: 4496 e43a bc18 1f3d c2ad c4bd cbb5 4d3d
00000080: 5ae6 3d3d 4d3b 16bd 27b2 ee3c faea 24bd
00000090: 1355 f43d fbab 5fbe 93ae 8dbd ca9a 81bd
000000a0: b2ed 89bc f5ab 9ebd 9813 3b3e 67c3 abbd
000000b0: a56d 9e3d 92b3 debd 7da2 e9bc 11f2 933c
000000c0: dc04 bfbd 6a2c ac3d 0f16 c73d 2598 b7bc
000000d0: 421c 093d 7898 ebbd 2b7a 4b3e a4ac bebd
000000e0: 6487 adbd 97b3 a83d d041 373d 0cd9 973d
000000f0: d147 e53c a18c 163e cd30 6f3d feeb a03d
00000100: e1b4 c8bb 4a32 55bd 7583 f53d 8cfa 6d3d
00000110: dc78 263d 1a5f 03bd 89d9 4abe e9fb a63b
00000120: c600 4bbd 3d4d a6bd d34c 70bc 9b88 3c3d
00000130: c90a e93d 5d93 5abc de0a ae3d a0fe 4e3b
00000140: d4d6 c7bd 8c99 f9bd cbf2 b33c 1b3e a3bd
00000150: 65ad 6c3d da69 ae3d 6e3f 48bd acd4 f5bc
00000160: 9a67 a4bd 4a65 00be 1ae2 473d 5562 64bc
00000170: 73ed b1bb ccea 57bd 3cb0 023c e650 f8bc
00000180: 5c25 053e b151 ea3c 3164 fcbb a8a9 093e
00000190: ddee c6bd 5775 973d ec47 84bd a458 67bd
000001a0: c634 47bc ca4c d0bd 5e69 253d d2d4 55be
000001b0: 3997 b0bd ac7d b43d f926 cbbd f89d e3bd
000001c0: 30cd 583e 9da4 89bb 3553 a3bd 3443 f3bc
000001d0: f2bc 29bc 5788 e53b e6fe a0bd f769 0b3c
000001e0: efeb a93c 586c b23d d341 17bb 457a 9bbc
000001f0: 7e03 04be 30be 7d3d 119f cbbd 7ae8 b83c
00000200: e62b 633c a0fb 453c 52c0 05bd 0f49 b03d
00000210: 6612 333c 5e4d 8b3d adce 983d ee4b 59bd
00000220: d1e7 57be 0311 6cbc fd64 ecbd 7957 cdbd
00000230: 64af 1bbd 0abf 0c3d 6fa3 84bd 8f8f e33d
00000240: 6dd1 3e3e 6e56 2bbd 2c77 6f3d a43c 79bd
00000250: 5037 02bd 16ca 9d3d 399c 10bd 60bb be3c
00000260: 9ddb 0bbe 6d95 48be ddd4 8b3d 7f3b 93bd
00000270: 1042 be3c c1d0 16be fdea 97bd b48b a63d
00000280: 6ca4 50bd a4f7 5ebd 8473 e43d 4493 1ebd
00000290: 300a 0f3d 4fb0 9cbd 0a9e 3e3d cd55 2abe
000002a0: 8b0d 413d 652a 1d3d 7401 3dbc 3df9 27be
000002b0: 5fe9 713d 3f13 c43c 2521 e13b a89c a83b
000002c0: 0cc6 913e a5cd 3ebd 3624 babd e936 113e
000002d0: 8be6 23bd 4778 e7bd 1404 cf3d 75f4 d33d
000002e0: b855 213d 33b8 a4ba b5f1 a43d bdca c43d
000002f0: 1bdf d0bd 8328 9dbc 9b3a acbd e225 be3d
00000300: 49a7 44bd 5e1e dabc af04 a23d 9136 f2bc
00000310: b951 f73c 49ee f2bc 6420 543d 9878 c2bb
00000320: 58cb 82bd 074b cf3d fac9 48bd 0000 e63c
00000330: 78f6 bebd 51be 4fbe 7d5c d4bd 61ee 1b3d
00000340: 47c0 79bd 4b5e a3bd 7f83 373e 549c 20bd
00000350: 6b05 b1bd 4871 033d 4e97 33bc cdbf a5be
00000360: 1cb6 20bd 0842 19be dc9f 7e3d 198b 233e
00000370: 4814 54be 35b3 c43d fa92 45be 029a 893d
00000380: 5d20 05bd eb37 023e 4ddb 973a 8a84 133d
00000390: 2b11 583d e5b3 98bc 5e50 323d 206b ccbc
000003a0: 9428 563c 6edb 723d b5eb e7bd aa5b 1e3c
000003b0: 9bea 78bd 8903 c33b 0ac7 ab3d afd5 9abd
000003c0: 6726 c0bd 0a56 fd3c e79b fbbb ee75 2abd
000003d0: 8f68 33bc 325b 543d 1207 273e 2a15 a1bd
000003e0: e358 953d 65b3 1ebe f149 b53d b39c 00bc
000003f0: ef65 70bd 2458 3abe 8fa4 99bc 5e74 593d

network_body._body_endoder.seq_layers.2.bias f4 [128]
0.0 0.0 0.0 0.0 0.0 0.0 0.0 0.0
0.0 0.0 0.0 0.0 0.0 0.0 0.0 0.0
0.0 0.0 0.0 0.0 0.0 0.0 0.0 0.0
0.0 0.0 0.0 0.0 0.0 0.0 0.0 0.0
0.0 0.0 0.0 0.0 0.0 0.0 0.0 0.0
0.0 0.0 0.0 0.0 0.0 0.0 0.0 0.0
0.0 0.0 0.0 0.0 0.0 0.0 0.0 0.0
0.0 0.0 0.0 0.0 0.0 0.0 0.0 0.0
0.0 0.0 0.0 0.0 0.0 0.0 0.0 0.0
0.0 0.0 0.0 0.0 0.0 0.0 0.0 0.0
0.0 0.0 0.0 0.0 0.0 0.0 0.0 0.0
0.0 0.0 0.0 0.0 0.0 0.0 0.0 0.0
0.0 0.0 0.0 0.0 0.0 0.0 0.0 0.0
0.0 0.0 0.0 0.0 0.0 0.0 0.0 0.0
0.0 0.0 0.0 0.0 0.0 0.0 0.0 0.0
0.0 0.0 0.0 0.0 0.0 0.0 0.0 0.0
00000000: 0000 0000 0000 0000 0000 0000 0000 0000
00000010: 0000 0000 0000 0000 0000 0000 0000 0000
00000020: 0000 0000 0000 0000 0000 0000 0000 0000
00000030: 0000 0000 0000 0000 0000 0000 0000 0000
00000040: 0000 0000 0000 0000 0000 0000 0000 0000
00000050: 0000 0000 0000 0000 0000 0000 0000 0000
00000060: 0000 0000 0000 0000 0000 0000 0000 0000
00000070: 0000 0000 0000 0000 0000 0000 0000 0000
00000080: 0000 0000 0000 0000 0000 0000 0000 0000
00000090: 0000 0000 0000 0000 0000 0000 0000 0000
000000a0: 0000 0000 0000 0000 0000 0000 0000 0000
000000b0: 0000 0000 0000 0000 0000 0000 0000 0000
000000c0: 0000 0000 0000 0000 0000 0000 0000 0000
000000d0: 0000 0000 0000 0000 0000 0000 0000 0000
000000e0: 0000 0000 0000 0000 0000 0000 0000 0000
000000f0: 0000 0000 0000 0000 0000 0000 0000 0000
00000100: 0000 0000 0000 0000 0000 0000 0000 0000
00000110: 0000 0000 0000 0000 0000 0000 0000 0000
00000120: 0000 0000 0000 0000 0000 0000 0000 0000
00000130: 0000 0000 0000 0000 0000 0000 0000 0000
00000140: 0000 0000 0000 0000 0000 0000 0000 0000
00000150: 0000 0000 0000 0000 0000 0000 0000 0000
00000160: 0000 0000 0000 0000 0000 0000 0000 0000
00000170: 0000 0000 0000 0000 0000 0000 0000 0000
00000180: 0000 0000 0000 0000 0000 0000 0000 0000
00000190: 0000 0000 0000 0000 0000 0000 0000 0000
000001a0: 0000 0000 0000 0000 0000 0000 0000 0000
000001b0: 0000 0000 0000 0000 0000 0000 0000 0000
000001c0: 0000 0000 0000 0000 0000 0000 0000 0000
000001d0: 0000 0000 0000 0000 0000 0000 0000 0000
000001e0: 0000 0000 0000 0000 0000 0000 0000 0000
000001f0: 0000 0000 0000 0000 0000 0000 0000 0000

value_heads.value_heads.extrinsic.weight f4 [1, 128]
-0.1015209 0.06655285 0.09538305 0.11651182 -0.056039438 -0.09673189 -0.0018841028 0.09387681
0.18202585 0.04794538 0.14646983 0.16670829 0.060378402 0.21462673 0.17604944 -0.032128066
-0.016621724 -0.08346446 -0.087424904 0.02894944 0.035329014 0.11310485 -0.108393036 -0.10307685
-0.041845053 -0.12447281 -0.07265037 0.004082173 -0.061831906 0.026669994 0.12487039 0.07976338
-0.0020883977 -0.083452925 -0.15804969 -0.12457474 -0.19409542 0.14988235 -0.123704895 -0.18299198
0.08316964 -0.12201533 -0.09978318 -0.074297175 -0.1748986 -0.13426025 0.12774077 0.11079824
-0.075771436 -0.1456958 -0.05462128 0.040784687 -0.09711265 -0.1207094 0.15320414 0.18697816
-0.0041158795 -0.122232705 -0.10697066 0.20675394 0.16321781 0.0634363 -0.19377086 0.043704987
-0.013189226 -0.10499431 0.012132704 -0.0317598 -0.022284597 -0.20045955 0.21024936 -0.10210861
0.19799617 -0.11605562 -0.029285997 -0.0648146 0.07310426 -0.03520325 0.19182807 0.16588375
0.10654971 -0.04679492 -0.08167295 0.02941294 0.06264046 0.07981375 0.18837577 0.07420638
0.19061366 -0.12170913 0.062650114 -0.07818924 0.11220792 0.0370692 0.06879833 -0.005206108
0.11884567 0.029668957 -0.119891584 -0.16040182 0.09865531 0.13267374 0.0970155 -0.054301307
0.00025768578 0.09923774 -0.14779648 -0.018048108 -0.14321107 -0.17632756 -0.1254974 -0.028174266
0.07781717 0.14598829 0.13922358 0.09362143 -0.06722781 -0.12347007 -0.14230591 0.007977769
-0.0056636333 -0.2143198 -0.023582846 -0.17311297 -0.20880076 0.02037853 -0.16734993 -0.17268807
00000000: 31ea cfbd dc4c 883d 3058 c33d c09d ee3d
00000010: 9c89 65bd 5f1b c6bd 00f4 f6ba 7c42 c03d
00000020: fc64 3a3e 6062 443d 30fc 153e 94b5 2a3e
00000030: 584f 773d 1cc7 5b3e 4e46 343e b898 03bd
00000040: 482a 88bc 6aef aabd d40b b3bd 6027 ed3c
00000050: 28b5 103d 84a3 e73d 2bfd ddbd f519 d3bd
00000060: b865 2bbd 9aeb febd b8c9 94bd c0c3 853b
00000070: 7443 7dbd 087b da3c 0cbc ff3d fc5a a33d
00000080: 80dd 08bb 5ee9 aabd c7d7 21be 0b21 ffbd
00000090: f3c0 46be c27a 193e fe58 fdbd 4062 3bbe
000000a0: d854 aa3d 2ce3 f9bd 205b ccbd 1e29 98bd
000000b0: 9e18 33be 857b 09be 7ace 023e 30ea e23d
000000c0: 0e2e 9bbd 4831 15be 90ba 5fbd d80d 273d
000000d0: ffe2 c6bd 7d36 f7bd 8ce1 1c3e 3477 3f3e
000000e0: 80de 86bb 2455 fabd 6f13 dbbd 4eb7 533e
000000f0: 9222 273e e4ea 813d de6b 46be 0004 333d
00000100: a017 58bc 4207 d7bd 40c8 463c 9016 02bd
00000110: 308e b6bc 4545 4dbe 9c4b 573e 521e d1bd
00000120: 82bf 4a3e 92ae edbd 30e9 efbc 84bd 84bd
00000130: b0b7 953d 4831 10bd 946e 443e 6edd 293e
00000140: bc36 da3d 08ac 3fbd 2644 a7bd 68f3 f03c
00000150: a449 803d 6475 a33d 94e5 403e 84f9 973d
00000160: 3a30 433e a342 f9bd b44e 803d ae21 a0bd
00000170: 44cd e53d e0d5 173d 24e6 8c3d 0098 aabb
00000180: 5c65 f33d 500c f33c b889 f5bd 6040 24be
00000190: cc0b ca3d a0db 073e 10b0 c63d 0c6b 5ebd
000001a0: 001a 8739 283d cb3d f657 17be a0d9 93bc
000001b0: eca5 12be 368f 34be 6482 00be b8cd e6bc
000001c0: 9c5e 9f3d f47d 153e a090 0e3e 98bc bf3d
000001d0: bcae 89bd e0dd fcbd a4b8 11be 30b5 023c
000001e0: 0096 b9bb a676 5bbe d030 c1bc 8744 31be
000001f0: decf 55be e0f0 a63c c85d 2bbe 24d5 30be
