results/test2/EndLessRunnerBehaviour/EndLessRunnerBehaviour-999990.pt (torch, 437618 bytes, 30 tensors)

network_body._body_endoder.seq_layers.0.weight f4 [128, 5]
0.5210547 -0.33004802 -0.115812585 -0.4426082 0.019718695 0.04941089 -0.49387202 -0.3400593
0.05225564 0.23770995 0.49733108 0.25970337 0.24133791 0.6990067 -0.78230166 -0.24657175
0.027235076 0.034973435 -1.0399926 -0.4590607 0.60701936 0.94485503 -0.82226616 -0.8981553
0.24897033 -0.4960838 -0.40715465 -0.5038155 0.45596078 -0.29845333 -0.71851647 0.0936681
0.6261206 -0.81594074 0.4130572 0.19704819 0.29232335 0.38903278 0.34824494 -0.6030585
0.7702433 0.047295522 -0.1669852 0.30895105 0.110207744 -0.33667004 -0.76583385 -0.05718323
-0.20885108 0.37971696 0.3734561 -0.19221555 -0.5157002 -1.1107359 -0.43856278 -0.59395146
-0.40385512 0.11812024 -0.291732 0.021587811 0.40183067 0.03152061 -0.017627995 -0.26079348
-0.36703572 -0.27435803 0.51964396 -0.11666803 -0.22241132 0.77351606 -0.24229531 -0.14238304
0.23254809 0.4171348 -0.12009364 -0.05443411 0.10487523 -0.8655387 -0.5487957 0.9507365
-0.9382209 0.41222212 -0.7111815 -0.56165814 -0.09841952 -0.25092092 -0.34320173 -0.3453232
-0.31500635 0.9661853 -0.046893995 0.22278152 -0.4420595 -0.43465644 -0.12402684 0.64488864
1.0304406 0.14478382 -0.71030474 0.21375851 -0.12266823 0.5617907 -0.8297041 0.3304426
0.55593795 0.34826264 0.61781865 -0.93898994 0.46401924 0.19721338 0.116162464 -0.041928362
-0.29721776 -0.20476718 -0.2517326 0.49908963 0.44330317 0.5555627 0.20932451 -0.7315424
-0.5323125 -0.055795547 0.18789633 0.26680222 -0.089877345 0.027811395 0.6623586 -0.3095553
0.1060124 0.135867 -1.3700761 -0.14369874 0.31528965 0.24794939 -0.19852242 0.087703004
-0.45126536 -0.09279032 0.29520687 -0.04746651 0.035199698 -0.4046665 -0.06328353 -0.15297037
-0.33181068 0.5638499 -0.15363896 0.33876723 0.4428553 -0.5761222 0.32494235 -0.505198
-0.65401983 0.12557657 -0.23088738 0.19319145 0.31827372 0.36922145 0.032593638 0.07694296
-0.98234063 0.11006636 0.048635453 -0.0012855723 -0.21586058 -0.4639971 -0.34437308 -0.11075287
0.04179452 -0.44947055 0.06837712 -0.019603914 -0.46874768 0.11126113 0.09551383 0.122956745
-0.4068964 0.31000388 -0.4177768 -0.13301776 -0.26893324 -0.05941186 0.28204408 0.47298494
-0.22072689 0.4639278 0.36385754 -0.39115912 0.30655566 0.3492292 0.21347481 -0.09127768
0.39183313 0.047225416 -0.6518348 -0.8639433 0.07861145 0.059696 0.19773263 0.16374804
-0.33386984 0.44095504 -0.9901459 0.20954509 -0.044544775 0.012726834 -0.47734475 0.3966227
0.7744072 0.29335523 0.24031338 -0.40918878 0.060223475 -0.39879298 0.5269867 0.33275157
-0.122890264 -0.24627525 -0.41824156 0.5102355 -0.20964725 0.0702195 -0.65060323 -0.6708566
0.61812454 0.16563745 0.4623769 -0.62769336 0.16542727 0.7740789 -0.6662925 -0.28270993
0.55512446 -0.02252408 0.033555936 0.02784419 0.093892224 -0.13254435 -0.7927553 0.100221746
0.2539449 -0.10289001 0.36777204 -0.092003256 0.015221779 0.17490645 -0.843866 -0.19376822
1.0652726 0.47500792 -0.3185171 0.09320554 0.15802905 -0.27634746 -0.29151735 -0.04105262
00000000: d763 053f 0efc a8be 262f edbd 8b9d e2be
00000010: 1a89 a13c 1363 4a3d cbdc fcbe 411c aebe
00000020: 030a 563d 3d6a 733e 2ea2 fe3e d7f7 843e
00000030: 4921 773e 1af2 323f ec44 48bf 4e7d 7cbe
00000040: 181c df3c 4e40 0f3d 7a1e 85bf 010a ebbe
00000050: 9f65 1b3f 05e2 713f 0980 52bf 81ed 65bf
00000060: 14f2 7e3e b2fe fdbe 9376 d0be 0dfa 00bf
00000070: b173 e93e e0ce 98be b2f0 37bf 10d5 bf3d
00000080: 7149 203f 7ee1 50bf 3c7c d33e 00c7 493e
00000090: 68ab 953e 4e2f c73e 294d b23e 0b62 1abf
000000a0: aa2e 453f f3b8 413d 2bfe 2abe d52e 9e3e
000000b0: 99b4 e13d 0460 acbe b00d 44bf f638 6abd
000000c0: 0fdd 55be 436a c23e a335 bf3e 27d4 44be
000000d0: ee04 04bf 982c 8ebf 4d8b e0be 340d 18bf
000000e0: 19c6 cebe 06e9 f13d e65d 95be ecd8 b03c
000000f0: c0bc cd3e c11b 013d 9668 90bc b986 85be
00000100: 1bec bbbe a878 8cbe 6307 053f a6ef eebd
00000110: cbbf 63be 2605 463f 431c 78be dccc 11be
00000120: 1621 6e3e b192 d53e a8f3 f5bd 4df6 5ebd
00000130: d3c8 d63d f293 5dbf e07d 0cbf 7863 733f
00000140: 3f2f 70bf c70e d33e fe0f 36bf d4c8 0fbf
00000150: 2c90 c9bd b578 80be 23b8 afbe 34ce b0be
00000160: 8348 a1be eb57 773f eb13 40bd d720 643e
00000170: 9f55 e2be 4a8b debe c901 febd 6c17 253f
00000180: 7ae5 833f 3642 143e 88d6 35bf 83e3 5a3e
00000190: 7b39 fbbd 84d1 0f3f 7d67 54bf c62f a93e
000001a0: f351 0e3f 7b4f b23e 5d29 1e3f a561 70bf
000001b0: ee93 ed3e 4ef2 493e 96e6 ed3d 13bd 2bbd
000001c0: ed2c 98be 7dae 51be 18e3 80be ad88 ff3e
000001d0: a2f8 e23e 5b39 0e3f 2a59 563e 5d46 3bbf
000001e0: a245 08bf df89 64bd e567 403e 4d9a 883e
000001f0: 9d11 b8bd b9d4 e33c 5590 293f 087e 9ebe
00000200: 071d d93d b820 0b3e a75e afbf c325 13be
00000210: a56d a13e 72e6 7d3e 7649 4bbe a29d b33d
00000220: 410c e7be da08 bebd 5b25 973e 3e6c 42bd
00000230: 8f2d 103d 7330 cfbe cc9a 81bd 44a4 1cbe
00000240: 17e3 a9be 7858 103f 8853 1dbe e672 ad3e
00000250: eebd e23e bf7c 13bf d85e a63e a854 01bf
00000260: d86d 27bf 2597 003e be6d 6cbe fbd3 453e
00000270: c6f4 a23e 980a bd3e e880 053d 4594 9d3d
00000280: ad7a 7bbf 796a e13d f835 473d a680 a8ba
00000290: 8e0a 5dbe 0791 edbe ab51 b0be 67d2 e2bd
000002a0: bb30 2b3d 0121 e6be 4e09 8c3d 6398 a0bc
000002b0: b2ff efbe e0dc e33d c19c c33d bfd0 fb3d
000002c0: ba54 d0be d4b8 9e3e d7e6 d5be cf35 08be
000002d0: 9eb1 89be da59 73bd 1568 903e 152b f23e
000002e0: 3b06 62be f287 ed3e 894b ba3e 0246 c8be
000002f0: ddf4 9c3e 2bce b23e 2499 5a3e cbef babd
00000300: 5a9e c83e 706f 413d a5de 26bf 632b 5dbf
00000310: 0aff a03d cb83 743d 6c7a 4a3e 91ad 273e
00000320: fdf0 aabe dcc4 e13e 347a 7dbf fd92 563e
00000330: 9574 36bd 3684 503c 8866 f4be 2112 cb3e
00000340: 8d3f 463f a832 963e b614 763e 3181 d1be
00000350: e4ac 763d 982e ccbe 9ae8 063f 6a5e aa3e
00000360: e4ad fbbd 942f 7cbe c223 d6be cb9e 023f
00000370: c5ad 56be 3ecf 8f3d ef8d 26bf 42bd 2bbf
00000380: 693d 1e3f dd9c 293e aabc ec3e 83b0 20bf
00000390: c465 293e 092a 463f 2592 2abf 5bbf 90be
000003a0: a31c 0e3f 6b84 b8bc f371 093d 8019 e43c
000003b0: 914a c03d b5b9 07be 03f2 4abf 0f41 cd3d
000003c0: 1105 823e ffb7 d2bd 9e4c bc3e 346c bcbd
000003d0: c564 793c ad1a 333e 9a07 58bf 2d6b 46be
000003e0: da5a 883f 3d34 f33e ac14 a3be 8ce2 be3d
000003f0: 5ed2 213e 6a7d 8dbe c341 95be cb26 28bd

network_body._body_endoder.seq_layers.0.bias f4 [128]
-0.005150668 -0.013325554 -0.0061366563 -0.0003084222 -0.002446301 0.0051894067 0.005852486 0.0029690913
0.0021249733 -0.0023545616 -0.00034066406 0.0180613 -0.0006542751 -0.0052367104 -0.016100751 -0.0017113185
0.0020229944 -0.0024867882 -0.0041556875 0.0037790362 -0.0016077845 -0.0059124758 -0.0005994442 -0.005952309
0.0025024437 -0.011530134 -0.0065729655 0.00658823 0.020052126 0.052836526 -0.0024306085 -0.005656388
-0.004200562 -0.006597003 -0.0005975522 0.05470284 0.054029014 0.00767651 -0.018372137 0.003727938
-0.0055794585 0.045083106 0.017003218 0.002893301 -0.0013897272 -0.0013613501 0.023484915 0.0171401
-0.009496218 0.010107276 -0.0017580693 -0.007953508 0.009219004 0.0016033177 3.8078273e-05 -0.0027660015
-0.02460996 0.0003511852 -0.018907571 0.0024376335 -0.0025186243 -0.016199017 -0.009137684 -0.00015471167
-0.019140827 0.020525213 0.005109376 -0.0018221146 0.048609775 0.029681321 -0.0021699797 0.0063765934
0.0069696666 -0.0024142584 0.044760425 0.0051784758 -0.0015874652 0.014206869 0.003815543 0.0025167395
-0.017769467 0.0017297904 -0.0019063228 -0.008420364 -0.0022224765 0.05882813 -3.5854348e-05 -0.004812169
0.0027935472 -8.713776e-05 0.0008576938 0.007947871 -0.0016193249 0.0015065093 -0.00033558882 -0.0010291758
0.012695602 0.024118816 -0.006732842 0.001096707 0.0021477912 -0.000617349 -0.00022530502 -0.006885126
0.009124094 -0.010561453 -0.011258024 0.03114878 -0.003323974 -0.005146325 -0.002665011 0.0014480441
-0.0068006488 0.0129552195 -3.7274764e-05 0.003013316 -0.010915555 -0.015143662 0.0037774723 -0.008604468
0.0056911414 0.009072447 -0.0016890652 0.036319327 0.007917783 0.004999997 -0.010610214 0.012574616
00000000: efc6 a8bb 6d53 5abc 0116 c9bb bab3 a1b9
00000010: 1f52 20bb e60b aa3b 36c6 bf3b 1695 423b
00000020: 2343 0b3b fd4e 1abb 289b b2b9 4bf5 933c
00000030: a983 2bba b698 abbb b9e5 83bc 524e e0ba
00000040: 3794 043b 62f9 22bb 6f2c 88bb b5a9 773b
00000050: 4cbc d2ba 71bd c1bb 0524 1dba 960b c3bb
00000060: 0a00 243b e3e8 3cbc 0862 d7bb 14e2 d73b
00000070: 5b44 a43c 1d6b 583d d84a 1fbb 3959 b9bb
00000080: dea4 89bb ac2b d8bb 0da5 1cba 1610 603d
00000090: 874d 5d3d 3c8b fb3b 2a81 96bc 6c50 743b
000000a0: e4d3 b6bb 10a9 383d 554a 8b3c 899d 3d3b
000000b0: 8227 b6ba 546f b2ba 7063 c03c 6569 8c3c
000000c0: 0696 1bbc fd98 253c 046f e6ba 6e4f 02bc
000000d0: 4e0b 173c 6a26 d23a 3cb6 1f38 ce45 35bb
000000e0: d49a c9bc 481f b839 0de4 9abc b4c0 1f3b
000000f0: 810f 25bb cdb3 84bc 39b6 15bc 193a 22b9
00000100: 39cd 9cbc 7e24 a83c 8d6c a73b 05d4 eeba
00000110: 0b1b 473d 3e26 f33c 3836 0ebb bef2 d03b
00000120: cd61 e43b 8938 1ebb b556 373d 34b0 a93b
00000130: 7e12 d0ba edc3 683c 300e 7a3b e2ef 243b
00000140: 4691 91bc 22ba e23a 94dd f9ba 91f5 09bc
00000150: f8a6 11bb c4f5 703d 5062 16b8 66af 9dbb
00000160: f213 373b bbbd b6b8 dbd6 603a ca37 023c
00000170: 873f d4ba 1076 c53a f8f1 afb9 69e5 86ba
00000180: 3701 503c d394 c53c 2c9f dcbb 61bf 8f3a
00000190: f5c1 0c3b 97d5 21ba db3f 6cb9 9f9c e1bb
000001a0: 397d 153c f209 2dbc 9373 38bc ba2b ff3c
000001b0: 08d7 59bb 81a2 a8bb 77a7 2ebb 4ccc bd3a
000001c0: fad7 debb 2142 543c 7957 1cb8 0e7b 453b
000001d0: 28d7 32bc 1f1d 78bc 788f 773b c1f9 0cbc
000001e0: c17c ba3b 9aa4 143c a063 ddba 93c3 143d
000001f0: 97b9 013c 04d7 a33b 77d6 2dbc c305 4e3c

network_body._body_endoder.seq_layers.2.weight f4 [128, 128]
0.01853602 0.033557665 0.042406473 -0.18388009 0.07086338 0.094419695 -0.19423012 0.044963565
0.083194345 0.090435825 0.039091807 -0.049493607 0.006013519 -0.099727266 0.05659655 -0.027284045
0.029972216 -0.11533744 0.107004374 0.027699852 0.054294474 -0.07853941 -0.08324692 -0.034030624
0.038963225 -0.107090525 0.1181339 -0.045450144 -0.100508384 -0.016938265 -0.086356975 0.06808292
-0.011729889 0.05126895 -0.20649797 -0.036494385 0.13194647 0.079334415 -0.007817458 -0.11240031
0.004225302 0.0064725527 0.11796974 -0.02180596 0.1252966 0.10659964 -0.047696155 0.080969475
0.0038167872 0.032557268 0.09738614 -0.0012230726 0.045116436 -0.12033162 -0.032104578 0.27276793
0.023173917 0.002684954 0.033799764 -0.04358494 -0.13353814 0.09328251 -0.008128048 0.14671035
-0.068802804 -0.06746632 -0.23150347 0.012275727 0.013385409 0.046182152 0.06660191 -0.1427019
-0.015257648 -0.0132522 -0.122453816 -0.03971101 -0.01746867 -0.019842539 0.045290243 -0.089118004
-0.0668667 -0.12234634 -0.013319839 -0.024351664 0.03378455 0.05409781 0.16307878 -0.09893901
0.17728636 0.018848075 0.08751074 -0.049330328 -0.048717525 -0.123175606 -0.24404737 -0.008435165
-0.10700217 -0.09707831 -0.05649522 -0.10313061 0.10109302 0.04008722 -0.0044168755 -0.027535759
-0.037843157 -0.05409316 -0.20594023 -0.031992253 0.016315872 0.08761776 -0.02467254 0.027751202
0.10593722 -0.034759693 -0.012311264 -0.06487993 0.029079575 -0.054287024 -0.037080094 -0.11971355
-0.054229807 -0.046663083 -0.1561888 0.07869336 -0.09372609 -0.110307254 0.05315059 -0.09547091
0.15593511 0.011837413 0.083804995 0.028230127 -0.053033717 -0.1082256 -0.09447401 0.0476637
-0.008735217 -0.008323391 -0.014751604 -0.17912515 0.0018767262 0.18209739 -0.058503166 -0.18316273
-0.08877016 0.012612984 0.07960047 -0.077173755 -0.06816527 -0.07889084 -0.08904082 -0.08872677
-0.019541396 -0.13184243 0.11444437 -0.05900026 -0.0628007 -0.037608705 -0.017711313 0.01356133
-0.030346628 -0.068939954 -0.07303886 0.01797584 -0.07080247 0.016814074 0.01834404 -0.03838245
-0.05864484 0.11859596 0.09226079 -0.07094836 0.047433555 -0.17458011 -0.0144773945 0.07922708
-0.0008717347 0.19377677 -0.07205497 0.015264673 -0.082679495 -0.109825045 0.03577368 0.041694146
-0.057027068 0.19813026 0.03774542 -0.015947333 -0.042551037 -0.11574563 0.008231623 0.025652006
0.023197176 -0.03941848 0.03302489 0.055557165 -0.0052020676 -0.14672911 -0.16173017 0.14754179
0.06226547 0.009663051 0.014573428 -0.08503754 0.03515752 0.06983748 -0.23478636 -0.009541327
0.15307075 0.026000906 0.095538296 -0.12856425 0.13458623 -0.058604285 0.11745874 0.029579168
0.0532819 -0.020440292 0.04788832 0.112606056 0.033823818 0.08637708 0.0592699 -0.09484939
0.039830852 0.009191962 0.01535766 -0.076663546 -0.08445688 0.065043464 -0.022945447 0.033897158
-0.022071755 -0.027435018 -0.024597203 -0.073369004 -0.10109643 0.04572459 -0.19271757 -0.0033524358
-0.13081443 -0.031897902 0.070345685 -0.041301664 -0.0770642 -0.07844322 0.010332062 0.0677232
-0.12012447 0.12856421 -0.15263592 0.1305543 -0.10030191 -0.108603485 0.102307715 -0.115978256
00000000: dad8 973c c373 093d 69b2 2d3d 104b 3cbe
00000010: d220 913d 1d5f c13d 43e4 46be b72b 383d
00000020: cc61 aa3d 6b36 b93d bb1e 203d cfb9 4abd
00000030: 0e0d c53b cf3d ccbd c9d1 673d ca82 dfbc
00000040: 4b88 f53c 0936 ecbd 1c25 db3d cdea e23c
00000050: e263 5e3d 45d9 a0bd 5c7d aabd b263 0bbd
00000060: e797 1f3d 4752 dbbd 30f0 f13d ee29 3abd
00000070: 57d7 cdbd 1ec2 8abc eddb b0bd 0f6f 8b3d
00000080: b82e 40bc 64ff 513d 3474 53be 237b 15bd
00000090: fa1c 073e 157a a23d cc14 00bc 2232 e6bd
000000a0: 6774 8a3b b517 d43b 1e9a f13d 6aa2 b2bc
000000b0: c04d 003e e950 da3d 0b5d 43bd 53d3 a53d
000000c0: 1023 7a3b c55a 053d 6272 c73d 824f a0ba
000000d0: 03cc 383d 6d70 f6bd 1780 03bd 3da8 8b3e
000000e0: 3ad7 bd3c 0ef6 2f3b 9f71 0a3d 1f86 32bd
000000f0: 39be 08be e70a bf3d 812b 05bc 3d3b 163e
00000100: 7ce8 8cbd c82b 8abd 3f0f 6dbe 2120 493c
00000110: 794e 5b3c 7f29 3d3d 9566 883d 7220 12be
00000120: 37fb 79bc c11f 59bc 11c9 fabd 03a8 22bd
00000130: 751a 8fbc d28c a2bc 4382 393d 8083 b6bd
00000140: 69f1 88bd b890 fabd 743b 5abc 247d c7bc
00000150: ab61 0a3d aa95 5d3d 20fe 263e 89a0 cabd
00000160: 8e8a 353e 4767 9a3c d538 b33d 990e 4abd
00000170: 078c 47bd 7e43 fcbd 8ee7 79be a533 0abc
00000180: f423 dbbd fed0 c6bd 8867 67bd 2436 d3bd
00000190: db09 cf3d 7f32 243d 70bb 90bb ac92 e1bc
000001a0: 6d01 1bbd ca90 5dbd ffe1 52be 4f0a 03bd
000001b0: dda8 853c f170 b33d 111e cabc 7d56 e33c
000001c0: 9df5 d83d 2e60 0ebd 2fb5 49bc c5df 84bd
000001d0: 4a38 ee3c 125c 5ebd 4ce1 17bd 612c f5bd
000001e0: 1320 5ebd ca21 3fbd f5ef 1fbe fc29 a13d
000001f0: 77f3 bfbd c5e8 e1bd 6fb4 593d 4186 c3bd
00000200: 74ad 1f3e b5f1 413c f4a1 ab3d de42 e73c
00000210: e239 59bd 62a5 ddbd 977b c1bd 033b 433d
00000220: 281e 0fbc d55e 08bc b6b0 71bc 956c 37be
00000230: 7bfc f53a bd77 3a3e 04a1 6fbd 038f 3bbe
00000240: 21cd b5bd b0a6 4e3c 9205 a33d 460d 9ebd
00000250: 3c9a 8bbd 8591 a1bd 095b b6bd 61b6 b5bd
00000260: 4715 a0bc b401 07be cf61 ea3d 42aa 71bd
00000270: a79d 80bd 960b 1abd 5117 91bc 5730 5e3c
00000280: 7e99 f8bc 6430 8dbd 6695 95bd 1242 933c
00000290: e300 91bd abbd 893c 3d46 963c ea36 1dbd
000002a0: 9235 70bd 70e2 f23d 3af3 bc3d 604d 91bd
000002b0: b049 423d 21c5 32be 9832 6dbc cf41 a23d
000002c0: 2085 64ba 6b6d 463e 8e91 93bd ae18 7a3c
000002d0: de53 a9bd f4eb e0bd 6c87 123d 7bc7 2a3d
000002e0: 3795 69bd a9e2 4a3e f19a 1a3d fba3 82bc
000002f0: ff49 2ebd 0b0c edbd eedd 063c 2824 d23c
00000300: 0108 be3c 4675 21bd 1b45 073d e98f 633d
00000310: 1b76 aabb 2840 16be 989c 25be 3215 173e
00000320: 140a 7f3d c651 1e3c 63c5 6e3c 2928 aebd
00000330: 5501 103d f406 8f3d d66b 70be 3a53 1cbc
00000340: 94be 1c3e daff d43c 95a9 c33d 59a6 03be
00000350: f9d0 093e 0c0b 70bd 358e f03d 0350 f23c
00000360: 1f3e 5a3d 6672 a7bc 8b26 443d 019e e63d
00000370: d88a 0a3d 77e6 b03d ffc4 723d 6640 c2bd
00000380: ad25 233d e299 163c b29e 7b3c c701 9dbd
00000390: bbf7 acbd 8235 853d 17f8 bbbc bfd7 0a3d
000003a0: d3cf b4bc 67bf e0bc 1380 c9bc 7d42 96bd
000003b0: a50b cfbd b549 3b3d c157 45be 8ab4 5bbb
000003c0: 38f4 05be 60a7 02bd 6611 903d ef2b 29bd
000003d0: d6d3 9dbd d7a6 a0bd cf47 293c 76b2 8a3d
000003e0: d103 f6bd 56a6 033e 974c 1cbe 07b0 053e
000003f0: 166b cdbd 816b debd b586 d13d 0286 edbd

network_body._body_endoder.seq_layers.2.bias f4 [128]
0.0023527485 -0.010934902 0.00054036867 -0.001490157 -0.01567257 -0.004148023 -0.027595852 0.0022760476
6.0076207e-05 0.0012537206 0.015891654 0.0014062688 -0.0007129565 0.006520483 0.02340345 -0.00064453855
0.008136636 0.0031710993 -0.00042203872 0.022073762 -0.008007206 0.003482173 -0.0002497238 -0.001439484
0.029422129 -8.398308e-05 0.00021234658 -0.0044482225 -0.005732454 -0.0012224687 -0.005513293 0.01729735
-0.0014825854 -0.005009511 -0.0010524098 0.0016642561 0.009417643 0.014705806 -0.0021849067 -0.020913657
-0.0021321632 -0.01328982 -0.0018619214 0.0011028609 0.0023860182 -0.002713676 -0.0020074942 0.0073856907
0.008963726 0.0005823276 0.019273242 -0.0039695846 -0.0031205276 0.0006346199 -0.0018177038 -0.0019886508
-0.010802183 0.00043564502 0.0019908 -0.00038723162 -0.0072183358 0.01372078 -0.026768476 -0.0014283529
0.007245365 -0.018354207 -0.0008240016 0.007879322 -0.02866476 0.00089463516 -0.0013481963 0.007614554
-0.0029051683 -0.00068716897 -0.0025028093 -0.00064165035 -0.0050908793 0.003710521 -0.023530426 0.0005868011
0.0011657015 0.0061365534 -0.008610129 0.013652571 -0.0016190893 -0.0034625137 0.0016576555 0.0011090627
0.00198262 -0.0015255994 -0.018530287 0.036397416 0.00019950648 -0.0018723605 -0.0016726984 -0.003241898
0.00045499115 0.009936604 0.0048548183 0.00016159599 0.00058820983 0.0004155616 -0.0032798375 -0.021912355
-0.0011276278 -0.001123286 0.017369946 -0.027633686 0.017452924 -0.00911802 -0.009941771 -0.011728155
-0.0007468191 -0.0016205993 -4.4831497e-05 -0.00069398544 -0.0008332933 -0.0011135408 -0.00113052 -0.0029825154
-0.0030433275 -0.0003153193 0.000714789 0.011139029 -0.0028882602 0.003463596 0.009952642 -0.00039237502
00000000: 9230 1a3b 4e28 33bc 87a7 0d3a 5f51 c3ba
00000010: c363 80bc 24ec 87bb b210 e2bc be29 153b
00000020: 56fa 7b38 e253 a43a 372f 823c 8d52 b83a
00000030: b3e5 3aba c7a9 d53b 98b8 bf3c 40f6 28ba
00000040: 864f 053c 38d2 4f3b 1445 ddb9 09d4 b43c
00000050: a830 03bc 2b35 643b 5ced 82b9 11ad bcba
00000060: ad06 f13c 1320 b0b8 5aa9 5e39 65c2 91bb
00000070: 4fd7 bbbb 3e3b a0ba dba8 b4bb 2cb3 8d3c
00000080: 5053 c2ba d326 a4bb 03f1 89ba 2b23 da3a
00000090: 754c 1a3c 9ff0 703c a730 0fbb 1e53 abbc
000000a0: c3bb 0bbb 8cbd 59bc b70b f4ba df8d 903a
000000b0: be5e 1c3b eed7 31bb 2a90 03bb aa03 f23b
000000c0: 98dc 123c 58a7 183a ebe2 9d3c 4a13 82bb
000000d0: c481 4cbb 9f5c 263a 0540 eeba 0654 02bb
000000e0: a4fb 30bc 4967 e439 1578 023b 5905 cbb9
000000f0: ca87 ecbb 1fcd 603c 9049 dbbc 9237 bbba
00000100: 876a ed3b 905b 96bc d001 58ba 4618 013c
00000110: 5cd2 eabc f385 6a3a f6b5 b0ba 8283 f93b
00000120: a364 3ebb 2123 34ba 2c06 24bb 6d34 28ba
00000130: 64d1 a6bb 362c 733b e1c2 c0bc 8ed3 193a
00000140: 74ca 983a 2415 c93b 8011 0dbc 08af 5f3c
00000150: 9f37 d4ba 57eb 62bb b045 d93a f85d 913a
00000160: d8ee 013b 9ff6 c7ba d4cc 97bc 7515 153d
00000170: 9d32 5139 fe69 f5ba 723e dbba 0676 54bb
00000180: e18b ee39 23cd 223c 2b15 9f3b 1872 2939
00000190: 1832 1a3a bcdf d939 8bf2 56bb 8a81 b3bc
000001a0: e9cc 93ba 393b 93ba 6b4b 8e3c 0a60 e2bc
000001b0: 6ff9 8e3c bf63 15bc cfe2 22bc 7327 40bc
000001c0: 2ec6 43ba 4a6a d4ba 7409 3cb8 93ec 35ba
000001d0: 5e71 5aba 3bf4 91ba f52d 94ba 4e76 43bb
000001e0: 9072 47bb 7151 a5b9 ae60 3b3a 7980 363c
000001f0: f748 3dbb 80fd 623b 6810 233c afb7 cdb9

action_model._continuous_distribution.mu.weight f4 [1, 128]
0.015235498 -0.034126583 0.013989483 -0.009664797 -0.013358497 -0.022890158 -0.035258185 -0.023122055
0.0065117385 -0.02692518 0.025639078 0.0055931783 -0.008818489 -0.00894963 0.028806016 -0.0047245077
0.017845677 -0.01084731 -0.022391206 0.035493743 -0.0035975138 -0.019756496 0.005135432 -0.02696491
-0.028424269 -0.0042366814 0.0068231113 -0.02745314 -0.01167505 0.006782493 -0.022447357 0.050550774
-0.005988176 -0.013164934 -0.014926421 0.0124304965 -0.03790187 -0.023463175 0.019407418 -8.6780594e-05
-0.006998965 -0.023994073 0.0015862094 0.015190095 0.029618604 0.020313498 0.017177789 -0.022737911
-0.048486777 0.012380799 -0.032532565 -0.003238797 0.013100809 0.032950874 -0.011860295 -0.011127836
-0.029318234 0.0022329567 0.00607091 0.009863761 -0.022186842 0.0073174 -0.030264884 -0.018900104
-0.041960694 -0.024071166 0.011321484 0.020372117 -0.018038144 0.02091229 -0.026931426 -0.010867852
-0.0039555277 0.008701342 -0.0043256236 0.010822585 -4.859745e-05 0.007934232 -0.013640081 0.015768528
0.05477536 -0.014193701 -0.0034777184 0.032338295 -0.014968237 0.0023607486 0.008153171 0.011396852
-0.03003193 0.0018185318 -0.008993699 -0.046589714 0.007742899 -0.0108026145 -0.029167978 -0.025809502
0.017371299 -0.017140802 0.0069787554 -0.01872583 0.016351605 0.013016981 0.008875891 -0.043100744
-0.014949362 -0.01314311 0.023724064 -0.019920297 0.03278774 -0.04754561 -0.01799654 -0.071794495
-0.034703966 -0.0022810875 0.007915096 -0.012801082 0.036555443 0.025569046 -0.014760962 -0.016313544
-0.0019582158 0.004294203 0.028643202 -0.023416353 0.014453535 -0.026700338 0.024487387 0.009449013
00000000: 4f9e 793c 51c8 0bbd 2534 653c 1959 1ebc
00000010: 99dd 5abc 2484 bbbc e36a 10bd 776a bdbc
00000020: 6c60 d53b 3292 dcbc 0b09 d23c fb46 b73b
00000030: 6c7b 10bc 78a1 12bc 98fa eb3c 0bd0 9abb
00000040: 1931 923c eab8 31bc c36d b7bc e361 113d
00000050: 44c4 6bbb 60d8 a1bc 2047 a83b 84e5 dcbc
00000060: 03da e8bc dcd3 8abb 6894 df3b 68e5 e0bc
00000070: b548 3fbc ad3f de3b 85e3 b7bc 540e 4f3d
00000080: 7638 c4bb bcb1 57bc f38d 74bc 48a9 4b3c
00000090: fe3e 1bbd d835 c0bc 4efc 9e3c fafd b5b8
000000a0: 9357 e5bb 388f c4bc 5be8 cf3a e0df 783c
000000b0: b7a2 f23c 7e68 a63c 6fb8 8c3c db44 babc
000000c0: 129a 46bd d6d8 4a3c de40 05bd ff41 54bb
000000d0: c7a4 563c 7ff7 063d af51 42bc 8751 36bc
000000e0: cb2c f0bc cc56 123b 7cee c63b 9d9b 213c
000000f0: 2ec1 b5bc cdc6 ef3b 10ee f7bc 64d4 9abc
00000100: fade 2bbd e530 c5bc bf7d 393c 6de3 a63c
00000110: bbc4 93bc 4050 ab3c 4b9f dcbc 130f 32bc
00000120: 5f9d 81bb 1390 0e3c f6bd 8dbb 3651 313c
00000130: 1dd5 4bb8 95fe 013c a57a 5fbc 002d 813c
00000140: 215c 603d b28c 68bc 6fea 63bb 2975 043d
00000150: 563d 75bc cab6 1a3b e194 053c ddb9 3a3c
00000160: 8605 f6bc cd5b ee3a 4f5a 13bc dbd4 3ebd
00000170: 25b8 fd3b 73fd 30bc aff1 eebc 736e d3bc
00000180: 414e 8e3c de6a 8cbc 0bae e43b e966 99bc
00000190: cdf3 853c 2d45 553c 2f6c 113c 688a 30bd
000001a0: 2bee 74bc 3356 57bc f858 c23c e42f a3bc
000001b0: 704c 063d 30bf 42bd 7b6d 93bc fe08 93bd
000001c0: bf25 0ebd 4c7e 15bb 52ae 013c a1bb 51bc
000001d0: 29bb 153d 2d76 d13c f6d7 71bc fba3 85bc
000001e0: 6955 00bb 63b6 8c3b 26a5 ea3c a7d3 bfbc
000001f0: 85ce 6c3c abba dabc c699 c83c 08d0 1a3c

exp_avg f4 [128, 5]
-8.984916e-06 3.780205e-05 -6.250089e-05 -8.724544e-06 0.0 1.7936974e-05 -2.8252882e-05 2.6850976e-05
1.6748054e-05 0.0 2.1031414e-05 0.0012128666 -0.00044802422 9.2506816e-05 0.0 -3.0398542e-06
-8.7452616e-05 -9.326197e-06 -2.6646665e-06 0.0 -6.165783e-05 -0.0050493088 0.0015632912 -0.00032727653
0.0 5.8050893e-05 0.00019422767 0.0001781268 7.2395334e-05 0.0 2.7571941e-06 0.00015557055
-4.6710506e-06 4.484761e-06 0.0 1.5981424e-05 0.0001808064 -0.00049988704 1.9595629e-05 0.0
1.4727308e-05 0.0004726283 -0.0006318496 -1.1360213e-05 0.0 -9.838772e-06 -3.486481e-05 0.00030966784
-3.0016994e-05 0.0 2.6871352e-05 0.00055369444 -7.82184e-05 -7.053404e-07 0.0 -9.082781e-07
2.6397976e-07 -3.2893686e-06 -3.2588625e-06 0.0 -3.7087644e-05 -0.0006553853 4.702418e-05 -1.6790425e-05
0.0 -5.3878866e-05 -0.0024545426 0.00071937015 -0.0002075997 0.0 1.0895274e-06 4.5466454e-06
-1.11420895e-05 1.3667086e-06 0.0 -1.3849302e-05 -0.0016925 0.0004961803 -0.00019020643 0.0
2.6846525e-05 0.0052741524 -0.0015240099 0.00041409885 0.0 -1.6689512e-05 6.74516e-05 -0.00012994697
-1.9767593e-05 0.0 -5.8562866e-05 -0.0028664726 0.0007332173 -0.00019323856 0.0 2.1097952e-05
0.0016264331 -0.0019102404 0.00021516765 0.0 -3.0763445e-06 -0.00048628074 0.00020998833 -3.7689824e-05
0.0 -6.189272e-05 -0.00012884704 -0.00017886696 -6.0262522e-05 0.0 1.6884653e-05 0.0024958407
-0.0010745365 0.00022285806 0.0 -1.4617713e-06 0.0002601878 -2.265349e-05 6.2015795e-05 0.0
-1.0179004e-06 2.493733e-05 -4.857851e-06 -1.2196517e-06 0.0 -1.7715104e-07 -0.00048825232 0.00026493694
-5.357755e-05 0.0 3.905924e-07 -1.6639287e-05 1.1772996e-05 -5.57698e-06 0.0 0.00011670852
-0.00026899262 3.458222e-05 0.00018180111 0.0 3.198329e-05 -1.4508971e-05 -0.0002884369 6.148081e-05
0.0 4.358124e-06 2.3882567e-05 -6.0304377e-05 1.881389e-05 0.0 3.963121e-05 0.0002616432
-6.633246e-05 7.1838804e-05 0.0 -1.8946841e-05 -0.0017040286 0.00035254285 -0.00011752944 0.0
-1.8002485e-05 -0.0018911186 0.000439692 -0.00023451983 0.0 -3.1662843e-05 0.00014762231 -0.00032955193
-2.794338e-05 0.0 -2.7513368e-05 -0.0009188518 5.2400916e-05 -5.8116195e-05 0.0 -7.015029e-07
-3.2659118e-06 3.799687e-06 -3.0465649e-06 0.0 5.179197e-06 -3.7521913e-05 -1.05075305e-05 1.9735699e-06
0.0 2.9074543e-05 0.0019233435 -0.0005734711 0.00012705565 0.0 -6.357522e-07 -1.1310477e-05
8.89989e-06 -4.8895763e-06 0.0 5.260993e-05 0.0024713292 -0.001082441 0.0002169166 0.0
-3.8837352e-05 -0.0014337343 -3.890175e-05 -0.00016367187 0.0 2.4472406e-06 2.0515468e-05 -4.8768412e-05
8.589347e-06 0.0 -8.861658e-07 1.2010806e-06 -4.939542e-06 -2.1817254e-06 0.0 3.8091446e-05
0.0008977342 -0.00062670413 9.752817e-06 0.0 -2.7897378e-05 8.542542e-06 6.378112e-05 1.3398044e-05
0.0 1.3403167e-05 0.0026008545 -0.00051324314 0.00015658725 0.0 -2.2603263e-07 -1.5492806e-06
1.7911068e-06 -3.0585625e-08 0.0 -5.4164284e-05 -0.0004979834 -0.0005454281 -1.6909726e-05 0.0
1.8668297e-07 -6.608188e-06 1.782993e-05 -4.531721e-06 0.0 3.6275298e-05 -8.253324e-05 6.3204556e-05
5.1213618e-05 0.0 6.5765635e-06 0.00061357755 -0.00019732091 3.2623033e-05 0.0 6.0428433e-06
00000000: ecbd 16b7 a48d 1e38 e912 83b8 a25f 12b7
00000010: 0000 0000 5c77 9637 9a00 edb7 083e e137
00000020: 2c7e 8c37 0000 0000 9e6c b037 0df9 9e3a
00000030: cbe4 eab9 3800 c238 0000 0000 4c00 4cb6
00000040: c466 b7b8 b677 1cb7 9fd2 32b6 0000 0000
00000050: 4c4e 81b8 ac74 a5bb 59e7 cc3a 5096 abb9
00000060: 0000 0000 ac7b 7338 98a9 4b39 8cc7 3a39
00000070: f3d2 9738 0000 0000 3c08 3936 a720 2339
00000080: 05bc 9cb6 ce7b 9636 0000 0000 d90f 8637
00000090: d996 3d39 da0a 03ba 4b61 a437 0000 0000
000000a0: 4e15 7737 19cb f739 b5a2 25ba be97 3eb7
000000b0: 0000 0000 3411 25b7 ce3b 12b8 ea5a a239
000000c0: 01cd fbb7 0000 0000 ca69 e137 ce25 113a
000000d0: 2f09 a4b8 a056 3db5 0000 0000 65d0 73b5
000000e0: 1ab9 8d34 ecbe 5cb6 d5b2 5ab6 0000 0000
000000f0: 8e8e 1bb8 2ace 2bba d43b 4538 2ad9 8cb7
00000100: 0000 0000 fefb 61b8 64dc 20bb 1d94 3c3a
00000110: 1faf 59b9 0000 0000 e03b 9235 638f 9836
00000120: e9ee 3ab7 c06f b735 0000 0000 4d5a 68b7
00000130: e0d6 ddba 1912 023a 2672 47b9 0000 0000
00000140: 7934 e137 ccd2 ac3b 49c1 c7ba 681b d939
00000150: 0000 0000 7400 8cb7 cd74 8d38 6042 08b9
00000160: 95d2 a5b7 0000 0000 66a1 75b8 6edb 3bbb
00000170: 6135 403a 15a0 4ab9 0000 0000 82fb b037
00000180: 0a2e d53a 0861 faba a09e 6139 0000 0000
00000190: 3273 4eb6 7ff3 feb9 5030 5c39 2415 1eb8
000001a0: 0000 0000 67cc 81b8 1d1b 07b9 3c8e 3bb9
000001b0: 64c2 7cb8 0000 0000 84a3 8d37 4291 233b
000001c0: 76d7 8cba 01af 6939 0000 0000 1432 c4b5
000001d0: d169 8839 0008 beb7 7a0e 8238 0000 0000
000001e0: cb9e 88b5 8230 d137 9f00 a3b6 eab2 a3b5
000001f0: 0000 0000 e836 3eb4 1efc ffb9 3ce7 8a39
00000200: 75b8 60b8 0000 0000 9cb2 d134 9994 8bb7
00000210: a284 4537 e521 bbb6 0000 0000 69c1 f438
00000220: 9407 8db9 600c 1138 dda1 3e39 0000 0000
00000230: cc25 0638 8e6b 73b7 5839 97b9 42ef 8038
00000240: 0000 0000 003c 9236 6c57 c837 55ef 7cb8
00000250: 85d2 9d37 0000 0000 b039 2638 282d 8939
00000260: f81b 8bb8 2aa8 9638 0000 0000 08f0 9eb7
00000270: b659 dfba 80d5 b839 237a f6b8 0000 0000
00000280: 0b04 97b7 69df f7ba 7686 e639 70e9 75b9
00000290: 0000 0000 b8cd 04b8 10cb 1a39 b6c7 acb9
000002a0: f467 eab7 0000 0000 82cc e6b7 1adf 70ba
000002b0: 0ec9 5b38 cac1 73b8 0000 0000 ea4e 3cb5
000002c0: f02b 5bb6 20fe 7e36 9673 4cb6 0000 0000
000002d0: f7c8 ad36 d960 1db8 8049 30b7 ac71 0436
000002e0: 0000 0000 1be5 f337 b318 fc3a fe54 16ba
000002f0: 3e3a 0539 0000 0000 8fa8 2ab5 21c2 3db7
00000300: bd50 1537 2411 a4b6 0000 0000 7ba9 5c38
00000310: 06f6 213b b1e0 8dba 1b74 6339 0000 0000
00000320: 4ae5 22b8 24ec bbba 702a 23b8 559f 2bb9
00000330: 0000 0000 463b 2436 a218 ac37 af8c 4cb8
00000340: f71a 1037 0000 0000 dae0 6db5 d134 a135
00000350: 58be a5b6 c269 12b6 0000 0000 61c4 1f38
00000360: ec55 6b3a 6749 24ba 08a0 2337 0000 0000
00000370: 2a05 eab7 f051 0f37 3ac2 8538 29c8 6037
00000380: 0000 0000 2ade 6037 1973 2a3b 2a8b 06ba
00000390: 9231 2439 0000 0000 60b3 72b4 e0f0 cfb5
000003a0: f665 f035 405d 03b3 0000 0000 752e 63b8
000003b0: 1a8b 02ba 0ffb 0eba 5cd9 8db7 0000 0000
000003c0: 0673 4834 e7bb ddb6 7c91 9537 300f 98b6
000003d0: 0000 0000 4e26 1838 b215 adb8 b08c 8438
000003e0: 34ce 5638 0000 0000 40ac dc36 7ed8 203a
000003f0: eee7 4eb9 b7d4 0838 0000 0000 a1c3 ca36

exp_avg_sq f4 [128, 5]
3.377893e-09 1.3243804e-08 2.043657e-06 3.0446365e-08 0.0 1.1796081e-08 2.8606992e-06 1.885061e-05
3.3423962e-07 0.0 1.1666623e-08 3.9706232e-05 6.836174e-06 1.14716755e-07 0.0 1.3029397e-10
1.7326873e-07 8.884305e-08 8.431803e-10 0.0 2.2910584e-07 0.0008284885 0.00013369026 2.3541277e-06
0.0 6.54362e-08 5.0577855e-06 4.5682176e-05 7.948181e-07 0.0 3.968689e-11 1.2764691e-07
1.5911593e-10 2.486917e-10 0.0 1.329052e-08 2.9023582e-05 7.066783e-06 9.7614524e-08 0.0
6.453195e-09 9.552356e-06 4.843665e-06 7.3532206e-08 0.0 4.9680704e-09 1.512762e-08 2.905762e-06
2.945349e-08 0.0 1.5730958e-08 1.1575794e-05 1.0897065e-05 1.4359004e-07 0.0 4.552337e-11
3.5197079e-10 2.4582516e-08 3.9833908e-10 0.0 3.9605666e-08 2.9622184e-05 2.9115767e-05 3.9593326e-07
0.0 8.4982204e-08 0.0003053501 4.726064e-05 8.0993306e-07 0.0 5.542344e-11 3.1665282e-09
2.4905807e-08 1.4788196e-09 0.0 1.0705582e-07 0.0003045175 6.3917316e-05 9.915627e-07 0.0
6.8621745e-07 0.0016378938 0.00047110592 8.213003e-06 0.0 7.2582185e-09 2.084759e-07 5.0475933e-06
7.860081e-08 0.0 5.3652425e-08 0.0001933244 2.8262004e-05 5.319765e-07 0.0 2.7468555e-08
0.00010207976 4.4180706e-05 8.015441e-07 0.0 7.543353e-09 2.1731132e-05 5.1319307e-06 9.778352e-08
0.0 9.301776e-08 1.0822846e-05 6.5710425e-05 1.1027638e-06 0.0 2.2147282e-07 0.0005307342
0.00015731012 2.7194249e-06 0.0 9.840996e-09 3.2469474e-05 5.885559e-06 9.4946365e-08 0.0
7.0410934e-11 1.6081803e-08 6.773156e-08 1.9489494e-09 0.0 8.169207e-09 2.9060446e-05 5.0953104e-06
8.201281e-08 0.0 6.3696565e-12 2.811829e-09 3.0584841e-09 6.6534794e-10 0.0 4.8188775e-07
2.1980984e-06 0.00028093628 4.8112133e-06 0.0 4.957034e-08 1.4423136e-07 2.7969703e-05 4.3349934e-07
0.0 5.37046e-10 5.8633565e-09 2.4070246e-08 7.0735706e-09 0.0 2.7818771e-08 6.2938802e-06
1.959906e-05 3.5612345e-07 0.0 2.595155e-08 0.00010567418 1.3361349e-05 2.169955e-07 0.0
1.1435196e-07 0.0003522589 6.88243e-05 1.0752602e-06 0.0 5.0354352e-08 4.5487087e-07 3.359187e-05
5.7665335e-07 0.0 4.383262e-08 3.787669e-05 3.7097343e-05 6.835219e-07 0.0 6.556449e-12
6.7409175e-11 4.6640153e-10 6.668458e-11 0.0 3.651585e-10 3.265975e-08 1.08731975e-07 8.351424e-09
0.0 3.1269895e-08 0.00011842383 2.1976692e-05 3.931253e-07 0.0 2.5980804e-11 1.1988515e-09
1.0861599e-09 2.5626765e-10 0.0 1.1905756e-07 0.00029457407 8.758287e-05 1.8215811e-06 0.0
5.407731e-08 0.00013349343 3.3343662e-05 5.580978e-07 0.0 3.2438452e-10 2.7227407e-09 1.4433953e-08
6.4570203e-09 0.0 2.3889196e-11 1.4563234e-10 1.3467682e-08 1.8517793e-10 0.0 2.7013455e-08
2.6130478e-05 1.6435744e-05 2.21897e-07 0.0 2.6467452e-08 4.8306436e-05 1.8313696e-05 2.6845433e-07
0.0 1.0055776e-07 0.00031036197 5.6654277e-05 9.4152256e-07 0.0 2.4574284e-12 8.618262e-11
5.209975e-11 4.7637e-11 0.0 6.256223e-08 1.4263107e-05 4.6627134e-05 6.0540407e-07 0.0
5.4795214e-11 6.007966e-09 4.0375894e-09 8.086525e-10 0.0 3.0807296e-08 2.5002052e-07 1.883211e-05
3.339633e-07 0.0 5.5544636e-09 2.4191133e-05 2.8897728e-06 4.5441734e-08 0.0 7.1665687e-09
00000000: 8620 6831 de86 6332 c325 0936 22c4 0233
00000010: 0000 0000 b6a7 4a32 70fa 3f36 6021 9e37
00000020: 8b71 b334 0000 0000 5a6e 4832 3e8a 2638
00000030: 4a62 e536 345a f633 0000 0000 7e42 0f2f
00000040: bf0b 3a34 fcc9 be33 8ac5 6730 0000 0000
00000050: 2200 7634 ec2e 593a 352f 0c39 9bfb 1d36
00000060: 0000 0000 ee85 8c33 0cb6 a936 dd9a 3f38
00000070: 7c5b 5535 0000 0000 778b 2e2e 510f 0934
00000080: 27f3 2e2f 3fb8 882f 0000 0000 5354 6432
00000090: ab77 f337 341f ed36 27a0 d133 0000 0000
000000a0: e7ba dd31 0e43 2037 c486 a236 c2e8 9d33
000000b0: 0000 0000 9cb3 aa31 fdf1 8132 9c00 4336
000000c0: e900 fd32 0000 0000 be20 8732 a835 4237
000000d0: 8ad2 3637 bb2d 1a34 0000 0000 c236 482e
000000e0: 7c7f c12f 8629 d332 3efd da2f 0000 0000
000000f0: e41a 2a33 287d f837 a23d f437 a790 d434
00000100: 0000 0000 767f b633 6617 a039 ba39 4638
00000110: 2d6a 5935 0000 0000 3fc1 732e 279a 5931
00000120: 73f0 d532 573f cb30 0000 0000 8fe6 e533
00000130: a6a7 9f39 590b 8638 d615 8535 0000 0000
00000140: 8134 3835 99ae d63a c4fe f639 94ca 0937
00000150: 0000 0000 f763 f931 6bd9 5f34 7f5e a936
00000160: 41cb a833 0000 0000 776f 6633 20b7 4a39
00000170: 3114 ed37 26cd 0e35 0000 0000 fef3 eb32
00000180: a713 d638 ac4e 3938 b129 5735 0000 0000
00000190: 0498 0132 404b b637 f332 ac36 0ffd d133
000001a0: 0000 0000 0ec1 c733 c593 3537 04ce 8938
000001b0: ad02 9435 0000 0000 fccd 6d34 f820 0b3a
000001c0: 9df3 2439 5d7f 3636 0000 0000 2811 2932
000001d0: d52f 0838 917c c536 51e5 cb33 0000 0000
000001e0: d5d5 9a2e 4224 8a32 d273 9133 48ee 0531
000001f0: 0000 0000 8d58 0c32 d5c6 f337 62f8 aa36
00000200: 051f b033 0000 0000 c41c e02c 383a 4131
00000210: 6c2d 5231 b3e3 3630 0000 0000 135b 0135
00000220: 0b83 1336 a14a 9339 0270 a136 0000 0000
00000230: 2ae7 5433 04de 1a34 7ba0 ea37 b2bb e834
00000240: 0000 0000 419f 1330 a176 c931 08c3 ce32
00000250: c90b f331 0000 0000 20f6 ee32 0530 d336
00000260: a968 a437 3c31 bf34 0000 0000 10ec de32
00000270: 659d dd38 8f2a 6037 45ff 6834 0000 0000
00000280: a891 f533 64af b839 c455 9038 a951 9035
00000290: 0000 0000 3245 5833 fa34 f434 ffe4 0c38
000002a0: 51cb 1a35 0000 0000 7a42 3c33 c9dd 1e38
000002b0: f898 1b38 447b 3735 0000 0000 3eaf e62c
000002c0: fe3b 942e 1734 0030 15a4 922e 0000 0000
000002d0: 7dbf c82f c645 0c33 0980 e933 f479 0f32
000002e0: 0000 0000 9d4d 0633 4f5a f838 965a b837
000002f0: bb0e d334 0000 0000 9287 e42d d6c4 a430
00000300: db47 9530 77e2 8c2f 0000 0000 96ac ff33
00000310: 1071 9a39 b2ac b738 0d7d f435 0000 0000
00000320: a242 6833 5ffa 0b39 7cda 0b38 30d0 1535
00000330: 0000 0000 1055 b22f f61a 3b31 32f9 7732
00000340: 8ddc dd31 0000 0000 b021 d22d dc1f 202f
00000350: 7e5f 6732 f49a 4b2f 0000 0000 370b e832
00000360: c632 db37 7edf 8937 9542 6e34 0000 0000
00000370: 8b5a e332 a49c 4a38 5da0 9937 1520 9034
00000380: 0000 0000 37f2 d733 14b8 a239 11a0 6d38
00000390: f0bc 7c35 0000 0000 18ed 2c2c 8084 bd2e
000003a0: 1b23 652e 7e82 512e 0000 0000 f359 8633
000003b0: 944b 6f37 8191 4338 0d83 2235 0000 0000
000003c0: edfd 702e a16e ce31 03bb 8a31 dc47 5e30
000003d0: 0000 0000 fb50 0433 8f3a 8634 a6f9 9d37
000003e0: 914b b334 0000 0000 94d9 be31 10ee ca37
000003f0: ebed 4136 b72b 4333 0000 0000 ce3d f631

exp_avg f4 [128]
2.8991512e-06 -2.0567277e-06 2.309744e-05 2.63579e-07 -7.250624e-05 -7.32437e-06 2.0076313e-06 2.1446245e-05
1.9455094e-05 -1.12429125e-05 4.8535444e-06 -4.3017522e-07 -8.460806e-06 -3.5694648e-05 9.246534e-07 -2.4871955e-05
5.9970167e-05 4.0362884e-06 -3.9934213e-05 8.438016e-05 -4.470181e-06 7.9875826e-07 3.9175084e-05 2.0859625e-07
2.734488e-07 -1.182396e-05 -1.3611299e-06 1.3101213e-05 1.3072176e-05 7.261062e-06 3.3809902e-06 -2.368037e-05
-2.7440117e-05 1.0544265e-05 -1.8847213e-05 -1.2003209e-06 2.3991333e-07 2.7080827e-05 -1.8417389e-06 3.563161e-05
-5.357808e-06 4.4808494e-06 -2.8029734e-07 3.096804e-05 -4.0924097e-06 2.6538872e-05 -4.5362737e-07 1.855757e-05
-1.968182e-06 3.2856115e-06 1.1350461e-05 1.0591151e-05 2.4884864e-06 -1.3313529e-05 -1.414455e-05 -1.0491811e-05
2.9109008e-06 2.1621647e-05 2.0928708e-05 8.513913e-05 1.4295895e-07 -2.1150794e-05 1.34963175e-05 5.335544e-05
-6.4757805e-06 1.6883878e-05 -1.2029679e-05 -3.9590004e-06 -3.7477486e-07 -1.2363565e-06 -3.332657e-07 -3.406636e-06
-1.777132e-06 -3.7690927e-05 -1.8246494e-06 6.526732e-05 -4.350142e-05 2.367574e-06 -4.3485954e-05 6.112372e-05
-8.295316e-08 4.441291e-05 1.0638616e-05 -3.456742e-06 -2.2055494e-05 -1.3653711e-06 -2.9233279e-06 2.6061112e-05
-6.3030748e-06 6.0455597e-05 -2.2856262e-05 6.6724133e-06 1.1120069e-06 -7.324488e-07 2.9972867e-05 3.3802635e-06
-1.5143478e-06 -5.943205e-07 -8.004145e-05 -1.6271912e-05 -1.2174948e-05 1.7462447e-05 -1.985768e-05 -1.052738e-05
2.8647264e-06 5.2346486e-06 6.704471e-07 -1.075879e-06 8.234129e-06 -1.0428514e-05 6.954278e-05 1.6170907e-05
-4.529215e-06 -1.1866268e-05 -3.8820053e-05 -1.6982378e-06 -8.23631e-08 -3.950563e-07 -3.4240766e-06 -5.322678e-07
-2.312609e-05 1.4749126e-05 -3.920408e-05 -8.272081e-06 1.3043243e-05 -1.109599e-05 -1.0798138e-05 9.571879e-06
00000000: 0a8f 4236 5006 0ab6 60c1 c137 0682 8d34
00000010: 7e0e 98b8 dcc3 f5b6 d8ba 0636 76e7 b337
00000020: 7f33 a337 f19f 3cb7 a1db a236 d5f2 e6b4
00000030: e3f2 0db7 d6b6 15b8 b335 7835 1ea4 d0b7
00000040: 7a88 7b38 746f 8736 097f 27b8 41f5 b038
00000050: 90fe 95b6 406a 5635 ed4f 2438 80fa 5f34
00000060: 84ce 9234 865f 46b7 11b0 b6b5 48cd 5b37
00000070: 9250 5b37 0ca4 f336 f8e4 6236 35a5 c6b7
00000080: 342f e6b7 46e7 3037 151a 9eb7 b61a a1b5
00000090: 70cd 8034 a22b e337 ab31 f7b5 2673 1538
000000a0: 38c7 b3b6 345a 9636 c67b 96b4 aee3 0138
000000b0: 8851 89b6 cb9f de37 128a f3b4 14ac 9b37
000000c0: 1c15 04b6 607e 5c36 dc6d 3e37 a6b0 3137
000000d0: dfff 2636 2c5d 5fb7 614e 6db7 fc05 30b7
000000e0: e558 4336 2260 b537 0f90 af37 b98c b238
000000f0: 4280 1934 fc6c b1b7 3e6e 6237 f8c9 5f38
00000100: 884a d9b6 daa1 8d37 14d3 49b7 8ed7 84b6
00000110: aa34 c9b4 e3f0 a5b5 b0eb b2b4 909d 64b6
00000120: ca85 eeb5 5316 1eb8 7ae6 f4b5 20e0 8838
00000130: 4b75 36b8 9de2 1e36 b064 36b8 8c2f 8038
00000140: fb23 b2b3 0048 3a38 827c 3237 60fa 67b6
00000150: d003 b9b7 cb41 b7b5 642e 44b6 d09d da37
00000160: 007f d3b6 b491 7d38 73bb bfb7 98e3 df36
00000170: 4440 9535 809d 44b5 3e6e fb37 7cd8 6236
00000180: 9840 cbb5 6589 1fb5 eddb a7b8 aa7f 88b7
00000190: 0143 4cb7 527c 9237 0b94 a6b7 c19e 30b7
000001a0: a03f 4036 4aa5 af36 c6f8 3335 ec66 90b5
000001b0: 5125 0a37 20f6 2eb7 7fd7 9138 c2a6 8737
000001c0: a9f9 97b6 3c15 47b7 b7d2 22b8 02ef e3b5
000001d0: 98df b0b3 2018 d4b4 30c9 65b6 2ae1 0eb5
000001e0: e6fe c1b7 0473 7737 0f6f 24b8 51c8 0ab7
000001f0: 4dd4 5a37 ea28 3ab7 a629 35b7 e896 2037

exp_avg_sq f4 [128]
3.7779335e-09 3.5247076e-08 1.2927581e-08 1.8149185e-10 2.684792e-07 8.405012e-08 4.9347443e-11 1.4233641e-08
9.549505e-09 5.2988725e-09 2.0494026e-08 5.6681496e-11 5.3224838e-08 9.324969e-08 1.0568083e-10 1.2430412e-07
9.0783055e-07 9.487842e-09 6.013071e-08 8.4930576e-08 9.683318e-09 1.2186845e-07 3.019175e-07 1.0753867e-08
1.6278529e-10 9.624694e-09 4.6918355e-11 5.2190217e-07 5.1274405e-08 6.6949357e-10 3.531209e-08 2.7228207e-08
1.3234641e-07 6.177366e-08 6.957333e-08 8.568105e-12 6.240446e-10 4.339045e-08 3.7636033e-11 1.6830214e-07
6.390594e-08 4.5638407e-10 2.73686e-11 3.0720393e-08 3.443345e-08 1.1378542e-07 4.689937e-12 8.6628006e-08
9.413494e-11 3.5912986e-08 6.138575e-09 1.7991598e-08 8.3954077e-10 2.5068567e-07 5.9298895e-08 2.9194754e-07
8.8505553e-10 4.7568484e-08 3.669547e-08 5.376445e-08 1.8808337e-11 8.135149e-09 3.234207e-08 5.7052017e-07
2.4286206e-10 1.0010551e-07 4.649342e-09 3.1238783e-09 1.4178393e-11 3.1572873e-11 3.6917974e-10 1.575368e-07
6.583533e-10 1.9842646e-07 2.7113995e-11 2.1687936e-07 6.594325e-07 2.2618833e-10 2.3990933e-07 4.3187953e-07
1.3086166e-11 1.1104391e-07 3.3970116e-07 5.593781e-08 3.6792463e-07 1.0608044e-11 1.885499e-07 1.5230037e-07
4.681186e-07 2.1566265e-07 1.6506739e-07 1.09209575e-08 3.6291255e-11 3.9268244e-08 9.281761e-08 3.9129098e-08
1.1746404e-10 2.1277917e-11 3.4140933e-07 1.7616169e-07 3.0945728e-07 1.1750049e-07 9.370385e-08 6.774467e-08
1.356558e-07 2.2383041e-08 2.5467106e-10 9.857759e-12 1.1521041e-08 1.3329517e-07 5.999569e-08 6.539819e-08
6.2018614e-08 6.8100405e-09 5.4505318e-08 5.4416853e-09 1.4790136e-10 4.5993365e-11 4.1566683e-08 1.5825207e-11
2.1046962e-07 1.5136987e-08 9.936524e-08 2.7074551e-09 1.0545455e-07 5.3968787e-08 3.648217e-09 4.060896e-08
00000000: 0ecf 8131 9262 1733 1a18 5e32 6a8d 472f
00000010: 8023 9034 0b7f b433 4808 592e 3788 7432
00000020: 2b0f 2432 6011 b631 d70a b032 b149 792e
00000030: 5499 6433 8f40 c833 0565 e82e 7578 0534
00000040: a4b1 7335 f8ff 2232 3521 8133 1463 b633
00000050: af5b 2632 f2da 0234 3a17 a234 02c0 3832
00000060: fcfb 322f da59 2532 5f59 4e2e d818 0c35
00000070: ce38 5c33 6c07 3830 0eaa 1733 76e3 e932
00000080: 1b1b 0e34 6ea8 8433 5868 9533 51bb 162d
00000090: 3c89 2b30 4e5c 3a33 6886 252e 8ab6 3434
000000a0: a93c 8933 59e6 fa2f 9cbc f02d 6ef1 0333
000000b0: fbe3 1333 325a f433 3203 a52c 4008 ba33
000000c0: 4301 cf2e bf3e 1a33 7aeb d231 f18b 9a32
000000d0: 6ec5 6630 fa95 8634 d3af 7e33 f7bc 9c34
000000e0: 3f48 7330 1a4e 4c33 199b 1d33 a3ea 6633
000000f0: 9c70 a52d c4c2 0b32 7be8 0a33 d925 1935
00000100: cc83 852f 96f9 d633 0bc0 9f31 d9ab 5631
00000110: ce6d 792d e5db 0a2e 6ef5 ca2f 6327 2934
00000120: 7ff7 3430 0d0f 5534 4a7f ee2d 58df 6834
00000130: db03 3135 5bb2 782f e3cc 8034 12dd e734
00000140: da36 662d 0977 ee33 2c60 b634 4640 7033
00000150: 2d87 c534 629e 3a2d 3474 4a34 0288 2334
00000160: bb51 fb34 e690 6734 613d 3134 e19e 3b32
00000170: 529c 1f2e e4a7 2833 0553 c733 e60e 2833
00000180: 3027 012f 9c29 bb2d f14a b734 f526 3d34
00000190: 7c23 a634 9454 fc33 3c3a c933 077b 9133
000001a0: c8a8 1134 d444 c032 c401 8c2f 666b 2d2d
000001b0: 13ee 4532 e61f 0f34 fbd6 8033 0971 8c33
000001c0: 182f 8533 c0fd e931 3b19 6a33 92f9 ba31
000001d0: 889e 222f ed47 4a2e 0d87 3233 3333 8b2d
000001e0: 73fd 6134 9606 8232 9e62 d533 0e0e 3a31
000001f0: 4176 e233 4fcb 6733 1db4 7a31 066a 2e33

exp_avg f4 [128, 128]
-1.9071682e-05 4.7016074e-05 -8.825434e-07 -1.0690352e-05 0.0006578455 0.00012795547 -8.592847e-08 -2.2005001e-06
3.9850733e-05 1.1807124e-06 0.00023964212 3.5716283e-07 1.0662664e-05 0.00022188383 3.1665472e-06 0.0004636419
0.0005093502 0.00010446123 0.00029174093 0.000114679504 0.0005186135 0.0005569627 0.00013682473 4.481655e-06
1.8925216e-06 0.00031052387 1.050562e-06 -6.326024e-05 -1.8108945e-05 2.3367886e-06 0.00015529944 5.7023067e-06
4.0814666e-07 -1.7851198e-06 0.00020390894 1.08272715e-07 2.825558e-06 0.00024051624 6.6457903e-07 -6.0271727e-06
0.00057736086 1.1327717e-07 2.4256524e-06 9.1507594e-05 0.00036841867 0.0003967379 4.841116e-08 0.00012828183
6.844992e-07 -0.00014580677 -2.502189e-06 5.7366244e-05 2.0021932e-06 8.394639e-05 0.00034623974 0.00024324254
-7.5274465e-07 0.00022473976 0.0006474532 3.4555866e-05 -9.4669176e-08 1.900456e-05 1.1757342e-05 2.7953909e-05
1.2044688e-07 5.896087e-05 1.4689415e-06 -7.144098e-08 -1.5894986e-07 4.2054774e-07 9.326309e-07 -4.1248895e-06
8.54869e-07 2.3087676e-05 -2.0736294e-08 3.9229748e-05 0.00030854662 3.1887573e-06 0.00026241134 5.6165853e-05
-2.0527384e-06 3.5647786e-06 0.00017153229 0.00030796425 0.00032529156 4.234836e-08 5.751972e-05 0.00044230465
9.788146e-05 0.00015802166 0.00056771596 3.3397887e-06 -3.3336386e-07 5.93889e-05 5.8604288e-05 0.00041520063
3.2576705e-07 5.4858447e-07 0.00010900295 0.00031773656 3.9572828e-05 0.00028845144 9.969646e-07 6.351608e-05
0.00041483768 4.20453e-05 5.982049e-07 -8.300249e-08 1.483247e-05 0.0001673545 0.00035846536 0.0002044136
0.000133336 2.40276e-05 0.00044334406 -7.4116083e-06 3.7961206e-06 5.8269848e-08 4.08711e-05 9.934873e-07
1.583976e-06 1.2968286e-06 1.379256e-06 -6.154408e-06 0.00016810573 0.00024859203 1.2884784e-06 1.5166971e-06
2.0450845e-07 3.2805906e-07 -4.8769925e-07 3.1847364e-07 -1.923086e-06 5.4859345e-07 2.7370896e-07 -2.6420375e-07
-4.5567714e-07 2.3522918e-07 2.4973104e-07 2.7041202e-07 -1.0863914e-07 -6.525407e-07 2.4085494e-07 -5.104196e-07
-1.0614392e-06 2.7538348e-07 -5.5949744e-07 -1.6548353e-06 -1.0924783e-06 -1.6042567e-06 -2.4351952e-08 -6.4657826e-07
2.7433998e-07 -1.1341823e-06 3.0072073e-07 2.8434633e-07 2.2679896e-07 -2.8538915e-07 5.028053e-07 -2.67509e-07
1.4821232e-07 2.604801e-07 -1.6485696e-07 2.5666517e-07 3.003432e-07 -9.448284e-07 -7.442229e-08 2.169776e-07
-8.6838e-07 9.715579e-08 2.4481494e-07 1.4840836e-07 -2.4793817e-07 -1.0221409e-06 2.394884e-07 2.2872368e-07
-3.3310545e-08 8.5410636e-07 1.506114e-07 -4.1846212e-07 -4.065118e-07 3.288896e-07 -8.592126e-07 -4.6240166e-07
8.395533e-08 -3.1967159e-07 -1.6017241e-06 1.8445421e-07 2.982547e-07 -1.7684915e-08 7.415153e-10 1.4691004e-07
-1.8732403e-07 1.6124469e-07 1.296759e-07 3.176743e-07 2.8981773e-07 2.6787222e-07 2.6380886e-07 1.3142773e-07
2.728782e-07 -6.5172304e-07 2.1098455e-07 -8.4277305e-09 -1.4041059e-06 3.2435615e-08 -6.423681e-07 -2.8101624e-08
3.0542677e-07 1.8245976e-07 -2.0026638e-07 -5.0892544e-07 -9.957366e-07 2.1629847e-07 7.656115e-08 -9.0429967e-07
2.1261653e-07 -7.704665e-07 -2.4420814e-07 3.075064e-07 2.5356798e-07 -1.662234e-07 -1.1877296e-06 -7.0707915e-07
7.0268456e-08 2.671371e-07 -1.8894295e-06 -4.470328e-07 -3.1665223e-08 -7.418546e-07 -4.7865463e-08 2.9636695e-07
-8.759272e-07 1.2454686e-07 2.5206228e-07 2.4477205e-07 2.7680883e-07 -5.463419e-07 -1.209649e-06 5.8846047e-07
-8.532702e-07 -3.054165e-07 4.185688e-08 2.7028634e-07 3.462803e-07 1.893324e-07 -1.1550928e-06 2.306144e-07
3.6054226e-07 -1.290698e-07 -3.7225723e-09 2.5013736e-07 2.6926818e-07 -1.1678166e-07 -4.0261574e-07 2.40048e-07
00000000: 20fc 9fb7 2033 4538 ece7 6cb5 b65a 33b7
00000010: 4473 2c3a c92b 0639 ad87 b8b3 4eac 13b6
00000020: 6625 2738 f878 9e35 7148 7b39 16c0 bf34
00000030: cbe3 3237 7da9 6839 de80 5436 f614 f339
00000040: ea85 053a 3212 db38 cef4 9839 1780 f038
00000050: 90f3 073a 2201 123a 9c78 0f39 2061 9636
00000060: 8c02 fe35 cfcd a239 0901 8d35 95aa 84b8
00000070: aae8 97b7 b9d1 1c36 e0d7 2239 7156 bf36
00000080: 401f db34 4098 efb5 64d0 5539 8e83 e833
00000090: b89e 3d36 1633 7c39 8665 3235 053d cab6
000000a0: 085a 173a c842 f333 64c8 2236 c4e7 bf38
000000b0: 5128 c139 4201 d039 a2ec 4f33 6483 0639
000000c0: 6dbe 3735 b5e3 18b9 48eb 27b6 899c 7038
000000d0: 6b5d 0636 600c b038 8387 b539 ec0e 7f39
000000e0: 3810 4ab5 1fa8 6b39 d9b9 293a 14f0 1038
000000f0: ee4c cbb3 fb6b 9f37 6641 4537 907e ea37
00000100: 3054 0134 c14c 7738 7228 c535 186b 99b3
00000110: ceab 2ab4 a4c7 e134 e859 7a35 8868 8ab6
00000120: 267a 6535 68ac c137 981f b2b2 9f8a 2438
00000130: 6dc4 a139 6ffe 5536 4194 8939 a093 6b38
00000140: c7c1 09b6 6e3a 6f36 59dd 3339 4376 a139
00000150: e58b aa39 84e2 3533 5441 7138 20e5 e739
00000160: b545 cd38 9eb2 2539 c6d2 143a 2221 6036
00000170: 2ef9 b2b4 5918 7938 e0cd 7538 49af d939
00000180: 15e5 ae34 7042 1335 8398 e438 e195 a639
00000190: 00fb 2538 4c3b 9739 71cf 8535 f033 8538
000001a0: 927e d939 cc59 3038 5494 2035 1a3f b2b3
000001b0: f9d8 7837 e27b 2f39 68f0 bb39 dc57 5639
000001c0: 1cd0 0b39 e18e c937 a270 e839 3bb1 f8b6
000001d0: dbc0 7e36 6044 7a33 026d 2b38 f757 8535
000001e0: 0099 d435 b10e ae35 e01e b935 f681 ceb6
000001f0: 8a45 3039 7555 8239 c8ef ac35 5191 cb35
00000200: db96 5b34 1820 b034 70ea 02b5 affa aa34
00000210: 5e0e 01b6 0e43 1335 46f2 9234 e3d7 8db4
00000220: caa3 f4b4 4e93 7c34 c612 8634 252d 9134
00000230: 004d e9b3 412a 2fb5 da4e 8134 c503 09b5
00000240: c676 8eb5 6bd8 9334 5f30 16b5 b51b deb5
00000250: 45a1 92b5 d751 d7b5 822e d1b2 8590 2db5
00000260: 0049 9334 353a 98b5 be72 a134 43a8 9834
00000270: 0686 7334 9637 99b4 84f8 0635 289e 8fb4
00000280: 4b24 1f34 1dd8 8b34 8903 31b4 cbcb 8934
00000290: db3e a134 1da0 7db5 16d2 9fb3 59fa 6834
000002a0: 9f1a 69b5 f6a3 d033 1c6f 8334 2e5a 1f34
000002b0: 5d1c 85b4 7e30 89b5 0993 8034 1697 7534
000002c0: 5511 0fb3 be45 6535 bfb7 2134 ffa8 e0b4
000002d0: 8e3e dab4 3e92 b034 a4a4 66b5 0040 f8b4
000002e0: ee4a b433 549f abb4 d2fa d6b5 630e 4634
000002f0: d01f a034 8ae9 97b2 80d3 4b30 53be 1d34
00000300: 3d23 49b4 9a22 2d34 0a3d 0b34 d38c aa34
00000310: 3f98 9b34 14d0 8f34 9da1 8d34 941e 0d34
00000320: 1880 9234 11f2 2eb5 fe8a 6234 8dc9 10b2
00000330: b674 bcb5 564f 0b33 336f 2cb5 2064 f1b2
00000340: 89f9 a334 28ea 4334 ce08 57b4 179d 08b5
00000350: 40a5 85b5 ac3f 6834 f069 a433 00bf 72b5
00000360: 964b 6434 0ed2 4eb5 b61b 83b4 5c17 a534
00000370: 1e22 8834 247b 32b4 146a 9fb5 1cce 3db5
00000380: 7ee6 9633 0b6b 8f34 4e98 fdb5 b8ff efb4
00000390: 4800 08b3 dc23 47b5 a294 4db3 5d1c 9f34
000003a0: 4221 6bb5 2ebb 0534 2d53 8734 3769 8334
000003b0: 519c 9434 54a8 12b5 395b a2b5 b2f6 1d35
000003c0: 480c 65b5 20f8 a3b4 20c6 3333 df1b 9134
000003d0: 67e8 b934 4b4b 4b34 b008 9bb5 ce9e 7734
000003e0: 8d90 c134 7096 0ab4 2fd0 7fb1 9e4a 8634
000003f0: f08f 9034 66c9 fab3 1627 d8b4 f2df 8034
