results/test2/EndLessRunnerBehaviour/EndLessRunnerBehaviour-82062.onnx (onnx, 74029 bytes, 5 tensors)

network_body._body_endoder.seq_layers.0.weight f4 [128, 5]
00000000: d31e 153f e257 acbd f404 673e d48a 3e3f
00000010: 0f67 983d b372 5bbd 10dd 3fbe 014e 3e3f
00000020: 996f 683e 8590 5fbf ebf3 12bf b1af f43d
00000030: 571b 633e 06c6 fe3d c7f6 0a3f 9b68 d1be
00000040: ad7c 863e 8324 3d3f 2127 58be a896 a23e
00000050: 49a6 303e a2cf 44be 6ea3 753e a685 c1be
00000060: 1ba4 c9bc f51f 09be 448d c3be 1cd3 f43e
00000070: d309 5bbc 50d9 15bf 3f47 1e3f c806 253f
00000080: 1224 4dbe 7f75 843e 41e1 393f 18eb 143f
00000090: c828 453f 6db5 d83d f70c 0dbe 6278 73be
000000a0: 48a4 ed3d 3718 5c3d 2dd6 383e db7e f53e
000000b0: df33 babd 816d bb3e 3e1c b2be 0408 00bf
000000c0: 661f d4be 54a0 373e 3d16 fdbd 2cac 29bd
000000d0: 844f 81be 0374 dfbe 7142 843e 7d8d 6d3f
000000e0: b566 a53e e3f7 333e b11e d5be 5c7b 35be
000000f0: e8a7 ac3e 2eef 443e 132a 823e 333e 4abf
00000100: 2810 623e 00b0 863d e5be 873e 365f 9bbe
00000110: dc1d 313e 2b3b c4be 5424 c1be cfcc 0dbf
00000120: 3c2b d43e accf 12bf 13eb 8dbe 70f0 7ebe
00000130: 9f35 6f3e 0aa9 7c3a b8cf 213d d08c e63e
00000140: a13d 423f a686 11bf 59cf 523f e89c c7be
00000150: 009e afbd dd03 293e 4325 423e 5499 623e
00000160: eec9 39be bcfc 363d b4b4 003f cc8c dfbd
00000170: 1ef1 51bd f831 a13a ad4e c2bd 8d4d 023e
00000180: 5164 873e 784c 673e 57fd afbe 0bdc 923d
00000190: 8b07 b03e 0610 06bf 3814 a3be 6e01 043e
000001a0: 5f72 b63e c321 04be 73f0 c53e 2e73 9cbc
000001b0: 6940 463f 5c65 253f f176 943e 30e5 813e
000001c0: cadc 843e 0f6b a23f 1425 b73f d4d0 9d3e
000001d0: a66c bd3d 20f1 a5be f3e6 c33e b269 c53e
000001e0: 7dc2 613c 42e1 41bf 03f9 2f39 b911 7d3e
000001f0: 6dbf 353e 393f 10bf 24c4 523d 1a5f 903e
00000200: c548 bebc 6bbd 71bd 5645 86bd b52f c73d
00000210: 949b 343f 5abb 0a3f 574e e5be a205 c43e
00000220: 134a ad3e 2418 d5be 4d17 f43e e351 9bbd
00000230: 4fbe 81bd 9b85 c63e 8797 d23d d382 2d3f
00000240: 76f5 3a3e 2561 a9be 1c41 a8bd 63a0 f0bd
00000250: 11f2 cebd e90b 0c3f eab8 a13e 79ba 7ebe
00000260: 54d6 49bf 1f40 f9be 239f 02bf 0a17 31be
00000270: f9dd 9f3e e528 113f b3a8 2dbf 00f5 d5be
00000280: 1dd4 7dbe 4a3c 623d 2285 11bf 50da 833e
00000290: ef6e ec3e 8066 8fbc 96ae 66be da2f d6bd
000002a0: 88a0 923f f9f9 14be 845a 62bd 8c71 13bf
000002b0: 823a d43d 7fb9 303e e398 173d 76d2 da3e
000002c0: c76f 96bf 6011 00bf 5c81 cbbe 6c73 583f
000002d0: beae 003f e0f9 e43e 74a6 223f f47a 083f
000002e0: 4407 2fbf 3768 173f 0c24 b5bf 088a 5bbd
000002f0: d6ba 3cbf a76c aa3e fed9 78be 4a75 31bd
00000300: 78e6 5abe ca65 10be ec97 483f 4b9c 0c3f
00000310: 98a8 c7bd 26c9 6cbe ce50 64bf 774c 73be
00000320: aa11 16bf b739 e23e 09e1 e8be a74c 97be
00000330: 351f d2be 8f21 0cbf 261a 703f 2ba2 36ba
00000340: 39d8 0ebe cf78 57be 3216 7e3f df53 b9be
00000350: 9028 0ebf ba8a c1be 11f0 b83e 1ac9 c7be
00000360: 4ef7 09bf 7865 08be 3e6f 2a3f 1b0f 0dbe
00000370: 4bc6 da3e f769 a33e 4818 82be fd96 19bf
00000380: 12e5 27be e624 783e cb43 b6be dc23 bdbe
00000390: f5e5 ab3e 517c 1cbf 331a 8e3d b3ae a53e
000003a0: 787b 6abb 5899 ab3e f661 3b3e 0025 95be
000003b0: bc1d 1a3f 72f1 393e a1aa 6dbe bd3e 823d
000003c0: b4c9 ea3e a502 ec3e 0555 ab3e c704 cabc
000003d0: 3d71 2ebd 3178 a93e a378 dc3e 7b2d 693e
000003e0: 7fbb 283f c575 fbbd b2a7 e53e e27b 333f
000003f0: e522 f8be 13f0 06be 9398 0b3f 45f8 913d
0.5825016 -0.084152 0.22560483 0.74430585 0.07441532 -0.053576183 -0.18736672 0.74337775
0.22698821 -0.87329894 -0.5740344 0.11947573 0.22178398 0.12440114 0.542828 -0.4090012
0.26266995 0.7388384 -0.21108676 0.31755567 0.17250933 -0.1921983 0.23988125 -0.37797278
-0.024614384 -0.13391097 -0.38193715 0.47817314 -0.0133690415 -0.5853472 0.6182746 0.6446347
-0.20033291 0.25870892 0.72609335 0.58171225 0.7701535 0.10581479 -0.13774477 -0.23776391
0.116036 0.05373403 0.18050452 0.47948346 -0.09091925 0.36606982 -0.34787172 -0.5001223
-0.41430205 0.17932254 -0.12357757 -0.04142396 -0.25255978 -0.43643197 0.2583194 0.9279402
0.32304922 0.1757503 -0.41624978 -0.17722839 0.33721852 0.19231865 0.25422725 -0.7900116
0.22076476 0.06576538 0.26512828 -0.30346078 0.17296547 -0.38326392 -0.3772303 -0.5539064
0.41439235 -0.5734813 -0.2771841 -0.24896407 0.23360299 0.0009638226 0.039504737 0.45029306
0.7587529 -0.5684608 0.8234764 -0.38986897 -0.08575058 0.1650538 0.18959527 0.22128803
-0.18143436 0.04467462 0.5027573 -0.10915527 -0.051255338 0.0012298217 -0.094876625 0.12724896
0.26443723 0.22587764 -0.3437297 0.07170876 0.34380755 -0.523682 -0.31851363 0.1289117
0.35634133 -0.12903504 0.3866001 -0.01909789 0.7744203 0.6460779 0.28996995 0.2537017
0.259497 1.2688922 1.430819 0.30823386 0.09249239 -0.32410526 0.38262138 0.38557202
0.01377928 -0.7573434 0.00016782065 0.24713792 0.17748804 -0.5634647 0.051456586 0.28197557
-0.023228059 -0.059018534 -0.065561935 0.09725896 0.70549893 0.54192126 -0.4478633 0.38285547
0.33845577 -0.4161998 0.47674027 -0.07583978 -0.063351266 0.38773808 0.10282808 0.67777747
0.18257698 -0.33081928 -0.08215544 -0.11749341 -0.10104764 0.54705673 0.3158639 -0.24875821
-0.78842664 -0.48681733 -0.51024073 -0.17293945 0.3122404 0.56703025 -0.6783554 -0.41788483
-0.24787946 0.055233277 -0.5684377 0.25752497 0.46178386 -0.01750493 -0.22527537 -0.10458346
1.145524 -0.14548482 -0.055262104 -0.57595134 0.10362722 0.17258261 0.03701104 0.42738694
-1.1752862 -0.5002651 -0.3974713 0.8455112 0.50266635 0.4472189 0.6353524 0.5331261
-0.6837046 0.59143394 -1.4151626 -0.053598434 -0.7372259 0.3328602 -0.24301907 -0.043324746
-0.2137698 -0.1410133 0.78356814 0.54925984 -0.097489536 -0.23123607 -0.891858 -0.23759638
-0.58620703 0.44184658 -0.45484188 -0.2955067 -0.41039434 -0.54738706 0.937899 -0.0006966914
-0.1394967 -0.21042179 0.9925262 -0.361968 -0.55530643 -0.37801152 0.36120656 -0.39020616
-0.5389298 -0.13319957 0.6657599 -0.13775294 0.4272941 0.31916782 -0.2540915 -0.59996015
-0.16395977 0.24232826 -0.35598597 -0.3694142 0.3357388 -0.6112719 0.06938591 0.32359847
-0.003577916 0.3351543 0.18299088 -0.2912979 0.6020162 0.1815851 -0.23209621 0.06359623
0.45857012 0.46095768 0.33463302 -0.024660481 -0.04258846 0.3309951 0.4306079 0.22771256
0.65911096 -0.12278322 0.44854504 0.70110905 -0.48464122 -0.13177519 0.54529685 0.07127432

network_body._body_endoder.seq_layers.0.bias f4 [128]
00000000: 498d ccba 3120 2e3c 6e09 36b9 6363 f6b9
00000010: 7af9 afbb 3c1e 063c bbaf ba39 de0d 013b
00000020: 8798 3cba 3ebf c6ba 1ecb 7139 693e be3a
00000030: d2e5 93b9 b54c 1cb8 9610 a93b f4e4 3a3a
00000040: 2a87 923a 92ee b639 3e0e 2f3b ec59 07bb
00000050: dc6e 963b f749 fd38 0aef 973a 04d9 543a
00000060: 2d4c 8fbb 98d6 8db9 5ef6 19bb fec9 043a
00000070: c114 4ab9 f89a 193b 3a14 383b 1f04 4eba
00000080: c9e1 643b a660 cbba 87e8 b6ba d594 583a
00000090: 28f6 37ba eb00 86bb 3d32 0f3b 2d97 02bb
000000a0: 722b 1cbb 9f78 afba fb53 56bb 64fd 32bb
000000b0: 4080 abba e38c ceba e88f 67b8 13bf 2b3a
000000c0: 6186 203b f9a4 f6b8 2c51 fdba 3b21 73bb
000000d0: 7555 5c3b b439 52bc 465a e2ba 6b67 923a
000000e0: 9856 a33b 6fe0 fdb9 2a59 1a3b 1829 143b
000000f0: 8649 003c dd88 91ba e952 afba fff9 94ba
00000100: 1c02 5dbc 1ae3 d9b9 1bb6 343c 8296 c0b9
00000110: 5bee b23a 675b 083b 9f08 7aba c252 3dba
00000120: a10d 0c3a 9d45 6d3a 3ba8 513a ad41 953a
00000130: d1d8 e4b9 5744 05bb 04fe 1cbb d049 86ba
00000140: 3dc3 713a 9c79 ba3b 5ff1 333a 5db5 7a3a
00000150: 735b bbbb 7bbb b3ba 5d77 a93a bbd7 cabb
00000160: 5240 3d3c 5c33 6cbb a94e 88bb a098 4fba
00000170: c4ae 28bb 733b 9e3a 18b4 7f3b 2e60 f3b9
00000180: e9b3 9b3a ed32 07bb 3801 143b e21d 08bb
00000190: 4985 04bb 0a5f 5cb7 1118 0e39 c022 05bb
000001a0: 9d72 51bb c052 123b 1707 663b 15b7 543b
000001b0: 77aa 983b 7738 9b38 afdd b53b b983 45ba
000001c0: 77e8 43ba f00c 673a 99f9 e138 1ced 4b38
000001d0: 90ff b83b 9792 203b b44e 82bb 0892 05ba
000001e0: 4c6d 023c 0e25 b43a 1836 21ba a588 ebba
000001f0: 68b9 11ba 5d47 38bb e616 42bb 4231 e239
-0.0015606071 0.010627792 -0.00017360385 -0.00046994825 -0.005370316 0.008185919 0.00035607614 0.0019692103
-0.0007194359 -0.0015163196 0.00023059218 0.0014514449 -0.00028209254 -3.7264737e-05 0.005159448 0.00071294536
0.0011179198 0.00034891494 0.002671137 -0.0020652963 0.004590852 0.00012077757 0.0011591625 0.0008119496
-0.0043730945 -0.000270535 -0.0023492794 0.00050654996 -0.00019271953 0.0023438316 0.0028088228 -0.00078588905
0.0034924618 -0.0015516474 -0.0013954797 0.0008261924 -0.0007017576 -0.004089465 0.0021850013 -0.0019926534
-0.0023829606 -0.0013387388 -0.0032703865 -0.0027311677 -0.0013084486 -0.001575854 -5.5208715e-05 0.00065516046
0.0024494159 -0.00011760923 -0.0019326559 -0.0037098664 0.0033620272 -0.01283114 -0.0017269335 0.0011169737
0.004984688 -0.00048423136 0.002355168 0.0022607502 0.007830029 -0.001110341 -0.001337615 -0.0011366009
-0.013489272 -0.0004155867 0.011029745 -0.0003673323 0.0013651358 0.0020806433 -0.0009538028 -0.00072221097
0.0005342607 0.00090512057 0.00079977856 0.0011387371 -0.0004364909 -0.0020334923 -0.0023955116 -0.0010245387
0.0009222513 0.0056907665 0.0006864275 0.00095637684 -0.0057176887 -0.001371249 0.001292925 -0.006190268
0.01155098 -0.0036041355 -0.0041597676 -0.0007919166 -0.0025738934 0.0012072161 0.0039017256 -0.0004642023
0.0011879179 -0.002062972 0.0022583734 -0.0020769765 -0.0020221046 -1.313515e-05 0.00013551141 -0.0020314902
-0.0031959184 0.0022327155 0.003509944 0.0032457758 0.004658993 7.401493e-05 0.0055501084 -0.0007534582
-0.00074732996 0.00088138785 0.00010775327 4.8619797e-05 0.0056457 0.0024501437 -0.0039766673 -0.0005095308
0.007960629 0.0013743953 -0.0006149723 -0.00179698 -0.0005558939 -0.0028118708 -0.00296157 0.0004314278

network_body._body_endoder.seq_layers.2.weight f4 [128, 128]
00000000: 0c92 11bd 1132 c03c 9530 e8bb ec33 07bd
00000010: 047c cdbc 9c5d f53d d311 1e3e 84e5 113e
00000020: e4ea 43be f328 02be a463 ff3d 435f 03be
00000030: 072a 1bbe 8452 9bbc 583f a5bd 2672 133d
00000040: a2c3 ba3d 33ba 943d 1cbc 82bc af4f f33d
00000050: c76f d23d 6a19 c7bd f559 5a3d 8c8e de39
00000060: cbcc c53d 5c76 1abe 4856 21be b207 bb3d
00000070: 2b11 7fbc 51a3 1c3d b140 af3c cdfd a73d
00000080: 3c6e cf3d 1aaf 9dbc e779 87bd 203a 9c3d
00000090: edc8 133c c100 e0bb 5614 3bbd 31ee 2f3d
000000a0: 2602 21be cda8 dfbd f9b2 9c3d 7fbb 41bd
000000b0: eef6 c53d 4151 e83c e9f5 e3bd 3b9f d73d
000000c0: 95df a73c 1939 6d3c 6b2c 48bd 5fc6 8d3c
000000d0: f0fa 8dbc da6d 41bb 1c42 77bd 48e5 c5bd
000000e0: 5a43 05bd 260d 333d a67d f33d 8d1c 7fbd
000000f0: 5f50 093e 8bc6 963d 8e59 133d b891 6bbd
00000100: ce62 3a3c 066c 2b3d eb76 2bbe dfc8 cd3c
00000110: c74d bfbc 0331 8dbd 1283 abbd c901 2e3e
00000120: 538f 173d 78f7 333d cb93 8abd a001 e0bd
00000130: 6105 2abe e64f 173d 84ce 0cbd 9eb6 4ebc
00000140: ea1d abbd 1e89 b9bd 999b 163d 7fc7 ddbd
00000150: 5b86 2a3e fb4c a8bd abb0 6b3d 90b4 303e
00000160: c948 853d 4e73 84bd 0d35 09be 96d0 2a3e
00000170: a69c 743b 5ce6 aabc 40bf 243e f72c 69bd
00000180: 8d62 95bd 7d5e 8dbd 18b7 26bd 83b1 f23c
00000190: 465d 07be 9ff1 19be 7f64 bb3c 0337 dd3c
000001a0: 414f 193c 63a4 3b3d 79c4 eebd 4116 3e3e
000001b0: ac5e 06bd 677f 50be 7655 1bbb 722c c8bc
000001c0: 5372 13bd fabf 0ebe 1d0c acbc a711 48bd
000001d0: 006a 73bd a1a1 a8bd f317 07bc 5056 233d
000001e0: ebe9 b1bb 977b 83bd b76d 823c d244 ee3b
000001f0: 0843 34bd a25c c43d a2ab d43c 82ee b13d
00000200: a324 8ebd 097f 53bc 3abb d3bd 7d40 84bd
00000210: 5203 833d 704e 283d 5c09 65bd f053 e43c
00000220: 91a6 9e3d c1dd 003e 4015 623c 9edc 1a3e
00000230: f727 ea3d f8b1 6fbc b116 893c 695b 88bd
00000240: 2703 0b3d feaf 873c 72f0 3ebc d748 163d
00000250: 7d8b debd f20d 173d cb5a 27bd d9c5 e4bd
00000260: ba56 97bd 2638 ff3d 816d 6cbd 96e4 bfbb
00000270: 32b0 473d dd56 1d3d 1716 95bd 1f5b 6d3d
00000280: 7305 25be 0649 1e3e 0564 f9bd 4f1e b3bd
00000290: 519c 223e 5fea 99bd ce00 d0bd 7de3 8abd
000002a0: 4e10 d73d c9e1 ffba f954 aabd 5143 663d
000002b0: 9568 ef3d 8e41 6f3d ac84 87bd 66f6 d5bd
000002c0: d5ea a8bd 3d73 593d 20e2 d03c e4bf f4bc
000002d0: a582 45bd b90c 513d ea23 55bd eee0 d8bd
000002e0: 0e13 ac3d d836 cd3c a19f 6d3b 5f45 1c3e
000002f0: 7338 56bd b94e ccbb 28ba 753d e120 013d
00000300: c386 2abb 3cbe 6fbc 4d2d 27bb f3c1 e23d
00000310: a9fb 8e3d 868e 95bc 5dff 213e 015a ae3c
00000320: 8c88 e2bd fc05 ddbb 6429 e5bd 6f18 edbc
00000330: c74c a7bc 7202 37bd 13b4 973d c9a6 63bd
00000340: 984d 51bd b909 283d b5ed c5bc 96a7 ccbb
00000350: 1580 da3b 5806 52bc 2b47 73bd e515 eebd
00000360: ba21 033c cafe b43d 02c1 83bc 2708 df3d
00000370: f9b5 8bbd a577 133d 917b ee3d 51f3 9f3d
00000380: b0f3 6cbe e21f ea3d 484a 05bd 0c55 a73d
00000390: 163b 0fbd a5b3 b13c d19e 943e d847 76be
000003a0: 42b0 aa3d 58b7 183d 4ca2 1ebe 8e01 06be
000003b0: 1892 13be 6c00 f2bd 0e6a db3b ae45 2a3d
000003c0: f042 993d 0b1c 95bd c4d3 d8bd 61d0 23be
000003d0: bd25 08be 037d 513e 87d0 663d e5cf 7fbd
000003e0: 935b 143d 465c 883d bd06 ffbc 9dcb 673d
000003f0: 5f70 ebbd 6d42 a7bd db9d 24bc 7f2e 283c
-0.03553967 0.023461374 -0.0070858696 -0.0330085 -0.02508355 0.11980745 0.15436487 0.1424771
-0.19132572 -0.12710933 0.12470177 -0.12829308 -0.15152751 -0.018960245 -0.080687225 0.035997532
0.09119345 0.07262077 -0.015958838 0.11880433 0.10275226 -0.09721644 0.053308446 0.00042449345
0.09658202 -0.15084213 -0.1575557 0.09132327 -0.015568058 0.03824169 0.021393152 0.082027055
0.101284474 -0.019248534 -0.06615048 0.07628274 0.009020072 -0.0068360274 -0.04567369 0.042951766
-0.15723476 -0.10920868 0.07651324 -0.04729795 0.09666239 0.028359057 -0.11130888 0.10528418
0.020492354 0.014478945 -0.048870485 0.017306505 -0.01733157 -0.002951494 -0.06036578 -0.096628726
-0.032534935 0.04371371 0.118892 -0.062283088 0.13409565 0.07362088 0.035974078 -0.057512015
0.011376096 0.041851066 -0.16744582 0.025120197 -0.023352517 -0.06894114 -0.08374609 0.16992868
0.03700192 0.043937176 -0.067664705 -0.1093781 -0.16603614 0.03694143 -0.034376636 -0.0126167815
-0.08355315 -0.09059356 0.036769483 -0.108290665 0.16652815 -0.08217808 0.05754153 0.17256379
0.06508023 -0.06467305 -0.13399144 0.16681132 0.0037324815 -0.020861797 0.16088581 -0.056927647
-0.07294188 -0.06902788 -0.040701956 0.02962566 -0.13219175 -0.15033577 0.022875069 0.02700377
0.0093572745 0.04581107 -0.11658568 0.18563177 -0.03280513 -0.203611 -0.0023702062 -0.024435256
-0.0359977 -0.13940421 -0.02100187 -0.04884496 -0.05942726 -0.08233953 -0.008245456 0.039877236
-0.0054294965 -0.06420057 0.015921457 0.0072713876 -0.04400924 0.09587981 0.025960747 0.0868807
-0.06940582 -0.0129087055 -0.10338445 -0.06457613 0.06397118 0.04109043 -0.05591713 0.027872056
0.07746614 0.12584592 0.013799012 0.15123221 0.11433404 -0.014629833 0.016734453 -0.0665806
0.033938553 0.016563412 -0.011654006 0.03669056 -0.10866449 0.036878534 -0.04085807 -0.11170549
-0.07389589 0.12461881 -0.05772162 -0.005856107 0.048752017 0.038412917 -0.07279604 0.057948228
-0.1611536 0.15457544 -0.1217728 -0.08746015 0.15879942 -0.07515406 -0.101564035 -0.06781671
0.10501157 -0.0019522245 -0.083169885 0.05621654 0.11689869 0.058412127 -0.06617102 -0.104473874
-0.08247916 0.053088415 0.02549845 -0.029876657 -0.048220295 0.051037524 -0.052036203 -0.10589777
0.08402072 0.025050566 0.0036258476 0.15260838 -0.052299928 -0.0062349704 0.059991986 0.031525496
-0.0026020266 -0.014632758 -0.002550918 0.11072149 0.06981594 -0.018256437 0.1582007 0.021283152
-0.110612005 -0.006745098 -0.11189535 -0.028942315 -0.020422352 -0.044680066 0.07407393 -0.05557898
-0.05109939 0.041024897 -0.0241612 -0.0062455637 0.0066681006 -0.012818895 -0.059394043 -0.1162527
0.0080036465 0.0883766 -0.016083244 0.10890227 -0.06821818 0.036002774 0.11644662 0.07810081
-0.23139834 0.114318624 -0.032541543 0.08170518 -0.034968458 0.021692107 0.29027417 -0.24050844
0.083344 0.037284225 -0.15491599 -0.1308653 -0.14411199 -0.11816487 0.0066959923 0.041570358
0.074834704 -0.072807394 -0.10587266 -0.15997459 -0.13295646 0.20457844 0.05635121 -0.062454123
0.036220144 0.06658225 -0.031131143 0.056590665 -0.114960425 -0.081669666 -0.010047401 0.010264992

network_body._body_endoder.seq_layers.2.bias f4 [128]
00000000: d3d9 c7ba a975 18bb 45fd 4cbb 4607 05bb
00000010: df4c 60ba 2e69 a839 0238 05bc b06b 0f3a
00000020: acbd 253a c405 b7ba 2a32 3cba e0d4 c7ba
00000030: 1b88 473a 3454 97ba 65ea 1b39 b01d 2bba
00000040: 2a15 443a 0e67 ef3b d055 1c39 3d39 a3ba
00000050: 0db5 74ba 449b 01bb 3835 b539 96cb 10bc
00000060: f7cc 673a b156 dbbb 2701 a2bb 9c75 98ba
00000070: 97cc 2aba 055f 513a 9b80 7fba 3614 3ab9
00000080: 9bb1 3dba 8117 b6ba 8b54 4bba a258 9c39
00000090: cec4 4b3a e3eb 133b 9e26 8abb 1054 9cbb
000000a0: 457c b2ba 2ed4 8fbb 0990 6b3b b55a 06bb
000000b0: cb01 323b b11f 47bb 18b7 69ba c352 71bb
000000c0: 9adf bcb9 6df1 233a 734e 023b 59d0 ea3a
000000d0: 14e3 a8bb e66d 2b3b c483 273a 539b 303a
000000e0: 7c3d 9eba 3701 3338 c13e 6dbb a59c 14bb
000000f0: 193c 71bb 726f 66ba 6294 89ba 3e23 8c3a
00000100: b799 daba d89c 63ba e507 5f3a 903a 463a
00000110: be4c e4ba 2e9c 9fba b3a1 cebb 0bf3 523a
00000120: 3637 be3a 80bd 1dba d291 463a c59e 0b3b
00000130: ab18 8537 5495 bf3b 0bc7 493a 07e1 deb9
00000140: f5ef d23b 3776 cdba 7224 2fbb e66c 99b8
00000150: 18c2 563a 357a 713a 9246 543a 8ff3 433a
00000160: fd8e 5eba be2f 04b9 3f7a 5ebb b519 b5b9
00000170: 18de 78ba c31b 7fba 929f 82ba 1fac 523a
00000180: 0c87 8dba 41b1 26b9 b39d 6bba 2b4d 29bb
00000190: 0f75 81ba df04 b6ba e00d 45bb 5a3d 83bb
000001a0: f72a 5eba 0126 1a3a e056 2cbb 42ad 4f3a
000001b0: e1c7 7aba 6e81 eaba 7030 6fbb c745 b0b9
000001c0: bb81 393a fffb 6639 16a5 1abb 66bf aab9
000001d0: 50a8 823b ce8d 7cbb 0153 91ba c5eb 55bb
000001e0: d0f5 f0ba e6fc 17bb 564d 163c c635 2f3a
000001f0: c839 08bb 6fc5 ecba a307 873a ee3a d43a
-0.0015247412 -0.002326349 -0.003127889 -0.0020298525 -0.00085563766 0.00032121822 -0.008131029 0.0005471064
0.0006322514 -0.001396351 -0.0007179106 -0.0015245937 0.0007611529 -0.001154548 0.0001486927 -0.0006527556
0.00074799603 0.0073059862 0.00014909287 -0.0012452971 -0.000933484 -0.0019776383 0.0003456266 -0.008837601
0.0008842493 -0.006693684 -0.004943985 -0.001163173 -0.00065154716 0.00079868763 -0.0009746642 -0.00017745871
-0.0007236243 -0.0013892503 -0.00077564333 0.00029820675 0.00077731616 0.002257102 -0.0042160293 -0.004770763
-0.0013617357 -0.0043893075 0.0035944006 -0.0020500843 0.0027161713 -0.003038388 -0.0008915528 -0.0036823011
-0.0003602475 0.0006253932 0.0019883185 0.0017914876 -0.005154023 0.0026158034 0.0006390179 0.00067370123
-0.0012072767 4.2678057e-05 -0.0036200734 -0.0022676375 -0.0036809503 -0.00087904104 -0.0010496492 0.0010691655
-0.0016677891 -0.00086827343 0.0008507951 0.0007561827 -0.001741789 -0.0012177282 -0.006305897 0.00080470805
0.0014512304 -0.00060173124 0.00075748295 0.002130435 1.5866322e-05 0.0058466587 0.0007697201 -0.00042510798
0.0064372965 -0.001567549 -0.0026724604 -7.3158924e-05 0.00081923744 0.00092116307 0.0008097674 0.0007474953
-0.0008489935 -0.00012606286 -0.0033947376 -0.00034542163 -0.0009493544 -0.0009731615 -0.0009965769 0.00080365123
-0.0010797693 -0.00015897026 -0.00089880376 -0.002583335 -0.0009876805 -0.001388695 -0.0030068085 -0.0040051164
-0.000847503 0.0005880297 -0.0026296899 0.0007922241 -0.00095665274 -0.0017891356 -0.0036497377 -0.00033621324
0.0007076521 0.00022028385 -0.0023596934 -0.0003256753 0.0039873496 -0.003853667 -0.0011087359 -0.003264175
-0.0018383805 -0.002319151 0.009173712 0.0006683733 -0.0020786393 -0.0018064211 0.0010301959 0.0016191879

action_model._continuous_distribution.mu.weight f4 [1, 128]
00000000: 88e9 e7ba f95c 72bc 7b6c 5fbc 6a34 a1bc
00000010: b0c7 24bd e1db 1f3b 7441 1a3c 20cf f23b
00000020: 6b35 8b3c 81e5 bfbc 28e7 343c 7427 c03c
00000030: b78c 913c d173 b23a 1666 0abc d0c4 973b
00000040: 4f65 e63c da9a d9bc 50da f1b8 49ca 59bc
00000050: b1bc 65bc 3788 1f39 794d 093b 318e c9b8
00000060: 360e 973b 0394 6a3c 08fa 6e3d a3b8 6cbb
00000070: 0ab9 003d d464 b43b 22f1 15bc 5a66 15bc
00000080: d93d 023b f011 23bc f906 313a 51aa 243c
00000090: 00f4 1d3c 0e8b 453c 9045 0ebc da75 75bb
000000a0: c1c4 6cbc 91a8 7b3c 2691 d03c ae4c beba
000000b0: efa6 c6bc cf0f feba 5f20 08bd b8d5 e93b
000000c0: ef57 14bb 4b0c f43b 350c 09bd ae40 943b
000000d0: cfc1 b13c e0f0 323b 9228 6a3c 35c4 603b
000000e0: a250 9dbb 9286 78bb c2a2 13bb ac35 79bb
000000f0: d5f6 dd3a 2551 8bbc 92d8 abbb e00b 013c
00000100: 43af d1ba 3127 fcbc ec0e be3b cdbc b63c
00000110: 0075 1a3b e1e5 af39 a2b5 ee39 317b 233d
00000120: c181 e43b 5dca a13c be02 223c 1839 33bd
00000130: 213c aebc db4c a5bc aab6 3c3c be06 05bd
00000140: 55e2 793b 1c75 e33c 96fb 1abc 8eae cd3a
00000150: b41a fe3c 2504 a43c 84ef 3f3d b0ec 4a3c
00000160: 64b1 0dbd a340 a0bc fd55 2cbd eddb 203d
00000170: 3613 68bc f00d 76bc 44ce 71bc b56b fc3c
00000180: 2f59 84bb 5a32 293c 2f4c d0bc e337 e9ba
00000190: f907 c9bb a962 f7ba ba97 9ebc f506 6539
000001a0: 8f8a aabc 710b 423c eac9 933c be63 b53c
000001b0: 90b6 eabb 7932 93bc 77dc 953b 89b8 eebc
000001c0: 8674 1f3c 60c8 c03a a296 c2bb 7155 56ba
000001d0: f9ef 9f3c 6498 9e3b c9c4 3fbc cb68 0aba
000001e0: fef2 efbb 7733 883c f265 8dbd 7a8b 113c
000001f0: 6d6c 04bc ad70 273c ee3c 223d aa08 433c
-0.0017693499 -0.014792674 -0.013636704 -0.019678313 -0.0402295 0.0024392533 0.009415019 0.007409945
0.016993245 -0.023424866 0.01104144 0.023456313 0.017767293 0.0013614838 -0.008447191 0.004631616
0.02812448 -0.026563097 -0.000115324394 -0.013292857 -0.014022038 0.00015214166 0.0020950718 -9.610912e-05
0.0046098484 0.014317515 0.058343917 -0.0036120794 0.031426467 0.0055051837 -0.009151729 -0.009118641
0.001987329 -0.009953007 0.0006753053 0.010050372 0.009640694 0.012057079 -0.008683577 -0.0037454278
-0.014451207 0.015360014 0.025459837 -0.0014518702 -0.024249522 -0.0019383373 -0.033233996 0.007136073
-0.002263542 0.0074477545 -0.033458907 0.004524312 0.02169886 0.0027304217 0.014291899 0.0034296636
-0.004800872 -0.0037922007 -0.002252743 -0.0038026376 0.0016934524 -0.017006466 -0.005244323 0.007876366
-0.0015997667 -0.030780407 0.0058001187 0.022306824 0.0023568273 0.00033549874 0.00045530224 0.039912406
0.0069734757 0.019749815 0.009888349 -0.04375562 -0.021268906 -0.02017825 0.01151816 -0.032477133
0.003812929 0.027765803 -0.009459397 0.001569228 0.031018592 0.020021508 0.04685928 0.012385532
-0.034593 -0.019562071 -0.042074192 0.039272238 -0.0141647365 -0.015017971 -0.01475865 0.030813077
-0.004038952 0.010326946 -0.025426952 -0.0017793145 -0.0061349836 -0.0018874008 -0.019359458 0.00021841734
-0.020818023 0.011843548 0.018040616 0.022142287 -0.0071628764 -0.017968403 0.0045734006 -0.029140728
0.009732371 0.0014708154 -0.005938367 -0.0008176184 0.019523608 0.0048399437 -0.011704632 -0.00052798976
-0.007322668 0.016626103 -0.0690421 0.008883351 -0.008082491 0.010219735 0.03960889 0.011903921
