results/test2/EndLessRunnerBehaviour/EndLessRunnerBehaviour-2000006.pt (torch, 437679 bytes, 30 tensors)

network_body._body_endoder.seq_layers.0.weight f4 [128, 5]
1.2164226 -0.30538723 -0.75785834 -0.09547312 -0.62640154 -0.05859465 -0.7447945 -0.44065836
0.39138347 -0.13367322 0.0099701295 -0.8836057 -0.4813515 -0.6055673 1.0461539 -0.68144506
0.8538403 -0.71060294 -0.55115443 -0.22278921 0.06346682 0.5946758 0.1937858 -0.15402162
-0.2895157 0.091129296 -0.24817945 0.3759163 -0.222385 -0.11847806 0.35494453 0.23970681
0.053214487 -0.7579242 -0.262133 -0.20734397 -0.13439602 -0.7873962 -0.47945967 -1.432739
0.1464022 0.33491102 -0.5932737 -0.39175266 -0.3386819 -0.14019442 -0.2878185 -0.09944611
0.70804113 0.37050518 0.36469814 -0.29180595 0.46619916 0.72971165 -0.47539043 -0.5840664
0.4682432 0.6403742 -0.3975526 0.30429035 0.31894904 0.10887691 -0.56765294 0.3329164
0.20548813 -0.8662256 0.91967344 -0.012951878 0.22166598 -0.33942333 0.13486418 0.09070348
-0.17788176 0.56010497 0.39591506 -0.27331808 -0.48447284 0.13888717 0.08259671 0.021951223
0.69201386 -0.24016887 0.046658684 0.6360137 -0.23931332 0.72336304 -0.051195074 0.8158905
0.20979634 -0.8722569 -0.33821374 -0.50432175 -0.07448544 0.8615576 -0.26388225 0.4343887
-0.31251222 0.34628764 -0.042883646 -0.20327747 -0.08799966 0.08397102 -0.43905926 0.018334351
-0.35753536 0.19363672 -0.118419684 -0.34733936 -0.4310764 -0.08087405 -0.78593767 -0.7090464
-0.029972207 -0.33796158 -0.05267231 0.15349425 -0.1791576 0.5045186 0.0675598 0.2105946
-0.21498066 0.040708214 -0.5664281 0.117988214 -0.78316826 -0.099562764 0.26388788 -0.1957212
0.16809009 -0.4526671 0.012846361 -0.86987466 -0.3207676 -0.37292957 -0.084603764 0.12952162
0.23004137 0.1538631 0.23475306 -0.57812804 0.15292796 -0.4048755 0.013736874 -0.5712618
0.5438574 -0.7936722 0.17081334 -0.2069383 0.077764034 0.20309107 0.3503706 0.30653808
0.37159696 -0.1708861 -0.37153074 -0.9667807 0.24251111 0.9019859 -0.84412444 -1.3630118
-0.56850845 0.046396304 -0.0112568205 -0.36823857 0.12403 0.761828 -0.29058817 0.46072897
0.39585412 0.056233354 -0.085473575 -0.1815369 -0.033475462 -0.008195659 0.06602886 0.15399475
0.10030548 0.03372058 0.68946266 -0.02092323 0.88985044 0.40244168 -0.49961126 0.3073582
-0.11039651 -0.14268403 -0.12680924 0.12433086 -0.3759653 -0.3525758 0.53316593 -0.33231196
-0.65938747 0.468043 -0.37383142 -0.007217478 0.2117231 -0.08157131 0.1317443 0.24691227
-0.054391704 0.86354494 -0.7930707 0.12097371 -0.5443924 -0.18194361 0.075272225 -0.19068642
-0.3563802 0.7403507 -0.7728929 0.21966588 0.29381585 -0.11337455 0.19502977 0.014520138
-0.40366653 -0.16969645 -0.40278518 -0.32782027 -0.24926387 0.097087726 0.19905394 0.2960903
0.16579582 -0.21462016 0.14941609 -0.23591667 0.66604453 0.43278486 0.67300534 -0.19108279
0.6822252 -0.08651521 0.29186562 0.57619435 0.33510384 0.5539033 -0.028165966 0.46193895
0.14267978 -0.5326399 0.25381505 0.56495714 -1.048717 -0.16706885 0.52152324 -0.78701115
0.05329905 0.4323196 -0.5115428 -0.048231572 -0.24479946 -0.37201422 0.14156245 0.33600274
00000000: bcb3 9b3f b75b 9cbe 0103 42bf 6987 c3bd
00000010: da5b 20bf f200 70bd daaa 3ebf f99d e1be
00000020: 6a63 c83e a2e1 08be c159 233c fc33 62bf
00000030: b473 f6be 7506 1bbf 5fe8 853f 2f73 2ebf
00000040: 4795 5a3f 13ea 35bf 7518 0dbf db22 64be
00000050: e4fa 813d ac3c 183f c96f 463e d8b7 1dbe
00000060: 673b 94be ffa1 ba3d c122 7ebe 1a78 c03e
00000070: e5b8 63be a0a4 f2bd 4abb b53e b475 753e
00000080: 6ff7 593d 5207 42bf 4c36 86be fa51 54be
00000090: 1c9f 09be cc92 49bf bd7b f5be fe63 b7bf
000000a0: 75ea 153e 7579 ab3e c9e0 17bf ce93 c8be
000000b0: b767 adbe 208f 0fbe f25c 93be 67aa cbbd
000000c0: 2f42 353f dbb2 bd3e b7b9 ba3e 9767 95be
000000d0: a8b1 ee3e 62ce 3a3f 6066 f3be 6085 15bf
000000e0: 93bd ef3e 90ef 233f 048c cbbe f2cb 9b3e
000000f0: 4a4d a33e dbfa de3d b451 11bf 0574 aa3e
00000100: 7b6b 523e f6c0 5dbf b86f 6b3f 1d34 54bc
00000110: 68fc 623e e5c8 adbe d619 0a3e bfc2 b93d
00000120: a326 36be 0a63 0f3f 61b5 ca3e 59f0 8bbe
00000130: d30c f8be 7038 0e3e 7728 a93d 0dd3 b33c
00000140: d227 313f d4ee 75be 2d1d 3f3d cbd1 223f
00000150: 8d0e 75be 522e 393f edb1 51bd 33de 503f
00000160: dad4 563e 3a4c 5fbf 5a2a adbe 3b1b 01bf
00000170: d38b 98bd 0a8f 5c3f 931b 87be 3268 de3e
00000180: 9a01 a0be 9d4c b13e c3a6 2fbd f827 50be
00000190: 2a39 b4bd 00f9 ab3d 60cc e0be ec31 963c
000001a0: e00e b7be b448 463e 0586 f2bd 77d6 b1be
000001b0: 0cb6 dcbe 4ba1 a5bd 3633 49bf 1184 35bf
000001c0: 4688 f5bc 4d09 adbe ecbe 57bd 992d 1d3e
000001d0: 1775 37be 2228 013f cb5c 8a3d 1ca6 573e
000001e0: e423 5cbe a8bd 263d 6f01 11bf cea3 f13d
000001f0: b77d 48bf 90e7 cbbd 501c 873e 236b 48be
00000200: cf1f 2c3e fbc3 e7be 8b79 523c 1bb0 5ebf
00000210: a73b a4be a0f0 bebe bd44 adbd 51a1 043e
00000220: f78f 6b3e 4a8e 1d3e 1b63 703e 3300 14bf
00000230: 2699 1c3e d74b cfbe a010 613c 373e 12bf
00000240: 3d3a 0b3f 1a2e 4bbf b1e9 2e3e a2e7 53be
00000250: c042 9f3d 1bf7 4f3e c663 b33e 8ff2 9c3e
00000260: f541 be3e c4fc 2ebe 4739 bebe f17e 77bf
00000270: d554 783e 8ce8 663f 8a18 58bf 2c77 aebf
00000280: c589 11bf 0d0a 3e3d 876e 38bc c489 bcbe
00000290: 7103 fe3d 2907 433f f9c7 94be abe4 eb3e
000002a0: 64ad ca3e f254 663d c50c afbd cfe4 39be
000002b0: 911d 09bd 1647 06bc 243a 873d cdb0 1d3e
000002c0: f66c cd3d 971e 0a3d a080 303f 3267 abbc
000002d0: 3dcd 633f d60c ce3e 0ccd ffbe 0e5e 9d3e
000002e0: 9117 e2bd c31b 12be 48da 01be 2ea1 fe3d
000002f0: 867e c0be d184 b4be 907d 083f cb24 aabe
00000300: 9ecd 28bf 55a3 ef3e d566 bfbe 9880 ecbb
00000310: f1cd 583e dc0e a7bd fae7 063e 92d6 7c3e
00000320: d6c9 5ebd 4811 5d3f ae06 4bbf 11c1 f73d
00000330: 4d5d 0bbf 6d4f 3abe 5328 9a3d 4d43 43be
00000340: 7777 b6be a087 3d3f 4fdc 45bf 18f0 603e
00000350: 086f 963e eb30 e8bd e2b5 473e dfe5 6d3c
00000360: 61ad cebe e8c4 2dbe dc39 cebe 0fd8 a7be
00000370: 073f 7fbe eed5 c63d ccd4 4b3e 2699 973e
00000380: 61c6 293e 63c5 5bbe 8800 193e 2494 71be
00000390: e581 2a3f fa95 dd3e 144a 2c3f 35ab 43be
000003a0: 50a6 2e3f e32e b1bd 696f 953e 7981 133f
000003b0: bb92 ab3e 9bcc 0d3f 50bc e6bc 4383 ec3e
000003c0: a61a 123e 175b 08bf 0cf4 813e 08a1 103f
000003d0: 5c3c 86bf 1914 2bbe 8c82 053f 9079 49bf
000003e0: 1b50 5a3d ff58 dd3e 78f4 02bf 788e 45bd
000003f0: b6ac 7abe a678 bebe bff5 103e 8d08 ac3e

network_body._body_endoder.seq_layers.0.bias f4 [128]
0.01507586 -0.01640476 0.009283538 0.004071706 -0.0037478562 -0.0060298187 0.0032265973 0.014314476
-0.0013284354 -0.0010297737 0.03483636 0.007393854 7.107113e-05 -0.0072630905 -0.003707517 0.011437449
0.027410526 0.07682938 -0.0025185442 -0.022480529 -0.018339962 0.0069522955 -0.021000208 0.0030366573
-0.0023759198 -0.003848659 0.0025983958 0.0017660746 -0.005245798 -0.009396294 0.004481961 0.0037687416
0.011063235 0.08048087 -0.000102280195 0.0020374884 -0.007506956 0.028187681 -0.0024494403 -0.010877336
-0.0005351445 0.004905145 -0.009201139 0.0039834757 -0.0038811076 -0.008943414 -0.012855624 0.0023625852
0.04053077 -0.0015029882 -0.00034125996 0.004306226 -0.005585845 0.06528694 0.00041675923 0.001798339
-0.0073529636 -0.007217434 0.005106035 -0.006850226 0.01007722 -0.0052335924 -0.002003455 0.061416786
-0.0025589692 0.016640402 0.01530126 0.03766579 0.004471671 -0.004445273 -0.010220103 -0.00904567
-0.0022370056 -0.0010846324 0.06177909 -0.0050559496 -0.0069942595 -0.000572978 -0.0079907635 -0.009760129
-0.0058806012 -0.024811177 0.0017683904 -0.002442202 0.03171575 -0.004433879 0.020775743 0.0067326147
0.004299048 -0.0056341747 0.0073088896 -0.008012521 -0.005974006 -0.004872648 0.053846467 0.008078454
0.015267591 -0.0016993377 -0.0024391476 0.004974079 -0.007274265 0.024001628 0.0032488618 0.0027699852
-0.0056325765 0.045452487 0.034500275 0.0039854473 0.046028934 9.2542265e-05 -0.0111119 0.015244203
0.056221303 -0.010077864 0.0029867906 -0.0009030429 0.015733778 -0.012558288 -0.00092455605 -2.145429e-05
0.019153818 -0.00024387983 -0.004841737 0.007053928 0.008782077 -0.0042863986 -0.0053634616 0.02414894
00000000: bd00 773c 4663 86bc fb19 183c f26b 853b
00000010: 989e 75bb c995 c5bb 5275 533b 4487 6a3c
00000020: e51e aeba 79f9 86ba 92b0 0e3d 2548 f23b
00000030: 060c 9538 38ff edbb d0f9 72bb 2364 3b3c
00000040: 0a8c e03c b958 9d3d 290e 25bb 1629 b8bc
00000050: b03d 96bc 15d0 e33b a108 acbc a802 473b
00000060: 52b5 1bbb c939 7cbb d949 2a3b a17b e73a
00000070: f1e4 abbb eaf2 19bc 6add 923b fefc 763b
00000080: 9242 353c 28d3 a43d 437f d6b8 6287 053b
00000090: e9fc f5bb dae9 e63c ca86 20bb db36 32bc
000000a0: f148 0cba 57bb a03b 60c0 16bc d187 823b
000000b0: 2e5a 7ebb 6687 12bc 65a0 52bc 9ad5 1a3b
000000c0: 9803 263d eaff c4ba 23eb b2b9 3e1b 8d3b
000000d0: 7709 b7bb 29b5 853d 7a80 da39 3eb6 eb3a
000000e0: 21f1 f0bb 3980 ecbb 8750 a73b dc77 e0bb
000000f0: ed1a 253c 8e7e abbb 664c 03bb 2b90 7b3d
00000100: 61b4 27bb 7451 883c 23b2 7a3c 7247 1a3d
00000110: 1887 923b a7a9 91bb 3872 27bc 4a34 14bc
00000120: ba9a 12bb 392a 8eba 120c 7d3d 61ac a5bb
00000130: 1a30 e5bb e733 16ba b1eb 02bc f3e8 1fbc
00000140: 0fb2 c0bb cf40 cbbc 56c9 e73a 5a0d 20bb
00000150: 60e8 013d 134a 91bb e431 aa3c 449d dc3b
00000160: 07df 8c3b e29e b8bb 697f ef3b f346 03bc
00000170: 98c1 c3bb bcaa 9fbb 1d8e 5c3d 7e5b 043c
00000180: eb24 7a3c 50bc deba 1bda 1fbb 99fd a23b
00000190: f55c eebb 109f c43c dbea 543b a488 353b
000001a0: 7a91 b8bb 632c 3a3d 2950 0d3d 5b98 823b
000001b0: d688 3c3d 4013 c238 b00e 36bc d2c2 793c
000001c0: 4f48 663d a01d 25bc 08be 433b 2fba 6cba
000001d0: 20e4 803c 47c1 4dbc e85d 72ba bdf8 b3b7
000001e0: 78e8 9c3c feb9 7fb9 6fa7 9ebb a324 e73b
000001f0: b3e2 0f3c eb74 8cbb fabf afbb ffd3 c53c

network_body._body_endoder.seq_layers.2.weight f4 [128, 128]
-0.06322381 0.027439093 0.09915649 0.021410177 0.017178902 -0.018859945 0.110191315 -0.034124456
0.14847042 0.0675003 -0.08331316 -0.024202608 -0.261859 -0.036244575 0.00720907 -0.06397601
0.12605086 -0.14368339 0.029146375 -0.18211755 0.026880402 0.074785836 0.17956161 0.004862801
-0.057319738 -0.015046804 0.048328396 0.055346016 -0.03827095 -0.020827614 0.10536176 0.06119769
-0.19595397 -0.059209257 0.034554493 0.095585786 0.08561427 -0.021624751 -0.04911197 0.05777358
0.067241326 0.046486326 0.02449048 -0.16644455 -0.131013 -0.0027415657 0.078398965 0.12224533
-0.00120744 -0.25060135 -0.09927029 0.049692214 0.027656863 0.113822 0.020946322 0.022226939
0.15268198 0.042931136 0.07008372 0.017807053 -0.09517672 -0.08328756 0.12423064 0.08601459
-0.017974133 -0.06691694 -0.025993474 0.062191524 0.011943537 0.093296975 -0.012423654 0.0479182
-0.061249387 -0.06635249 0.050651845 -0.0052206903 0.10027267 -0.01817661 0.0798273 0.08776907
-0.11787864 -0.040388063 -0.08241181 0.08459438 0.054266136 0.11879775 0.17496283 -0.018507501
-0.07201165 -0.10037032 -0.035925522 -0.03597283 0.10523106 -0.071041524 -0.07221984 -0.09495491
0.050379045 -0.013996706 -0.017347317 -0.09572071 0.0039702053 -0.06194986 -0.07298906 -0.036146436
0.12578101 0.062114567 0.11005416 -0.0027375962 -0.038290538 -0.026183302 0.091331705 0.0012215525
-0.1558578 -0.011328125 -0.0932063 0.13192363 -0.08995633 0.016026044 -0.04904317 -0.07367908
0.06698334 0.103240244 0.046053693 0.06525604 0.0027223118 0.09805443 0.006623757 0.049984224
-0.09448365 0.09208625 0.08989439 -0.056910492 0.15169512 -0.14182116 0.12951143 -0.05649305
-0.03756134 -0.04599345 0.010001506 0.14526427 -0.09010479 -0.06439424 -0.16469026 0.058602672
0.023517447 0.0674112 0.21240115 0.038544253 0.0061597554 0.06706187 0.012752689 0.027068587
-0.07333616 -0.029768668 -0.10022607 0.11368129 0.07738656 0.0815873 -0.04618269 -0.06482488
-0.04219818 -0.17847465 0.06775947 0.071225256 0.031765215 -0.07512596 -0.014080722 0.005215406
-0.08239883 0.10072802 -0.01992033 0.122966334 -0.047381613 -0.0548797 0.07101019 0.007415674
0.109047584 0.12437751 0.12604038 -0.06293712 0.124474876 -0.09776957 0.17225428 0.022684993
-0.004220651 0.0024935869 0.008188171 -0.12199164 0.027729081 0.12693079 0.088909544 -0.038626578
-0.057896484 0.010080455 0.11266384 0.011104331 0.093456924 -0.003886796 0.023447901 0.019251179
0.11260985 -0.08387898 0.12351765 0.0043771546 0.025046924 -0.11304274 -0.03710046 -0.08166433
0.09079622 -0.089228414 0.004728378 0.12274134 -0.051371906 -0.0070458404 -0.005411327 -0.17262384
-0.008603676 0.10370447 -0.061160155 0.02799748 0.09149894 -0.06839157 -0.12060948 -0.09427841
-0.013115356 -0.09755909 -0.16445152 0.14311928 0.105005346 -0.019503307 -0.27212426 -0.09616519
0.05047358 -0.18848497 0.15577535 -0.0060258713 0.061233677 -0.01754868 -0.0038096237 0.07092585
-0.078082904 0.062113434 -0.107742086 0.028581863 -0.037726857 0.09627497 -0.028964125 -0.051415827
-0.00089323 0.116224304 -0.06921397 0.034273565 -0.03651155 0.0025584465 0.05789695 -0.14928107
00000000: 7c7b 81bd f3c7 e03c 8f12 cb3d 6564 af3c
00000010: c5ba 8c3c 2c80 9abc fcab e13d 16c6 0bbd
00000020: a108 183e 993d 8a3d 17a0 aabd 8c44 c6bc
00000030: 6212 86be 3175 14bd 103a ec3b db05 83bd
00000040: 7a13 013e bd21 13be 61c4 ee3c 067d 3abe
00000050: 4a34 dc3c 5129 993d 00df 373e 2258 9f3b
00000060: 1ac8 6abd df86 76bc fff3 453d 81b2 623d
00000070: 00c2 1cbd ac9e aabc e8c7 d73d 6eaa 7a3d
00000080: 28a8 48be 6885 72bd 0389 0d3d 7bc2 c33d
00000090: 8956 af3d 6426 b1bc a229 49bd fda3 6c3d
000000a0: d2b5 893d 7268 3e3d 42a0 c83c 7170 2abe
000000b0: 4628 06be d7ab 33bb a38f a03d c25b fa3d
000000c0: f742 9eba d24e 80be 394e cbbd 108a 4b3d
000000d0: a590 e23c 821b e93d 9f97 ab3c 4515 b63c
000000e0: aa58 1c3e 8fd8 2f3d 0e88 8f3d 19e0 913c
000000f0: 03ec c2bd ab92 aabd a26c fe3d 6b28 b03d
00000100: 7d3e 93bc c00b 89bd 44f0 d4bc 8abc 7e3d
00000110: d3ae 433c 7c12 bf3d 958c 4bbc e045 443d
00000120: a3e0 7abd d0e3 87bd 4f78 4f3d 5312 abbb
00000130: c25b cd3d 1de7 94bc 7f7c a33d 45c0 b33d
00000140: 5b6a f1bd f46d 25bd 86c7 a8bd d13f ad3d
00000150: 2b46 5e3d 3c4c f33d 7529 333e 0b9d 97bc
00000160: d87a 93bd f48e cdbd a426 13bd 3f58 13bd
00000170: 6283 d73d 387e 91bd ffe7 93bd b877 c2bd
00000180: 425a 4e3d 7152 65bc f61b 8ebc 3809 c4bd
00000190: 7f18 823b 23bf 7dbd 4a7b 95bd 490e 14bd
000001a0: bdcc 003e d86b 7e3d 1364 e13d 3e69 33bb
000001b0: 8ad6 1cbd 5d7e d6bc 1e0c bb3d 801c a03a
000001c0: 3099 1fbe 9a99 39bc f2e2 bebd fd16 073e
000001d0: 063b b8bd 0d49 833c 7ee1 48bd 0fe5 96bd
000001e0: 902e 893d 9f6f d33d cca2 3c3d f5a4 853d
000001f0: d068 323b c3d0 c83d 1a0c d93b 42bc 4c3d
00000200: a580 c1bd b797 bc3d 8d1a b83d fa1a 69bd
00000210: f755 1b3e 9139 11be a59e 043e 4265 67bd
00000220: ebd9 19bd a163 3cbd 5bdd 233c 28c0 143e
00000230: dc88 b8bd 21e1 83bd 90a4 28be 5b09 703d
00000240: a9a7 c03c e20e 8a3d b07f 593e 94e0 1d3d
00000250: c6d7 c93b bc57 893d a8f0 503c f1be dd3c
00000260: 4531 96bd 6cdd f3bc 5343 cdbd bcd1 e83d
00000270: d87c 9e3d 3e17 a73d 0f2a 3dbd e8c2 84bd
00000280: 00d8 2cbd 0fc2 36be 7ac5 8a3d 8cde 913d
00000290: 3e1c 023d a4db 99bd d4b2 66bc ffe5 aa3b
000002a0: b8c0 a8bd 7e4a ce3d f62f a3bc c6d5 fb3d
000002b0: 3913 42bd 89c9 60bd ca6d 913d 2fff f23b
000002c0: 5754 df3d a3b9 fe3d bb10 013e 2de5 80bd
000002d0: afec fe3d 6a3b c8bd 6d63 303e e1d5 b93c
000002e0: 634d 8abb 726b 233b ae27 063c c1d6 f9bd
000002f0: 1928 e33c 25fa 013e 3516 b63d e736 1ebd
00000300: dd24 6dbd 7e28 253c 4dbc e63d f1ee 353c
00000310: 5866 bf3d 9eb9 7ebb d015 c03c a6b4 9d3c
00000320: fe9f e63d bec8 abbd d2f6 fc3d 3c6e 8f3b
00000330: 352f cd3c f482 e7bd a7f6 17bd a13f a7bd
00000340: 5ef3 b93d 63bd b6bd 82f0 9a3b d05f fb3d
00000350: 596b 52bd cbe0 e6bb 8051 b1bb 4ec4 30be
00000360: 6ff6 0cbc 0263 d43d 1283 7abd f95a e53c
00000370: cc63 bb3d e110 8cbd 1a02 f7bd 0a15 c1bd
00000380: cae1 56bc 0fcd c7bd fb65 28be dc8d 123e
00000390: 0b0d d73d 66c5 9fbc df53 8bbe 41f2 c4bd
000003a0: 62bd 4e3d 3402 41be 9383 1f3e ac74 c5bb
000003b0: 2ad0 7a3d 40c2 8fbc e1aa 79bb 9241 913d
000003c0: eee9 9fbd a86a 7e3d e2a7 dcbd 8324 ea3c
000003d0: 7a87 1abd d02b c53d 2c46 edbc 6799 52bd
000003e0: a727 6aba 0207 ee3d 0ec0 8dbd 7062 0c3d
000003f0: 238d 15bd 9cab 273b 5a25 6d3d 23dd 18be

network_body._body_endoder.seq_layers.2.bias f4 [128]
-0.0028337373 0.0034560729 0.0049632275 0.007006037 -0.0051642344 -0.0082643945 -0.00019508069 0.008540162
0.009202039 0.0006750773 0.005428099 -0.0038281765 -0.00012156323 -0.017476743 -0.00698371 -0.016263057
-0.008512987 -0.013798686 0.04282699 -0.0016800486 0.0007950924 0.0040566 -0.0051572802 -0.0058636004
0.029802447 0.004303822 -0.009359862 0.0048931325 0.0061046868 -0.007277452 0.0075054546 -0.009141932
0.028132493 -0.0003950137 -0.005808309 -0.0030647626 -0.0035692765 0.0023842715 -0.0009974834 0.0030367833
0.019138006 -0.013355143 -0.0010103807 0.0038538473 -0.0011972205 -0.0027786656 -0.008114342 0.0041706953
-0.0052825473 0.010468428 0.02733014 -0.0048253178 0.008457061 -0.0048322617 0.01162807 0.002812745
0.0038978036 0.0052703135 -0.004892163 0.004474764 -0.0015355258 0.029894441 -0.006912302 0.006232112
0.01025431 0.02338284 0.012615649 0.00019215865 0.01580389 0.01887897 -0.0119765345 0.00497912
-0.0039425204 0.004466256 -0.005499057 -0.0071667754 -0.0053369966 -0.0060379133 -0.0048433384 0.0046129357
-0.004025246 0.022450244 -0.004182996 -0.013707183 -0.0069457213 0.007364568 -0.005803757 0.010559207
0.0012570595 -0.005198326 0.01184273 -0.000843202 -0.00573745 0.01005582 -0.008729181 0.003000752
0.0013904729 0.0026960664 0.0034446644 0.011309307 0.01687061 -0.0054234858 0.014872519 -0.0041590915
0.0033782783 0.031152885 -0.00559358 -0.005601946 0.0033928435 0.009378396 0.022507645 0.0039286343
-0.0034454174 0.019864904 0.008411162 0.032057956 0.0144373905 -0.0015075348 -0.007676921 0.012106717
0.0037849846 0.024182195 0.02173943 -0.009622902 0.02813967 0.0123289125 0.030963318 0.0053304345
00000000: 39b6 39bb 487f 623b 92a2 a23b e692 e53b
00000010: bd38 a9bb 6267 07bc 938e 4cb9 09ec 0b3c
00000020: 26c4 163c acf7 303a 32de b13b 25e2 7abb
00000030: c3ef feb8 632b 8fbc 9bd7 e4bb 1a3a 85bc
00000040: 0e7a 0bbc e213 62bc 5b6b 2f3d 1435 dcba
00000050: bf6d 503a 3aed 843b 67fe a8bb 7223 c0bb
00000060: 4324 f43c 1307 8d3b 1b5a 19bc 9256 a03b
00000070: d309 c83b b177 eebb 51f0 f53b 0bc8 15bc
00000080: 1d76 e63c d719 cfb9 a153 bebb 2fda 48bb
00000090: 86ea 69bb 7041 1c3b fdbd 82ba c504 473b
000000a0: 4fc7 9c3c 88cf 5abc c06e 84ba d490 7c3b
000000b0: 0eec 9cba 461a 36bb 04f2 04bc 54aa 883b
000000c0: 3819 adbb c583 2b3c 75e3 df3c b31d 9ebb
000000d0: 7c8f 0a3c f357 9ebb a983 3e3c 0856 383b
000000e0: 4b72 7f3b 98b2 ac3b 704e a0bb 0ba1 923b
000000f0: b243 c9ba 30e5 f43c 9880 e2bb bf36 cc3b
00000100: b201 283c 5f8d bf3c deb1 4e3c 327e 4939
00000110: 2977 813c 12a8 9a3c 3a39 44bc e327 a33b
00000120: 4230 81bb ac59 923b 6f31 b4bb 45d7 eabb
00000130: f9e1 aebb b0d9 c5bb deb4 9ebb 1c28 973b
00000140: 36e6 83bb 93e9 b73c 8411 89bb 1894 60bc
00000150: ef98 e3bb 7952 f13b 712d bebb 8600 2d3c
00000160: ebc3 a43a b856 aabb 0308 423c 540a 5dba
00000170: 3801 bcbb 2bc1 243c d704 0fbc 44a8 443b
00000180: 8740 b63a 7db0 303b e1bf 613b ac4a 393c
00000190: 3c34 8a3c 7fb7 b1bb deab 733c fd48 88bb
000001a0: 1b66 5d3b 5634 ff3c 5a4a b7bb 8790 b7bb
000001b0: 785a 5e3b d8a7 193c f461 b83c c6bb 803b
000001c0: 83cc 61bb b9bb a23c f8ce 093c 344f 033d
000001d0: ce8a 6c3c 7998 c5ba ae8e fbbb 405b 463c
000001e0: 810d 783b bd19 c63c e416 b23c 60a9 1dbc
000001f0: 2a85 e63c 35ff 493c c9a6 fd3c edaa ae3b

action_model._continuous_distribution.mu.weight f4 [1, 128]
-0.0025174792 -0.01981056 0.022141434 -0.024465377 -0.04617018 -0.01080358 -0.04045052 0.016562128
0.02191283 0.001514684 -0.025564585 -0.017439516 -0.023445847 0.0006432863 -0.009202972 -0.027645858
-0.0047109155 -0.05946313 0.04335368 -0.030918552 -0.030911053 -0.04515394 -0.0064083547 -0.027020225
0.026655084 -0.02450579 -0.011859984 0.021559747 0.022737004 -0.003229818 0.031387534 -0.022901254
0.028338067 0.01180314 0.004496768 -0.03276612 -0.0090190405 -0.0076116137 0.00412906 0.014631121
0.03423291 -0.0012841099 -0.0031247996 0.01705814 0.03412157 -0.0079447795 -0.00088560494 -0.016649978
-0.030950213 0.023902947 0.031429023 0.0011159859 -0.01910169 -0.04228534 0.024567064 0.01022351
0.022192053 0.027013348 -0.019131606 -0.01638514 -0.074270085 0.04512847 -0.02724172 0.019851353
0.009068451 0.078909755 0.03567379 -0.048663206 -0.062650226 0.05573859 -0.030784005 -0.015807664
-0.028017025 0.020103281 -0.03228628 -0.018971078 -0.01681214 -0.009521389 0.0099876085 0.02054006
-0.015297979 0.04392172 -0.039756194 -0.0029005727 -0.026451977 0.013039471 -0.029700363 0.043538198
0.013538788 -0.024566377 0.04075703 -0.015488873 -0.0062597287 -0.020030094 -0.004217578 0.05859048
0.029716121 -0.078444116 0.0011628488 0.037227537 -0.052524947 -0.015595634 0.02895203 -0.014580776
0.009947601 0.05979625 -0.010582922 -0.023122488 0.0066677774 0.01852853 0.036907528 0.01591367
-0.049662888 0.04649124 0.01467363 0.054451726 0.021130295 0.0015100061 -0.0058228765 0.03376473
0.022652505 0.037034582 0.012407446 0.001339975 0.033869453 0.029710237 0.03824548 -0.018690785
00000000: 4bfc 24bb c149 a2bc f461 b53c 9d6b c8bc
00000010: f11c 3dbd 8001 31bc 72af 25bd 4dad 873c
00000020: 8982 b33c 5c88 c63a d26c d1bc 51dd 8ebc
00000030: 8111 c0bc 36a2 283a 10c8 16bc 9179 e2bc
00000040: 065e 9abb 9c8f 73bd a193 313d e748 fdbc
00000050: 2d39 fdbc 56f3 38bd 2dfd d1bb 8559 ddbc
00000060: c35b da3c 5ec0 c8bc 6150 42bc 119e b03c
00000070: f442 ba3c 5bab 53bb 3790 003d 699b bbbc
00000080: 3c25 e83c f561 413c a059 933b c435 06bd
00000090: 99c4 13bc d86a f9bb 114d 873b 5fb7 6f3c
000000a0: cf37 0c3d 944f a8ba 70c9 4cbb 83bd 8b3c
000000b0: 0fc3 0b3d d22a 02bc f127 68ba 8965 88bc
000000c0: 4d8b fdbc 1dd0 c33c b8bb 003d 4646 923a
000000d0: 267b 9cbc 6533 2dbd de40 c93c 8280 273c
000000e0: 1ccc b53c 194b dd3c e3b9 9cbc 213a 86bc
000000f0: ea1a 98bd a1d8 383d 072a dfbc 4e9f a23c
00000100: d793 143c 709b a13d ae1e 123d 1253 47bd
00000110: c34e 80bd 264e 643d bd2e fcbc 137f 81bc
00000120: f683 e5bc a3af a43c 9e3e 04bd 3c69 9bbc
00000130: 9db9 89bc 9aff 1bbc 11a3 233c a143 a83c
00000140: 60a4 7abc 43e7 333d 64d7 22bd 8917 3ebb
00000150: d1b1 d8bc 81a3 553c 2d4e f3bc 1c55 323d
00000160: cbd1 5d3c 6d3f c9bc d8f0 263d 0bc5 7dbc
00000170: 691e cdbb 2716 a4bc 9c33 8abb 92fc 6f3d
00000180: 396f f33c 4fa7 a0bd bb6a 983a e77b 183d
00000190: 6624 57bd d484 7fbc cf2c ed3c 35e4 6ebc
000001a0: 43fb 223c eaec 743d fe63 2dbc 5f6b bdbc
000001b0: 5f7d da3b 25c9 973c 592c 173d 635d 823c
000001c0: 506b 4bbd 996d 3e3d aa69 703c c608 5f3d
000001d0: 7119 ad3c 66eb c53a d4cd bebb e34c 0a3d
000001e0: bf91 b93c 93b1 173d 9a48 4b3c 1aa2 af3a
000001f0: b2ba 0a3d e262 f33c 4ba7 1c3d 6b1d 99bc

exp_avg f4 [128, 5]
7.824015e-05 0.0015012124 -0.008712322 0.001191326 0.0 -1.3387977e-05 -0.00024542332 0.0018534304
-0.00026191561 0.0 0.00010154727 0.0014982756 -0.01059917 0.0014663716 0.0 0.00018084786
0.0062799957 -0.012748015 0.0019856568 0.0 2.5623858e-05 0.0016384699 -0.0009200102 0.00019920208
0.0 -3.572256e-07 -6.4151263e-06 3.0082913e-06 -3.9221595e-06 0.0 0.00010716899 0.0070309704
-0.0033029174 0.0006213788 0.0 1.4347172e-05 -0.0007842455 -0.0013900906 0.00026649988 0.0
8.3214014e-05 0.0030649076 -0.0045898017 0.0008026215 0.0 -4.187441e-05 -0.0005456791 0.003933593
-0.000566082 0.0 -1.6998501e-06 -5.3299264e-05 1.9202622e-05 -1.8344916e-05 0.0 -1.4521429e-05
-0.00022009556 0.00026006272 -0.00010264659 0.0 9.308914e-05 0.0042055137 -0.005894034 0.0009425155
0.0 -0.0001238393 -0.0046467977 0.007882699 -0.0011572303 0.0 -5.542719e-05 -0.0018008057
0.006284481 -0.00087269174 0.0 -1.0775283e-06 -3.0087795e-05 0.00022578318 -3.4441455e-05 0.0
-0.0003213296 -0.0015149855 0.016564166 -0.0027590548 0.0 -2.2214247e-06 -6.21323e-05 8.932587e-06
-1.07323385e-05 0.0 -0.000100963036 -0.0015627564 0.011618885 -0.0016524141 0.0 -5.595707e-07
-7.123405e-06 2.0874247e-06 -7.230351e-06 0.0 -1.974876e-05 0.000511021 0.0008970325 -0.00017809606
0.0 6.457332e-05 0.0012768254 -0.008772001 0.0011703653 0.0 1.056467e-05 9.521948e-05
-0.0006358651 8.532165e-05 0.0 1.487098e-07 7.307378e-07 -2.1993151e-07 1.727249e-06 0.0
7.3324945e-06 0.00047994868 0.00045645735 1.8291583e-05 0.0 -6.9201815e-05 -0.003157905 0.005184926
-0.00074345863 0.0 2.0668242e-05 0.0003380931 -0.0023805473 0.00031304898 0.0 2.1971424e-05
0.0018953383 -0.00064247707 0.00015196326 0.0 6.182895e-06 5.741915e-05 -0.00048409827 6.634662e-05
0.0 -3.7800906e-05 -0.003718822 0.0010474168 -0.00022116395 0.0 2.73369e-05 0.0022140443
-0.0007975362 9.3784205e-05 0.0 -1.3591753e-07 6.290444e-05 -1.4923256e-06 6.515589e-06 0.0
2.8660756e-05 0.002002811 -0.00092505995 0.00024559547 0.0 -8.8303614e-07 -2.982821e-05 9.641923e-06
5.9872923e-06 0.0 2.158381e-07 9.2474096e-05 -0.00072791916 7.1779185e-05 0.0 -0.00018301321
-0.0041320575 0.0123318825 -0.0018646552 0.0 3.2383505e-05 0.001017403 -0.0024853076 0.0003491292
0.0 -3.8812755e-06 8.155835e-05 -0.0004927554 6.2499945e-05 0.0 2.694472e-05 0.0005678786
-0.0029121304 0.0003912762 0.0 -9.9890385e-05 -0.0029112678 0.007032375 -0.0010970045 0.0
0.00013999526 0.0074631074 -0.0060974783 0.001089813 0.0 9.763691e-05 0.0039303615 -0.008004671
0.0012044546 0.0 -4.810993e-05 -0.004727334 0.0017531017 -0.00036387093 0.0 6.3959444e-05
0.00058852276 -0.0052484036 0.00075927126 0.0 6.47168e-05 0.004242011 -0.0011280937 0.0002895533
0.0 -8.828854e-05 -0.0037845052 0.0053641777 -0.0008683302 0.0 -1.8021295e-07 1.894232e-06
-1.7126863e-06 2.5768483e-07 0.0 1.8151006e-05 0.0019750071 -0.000625167 7.788283e-05 0.0
-6.715277e-06 -5.5063803e-05 0.0003599377 -5.7916317e-05 0.0 3.177357e-05 0.0063600736 0.0016342376
-2.263757e-05 0.0 0.00012359551 0.0026071353 -0.009792988 0.0014463848 0.0 6.5410364e-05
00000000: dc14 a438 54c4 c43a 21be 0ebc 4426 9c3a
00000010: 0000 0000 ec9c 60b7 29ac 80b9 ceee f23a
00000020: b851 89b9 0000 0000 c7f5 d438 c961 c43a
00000030: 24a8 2dbc 4433 c03a 0000 0000 faa1 3d39
00000040: 6cc8 cd3b 0ddd 50bc cb21 023b 0000 0000
00000050: d1f2 d637 edc1 d63a d72c 71ba e7e0 5039
00000060: 0000 0000 b6c8 bfb4 8441 d7b6 0de2 4936
00000070: 189b 83b6 0000 0000 eabf e038 0e64 e63b
00000080: c275 58bb 06e4 223a 0000 0000 a2b4 7037
00000090: d395 4dba b333 b6ba 02b9 8b39 0000 0000
000000a0: 2f83 ae38 9edc 483b 0c66 96bb 0467 523a
000000b0: 0000 0000 4ea2 2fb8 e80b 0fba 5fe5 803b
000000c0: 1f65 14ba 0000 0000 6826 e4b5 a68d 5fb8
000000d0: 5115 a137 68e3 99b7 0000 0000 10a1 73b7
000000e0: 74c9 66b9 0759 8839 f843 d7b8 0000 0000
000000f0: da38 c338 68ce 893b be22 c1bb 2513 773a
00000100: 0000 0000 dcda 01b9 2a44 98bb 7026 013c
00000110: 35ae 97ba 0000 0000 7e7a 68b8 0309 ecba
00000120: 0cee cd3b 5ac5 64ba 0000 0000 979f 90b5
00000130: 0c65 fcb7 36c0 6c39 3b75 10b8 0000 0000
00000140: 2178 a8b9 7a92 c6ba 93b1 873c 42d1 34bb
00000150: 0000 0000 c913 15b6 064d 82b8 2bdd 1537
00000160: 0b0f 34b7 0000 0000 1ebc d3b8 67d5 ccba
00000170: 235d 3e3c d195 d8ba 0000 0000 6835 16b5
00000180: 9505 efb6 af15 0c36 3e9c f2b6 0000 0000
00000190: 24aa a5b7 0af6 053a d526 6b3a 4cbf 3ab9
000001a0: 0000 0000 8a6b 8738 275b a73a 70b8 0fbc
000001b0: f166 993a 0000 0000 ea3e 3137 92b0 c738
000001c0: 2fb0 26ba b6ee b238 0000 0000 0aad 1f34
000001d0: eb27 4435 5026 6cb4 d3d3 e735 0000 0000
000001e0: a609 f636 9fa1 fb39 ab50 ef39 e070 9937
000001f0: 0000 0000 7120 91b8 dbf4 4ebb 50e6 a93b
00000200: aae4 42ba 0000 0000 b660 ad37 1642 b139
00000210: f502 1cbb b920 a439 0000 0000 464f b837
00000220: 006d f83a e86b 28ba 5458 1f39 0000 0000
00000230: aa76 cf36 58d5 7038 92ce fdb9 9223 8b38
00000240: 0000 0000 6a8c 1eb8 7bb7 73bb 7a49 893a
00000250: 3fe8 67b9 0000 0000 8c51 e537 8019 113b
00000260: c011 51ba 03ae c438 0000 0000 baf0 11b4
00000270: 90eb 8338 eb4b c8b5 7ca0 da36 0000 0000
00000280: 816c f037 9841 033b b97f 72ba 44c3 8039
00000290: 0000 0000 c809 6db5 9837 fab7 bec3 2137
000002a0: 73e6 c836 0000 0000 20c1 6734 a7ee c138
000002b0: d4d1 3eba 2888 9638 0000 0000 3ce7 3fb9
000002c0: 3666 87bb aa0b 4a3c 7267 f4ba 0000 0000
000002d0: 86d3 0738 615a 853a 8be0 22bb 540b b739
000002e0: 0000 0000 e73b 82b6 4e0a ab38 412c 01ba
000002f0: 6712 8338 0000 0000 5807 e237 b0dd 143a
00000300: 71d9 3ebb 3424 cd39 0000 0000 3e7c d1b8
00000310: f8ca 3ebb d66f e63b 5dc9 8fba 0000 0000
00000320: b1cb 1239 158d f43b 5bcd c7bb 0ed8 8e3a
00000330: 0000 0000 6bc2 cc38 43ca 803b 0626 03bc
00000340: cade 9d3a 0000 0000 a5c9 49b8 c0e7 9abb
00000350: 55c8 e53a eec5 beb9 0000 0000 f721 8638
00000360: 1847 1a3a cdfa abbb d509 473a 0000 0000
00000370: 91b8 8738 9100 8b3b 8bdc 93ba 30cf 9739
00000380: 0000 0000 8d27 b9b8 7605 78bb fcc5 af3b
00000390: a7a0 63ba 0000 0000 8f80 41b4 513d fe35
000003a0: 74df e5b5 ef57 8a34 0000 0000 fd42 9837
000003b0: 1f6f 013b 3fe2 23ba 0755 a338 0000 0000
000003c0: ca53 e1b6 4ff4 66b8 05b6 bc39 2ceb 72b8
000003d0: 0000 0000 9c44 0538 2a68 d03b ea33 d63a
000003e0: d0e5 bdb7 0000 0000 6b99 0139 79dc 2a3b
000003f0: c572 20bc 9f94 bd3a 0000 0000 ec2c 8938

exp_avg_sq f4 [128, 5]
2.4320317e-07 3.8935705e-05 0.00019886837 3.3105218e-06 0.0 1.7587142e-08 2.5314392e-07 1.6446675e-05
2.120575e-07 0.0 4.2937833e-07 4.901867e-06 0.00033572764 5.5797714e-06 0.0 9.105211e-07
0.0011973991 0.000621125 1.05021e-05 0.0 3.8299408e-08 0.00013303371 2.3704733e-05 3.6461495e-07
0.0 1.6315956e-11 1.7045289e-10 5.037463e-11 1.5538629e-10 0.0 4.4453662e-07 0.0013257869
0.00027830337 4.729323e-06 0.0 3.1560276e-08 3.860841e-05 2.0815636e-05 3.3194763e-07 0.0
1.5302683e-07 0.0004033216 0.00010222747 1.6792128e-06 0.0 4.882395e-08 4.3628478e-07 3.5149882e-05
6.8152053e-07 0.0 1.3086873e-09 2.8515531e-08 5.9815326e-09 2.9565312e-08 0.0 6.5465846e-09
3.0135157e-05 3.4674297e-06 4.9072053e-08 0.0 2.2861778e-07 0.00048403005 0.00015720118 2.5225424e-06
0.0 2.82058e-07 0.00054474967 0.00021422925 3.216962e-06 0.0 2.1150505e-07 1.3684006e-05
0.00014995482 2.5037493e-06 0.0 9.59409e-10 3.1798093e-09 5.3442835e-07 9.641321e-09 0.0
2.4542635e-06 7.4694362e-06 0.0014258843 3.1736323e-05 0.0 2.0513298e-09 7.965966e-08 1.0295017e-09
3.355822e-08 0.0 5.1594856e-07 4.149407e-06 0.00038238982 6.703624e-06 0.0 6.462372e-11
2.7395647e-10 2.3991772e-10 5.133113e-10 0.0 1.3517715e-08 1.3146592e-05 8.881826e-06 1.5341882e-07
0.0 3.4119378e-07 0.00019266154 0.00026028167 4.265947e-06 0.0 1.7822123e-09 1.644206e-08
1.4165892e-06 2.490943e-08 0.0 1.2557313e-12 1.9713522e-11 2.272823e-11 1.7004021e-11 0.0
5.9147315e-08 0.00011709399 3.5595705e-05 5.760474e-07 0.0 9.0756245e-08 6.544131e-05 6.5516855e-05
1.1605802e-06 0.0 1.4630273e-08 2.3990214e-07 1.3600523e-05 2.0183498e-07 0.0 7.592184e-08
0.00027385599 4.5768404e-05 7.406593e-07 0.0 6.6187633e-10 3.9693977e-09 4.6504138e-07 8.931808e-09
0.0 9.095833e-08 0.00033417047 5.5865592e-05 8.947285e-07 0.0 5.420258e-09 2.0771207e-05
3.3642282e-06 5.8073546e-08 0.0 9.9180684e-11 4.0381738e-07 1.0358542e-08 9.381828e-10 0.0
8.4012626e-08 0.00034846834 5.4218515e-05 7.1525074e-07 0.0 2.8147589e-09 2.5185754e-08 5.1971694e-09
4.3290793e-08 0.0 6.428453e-09 5.97125e-08 4.4762264e-06 5.881071e-08 0.0 4.875027e-07
0.00018228665 0.00034293617 6.6364096e-06 0.0 2.9187602e-08 4.8394035e-05 2.254069e-05 3.4874276e-07
0.0 1.1296639e-09 1.3748254e-08 9.329415e-07 1.14216165e-08 0.0 3.2368025e-08 2.6914042e-06
3.0028217e-05 4.285336e-07 0.0 2.9639253e-07 0.00037964096 0.00020036356 3.3880187e-06 0.0
5.394635e-07 0.0015547739 0.00033113532 5.6348167e-06 0.0 3.7285344e-07 0.00057775073 0.00027644023
4.254365e-06 0.0 1.2030091e-07 0.0005321646 7.615579e-05 1.2187196e-06 0.0 1.8653375e-07
1.1350253e-06 0.0001276971 2.1973588e-06 0.0 1.6225843e-07 0.0007250195 9.328253e-05 1.6616988e-06
0.0 1.8503825e-07 0.00039171762 0.00012433264 2.1581636e-06 0.0 1.1516647e-12 9.674878e-11
1.1795182e-11 2.3636515e-11 0.0 1.3913659e-08 5.43387e-05 7.324747e-06 1.532761e-07 0.0
2.380693e-09 9.474798e-09 1.0240133e-06 3.379979e-08 0.0 5.59783e-07 0.0014596904 0.00037084514
5.88283e-06 0.0 4.5517206e-07 9.301601e-05 0.0003180701 5.7290154e-06 0.0 4.5047491e-07
00000000: 9791 8234 e54e 2338 5287 5039 552a 5e36
00000010: 0000 0000 8912 9732 d6e7 8734 f7f6 8937
00000020: ecb1 6334 0000 0000 4f85 e634 b87a a436
00000030: 9a04 b039 df39 bb36 0000 0000 896a 7435
00000040: 0cf2 9c3a fed2 223a 2d32 3037 0000 0000
00000050: a57e 2433 f77e 0b39 87d9 c637 4cc0 c334
00000060: 0000 0000 4484 8f2d 396a 3b2f cb8c 5d2e
00000070: 5ad9 2a2f 0000 0000 a6a8 ee34 07c6 ad3a
00000080: 3fe9 9139 93b0 9e36 0000 0000 e48c 0733
00000090: 77ef 2138 3d9d ae37 8936 b234 0000 0000
000000a0: b24f 2434 e974 d339 f462 d638 5061 e135
000000b0: 0000 0000 80b2 5133 863a ea34 e66d 1338
000000c0: bcf1 3635 0000 0000 57dd b330 51f2 f432
000000d0: 1e86 cd31 cff6 fd32 0000 0000 5ef0 e031
000000e0: c2ca fc37 fdb1 6836 4bc3 5233 0000 0000
000000f0: fa79 7534 6ac5 fd39 5fd6 2439 f348 2936
00000100: 0000 0000 c26d 9734 88cd 0e3a baa2 6039
00000110: fde2 5736 0000 0000 111a 6334 5c94 6537
00000120: 313d 1d39 1606 2836 0000 0000 34dc 8330
00000130: cc83 5a31 a375 0f35 faa2 2532 0000 0000
00000140: edb3 2436 f8a1 fa36 bde4 ba3a 9e1c 0538
00000150: 0000 0000 60f7 0c31 5c11 ab33 5f7e 8d30
00000160: a721 1033 0000 0000 b77f 0a35 223b 8b36
00000170: 7e7b c839 b1ef e036 0000 0000 ec1b 8e2e
00000180: f29b 962f 6be5 832f 1219 0d30 0000 0000
00000190: 8a3b 6832 2f90 5c37 2703 1537 72bb 2434
000001a0: 0000 0000 512d b734 3005 4a39 6a76 8839
000001b0: 3524 8f36 0000 0000 05f2 f430 793c 8d32
000001c0: a221 be35 6af8 d532 0000 0000 7dba b02b
000001d0: e866 ad2d 6deb c72d a791 952d 0000 0000
000001e0: 2909 7e33 5b90 f538 994c 1538 ada1 1a35
000001f0: 0000 0000 c6e5 c233 893d 8938 1866 8938
00000200: 3bc5 9b35 0000 0000 9f58 7b32 e6cb 8034
00000210: cd2d 6437 fab7 5834 0000 0000 790a a333
00000220: 5494 8f39 73f7 3f38 b8d1 4635 0000 0000
00000230: 68ef 3530 3163 8831 cdaa f934 8272 1932
00000240: 0000 0000 df54 c333 9a33 af39 3951 6a38
00000250: 462d 7035 0000 0000 183d ba31 d43d ae37
00000260: 00c5 6136 8a6c 7933 0000 0000 c319 da2e
00000270: 3dcc d834 59f5 3132 5ff1 8030 0000 0000
00000280: 6e6a b433 a1b2 b639 b068 6338 a8ff 3f35
00000290: 0000 0000 c36d 4131 0f58 d832 c992 b231
000002a0: bbee 3933 0000 0000 45e1 dc31 4b3b 8033
000002b0: 7e32 9636 0f97 7c33 0000 0000 eedc 0235
000002c0: 3324 3f39 1dcc b339 53ae de36 0000 0000
000002d0: 37b8 fa32 b3fa 4a38 c315 bd37 d73a bb34
000002e0: 0000 0000 8442 9b30 7631 6c32 406f 7a35
000002f0: cd38 4432 0000 0000 0505 0b33 f99d 3436
00000300: 1be5 fb37 3611 e634 0000 0000 e11f 9f34
00000310: 8c0a c739 af18 5239 b85d 6336 0000 0000
00000320: a6cf 1035 8ec9 cb3a 3b9c ad39 b512 bd36
00000330: 0000 0000 962c c834 3274 173a 2eef 9039
00000340: b8c0 8e36 0000 0000 102c 0134 f680 0b3a
00000350: d4b5 9f38 e392 a335 0000 0000 024a 4834
00000360: 2c57 9835 6ee6 0539 5676 1336 0000 0000
00000370: 4239 2e34 3c0f 3e3a ada0 c338 8907 df35
00000380: 0000 0000 edae 4634 735f cd39 4a5f 0239
00000390: f8d4 1036 0000 0000 1815 a22b b9c0 d42e
000003a0: c780 4f2d b3e8 cf2d 0000 0000 eb08 6f32
000003b0: bce9 6338 19c7 f536 3794 2434 0000 0000
000003c0: 9899 2331 9ac6 2232 d470 8935 432b 1133
000003d0: 0000 0000 ff43 1635 1553 bf3a fe6d c239
000003e0: 2065 c536 0000 0000 5f5e f434 9711 c338
000003f0: a5c2 a639 de3b c036 0000 0000 cdd8 f134

exp_avg f4 [128]
0.00036603247 -8.216851e-05 0.0004597096 0.0005189745 2.7380385e-05 -9.4156144e-07 9.825557e-05 4.7592002e-05
0.00017124138 -0.0001664164 -2.59793e-06 -4.9644777e-06 0.00023385521 -0.0003185819 -0.00027267885 -9.737865e-06
-0.0006487691 -2.6679156e-06 -0.0004874298 -2.2159784e-06 -3.3028526e-05 0.00035575856 2.7182166e-05 5.5425556e-07
-2.4891842e-05 -0.00021607944 0.00010482993 1.5949598e-05 2.0628671e-05 -3.1964177e-05 3.5560894e-05 3.045432e-06
2.8019713e-05 6.1452447e-06 2.971398e-05 -0.00050852797 0.00010670514 2.2657092e-05 0.00013193312 -0.00027427022
0.00021259212 0.0003254772 -5.668839e-05 0.0002179873 3.411111e-05 -0.000211003 2.4182728e-07 2.0935915e-05
-1.3802996e-05 -0.00011045474 0.0004028554 0.00041287992 5.514744e-07 -4.671291e-07 0.000105080064 4.282383e-06
-0.0004252316 3.105126e-05 0.00081623887 -4.1950643e-05 8.583015e-06 -0.00048394984 -0.0001734181 2.23361e-06
0.00016395705 -1.206424e-06 1.790069e-05 3.6438594e-06 -0.00017344535 -5.477378e-05 -0.00024313903 -0.0003613387
0.00055473857 -1.4840118e-06 -1.732542e-06 -0.00028823141 -0.00031388 0.00010805412 9.045047e-07 -0.00030032452
-0.0005869824 7.0352835e-05 -1.5840094e-05 -4.755583e-05 -2.13553e-06 0.00013601525 6.324446e-05 3.7057842e-05
0.00069337885 -0.00052809645 -2.6702702e-07 -5.3126503e-05 0.00015061702 2.0633122e-05 6.0701377e-06 0.00018236894
6.309629e-08 0.00020105977 2.322749e-05 0.00018186182 -9.365064e-05 3.5963762e-06 7.86164e-05 -0.0004939201
-0.00048234375 2.1130095e-06 -1.0563504e-05 0.00037063402 -0.00017157865 -0.0001366483 -0.0003577825 -0.0006678997
-5.933152e-07 -0.00010068451 0.00012988604 -0.00015255163 -3.0903462e-05 -9.529117e-08 -3.93819e-05 2.9380324e-05
-2.4272725e-07 1.3916828e-05 -0.00031838077 7.13736e-07 0.00028660186 -1.5608723e-05 -0.00042544407 3.289298e-07
00000000: 0ce8 bf39 e251 acb8 2e05 f139 ca0b 083a
00000010: eeae e537 9cbf 7cb5 8f0e ce38 869d 4738
00000020: 428f 3339 1080 2eb9 1958 2eb6 8a94 a6b6
00000030: 0837 7539 5707 a7b9 56f6 8eb9 d05f 23b7
00000040: 2812 2aba 710a 33b6 b88d ffb9 38b6 14b6
00000050: 1c88 0ab8 1b85 ba39 4205 e437 27c8 1435
00000060: d3ce d0b7 6293 62b9 24d8 db38 80cb 8537
00000070: bc0b ad37 4611 06b8 3827 1538 2060 4c36
00000080: e00b eb37 4033 ce36 4942 f937 bc4e 05ba
00000090: e3c6 df38 bc0f be37 8757 0a39 edcb 8fb9
000000a0: 43eb 5e39 cfa4 aa39 b2c4 6db8 8593 6439
000000b0: 8712 0f38 b040 5db9 7dd4 8134 899f af37
000000c0: 6b93 67b7 f0a3 e7b8 5636 d339 ce77 d839
000000d0: 0809 1435 bcc9 fab4 6e5e dc38 64b1 8f36
000000e0: 9ff1 deb9 093d 0238 ddf8 553a 29f4 2fb8
000000f0: c5ff 0f37 a6ba fdb9 91d7 35b9 21e5 1536
00000100: e3eb 2b39 6aec a1b5 7029 9637 0789 7436
00000110: e2de 35b9 e6bc 65b8 23f3 7eb9 0f72 bdb9
00000120: e06b 113a 422e c7b5 b189 e8b5 c41d 97b9
00000130: 4390 a4b9 1d9b e238 17cd 7235 e074 9db9
00000140: b9df 19ba 648a 9338 58e0 84b7 af76 47b8
00000150: 2050 0fb6 519f 0e39 1ca2 8438 8e6e 1b38
00000160: dec3 353a f46f 0aba ea5b 8fb4 26d4 5eb8
00000170: f3ee 1d39 4b15 ad37 16ae cb36 4a3a 3f39
00000180: 8d7f 8733 92d3 5239 a8d8 c237 29b2 3e39
00000190: 4e66 c4b8 4659 7136 dcde a438 6b7a 01ba
000001a0: 15e3 fcb9 3acd 0d36 e739 31b7 a851 c239
000001b0: cbe9 33b9 4049 0fb9 c194 bbb9 fd15 2fba
000001c0: 4f44 1fb5 9626 d3b8 0532 0839 44f6 1fb9
000001d0: 579e 01b8 e0a2 ccb3 fe2d 25b8 c475 f637
000001e0: 2e50 82b4 527c 6937 58ec a6b9 9097 3f35
000001f0: 0d43 9639 7aef 82b7 230e dfb9 c497 b034

exp_avg_sq f4 [128]
3.6807822e-07 3.023159e-08 6.2808755e-07 1.1679814e-06 4.5284843e-08 2.257776e-11 5.232634e-07 3.8389082e-08
1.9100864e-07 6.672167e-08 2.438625e-09 7.522352e-09 2.9634964e-07 3.970716e-07 2.8346062e-07 1.0814432e-09
2.6525538e-06 3.10024e-09 7.235533e-07 7.4454685e-11 1.6847533e-08 4.861121e-07 2.6698672e-09 1.851712e-12
6.8703244e-08 1.2201268e-07 2.5319562e-08 8.9157965e-08 8.812003e-10 1.0727273e-07 6.196023e-09 1.3679267e-10
1.0327151e-07 3.7298804e-09 8.328057e-09 6.369191e-07 4.2285834e-08 1.9377657e-09 5.5640466e-08 3.747559e-07
6.292419e-07 5.1664193e-07 1.4519307e-07 2.3808373e-07 1.7906454e-07 2.3357602e-07 3.6363558e-12 1.5358143e-08
2.769904e-09 6.9969195e-07 5.940354e-07 6.6482073e-07 2.5072382e-09 3.494386e-09 5.942996e-08 2.802567e-09
1.0371602e-06 1.6420021e-08 2.7003375e-06 1.2255657e-07 3.3172938e-09 9.5360747e-07 2.1663826e-07 4.6674766e-09
7.3385436e-08 7.826783e-12 7.5968835e-08 3.3020695e-10 4.8300116e-08 5.4816756e-08 1.8059121e-07 4.1524345e-07
8.558093e-07 4.148241e-10 7.70051e-09 7.070419e-07 5.853846e-07 9.1445166e-08 1.5175555e-11 5.2696737e-07
1.7271609e-06 5.2544394e-08 5.1745776e-08 3.4313923e-09 2.3330626e-11 6.599978e-08 1.8315728e-08 4.7788614e-08
1.7774671e-06 1.0597023e-06 6.721299e-11 5.1050665e-07 9.681601e-08 4.5604304e-07 2.4189013e-09 1.4009694e-07
7.897898e-12 1.0165161e-07 1.3140551e-08 1.1697313e-07 5.382812e-08 2.8129388e-10 1.7532973e-07 6.4738305e-07
7.877673e-07 3.395601e-10 4.0680814e-09 8.478554e-07 1.6016176e-07 6.458977e-08 4.1153442e-07 1.7244763e-06
3.3702234e-09 2.3632802e-07 2.2368295e-07 2.0531098e-07 3.443718e-09 8.2436613e-10 1.272582e-07 1.8486375e-08
2.3789361e-11 1.681299e-08 4.3388928e-07 2.9858945e-11 2.0867809e-07 4.5354432e-07 8.331787e-07 6.4524064e-10
00000000: 499c c534 fcd7 0133 d999 2835 89c3 9c35
00000010: 367f 4233 9998 c62d 6376 0c35 3ee1 2433
00000020: 0e18 4d34 a048 8f33 bf94 2731 a73b 0132
00000030: fc19 9f34 1b2d d534 882e 9834 e6a1 9430
00000040: 8702 3236 000c 5531 343a 4235 43ba a32e
00000050: 1eb8 9032 5f7d 0235 cd78 3731 7a4d 022c
00000060: 028a 9333 9702 0334 4e7e d932 1c77 bf33
00000070: f538 7230 cf5d e633 cbe4 d431 b767 162f
00000080: 1dc6 dd33 6028 8031 2f13 0f32 bff8 2a35
00000090: c49d 3533 8929 0531 57f9 6e33 0f32 c934
000000a0: 2de9 2835 5daf 0a35 5ee6 1b34 f5a3 7f34
000000b0: e344 4034 e3cc 7a34 c3e2 7f2c eaec 8332
000000c0: ab58 3e31 77d2 3b35 cd75 1f35 2276 3235
000000d0: cd4b 2c31 e321 7031 ef3f 7f33 4897 4031
000000e0: 8e34 8b35 020c 8d32 7237 3536 1898 0334
000000f0: 73f6 6331 68fb 7f35 129d 6834 8f5f a031
00000100: 1298 9d33 b2b0 092d 4f24 a333 7f88 b52f
00000110: 8a72 4f33 a96f 6b33 89e8 4134 a0ee de34
00000120: c4ba 6535 4d0d e42f 334b 0432 8dcb 3d35
00000130: 5323 1d35 8360 c433 507c 852d ec74 0d35
00000140: ccd0 e735 2cad 6133 153f 5e33 b1cd 6b31
00000150: e637 cd2d c3bb 8d33 b654 9d32 2340 4d33
00000160: 4e91 ee35 183b 8e35 8dcd 932e c009 0935
00000170: 2ae9 cf33 14d6 f434 c339 2631 8e6d 1634
00000180: f8f0 0a2d 904b da33 c1c0 6132 a932 fb33
00000190: a530 6733 98a4 9a2f 4542 3c34 d3c7 2d35
000001a0: f576 5335 d6ac ba2f 39c7 8b31 2e98 6335
000001b0: eef8 2b34 9ab4 8a33 dcf0 dc34 8e74 e735
000001c0: 9999 6731 5ac1 7d34 802d 7034 7473 5c34
000001d0: 87a6 6c31 9c99 6230 78a4 0834 f8cb 9e32
000001e0: e140 d12d 286c 9032 4af1 e834 2f52 032e
000001f0: ff10 6034 a87e f334 9ba7 5f35 c65c 3130

exp_avg f4 [128, 128]
-0.00030175262 -0.00018610571 -0.00013023536 -0.00077551167 -0.00022172857 8.6175845e-08 -6.0197995e-05 -0.00035176706
-0.0004795062 -7.6541015e-05 -1.4932432e-08 -8.7489505e-05 -0.00044051354 -0.00046962543 -0.00021934921 1.0289608e-06
-1.632605e-05 -9.048833e-10 -6.3602805e-05 5.267967e-08 -0.00030791966 -0.00011550853 3.0629722e-06 4.030114e-08
-0.0003744418 -0.00026584303 -7.390532e-05 -8.510135e-05 1.9805086e-06 -0.00020766255 -7.0185415e-05 1.5096834e-06
6.5051718e-06 -8.294748e-08 -3.3749561e-06 -0.00010757939 -0.0005468832 8.261069e-07 -0.00029672572 -0.00016559352
-0.00091678073 -0.000106959036 -4.2053925e-05 -2.4915667e-05 -2.2300896e-05 -0.00029132774 4.7687152e-08 -6.648657e-05
3.8564463e-07 -0.0007364192 -7.26487e-05 -0.00011741467 -0.00015314353 7.08911e-08 -1.2406356e-05 3.9737697e-06
-0.00058746105 -9.8430595e-05 -0.00024122657 -0.00051256997 -3.8066554e-07 -0.0005552005 -0.0008516056 -4.1380677e-08
-0.00016874811 4.7514064e-08 -3.261504e-06 -5.4244467e-09 -3.2330678e-05 -5.720154e-05 -0.0004116254 -6.9650094e-05
-8.063211e-05 2.107975e-06 8.245374e-08 -0.00038145762 -0.00023010187 -0.00015577933 7.161866e-08 -0.00034930464
-0.0004191173 -0.00020392203 -5.7045178e-05 -0.00018160613 -5.8424824e-08 -0.00053280545 1.5465753e-06 -0.00019362132
-0.00030318068 -0.0003335881 -4.0206282e-07 -0.0002135967 -1.0358649e-05 -0.00022362194 -1.4314205e-06 -0.00026239973
5.313609e-08 -9.647749e-05 -2.8974435e-05 -0.00038601184 -0.0004337515 2.0971544e-07 -0.00021904572 -0.0001853973
-0.00022082144 -7.439705e-08 1.0703429e-06 -0.0005222341 7.6662985e-07 -0.00016689177 -0.00010365252 -2.9974537e-05
-3.678803e-08 -0.00014352685 -0.00030021605 -0.00015101233 1.1466834e-06 1.954976e-06 -0.00018739073 -6.911722e-05
7.941663e-08 -0.0001259919 -0.00010762228 4.281837e-08 -1.8586474e-05 -0.0003250197 -0.00042004092 -1.1829876e-07
-0.0027301118 -0.001582605 -0.0011359288 -0.0021130757 0.00026295934 5.457524e-07 0.000100468744 -0.0025502
-0.0018719095 -0.0006362711 -9.770506e-08 8.701474e-05 -0.0021890146 3.3979522e-06 -0.0009157074 9.584321e-06
-0.00012760513 5.9873344e-07 -0.00052684 4.491248e-07 -0.0015499559 -0.0010221761 2.8015504e-05 4.104525e-07
-0.002054445 -0.00074568833 -0.00065159175 0.00012091149 1.863613e-05 -0.000714463 6.5275264e-05 -2.5887116e-06
3.686923e-05 -2.085583e-07 -2.8735958e-05 -0.00019920852 -0.0019295693 8.03711e-06 -0.0026274587 -0.00031032454
-0.0027818668 -0.00045843728 4.155347e-05 -0.00022557787 3.070962e-05 -0.0011551243 3.8292137e-07 6.1043305e-05
4.2012534e-06 -0.0027555223 -0.0006484862 -0.0010478104 0.00017068307 1.2529117e-06 -0.000115736366 4.2381926e-05
-0.0019781052 -0.0008331868 -0.0011457447 -0.0010360258 1.2180365e-06 -0.002256438 -0.003210097 5.4444354e-07
-0.0010503209 3.3130772e-07 2.8025319e-05 5.4469374e-06 -0.00026936905 -0.00049212464 -0.00224994 -0.00012782296
-0.00072406087 2.221128e-05 1.0083029e-06 -0.0011173952 2.0703723e-05 -0.0011023033 3.3481857e-07 -0.001507596
-0.00112935 -0.0017657691 4.2299875e-05 -0.0015463675 -1.337593e-07 -0.0014521172 2.3597397e-05 -0.001659722
-0.0013244011 -0.0020877616 1.087766e-06 -0.0014787024 -8.8954184e-05 -0.0007368966 1.2844548e-06 3.333125e-05
4.9769847e-07 -0.0008028393 2.6341138e-05 -0.0006349885 -0.0020390048 1.8896658e-06 0.00025658848 -0.001502444
-0.00039177097 1.1808194e-06 1.449511e-05 -0.0022829773 1.3181163e-05 -0.0010511071 -0.00087484374 -0.00024539183
1.2437464e-07 0.0001673067 0.00034504017 -0.0012692972 1.08044715e-05 2.3046377e-05 0.000236041 -0.000620487
4.675784e-07 -0.0010904712 -0.0002641091 3.5803825e-07 -0.00015438395 -0.0016515397 -0.002088336 5.2344507e-07
00000000: 8d34 9eb9 5f25 43b9 ca8f 08b9 b54b 4bba
00000010: cf7f 68b9 ac0f b933 1b7d 7cb8 606d b8b9
00000020: 3c66 fbb9 a584 a0b8 c444 80b2 927a b7b8
00000030: baf4 e6b9 0f38 f6b9 1b01 66b9 d31a 8a35
00000040: edf3 88b7 80bb 78b0 7f62 85b8 e941 6233
00000050: 4770 a1b9 2b3d f2b8 768d 4d36 9217 2d33
00000060: ba50 c4b9 d960 8bb9 9efd 9ab8 7078 b2b8
00000070: e1e8 0436 febf 59b9 8230 93b8 54a0 ca35
00000080: 0047 da36 dc20 b2b3 4e7d 62b6 3f9c e1b8
00000090: b65c 0fba a2c1 5d35 da91 9bb9 2ca3 2db9
000000a0: 1d54 70ba 324f e0b8 0f63 30b8 fd01 d1b7
000000b0: cf12 bbb7 59bd 98b9 94d0 4c33 b56e 8bb8
000000c0: 980a cf34 420c 41ba f95a 98b8 853c f6b8
000000d0: 2795 20b9 cb3c 9833 e524 50b7 6c56 8536
000000e0: d8ff 19ba 866c ceb8 c4f1 7cb9 fd5d 06ba
000000f0: 465e ccb4 e08a 11ba 493e 5fba 89ba 31b3
00000100: faf1 30b9 4412 4c33 36e0 5ab6 f061 bab1
00000110: cd9a 07b8 b0eb 6fb8 6dcf d7b9 1c11 92b8
00000120: 0919 a9b8 bc76 0d36 6c11 b133 60fe c7b9
00000130: 8047 71b9 b258 23b9 c6cc 9933 e022 b7b9
00000140: f9bc dbb9 e7d3 55b9 cb43 6fb8 866d 3eb9
00000150: c6ee 7ab3 f8ab 0bba ec93 cf35 d406 4bb9
00000160: 39f4 9eb9 70e5 aeb9 18db d7b4 edf8 5fb9
00000170: 0fca 2db7 0f7c 6ab9 3c1f c0b5 b292 89b9
00000180: c037 6433 f553 cab8 200e f3b7 a261 cab9
00000190: 2469 e3b9 242e 6134 a3af 65b9 3567 42b9
000001a0: 4e8c 67b9 36c4 9fb3 b4a8 8f35 8ae6 08ba
000001b0: 67ca 4d35 abff 2eb9 0660 d9b8 d471 fbb7
000001c0: de00 1eb3 b27f 16b9 5166 9db9 1059 1eb9
000001d0: bee7 9935 3b32 0336 517e 44b9 06f3 90b8
000001e0: c18b aa33 b11c 04b9 46b3 e1b8 4ce7 3733
000001f0: 26ea 9bb7 6867 aab9 f038 dcb9 6e0b feb3
00000200: adeb 32bb 696f cfba 72e3 94ba 877b 0abb
00000210: cedd 8939 d27f 1235 bfb2 d238 4221 27bb
00000220: dc5a f5ba 6ecb 26ba edd1 d1b3 af7b b638
00000230: 9275 0fbb 6008 6436 150c 70ba 58cc 2037
00000240: becd 05b9 a6b8 2035 a21b 0aba 3e1f f134
00000250: e427 cbba 8afa 85ba d602 eb37 295c dc34
00000260: dea3 06bb 4c7a 43ba 95cf 2aba dd91 fd38
00000270: c954 9c37 cd4a 3bba 64e4 8838 bab9 2db6
00000280: 09a4 1a38 12f0 5fb4 000e f1b7 a1e2 50b9
00000290: 9ae9 fcba 20d7 0637 7131 2cbb 0eb3 a2b9
000002a0: fb4f 36bb 695a f0b9 b349 2e38 1989 6cb9
000002b0: 34ce 0038 8a67 97ba 5094 cd34 6004 8038
000002c0: 7ef8 8c36 fe95 34bb 2cff 29ba af56 89ba
000002d0: 63f9 3239 b829 a835 7db7 f2b8 3fc3 3138
000002e0: 19a3 01bb 386a 5aba d02c 96ba 42cb 87ba
000002f0: 6a7b a335 bfe0 13bb 7e60 52bb e025 1235
00000300: ecaa 89ba 96de b134 ea17 eb37 d6c4 b636
00000310: 1a3a 8db9 ed01 01ba bb73 13bb 3708 06b9
00000320: e7ce 3dba 5c52 ba37 0655 8735 9075 92ba
00000330: e8ac ad37 297b 90ba 1dc1 b334 879a c5ba
00000340: b306 94ba 6171 e7ba 256b 3138 7caf caba
00000350: 7a9f 0fb4 f854 beba 06f3 c537 078b d9ba
00000360: 8797 adba d4d2 08bb 5bff 9135 05d1 c1ba
00000370: ea8c bab8 4b2c 41ba 8865 ac35 28cd 0b38
00000380: 9499 0535 a275 52ba 2af7 dc37 5b75 26ba
00000390: d3a0 05bb 6ca0 fd35 b986 8639 a8ed c4ba
000003a0: 9c66 cdb9 a57c 9e35 0630 7337 019e 15bb
000003b0: aa24 5d37 4dc5 89ba c555 65ba efa7 80b9
000003c0: d78b 0534 0d6f 2f39 82e6 b439 8c5e a6ba
000003d0: da44 3537 b853 c137 c681 7739 2da8 22ba
000003e0: 7c07 fb34 24ee 8eba 2078 8ab9 6738 c034
000003f0: 20e2 21b9 7a78 d8ba 77dc 08bb df82 0c35
