results/test2/EndLessRunnerBehaviour/EndLessRunnerBehaviour-82062.pt (torch, 437557 bytes, 30 tensors)

network_body._body_endoder.seq_layers.0.weight f4 [128, 5]
00000000: d31e 153f e257 acbd f404 673e d48a 3e3f
00000010: 0f67 983d b372 5bbd 10dd 3fbe 014e 3e3f
00000020: 996f 683e 8590 5fbf ebf3 12bf b1af f43d
00000030: 571b 633e 06c6 fe3d c7f6 0a3f 9b68 d1be
00000040: ad7c 863e 8324 3d3f 2127 58be a896 a23e
00000050: 49a6 303e a2cf 44be 6ea3 753e a685 c1be
00000060: 1ba4 c9bc f51f 09be 448d c3be 1cd3 f43e
00000070: d309 5bbc 50d9 15bf 3f47 1e3f c806 253f
00000080: 1224 4dbe 7f75 843e 41e1 393f 18eb 143f
00000090: c828 453f 6db5 d83d f70c 0dbe 6278 73be
000000a0: 48a4 ed3d 3718 5c3d 2dd6 383e db7e f53e
000000b0: df33 babd 816d bb3e 3e1c b2be 0408 00bf
000000c0: 661f d4be 54a0 373e 3d16 fdbd 2cac 29bd
000000d0: 844f 81be 0374 dfbe 7142 843e 7d8d 6d3f
000000e0: b566 a53e e3f7 333e b11e d5be 5c7b 35be
000000f0: e8a7 ac3e 2eef 443e 132a 823e 333e 4abf
00000100: 2810 623e 00b0 863d e5be 873e 365f 9bbe
00000110: dc1d 313e 2b3b c4be 5424 c1be cfcc 0dbf
00000120: 3c2b d43e accf 12bf 13eb 8dbe 70f0 7ebe
00000130: 9f35 6f3e 0aa9 7c3a b8cf 213d d08c e63e
00000140: a13d 423f a686 11bf 59cf 523f e89c c7be
00000150: 009e afbd dd03 293e 4325 423e 5499 623e
00000160: eec9 39be bcfc 363d b4b4 003f cc8c dfbd
00000170: 1ef1 51bd f831 a13a ad4e c2bd 8d4d 023e
00000180: 5164 873e 784c 673e 57fd afbe 0bdc 923d
00000190: 8b07 b03e 0610 06bf 3814 a3be 6e01 043e
000001a0: 5f72 b63e c321 04be 73f0 c53e 2e73 9cbc
000001b0: 6940 463f 5c65 253f f176 943e 30e5 813e
000001c0: cadc 843e 0f6b a23f 1425 b73f d4d0 9d3e
000001d0: a66c bd3d 20f1 a5be f3e6 c33e b269 c53e
000001e0: 7dc2 613c 42e1 41bf 03f9 2f39 b911 7d3e
000001f0: 6dbf 353e 393f 10bf 24c4 523d 1a5f 903e
00000200: c548 bebc 6bbd 71bd 5645 86bd b52f c73d
00000210: 949b 343f 5abb 0a3f 574e e5be a205 c43e
00000220: 134a ad3e 2418 d5be 4d17 f43e e351 9bbd
00000230: 4fbe 81bd 9b85 c63e 8797 d23d d382 2d3f
00000240: 76f5 3a3e 2561 a9be 1c41 a8bd 63a0 f0bd
00000250: 11f2 cebd e90b 0c3f eab8 a13e 79ba 7ebe
00000260: 54d6 49bf 1f40 f9be 239f 02bf 0a17 31be
00000270: f9dd 9f3e e528 113f b3a8 2dbf 00f5 d5be
00000280: 1dd4 7dbe 4a3c 623d 2285 11bf 50da 833e
00000290: ef6e ec3e 8066 8fbc 96ae 66be da2f d6bd
000002a0: 88a0 923f f9f9 14be 845a 62bd 8c71 13bf
000002b0: 823a d43d 7fb9 303e e398 173d 76d2 da3e
000002c0: c76f 96bf 6011 00bf 5c81 cbbe 6c73 583f
000002d0: beae 003f e0f9 e43e 74a6 223f f47a 083f
000002e0: 4407 2fbf 3768 173f 0c24 b5bf 088a 5bbd
000002f0: d6ba 3cbf a76c aa3e fed9 78be 4a75 31bd
00000300: 78e6 5abe ca65 10be ec97 483f 4b9c 0c3f
00000310: 98a8 c7bd 26c9 6cbe ce50 64bf 774c 73be
00000320: aa11 16bf b739 e23e 09e1 e8be a74c 97be
00000330: 351f d2be 8f21 0cbf 261a 703f 2ba2 36ba
00000340: 39d8 0ebe cf78 57be 3216 7e3f df53 b9be
00000350: 9028 0ebf ba8a c1be 11f0 b83e 1ac9 c7be
00000360: 4ef7 09bf 7865 08be 3e6f 2a3f 1b0f 0dbe
00000370: 4bc6 da3e f769 a33e 4818 82be fd96 19bf
00000380: 12e5 27be e624 783e cb43 b6be dc23 bdbe
00000390: f5e5 ab3e 517c 1cbf 331a 8e3d b3ae a53e
000003a0: 787b 6abb 5899 ab3e f661 3b3e 0025 95be
000003b0: bc1d 1a3f 72f1 393e a1aa 6dbe bd3e 823d
000003c0: b4c9 ea3e a502 ec3e 0555 ab3e c704 cabc
000003d0: 3d71 2ebd 3178 a93e a378 dc3e 7b2d 693e
000003e0: 7fbb 283f c575 fbbd b2a7 e53e e27b 333f
000003f0: e522 f8be 13f0 06be 9398 0b3f 45f8 913d
0.5825016 -0.084152 0.22560483 0.74430585 0.07441532 -0.053576183 -0.18736672 0.74337775
0.22698821 -0.87329894 -0.5740344 0.11947573 0.22178398 0.12440114 0.542828 -0.4090012
0.26266995 0.7388384 -0.21108676 0.31755567 0.17250933 -0.1921983 0.23988125 -0.37797278
-0.024614384 -0.13391097 -0.38193715 0.47817314 -0.0133690415 -0.5853472 0.6182746 0.6446347
-0.20033291 0.25870892 0.72609335 0.58171225 0.7701535 0.10581479 -0.13774477 -0.23776391
0.116036 0.05373403 0.18050452 0.47948346 -0.09091925 0.36606982 -0.34787172 -0.5001223
-0.41430205 0.17932254 -0.12357757 -0.04142396 -0.25255978 -0.43643197 0.2583194 0.9279402
0.32304922 0.1757503 -0.41624978 -0.17722839 0.33721852 0.19231865 0.25422725 -0.7900116
0.22076476 0.06576538 0.26512828 -0.30346078 0.17296547 -0.38326392 -0.3772303 -0.5539064
0.41439235 -0.5734813 -0.2771841 -0.24896407 0.23360299 0.0009638226 0.039504737 0.45029306
0.7587529 -0.5684608 0.8234764 -0.38986897 -0.08575058 0.1650538 0.18959527 0.22128803
-0.18143436 0.04467462 0.5027573 -0.10915527 -0.051255338 0.0012298217 -0.094876625 0.12724896
0.26443723 0.22587764 -0.3437297 0.07170876 0.34380755 -0.523682 -0.31851363 0.1289117
0.35634133 -0.12903504 0.3866001 -0.01909789 0.7744203 0.6460779 0.28996995 0.2537017
0.259497 1.2688922 1.430819 0.30823386 0.09249239 -0.32410526 0.38262138 0.38557202
0.01377928 -0.7573434 0.00016782065 0.24713792 0.17748804 -0.5634647 0.051456586 0.28197557
-0.023228059 -0.059018534 -0.065561935 0.09725896 0.70549893 0.54192126 -0.4478633 0.38285547
0.33845577 -0.4161998 0.47674027 -0.07583978 -0.063351266 0.38773808 0.10282808 0.67777747
0.18257698 -0.33081928 -0.08215544 -0.11749341 -0.10104764 0.54705673 0.3158639 -0.24875821
-0.78842664 -0.48681733 -0.51024073 -0.17293945 0.3122404 0.56703025 -0.6783554 -0.41788483
-0.24787946 0.055233277 -0.5684377 0.25752497 0.46178386 -0.01750493 -0.22527537 -0.10458346
1.145524 -0.14548482 -0.055262104 -0.57595134 0.10362722 0.17258261 0.03701104 0.42738694
-1.1752862 -0.5002651 -0.3974713 0.8455112 0.50266635 0.4472189 0.6353524 0.5331261
-0.6837046 0.59143394 -1.4151626 -0.053598434 -0.7372259 0.3328602 -0.24301907 -0.043324746
-0.2137698 -0.1410133 0.78356814 0.54925984 -0.097489536 -0.23123607 -0.891858 -0.23759638
-0.58620703 0.44184658 -0.45484188 -0.2955067 -0.41039434 -0.54738706 0.937899 -0.0006966914
-0.1394967 -0.21042179 0.9925262 -0.361968 -0.55530643 -0.37801152 0.36120656 -0.39020616
-0.5389298 -0.13319957 0.6657599 -0.13775294 0.4272941 0.31916782 -0.2540915 -0.59996015
-0.16395977 0.24232826 -0.35598597 -0.3694142 0.3357388 -0.6112719 0.06938591 0.32359847
-0.003577916 0.3351543 0.18299088 -0.2912979 0.6020162 0.1815851 -0.23209621 0.06359623
0.45857012 0.46095768 0.33463302 -0.024660481 -0.04258846 0.3309951 0.4306079 0.22771256
0.65911096 -0.12278322 0.44854504 0.70110905 -0.48464122 -0.13177519 0.54529685 0.07127432

network_body._body_endoder.seq_layers.0.bias f4 [128]
00000000: 498d ccba 3120 2e3c 6e09 36b9 6363 f6b9
00000010: 7af9 afbb 3c1e 063c bbaf ba39 de0d 013b
00000020: 8798 3cba 3ebf c6ba 1ecb 7139 693e be3a
00000030: d2e5 93b9 b54c 1cb8 9610 a93b f4e4 3a3a
00000040: 2a87 923a 92ee b639 3e0e 2f3b ec59 07bb
00000050: dc6e 963b f749 fd38 0aef 973a 04d9 543a
00000060: 2d4c 8fbb 98d6 8db9 5ef6 19bb fec9 043a
00000070: c114 4ab9 f89a 193b 3a14 383b 1f04 4eba
00000080: c9e1 643b a660 cbba 87e8 b6ba d594 583a
00000090: 28f6 37ba eb00 86bb 3d32 0f3b 2d97 02bb
000000a0: 722b 1cbb 9f78 afba fb53 56bb 64fd 32bb
000000b0: 4080 abba e38c ceba e88f 67b8 13bf 2b3a
000000c0: 6186 203b f9a4 f6b8 2c51 fdba 3b21 73bb
000000d0: 7555 5c3b b439 52bc 465a e2ba 6b67 923a
000000e0: 9856 a33b 6fe0 fdb9 2a59 1a3b 1829 143b
000000f0: 8649 003c dd88 91ba e952 afba fff9 94ba
00000100: 1c02 5dbc 1ae3 d9b9 1bb6 343c 8296 c0b9
00000110: 5bee b23a 675b 083b 9f08 7aba c252 3dba
00000120: a10d 0c3a 9d45 6d3a 3ba8 513a ad41 953a
00000130: d1d8 e4b9 5744 05bb 04fe 1cbb d049 86ba
00000140: 3dc3 713a 9c79 ba3b 5ff1 333a 5db5 7a3a
00000150: 735b bbbb 7bbb b3ba 5d77 a93a bbd7 cabb
00000160: 5240 3d3c 5c33 6cbb a94e 88bb a098 4fba
00000170: c4ae 28bb 733b 9e3a 18b4 7f3b 2e60 f3b9
00000180: e9b3 9b3a ed32 07bb 3801 143b e21d 08bb
00000190: 4985 04bb 0a5f 5cb7 1118 0e39 c022 05bb
000001a0: 9d72 51bb c052 123b 1707 663b 15b7 543b
000001b0: 77aa 983b 7738 9b38 afdd b53b b983 45ba
000001c0: 77e8 43ba f00c 673a 99f9 e138 1ced 4b38
000001d0: 90ff b83b 9792 203b b44e 82bb 0892 05ba
000001e0: 4c6d 023c 0e25 b43a 1836 21ba a588 ebba
000001f0: 68b9 11ba 5d47 38bb e616 42bb 4231 e239
-0.0015606071 0.010627792 -0.00017360385 -0.00046994825 -0.005370316 0.008185919 0.00035607614 0.0019692103
-0.0007194359 -0.0015163196 0.00023059218 0.0014514449 -0.00028209254 -3.7264737e-05 0.005159448 0.00071294536
0.0011179198 0.00034891494 0.002671137 -0.0020652963 0.004590852 0.00012077757 0.0011591625 0.0008119496
-0.0043730945 -0.000270535 -0.0023492794 0.00050654996 -0.00019271953 0.0023438316 0.0028088228 -0.00078588905
0.0034924618 -0.0015516474 -0.0013954797 0.0008261924 -0.0007017576 -0.004089465 0.0021850013 -0.0019926534
-0.0023829606 -0.0013387388 -0.0032703865 -0.0027311677 -0.0013084486 -0.001575854 -5.5208715e-05 0.00065516046
0.0024494159 -0.00011760923 -0.0019326559 -0.0037098664 0.0033620272 -0.01283114 -0.0017269335 0.0011169737
0.004984688 -0.00048423136 0.002355168 0.0022607502 0.007830029 -0.001110341 -0.001337615 -0.0011366009
-0.013489272 -0.0004155867 0.011029745 -0.0003673323 0.0013651358 0.0020806433 -0.0009538028 -0.00072221097
0.0005342607 0.00090512057 0.00079977856 0.0011387371 -0.0004364909 -0.0020334923 -0.0023955116 -0.0010245387
0.0009222513 0.0056907665 0.0006864275 0.00095637684 -0.0057176887 -0.001371249 0.001292925 -0.006190268
0.01155098 -0.0036041355 -0.0041597676 -0.0007919166 -0.0025738934 0.0012072161 0.0039017256 -0.0004642023
0.0011879179 -0.002062972 0.0022583734 -0.0020769765 -0.0020221046 -1.313515e-05 0.00013551141 -0.0020314902
-0.0031959184 0.0022327155 0.003509944 0.0032457758 0.004658993 7.401493e-05 0.0055501084 -0.0007534582
-0.00074732996 0.00088138785 0.00010775327 4.8619797e-05 0.0056457 0.0024501437 -0.0039766673 -0.0005095308
0.007960629 0.0013743953 -0.0006149723 -0.00179698 -0.0005558939 -0.0028118708 -0.00296157 0.0004314278

network_body._body_endoder.seq_layers.2.weight f4 [128, 128]
00000000: 0c92 11bd 1132 c03c 9530 e8bb ec33 07bd
00000010: 047c cdbc 9c5d f53d d311 1e3e 84e5 113e
00000020: e4ea 43be f328 02be a463 ff3d 435f 03be
00000030: 072a 1bbe 8452 9bbc 583f a5bd 2672 133d
00000040: a2c3 ba3d 33ba 943d 1cbc 82bc af4f f33d
00000050: c76f d23d 6a19 c7bd f559 5a3d 8c8e de39
00000060: cbcc c53d 5c76 1abe 4856 21be b207 bb3d
00000070: 2b11 7fbc 51a3 1c3d b140 af3c cdfd a73d
00000080: 3c6e cf3d 1aaf 9dbc e779 87bd 203a 9c3d
00000090: edc8 133c c100 e0bb 5614 3bbd 31ee 2f3d
000000a0: 2602 21be cda8 dfbd f9b2 9c3d 7fbb 41bd
000000b0: eef6 c53d 4151 e83c e9f5 e3bd 3b9f d73d
000000c0: 95df a73c 1939 6d3c 6b2c 48bd 5fc6 8d3c
000000d0: f0fa 8dbc da6d 41bb 1c42 77bd 48e5 c5bd
000000e0: 5a43 05bd 260d 333d a67d f33d 8d1c 7fbd
000000f0: 5f50 093e 8bc6 963d 8e59 133d b891 6bbd
00000100: ce62 3a3c 066c 2b3d eb76 2bbe dfc8 cd3c
00000110: c74d bfbc 0331 8dbd 1283 abbd c901 2e3e
00000120: 538f 173d 78f7 333d cb93 8abd a001 e0bd
00000130: 6105 2abe e64f 173d 84ce 0cbd 9eb6 4ebc
00000140: ea1d abbd 1e89 b9bd 999b 163d 7fc7 ddbd
00000150: 5b86 2a3e fb4c a8bd abb0 6b3d 90b4 303e
00000160: c948 853d 4e73 84bd 0d35 09be 96d0 2a3e
00000170: a69c 743b 5ce6 aabc 40bf 243e f72c 69bd
00000180: 8d62 95bd 7d5e 8dbd 18b7 26bd 83b1 f23c
00000190: 465d 07be 9ff1 19be 7f64 bb3c 0337 dd3c
000001a0: 414f 193c 63a4 3b3d 79c4 eebd 4116 3e3e
000001b0: ac5e 06bd 677f 50be 7655 1bbb 722c c8bc
000001c0: 5372 13bd fabf 0ebe 1d0c acbc a711 48bd
000001d0: 006a 73bd a1a1 a8bd f317 07bc 5056 233d
000001e0: ebe9 b1bb 977b 83bd b76d 823c d244 ee3b
000001f0: 0843 34bd a25c c43d a2ab d43c 82ee b13d
00000200: a324 8ebd 097f 53bc 3abb d3bd 7d40 84bd
00000210: 5203 833d 704e 283d 5c09 65bd f053 e43c
00000220: 91a6 9e3d c1dd 003e 4015 623c 9edc 1a3e
00000230: f727 ea3d f8b1 6fbc b116 893c 695b 88bd
00000240: 2703 0b3d feaf 873c 72f0 3ebc d748 163d
00000250: 7d8b debd f20d 173d cb5a 27bd d9c5 e4bd
00000260: ba56 97bd 2638 ff3d 816d 6cbd 96e4 bfbb
00000270: 32b0 473d dd56 1d3d 1716 95bd 1f5b 6d3d
00000280: 7305 25be 0649 1e3e 0564 f9bd 4f1e b3bd
00000290: 519c 223e 5fea 99bd ce00 d0bd 7de3 8abd
000002a0: 4e10 d73d c9e1 ffba f954 aabd 5143 663d
000002b0: 9568 ef3d 8e41 6f3d ac84 87bd 66f6 d5bd
000002c0: d5ea a8bd 3d73 593d 20e2 d03c e4bf f4bc
000002d0: a582 45bd b90c 513d ea23 55bd eee0 d8bd
000002e0: 0e13 ac3d d836 cd3c a19f 6d3b 5f45 1c3e
000002f0: 7338 56bd b94e ccbb 28ba 753d e120 013d
00000300: c386 2abb 3cbe 6fbc 4d2d 27bb f3c1 e23d
00000310: a9fb 8e3d 868e 95bc 5dff 213e 015a ae3c
00000320: 8c88 e2bd fc05 ddbb 6429 e5bd 6f18 edbc
00000330: c74c a7bc 7202 37bd 13b4 973d c9a6 63bd
00000340: 984d 51bd b909 283d b5ed c5bc 96a7 ccbb
00000350: 1580 da3b 5806 52bc 2b47 73bd e515 eebd
00000360: ba21 033c cafe b43d 02c1 83bc 2708 df3d
00000370: f9b5 8bbd a577 133d 917b ee3d 51f3 9f3d
00000380: b0f3 6cbe e21f ea3d 484a 05bd 0c55 a73d
00000390: 163b 0fbd a5b3 b13c d19e 943e d847 76be
000003a0: 42b0 aa3d 58b7 183d 4ca2 1ebe 8e01 06be
000003b0: 1892 13be 6c00 f2bd 0e6a db3b ae45 2a3d
000003c0: f042 993d 0b1c 95bd c4d3 d8bd 61d0 23be
000003d0: bd25 08be 037d 513e 87d0 663d e5cf 7fbd
000003e0: 935b 143d 465c 883d bd06 ffbc 9dcb 673d
000003f0: 5f70 ebbd 6d42 a7bd db9d 24bc 7f2e 283c
-0.03553967 0.023461374 -0.0070858696 -0.0330085 -0.02508355 0.11980745 0.15436487 0.1424771
-0.19132572 -0.12710933 0.12470177 -0.12829308 -0.15152751 -0.018960245 -0.080687225 0.035997532
0.09119345 0.07262077 -0.015958838 0.11880433 0.10275226 -0.09721644 0.053308446 0.00042449345
0.09658202 -0.15084213 -0.1575557 0.09132327 -0.015568058 0.03824169 0.021393152 0.082027055
0.101284474 -0.019248534 -0.06615048 0.07628274 0.009020072 -0.0068360274 -0.04567369 0.042951766
-0.15723476 -0.10920868 0.07651324 -0.04729795 0.09666239 0.028359057 -0.11130888 0.10528418
0.020492354 0.014478945 -0.048870485 0.017306505 -0.01733157 -0.002951494 -0.06036578 -0.096628726
-0.032534935 0.04371371 0.118892 -0.062283088 0.13409565 0.07362088 0.035974078 -0.057512015
0.011376096 0.041851066 -0.16744582 0.025120197 -0.023352517 -0.06894114 -0.08374609 0.16992868
0.03700192 0.043937176 -0.067664705 -0.1093781 -0.16603614 0.03694143 -0.034376636 -0.0126167815
-0.08355315 -0.09059356 0.036769483 -0.108290665 0.16652815 -0.08217808 0.05754153 0.17256379
0.06508023 -0.06467305 -0.13399144 0.16681132 0.0037324815 -0.020861797 0.16088581 -0.056927647
-0.07294188 -0.06902788 -0.040701956 0.02962566 -0.13219175 -0.15033577 0.022875069 0.02700377
0.0093572745 0.04581107 -0.11658568 0.18563177 -0.03280513 -0.203611 -0.0023702062 -0.024435256
-0.0359977 -0.13940421 -0.02100187 -0.04884496 -0.05942726 -0.08233953 -0.008245456 0.039877236
-0.0054294965 -0.06420057 0.015921457 0.0072713876 -0.04400924 0.09587981 0.025960747 0.0868807
-0.06940582 -0.0129087055 -0.10338445 -0.06457613 0.06397118 0.04109043 -0.05591713 0.027872056
0.07746614 0.12584592 0.013799012 0.15123221 0.11433404 -0.014629833 0.016734453 -0.0665806
0.033938553 0.016563412 -0.011654006 0.03669056 -0.10866449 0.036878534 -0.04085807 -0.11170549
-0.07389589 0.12461881 -0.05772162 -0.005856107 0.048752017 0.038412917 -0.07279604 0.057948228
-0.1611536 0.15457544 -0.1217728 -0.08746015 0.15879942 -0.07515406 -0.101564035 -0.06781671
0.10501157 -0.0019522245 -0.083169885 0.05621654 0.11689869 0.058412127 -0.06617102 -0.104473874
-0.08247916 0.053088415 0.02549845 -0.029876657 -0.048220295 0.051037524 -0.052036203 -0.10589777
0.08402072 0.025050566 0.0036258476 0.15260838 -0.052299928 -0.0062349704 0.059991986 0.031525496
-0.0026020266 -0.014632758 -0.002550918 0.11072149 0.06981594 -0.018256437 0.1582007 0.021283152
-0.110612005 -0.006745098 -0.11189535 -0.028942315 -0.020422352 -0.044680066 0.07407393 -0.05557898
-0.05109939 0.041024897 -0.0241612 -0.0062455637 0.0066681006 -0.012818895 -0.059394043 -0.1162527
0.0080036465 0.0883766 -0.016083244 0.10890227 -0.06821818 0.036002774 0.11644662 0.07810081
-0.23139834 0.114318624 -0.032541543 0.08170518 -0.034968458 0.021692107 0.29027417 -0.24050844
0.083344 0.037284225 -0.15491599 -0.1308653 -0.14411199 -0.11816487 0.0066959923 0.041570358
0.074834704 -0.072807394 -0.10587266 -0.15997459 -0.13295646 0.20457844 0.05635121 -0.062454123
0.036220144 0.06658225 -0.031131143 0.056590665 -0.114960425 -0.081669666 -0.010047401 0.010264992

network_body._body_endoder.seq_layers.2.bias f4 [128]
00000000: d3d9 c7ba a975 18bb 45fd 4cbb 4607 05bb
00000010: df4c 60ba 2e69 a839 0238 05bc b06b 0f3a
00000020: acbd 253a c405 b7ba 2a32 3cba e0d4 c7ba
00000030: 1b88 473a 3454 97ba 65ea 1b39 b01d 2bba
00000040: 2a15 443a 0e67 ef3b d055 1c39 3d39 a3ba
00000050: 0db5 74ba 449b 01bb 3835 b539 96cb 10bc
00000060: f7cc 673a b156 dbbb 2701 a2bb 9c75 98ba
00000070: 97cc 2aba 055f 513a 9b80 7fba 3614 3ab9
00000080: 9bb1 3dba 8117 b6ba 8b54 4bba a258 9c39
00000090: cec4 4b3a e3eb 133b 9e26 8abb 1054 9cbb
000000a0: 457c b2ba 2ed4 8fbb 0990 6b3b b55a 06bb
000000b0: cb01 323b b11f 47bb 18b7 69ba c352 71bb
000000c0: 9adf bcb9 6df1 233a 734e 023b 59d0 ea3a
000000d0: 14e3 a8bb e66d 2b3b c483 273a 539b 303a
000000e0: 7c3d 9eba 3701 3338 c13e 6dbb a59c 14bb
000000f0: 193c 71bb 726f 66ba 6294 89ba 3e23 8c3a
00000100: b799 daba d89c 63ba e507 5f3a 903a 463a
00000110: be4c e4ba 2e9c 9fba b3a1 cebb 0bf3 523a
00000120: 3637 be3a 80bd 1dba d291 463a c59e 0b3b
00000130: ab18 8537 5495 bf3b 0bc7 493a 07e1 deb9
00000140: f5ef d23b 3776 cdba 7224 2fbb e66c 99b8
00000150: 18c2 563a 357a 713a 9246 543a 8ff3 433a
00000160: fd8e 5eba be2f 04b9 3f7a 5ebb b519 b5b9
00000170: 18de 78ba c31b 7fba 929f 82ba 1fac 523a
00000180: 0c87 8dba 41b1 26b9 b39d 6bba 2b4d 29bb
00000190: 0f75 81ba df04 b6ba e00d 45bb 5a3d 83bb
000001a0: f72a 5eba 0126 1a3a e056 2cbb 42ad 4f3a
000001b0: e1c7 7aba 6e81 eaba 7030 6fbb c745 b0b9
000001c0: bb81 393a fffb 6639 16a5 1abb 66bf aab9
000001d0: 50a8 823b ce8d 7cbb 0153 91ba c5eb 55bb
000001e0: d0f5 f0ba e6fc 17bb 564d 163c c635 2f3a
000001f0: c839 08bb 6fc5 ecba a307 873a ee3a d43a
-0.0015247412 -0.002326349 -0.003127889 -0.0020298525 -0.00085563766 0.00032121822 -0.008131029 0.0005471064
0.0006322514 -0.001396351 -0.0007179106 -0.0015245937 0.0007611529 -0.001154548 0.0001486927 -0.0006527556
0.00074799603 0.0073059862 0.00014909287 -0.0012452971 -0.000933484 -0.0019776383 0.0003456266 -0.008837601
0.0008842493 -0.006693684 -0.004943985 -0.001163173 -0.00065154716 0.00079868763 -0.0009746642 -0.00017745871
-0.0007236243 -0.0013892503 -0.00077564333 0.00029820675 0.00077731616 0.002257102 -0.0042160293 -0.004770763
-0.0013617357 -0.0043893075 0.0035944006 -0.0020500843 0.0027161713 -0.003038388 -0.0008915528 -0.0036823011
-0.0003602475 0.0006253932 0.0019883185 0.0017914876 -0.005154023 0.0026158034 0.0006390179 0.00067370123
-0.0012072767 4.2678057e-05 -0.0036200734 -0.0022676375 -0.0036809503 -0.00087904104 -0.0010496492 0.0010691655
-0.0016677891 -0.00086827343 0.0008507951 0.0007561827 -0.001741789 -0.0012177282 -0.006305897 0.00080470805
0.0014512304 -0.00060173124 0.00075748295 0.002130435 1.5866322e-05 0.0058466587 0.0007697201 -0.00042510798
0.0064372965 -0.001567549 -0.0026724604 -7.3158924e-05 0.00081923744 0.00092116307 0.0008097674 0.0007474953
-0.0008489935 -0.00012606286 -0.0033947376 -0.00034542163 -0.0009493544 -0.0009731615 -0.0009965769 0.00080365123
-0.0010797693 -0.00015897026 -0.00089880376 -0.002583335 -0.0009876805 -0.001388695 -0.0030068085 -0.0040051164
-0.000847503 0.0005880297 -0.0026296899 0.0007922241 -0.00095665274 -0.0017891356 -0.0036497377 -0.00033621324
0.0007076521 0.00022028385 -0.0023596934 -0.0003256753 0.0039873496 -0.003853667 -0.0011087359 -0.003264175
-0.0018383805 -0.002319151 0.009173712 0.0006683733 -0.0020786393 -0.0018064211 0.0010301959 0.0016191879

action_model._continuous_distribution.mu.weight f4 [1, 128]
00000000: 88e9 e7ba f95c 72bc 7b6c 5fbc 6a34 a1bc
00000010: b0c7 24bd e1db 1f3b 7441 1a3c 20cf f23b
00000020: 6b35 8b3c 81e5 bfbc 28e7 343c 7427 c03c
00000030: b78c 913c d173 b23a 1666 0abc d0c4 973b
00000040: 4f65 e63c da9a d9bc 50da f1b8 49ca 59bc
00000050: b1bc 65bc 3788 1f39 794d 093b 318e c9b8
00000060: 360e 973b 0394 6a3c 08fa 6e3d a3b8 6cbb
00000070: 0ab9 003d d464 b43b 22f1 15bc 5a66 15bc
00000080: d93d 023b f011 23bc f906 313a 51aa 243c
00000090: 00f4 1d3c 0e8b 453c 9045 0ebc da75 75bb
000000a0: c1c4 6cbc 91a8 7b3c 2691 d03c ae4c beba
000000b0: efa6 c6bc cf0f feba 5f20 08bd b8d5 e93b
000000c0: ef57 14bb 4b0c f43b 350c 09bd ae40 943b
000000d0: cfc1 b13c e0f0 323b 9228 6a3c 35c4 603b
000000e0: a250 9dbb 9286 78bb c2a2 13bb ac35 79bb
000000f0: d5f6 dd3a 2551 8bbc 92d8 abbb e00b 013c
00000100: 43af d1ba 3127 fcbc ec0e be3b cdbc b63c
00000110: 0075 1a3b e1e5 af39 a2b5 ee39 317b 233d
00000120: c181 e43b 5dca a13c be02 223c 1839 33bd
00000130: 213c aebc db4c a5bc aab6 3c3c be06 05bd
00000140: 55e2 793b 1c75 e33c 96fb 1abc 8eae cd3a
00000150: b41a fe3c 2504 a43c 84ef 3f3d b0ec 4a3c
00000160: 64b1 0dbd a340 a0bc fd55 2cbd eddb 203d
00000170: 3613 68bc f00d 76bc 44ce 71bc b56b fc3c
00000180: 2f59 84bb 5a32 293c 2f4c d0bc e337 e9ba
00000190: f907 c9bb a962 f7ba ba97 9ebc f506 6539
000001a0: 8f8a aabc 710b 423c eac9 933c be63 b53c
000001b0: 90b6 eabb 7932 93bc 77dc 953b 89b8 eebc
000001c0: 8674 1f3c 60c8 c03a a296 c2bb 7155 56ba
000001d0: f9ef 9f3c 6498 9e3b c9c4 3fbc cb68 0aba
000001e0: fef2 efbb 7733 883c f265 8dbd 7a8b 113c
000001f0: 6d6c 04bc ad70 273c ee3c 223d aa08 433c
-0.0017693499 -0.014792674 -0.013636704 -0.019678313 -0.0402295 0.0024392533 0.009415019 0.007409945
0.016993245 -0.023424866 0.01104144 0.023456313 0.017767293 0.0013614838 -0.008447191 0.004631616
0.02812448 -0.026563097 -0.000115324394 -0.013292857 -0.014022038 0.00015214166 0.0020950718 -9.610912e-05
0.0046098484 0.014317515 0.058343917 -0.0036120794 0.031426467 0.0055051837 -0.009151729 -0.009118641
0.001987329 -0.009953007 0.0006753053 0.010050372 0.009640694 0.012057079 -0.008683577 -0.0037454278
-0.014451207 0.015360014 0.025459837 -0.0014518702 -0.024249522 -0.0019383373 -0.033233996 0.007136073
-0.002263542 0.0074477545 -0.033458907 0.004524312 0.02169886 0.0027304217 0.014291899 0.0034296636
-0.004800872 -0.0037922007 -0.002252743 -0.0038026376 0.0016934524 -0.017006466 -0.005244323 0.007876366
-0.0015997667 -0.030780407 0.0058001187 0.022306824 0.0023568273 0.00033549874 0.00045530224 0.039912406
0.0069734757 0.019749815 0.009888349 -0.04375562 -0.021268906 -0.02017825 0.01151816 -0.032477133
0.003812929 0.027765803 -0.009459397 0.001569228 0.031018592 0.020021508 0.04685928 0.012385532
-0.034593 -0.019562071 -0.042074192 0.039272238 -0.0141647365 -0.015017971 -0.01475865 0.030813077
-0.004038952 0.010326946 -0.025426952 -0.0017793145 -0.0061349836 -0.0018874008 -0.019359458 0.00021841734
-0.020818023 0.011843548 0.018040616 0.022142287 -0.0071628764 -0.017968403 0.0045734006 -0.029140728
0.009732371 0.0014708154 -0.005938367 -0.0008176184 0.019523608 0.0048399437 -0.011704632 -0.00052798976
-0.007322668 0.016626103 -0.0690421 0.008883351 -0.008082491 0.010219735 0.03960889 0.011903921

exp_avg f4 [128, 5]
00000000: 130e b536 157d 11b8 60bb 13b7 148c 1538
00000010: 0000 0000 840c b1b5 7850 83b6 0434 4636
00000020: b762 dcb6 0000 0000 54e3 43b6 769d a4bb
00000030: 7dc1 303a 2096 8d37 0000 0000 8a87 ca36
00000040: dc1d 0e3c 5409 baba f8f5 b338 0000 0000
00000050: e54f 0f35 1cd9 4c36 d1a8 bdb6 5c28 4936
00000060: 0000 0000 8b1c 62b4 42cc a0b5 c855 5933
00000070: 0f43 c6b5 0000 0000 55d0 8e36 c1f7 663b
00000080: 5685 c938 5cb1 7ab9 0000 0000 61a8 b8b6
00000090: 0892 e93b 1992 953a f526 f9b9 0000 0000
000000a0: c9f8 82b6 6434 b4bb d077 093a ee8c af38
000000b0: 0000 0000 4c0d 1737 27bd 843a a893 a6ba
000000c0: 780c b939 0000 0000 aa66 3fb7 c4d6 c33a
000000d0: faec e03a 9829 2bba 0000 0000 ebfb 4c36
000000e0: 569e f63a 907e fbb8 515a 4bb8 0000 0000
000000f0: f0ba 8cb6 cf34 043c 7f22 ccba 762a 9538
00000100: 0000 0000 6536 89b6 f530 74bb be32 8d39
00000110: 9413 c4b8 0000 0000 400f b3b4 5d4f e6b4
00000120: 423e d7b3 5e59 8fb5 0000 0000 189f 28b6
00000130: d669 893b 684a 1e3a 7a6b b0b9 0000 0000
00000140: f2b8 2033 c064 5cb3 820e 3cb3 337f 8933
00000150: 0000 0000 8de2 6536 c99c b43b b754 52ba
00000160: 00a5 d434 0000 0000 00cf ceb6 545d 2db9
00000170: dcaf 7a39 27ec 62b8 0000 0000 19c8 94b6
00000180: 9080 2dbb b6a2 9638 32d1 ed38 0000 0000
00000190: 304e c3b6 689c 9db7 582c 9a38 76e0 47b8
000001a0: 0000 0000 d053 efb4 d6df 2639 e699 6cba
000001b0: 361b 3d39 0000 0000 31fc d3b7 e098 903b
000001c0: 3a0b d53a 6b5c 03ba 0000 0000 29fe 2eb7
000001d0: 4362 f33b 947a 9d3a faf1 47ba 0000 0000
000001e0: 95be 4335 1201 d536 b501 c4b7 2176 9936
000001f0: 0000 0000 6c15 49b6 6e65 02bc 6895 a83a
00000200: 897f efb8 0000 0000 3f3f 2d35 f2ff 31ba
00000210: 4ed1 bb38 4878 3e36 0000 0000 a5a3 bcb5
00000220: e458 de3a 7e47 f538 57e5 ecb8 0000 0000
00000230: a66e d136 ac83 24bc 0af1 c438 1343 9439
00000240: 0000 0000 d1f1 16b7 edbd feba a687 2e3b
00000250: 11c2 3dba 0000 0000 b9d6 93b6 d0a7 b0ba
00000260: 51ff bf3a 6e8c e0b9 0000 0000 520a 4735
00000270: 34bb 3d3b 8ecf 01ba 6bfc 4138 0000 0000
00000280: 67b7 23b7 fb0f 66ba 2a8b 923a 2205 9eb9
00000290: 0000 0000 3ee1 8cb6 f808 7b37 37da 2d3a
000002a0: 739e 2ab8 0000 0000 e9d4 b035 c6f7 3a37
000002b0: de30 8f37 ac7d 0237 0000 0000 7acc fab6
000002c0: 33de 06b9 8e9a 3c39 c063 97b8 0000 0000
000002d0: 402a 5c35 cea0 793b 0484 16ba 9801 9036
000002e0: 0000 0000 7e04 c9b4 ee29 1bb5 525f e836
000002f0: 9398 beb5 0000 0000 bd50 deb6 c9e4 da38
00000300: 502a 6d38 4898 f4b8 0000 0000 391e 3c36
00000310: d41d 7038 7266 0eb9 5e01 2438 0000 0000
00000320: 3f32 8235 d6c7 6c3b 82d3 09ba 3cf6 c337
00000330: 0000 0000 e73b 5537 9bab 12bc cf9c 4eba
00000340: 8f50 2f3a 0000 0000 ba32 4cb5 3caf 0c3a
00000350: 7aef 4bba bee5 1f39 0000 0000 509a 0e37
00000360: 5eb0 b739 e88a 20ba b3a6 3039 0000 0000
00000370: 1700 2e37 20d9 86bb 014a bbba 5e90 203a
00000380: 0000 0000 700e b736 2e67 253a e7df a8ba
00000390: a606 a139 0000 0000 8502 e5b6 57fa 233b
000003a0: 3ebb cd39 8fb8 93b9 0000 0000 a466 8c36
000003b0: 9cb9 513b 6060 2838 3ef0 18b9 0000 0000
000003c0: 18dc d6b4 d3d7 f43a 8086 56b7 d459 a9b8
000003d0: 0000 0000 0ac8 0337 34f3 7e3b a8a9 8aba
000003e0: 1e9d 0439 0000 0000 78db 3936 adf8 a5ba
000003f0: 1f10 b5b9 237c 6339 0000 0000 3057 b933
5.395859e-06 -3.4687186e-05 -8.805509e-06 3.5654826e-05 0.0 -1.319117e-06 -3.913472e-06 2.9534576e-06
-6.568003e-06 0.0 -2.9189587e-06 -0.0050236536 0.0006742699 1.6878417e-05 0.0 6.035848e-06
0.008674111 -0.0014193454 8.5812004e-05 0.0 5.3387913e-07 3.0524743e-06 -5.6522917e-06 2.9974826e-06
0.0 -2.1058274e-07 -1.1980376e-06 5.0602267e-08 -1.4771666e-06 0.0 4.256183e-06 0.0035242888
9.6092626e-05 -0.0002390793 0.0 -5.503229e-06 0.007128004 0.0011411338 -0.00047522006 0.0
-3.9032643e-06 -0.0054994095 0.00052439887 8.3709005e-05 0.0 9.003397e-06 0.0010127173 -0.00127088
0.0003529524 0.0 -1.14083905e-05 0.0014941324 0.0017160468 -0.000652933 0.0 3.0545004e-06
0.0018815498 -0.00011992187 -4.8483085e-05 0.0 -4.1940875e-06 0.008069231 -0.0015574245 7.1127826e-05
0.0 -4.0892505e-06 -0.0037260626 0.00026931422 -9.349655e-05 0.0 -3.3352444e-07 -4.2898583e-07
-1.0023042e-07 -1.068034e-06 0.0 -2.5126556e-06 0.004193525 0.0006038309 -0.00033649412 0.0
3.742111e-08 -5.1314373e-08 -4.3785356e-08 6.402697e-08 0.0 3.425553e-06 0.0055118543 -0.0008023488
3.960813e-07 0.0 -6.1633764e-06 -0.00016533333 0.0002390737 -5.4102533e-05 0.0 -4.434038e-06
-0.0026474334 7.182865e-05 0.00011340006 0.0 -5.820555e-06 -1.878869e-05 7.351552e-05 -4.7654343e-05
0.0 -4.45782e-07 0.00015914379 -0.0009025618 0.00018034581 0.0 -2.5270596e-05 0.0044127554
0.0016253956 -0.0005011025 0.0 -1.04303845e-05 0.007427485 0.001201468 -0.0007627305 0.0
7.2920494e-07 6.3480193e-06 -2.3365816e-05 4.5735073e-06 0.0 -2.9963803e-06 -0.007958753 0.0012861909
-0.00011420163 0.0 6.453956e-07 -0.0006790153 8.955841e-05 2.838222e-06 0.0 -1.4054718e-06
0.0016963747 0.00011695827 -0.00011296075 0.0 6.2415666e-06 -0.010041159 9.390905e-05 0.00028278734
0.0 -8.996999e-06 -0.0019435264 0.0026631146 -0.0007238696 0.0 -4.4059384e-06 -0.0013477746
0.0014648234 -0.00042829238 0.0 7.4148295e-07 0.0028950693 -0.00049518875 4.624987e-05 0.0
-9.758259e-06 -0.0008776185 0.001118039 -0.00030139933 0.0 -4.198547e-06 1.4962854e-05 0.0006631943
-4.0678726e-05 0.0 1.3174987e-06 1.1144153e-05 1.7069684e-05 7.777864e-06 0.0 -7.474385e-06
-0.00012862011 0.00017986653 -7.218821e-05 0.0 8.201787e-07 0.0038090232 -0.0005741718 4.29172e-06
0.0 -3.7442436e-07 -5.7803015e-07 6.9252355e-06 -1.4200508e-06 0.0 -6.6255147e-06 0.000104376646
5.654461e-05 -0.00011663191 0.0 2.8031775e-06 5.724824e-05 -0.00013580339 3.910192e-05 0.0
9.700378e-07 0.0036129854 -0.00052576524 2.3360473e-05 0.0 1.2709736e-05 -0.008952047 -0.00078816427
0.00066877244 0.0 -7.606974e-07 0.0005366688 -0.000777952 0.00015249007 0.0 8.499788e-06
0.00035035884 -0.0006124214 0.00016846768 0.0 1.0371229e-05 -0.004115239 -0.0014289023 0.0006125028
0.0 5.4555057e-06 0.00063096255 -0.0012884111 0.00030713266 0.0 -6.825025e-06 0.002502104
0.00039240153 -0.00028175532 0.0 4.184274e-06 0.00320015 4.0144078e-05 -0.00014585347 0.0
-4.0020745e-07 0.0018680043 -1.278671e-05 -8.07528e-05 0.0 7.854784e-06 0.0038902285 -0.0010579126
0.00012647032 0.0 2.7694896e-06 -0.0012662612 -0.0003453502 0.00021694652 0.0 8.630593e-08

exp_avg_sq f4 [128, 5]
00000000: 35c9 8b2f d1cd be32 b306 0734 8404 0732
00000010: 0000 0000 3676 e42b f9f8 052e 46c6 322d
00000020: b809 8a2e 0000 0000 b15d a72f c7e5 b73a
00000030: 82d6 1838 40be 5e35 0000 0000 796a c52e
00000040: 39a9 4b3b 1d97 6038 755a aa35 0000 0000
00000050: e311 492b 6110 3e2e 4f3b 632f d685 5e2d
00000060: 0000 0000 0042 c829 2087 a22c 9d36 0f2c
00000070: bf4d 262c 0000 0000 31b8 c930 7272 4d3a
00000080: 3341 d437 1915 1735 0000 0000 4092 db30
00000090: 761f 593b 6e6e c938 6124 1036 0000 0000
000000a0: c806 1b30 682c d23a fc77 1738 b165 6735
000000b0: 0000 0000 3193 ae31 bcc4 3236 b7f4 8437
000000c0: 0978 ae34 0000 0000 9a5a 4232 457a 403a
000000d0: 8eae 0d39 25db 1f36 0000 0000 c5f5 332f
000000e0: e3ba 5b39 f17d cb36 29c5 2034 0000 0000
000000f0: de88 d12f 929c 343b 12fb 8838 c2d4 bd35
00000100: 0000 0000 0f23 df30 fbcf 2f3a 2143 7537
00000110: 8395 b634 0000 0000 00ef 032a c9ae a62b
00000120: 57ba db2b 8e65 c62b 0000 0000 93d2 0131
00000130: 1874 973a 8afd 4e38 f7f0 8e35 0000 0000
00000140: a61f 1029 2069 872a fee0 a12a 8d4f d42a
00000150: 0000 0000 2ae7 a72f b409 d63a 3fc4 2238
00000160: 1415 7135 0000 0000 dd4f 7a2e e11e 0d33
00000170: 8017 9b33 4c04 2b31 0000 0000 11c0 4930
00000180: b8b9 163a d17d ca37 fb80 0935 0000 0000
00000190: b9b6 ef2f f2c2 5733 6930 2d35 6ca3 9b32
000001a0: 0000 0000 0f10 ae2f 05af cb36 9535 0f36
000001b0: eebf 4e33 0000 0000 65b2 5c31 1acc b93a
000001c0: 34e4 3d38 bd12 9635 0000 0000 18b0 5c32
000001d0: 9791 983b 9d52 6639 a53a 9e36 0000 0000
000001e0: 583c 7c2e 689a a52f 920a 2933 6f40 cf30
000001f0: 0000 0000 3e35 8f2d 6e49 3e3b 6c13 1b38
00000200: 6077 8335 0000 0000 c3ae 302b c1a4 1238
00000210: ba60 dd34 c4a0 3332 0000 0000 196c f02f
00000220: a745 5d39 cdd1 3337 0bb4 6734 0000 0000
00000230: f93f f130 30fa bd3b 57f7 0539 ea25 4936
00000240: 0000 0000 0b80 8532 281c 1237 4b83 8038
00000250: 8460 a435 0000 0000 56dc f830 0a81 3238
00000260: 7b15 9d37 10ec c734 0000 0000 6854 542d
00000270: a833 b939 9c73 c336 a993 1234 0000 0000
00000280: 278d 2231 c316 9b37 a943 1137 8576 3e34
00000290: 0000 0000 c66f 6a30 eb0b b133 bfbd 8635
000002a0: a82b e332 0000 0000 8927 732d 1979 7f2f
000002b0: d807 6a32 9b26 c72f 0000 0000 41dd 7430
000002c0: 165e 7233 16f9 d835 262e 2a33 0000 0000
000002d0: 5fa1 402e 8bb4 273a 83cc 5537 742e 9734
000002e0: 0000 0000 5831 442b d9e6 a62c d4d1 2e30
000002f0: 6738 7a2d 0000 0000 2560 0031 6d0f 7437
00000300: d417 b636 006e 0334 0000 0000 b848 d52f
00000310: 6a74 c934 ae1c 5e35 2b55 7732 0000 0000
00000320: 42c3 d02e 318c df39 3404 0c37 00da 4634
00000330: 0000 0000 d4d3 1832 4d9b bd3b 8cd4 5d39
00000340: f420 9b36 0000 0000 2d3d d62f 5431 a234
00000350: b8fe c835 ddfb f632 0000 0000 5288 af30
00000360: aa5b 0a34 4e66 4836 12d5 9c33 0000 0000
00000370: 4af8 f431 6a50 0f3b 6ca8 0739 ef9b 3036
00000380: 0000 0000 1655 8c30 fb97 2a35 840a 9e36
00000390: fad7 db33 0000 0000 3182 1631 ace5 0c3a
000003a0: 5049 e337 f8f4 1535 0000 0000 39b0 ff2f
000003b0: c6b5 263a c413 d337 9576 1135 0000 0000
000003c0: 2a37 a92f 6393 8639 2f7d 2137 d6d3 5a34
000003d0: 0000 0000 580e 2d2f f185 0e3a 9681 1a37
000003e0: b10c 8334 0000 0000 3496 4430 357d 9139
000003f0: e094 5c37 0423 9534 0000 0000 202a 8d29
2.542692e-10 2.2212506e-08 1.2575292e-07 7.859061e-09 0.0 1.6233185e-12 3.046183e-11 1.0162154e-11
6.27724e-11 0.0 3.0443695e-10 0.0014030271 3.64394e-05 8.2978295e-07 0.0 8.977436e-11
0.0031076206 5.3546497e-05 1.2692313e-06 0.0 7.143437e-13 4.3215546e-11 2.06666e-10 1.26489565e-11
0.0 8.8932334e-14 4.619319e-12 2.0351839e-12 2.3633177e-12 0.0 1.4677025e-09 0.0007837183
2.530273e-05 5.6282585e-07 0.0 1.5975914e-09 0.0033130324 9.604996e-05 2.1478847e-06 0.0
5.639831e-10 0.0016034963 3.611295e-05 8.6202186e-07 0.0 5.0808002e-09 2.6638581e-06 1.584958e-05
3.2497363e-07 0.0 1.1312887e-08 0.00073424383 0.00013511835 2.3820405e-06 0.0 1.636727e-10
0.00020955088 6.064533e-06 1.4972888e-07 0.0 3.8114129e-10 0.0027559143 6.531751e-05 1.4143518e-06
0.0 1.623535e-09 0.0006706712 1.4618768e-05 3.4008926e-07 0.0 1.1718057e-13 1.1843522e-12
1.5612606e-12 1.4096933e-12 0.0 1.8891668e-09 0.0011554984 4.9350354e-05 1.0649954e-06 0.0
3.2001874e-14 2.4053762e-13 2.8755465e-13 3.7713964e-13 0.0 3.0541375e-10 0.0016329796 3.880658e-05
8.981017e-07 0.0 5.691435e-11 3.2857205e-08 7.2220246e-08 2.4886218e-09 0.0 7.3396317e-10
0.000574972 2.4138864e-05 5.122417e-07 0.0 4.360368e-10 5.023589e-08 6.451797e-07 1.811869e-08
0.0 3.1661826e-10 6.0702464e-06 2.133985e-06 4.813767e-08 0.0 3.211562e-09 0.0014175207
4.5273642e-05 1.1181324e-06 0.0 1.28457245e-08 0.0046560275 0.00021965285 4.715594e-06 0.0
5.7351762e-11 3.0123037e-10 3.9357992e-08 1.5079545e-09 0.0 1.6280862e-11 0.0029035467 3.6972968e-05
9.795003e-07 0.0 6.277029e-13 3.496255e-05 4.1234836e-07 1.0455725e-08 0.0 4.3732554e-10
0.0002110215 1.07180795e-05 2.1579051e-07 0.0 1.755324e-09 0.005797647 0.0001277601 2.9973403e-06
0.0 1.5541465e-08 8.708834e-06 6.127971e-05 1.2247042e-06 0.0 1.8106998e-09 4.2558684e-05
1.8725861e-05 3.7238397e-07 0.0 1.2069547e-11 0.00035324437 5.8249116e-06 1.3651028e-07 0.0
2.3654338e-09 1.848804e-05 8.658427e-06 1.7738246e-07 0.0 8.5287544e-10 8.244373e-08 1.0039001e-06
2.644613e-08 0.0 1.3821729e-11 2.3235137e-10 1.3622376e-08 3.622532e-10 0.0 8.9081104e-10
5.6430586e-08 1.6165748e-06 3.962318e-08 0.0 4.3799072e-11 0.00063974474 1.2743406e-05 2.815974e-07
0.0 6.9701666e-13 4.743633e-12 6.3599015e-10 1.42233786e-11 0.0 1.8681103e-09 1.4547125e-05
5.4267966e-06 1.2240343e-07 0.0 3.8796144e-10 3.752387e-07 8.274318e-07 1.4396657e-08 0.0
9.49343e-11 0.00042638325 8.345629e-06 1.8519495e-07 0.0 8.895729e-09 0.0057863356 0.00021155382
4.623196e-06 0.0 3.896984e-10 3.0210742e-07 1.4975294e-06 2.8752703e-08 0.0 1.277167e-09
1.2885599e-07 2.9861872e-06 7.303073e-08 0.0 7.129562e-09 0.0021868 0.00012937345 2.631681e-06
0.0 1.0210524e-09 6.3551096e-07 4.709991e-06 1.0237268e-07 0.0 2.1901878e-09 0.00053748
2.7094648e-05 5.58633e-07 0.0 4.6509444e-10 0.0006359484 2.5162364e-05 5.418927e-07 0.0
3.0780117e-10 0.00025668283 9.625494e-06 2.0379898e-07 0.0 1.5739354e-10 0.0005436829 9.209287e-06
2.4409886e-07 0.0 7.1517836e-10 0.00027749842 1.31476845e-05 2.777889e-07 0.0 6.2689654e-14

exp_avg f4 [128]
00000000: 21f1 ca36 3274 54b6 feda 5bb7 6893 7638
00000010: 1816 7735 01bb 3bb5 d8af c8b7 0207 a9b8
00000020: 20de 31b7 277d ab38 ad9b 0db9 a075 abb5
00000030: 60e3 5838 36fa afb7 92c5 0cb5 feb8 60b8
00000040: 7b6e 1e33 6f7f e537 77c8 7eb7 a412 3337
00000050: 7033 0db7 f8b5 2d38 fc7a d2b8 d7f5 01b9
00000060: b86d d035 d482 68b8 fcbc 9ab5 21ce abb7
00000070: cdc9 9537 d634 26b9 7d7b dbb8 a874 bc37
00000080: 36c7 91b8 925e d9b7 4e56 0236 14c9 33b7
00000090: de1f a337 1273 fab4 70ba 75b7 0ad7 0437
000000a0: b623 c637 de98 c538 2e88 3138 646c 0438
000000b0: 62d8 fa38 991b 9a38 3778 43b8 f544 cab7
000000c0: a694 36b7 e276 5138 8915 2a38 5474 ca34
000000d0: c301 e7b8 004e c935 de24 0cb5 18e6 ccb8
000000e0: 09e1 bbb8 83e3 3738 6686 f4b5 38d5 bab8
000000f0: a4f3 5cb5 6316 0f38 866c 5838 7c8a 8b37
00000100: a4a8 1e35 a499 5437 8f4f 3cb6 efa5 94b5
00000110: fc3c 9fb6 1e15 79b8 0210 9c38 3036 df35
00000120: 0aa6 5ab8 e06c f3b6 0ed9 a7b6 2fdc 08b8
00000130: 9359 2338 0ae0 7437 26b0 3f36 9827 8137
00000140: 7c0b 6236 3995 47b6 86a9 9eb8 53fe 80b7
00000150: cf4b 8037 7864 5936 182a 82b7 8fec 8e35
00000160: 0487 b5b5 cefd fb34 b9ed c7b5 513d 7c37
00000170: 8af6 1337 2463 85b8 677c b4b5 8842 e3b2
00000180: eefa 0ab5 80d1 0a39 c512 b3b8 0f3e b637
00000190: baaa d636 156c 6037 1fa8 88b6 2229 c338
000001a0: 17dd 8e36 e616 0037 6641 97b5 34e4 b0b8
000001b0: 7d59 0db5 80be cd34 9999 15b5 cadc d737
000001c0: b60f c837 96ae 59b8 e032 edb7 f0ac 3cb8
000001d0: f784 95b5 40df 1ab8 5db3 a135 206e dbb3
000001e0: 1a5c 6db6 d054 9db6 c050 6bb5 2539 0238
000001f0: ac80 c937 adf0 b738 9660 1934 14af abb8
6.04814e-06 -3.1658096e-06 -1.3104405e-05 5.8788253e-05 9.204682e-07 -6.9935055e-07 -2.3923742e-05 -8.059853e-05
-1.060174e-05 8.177227e-05 -0.00013504802 -1.2774726e-06 5.1710173e-05 -2.097814e-05 -5.2441567e-07 -5.357805e-05
3.6887723e-08 2.7358268e-05 -1.5186254e-05 1.06735715e-05 -8.416231e-06 4.1415886e-05 -0.00010036488 -0.00012393981
1.552914e-06 -5.5434954e-05 -1.1528896e-06 -2.0480775e-05 1.7856155e-05 -0.00015850677 -0.00010465735 2.2465669e-05
-6.951245e-05 -2.5912454e-05 1.9421745e-06 -1.0716049e-05 1.9445954e-05 -4.6649853e-07 -1.4646546e-05 7.917881e-06
2.3620069e-05 9.422166e-05 4.2326916e-05 3.15722e-05 0.000119612334 7.348433e-05 -4.660358e-05 -2.4112387e-05
-1.0882655e-05 4.99402e-05 4.0551215e-05 3.7710072e-07 -0.000110152665 1.4998368e-06 -5.2207713e-07 -9.770336e-05
-8.958771e-05 4.3842487e-05 -1.8218532e-06 -8.908886e-05 -8.231093e-07 3.4114706e-05 5.1599483e-05 1.6634578e-05
5.910499e-07 1.2671957e-05 -2.8060492e-06 -1.1075152e-06 -4.745669e-06 -5.9385893e-05 7.441641e-05 1.6630565e-06
-5.2129886e-05 -7.254639e-06 -5.0022563e-06 -3.262999e-05 3.894565e-05 1.45956965e-05 2.856375e-06 1.5396436e-05
3.368331e-06 -2.974017e-06 -7.565603e-05 -1.5377218e-05 1.529409e-05 3.2394e-06 -1.5516809e-05 1.0648672e-06
-1.3524846e-06 4.693706e-07 -1.4895842e-06 1.5034647e-05 8.819285e-06 -6.3604006e-05 -1.3447251e-06 -2.6456533e-08
-5.1774157e-07 0.0001323875 -8.538881e-05 2.1724989e-05 6.397572e-06 1.3376605e-05 -4.0726877e-06 9.305986e-05
4.257668e-06 7.634726e-06 -1.126941e-06 -8.43484e-05 -5.2656816e-07 3.8322833e-07 -5.573034e-07 2.573281e-05
2.3849174e-05 -5.1899427e-05 -2.8276292e-05 -4.4983753e-05 -1.1140063e-06 -3.692438e-05 1.2047636e-06 -1.0218014e-07
-3.5369362e-06 -4.688838e-06 -8.766183e-07 3.1047635e-05 2.4020985e-05 8.770949e-05 1.4284373e-07 -8.186526e-05

exp_avg_sq f4 [128]
00000000: f822 1830 bb7d 9e2c 2e21 b333 b5ae 0d34
00000010: a353 f02b ecb8 922a 4ff3 7233 c26c 6734
00000020: 4056 b433 beee 0733 ca1a 8734 9408 6d32
00000030: 087e 1e34 d95e 0f33 7a58 802a 3398 e133
00000040: f687 8329 7703 c433 a43c 3c2f 5fc7 5d33
00000050: c514 c130 24d7 8731 a1fc dd33 01df fb34
00000060: 8c70 be2e 4fbf d533 89e0 8830 7f4b bd32
00000070: 887e a234 5134 0034 98ed 1933 a22a 7732
00000080: 5b20 9532 d869 0b31 841f 082e c1ef 5c31
00000090: 990d fd32 52d3 c02b 45bf 3832 9ec7 dd30
000000a0: 51c4 a232 e88f fa34 491c 4b31 5e01 cc31
000000b0: 846d 9034 5645 2232 06e7 7333 ece4 6833
000000c0: 30e0 b432 b6e4 cb32 31a2 ee32 3494 bd2a
000000d0: cf80 4533 07cd be2c b9cb 222c 51d4 8433
000000e0: 212d f332 f3e2 e331 e2bf 9a2b 07ea 2433
000000f0: 23a2 de2a 2178 9532 f4f1 4434 b052 5e32
00000100: db98 622b 1b4b 0633 f0a1 742c a231 a32d
00000110: 576c 2d33 5c70 d232 f8e7 6a34 1516 3934
00000120: c84e a934 59f8 892f 2de4 ba32 0465 3c32
00000130: 16df fc32 a628 bb32 d1c4 8e30 6df3 4832
00000140: e6cc 2933 d4d5 7c2c ae11 6833 e910 0c31
00000150: 3427 4f31 e4ef 6930 1db3 fa32 ac7b 482c
00000160: 2782 9c2b 6dfd 512d ecf8 7d2b 6572 2133
00000170: 3afe 3231 ee96 0034 52d5 a82b 8b5a 3c29
00000180: 2a18 2f2e 67c2 a633 5e1a 3a33 fcf0 b631
00000190: 00d7 1331 df13 0433 9905 9130 5035 8e33
000001a0: bb39 4131 bf25 3a31 6a73 0d2c fc41 3c33
000001b0: b974 922a f8b3 0033 299b 082b b795 fc32
000001c0: 36a4 1533 0474 8234 05c9 c733 b5c6 b131
000001d0: d804 dd2b 0c98 2231 4904 9e2c 8096 9c29
000001e0: bd86 8a2c b77a b330 909c e333 68df 3b33
000001f0: 3564 4030 95b8 1a33 8901 8b29 5913 9b34
5.534697e-10 4.504589e-12 8.3413724e-08 1.3195206e-07 1.707624e-12 2.6063125e-13 5.6566304e-08 2.1553117e-07
8.397592e-08 3.164927e-08 2.51652e-07 1.3797166e-08 1.4760747e-07 3.3381045e-08 2.279876e-13 1.0505064e-07
5.841154e-14 9.1275915e-08 1.7120044e-10 5.16369e-08 1.4048501e-09 3.9534758e-09 1.03370674e-07 4.691465e-07
8.660192e-11 9.953384e-08 9.959119e-10 2.2036827e-08 3.0266915e-07 1.1939962e-07 3.583918e-08 1.4386986e-08
1.7360597e-08 2.0287327e-09 3.095081e-11 3.2150498e-09 2.945926e-08 1.3701074e-12 1.0753699e-08 1.6136601e-09
1.8948557e-08 4.6670834e-07 2.9556466e-09 5.937337e-09 2.6901773e-07 9.445406e-09 5.678796e-08 5.4224913e-08
2.1056707e-08 2.3736316e-08 2.7780603e-08 3.367598e-13 4.5984788e-08 5.4228874e-12 2.3134673e-12 6.185349e-08
2.8309445e-08 6.6323707e-09 1.0995616e-12 3.8397072e-08 3.9547627e-13 1.7400511e-08 1.8341944e-07 1.2940902e-08
8.050346e-13 3.1267614e-08 3.4764379e-12 1.8552996e-11 4.0378236e-08 2.4498313e-08 2.1877338e-07 1.7237501e-07
3.1536024e-07 2.5096616e-10 2.1757012e-08 1.09660085e-08 2.9438109e-08 2.178815e-08 1.0387798e-09 1.1696881e-08
3.9534733e-08 3.5930052e-12 5.403279e-08 2.0382294e-09 3.014475e-09 8.510581e-10 2.9185282e-08 2.8490361e-12
1.1120591e-12 1.1936546e-11 9.0229105e-13 3.7589775e-08 2.604692e-09 1.1975837e-07 1.1996326e-12 4.182292e-14
3.9811855e-11 7.765339e-08 4.333048e-08 5.324294e-09 2.1513529e-09 3.0751718e-08 1.055173e-09 6.622088e-08
2.8118012e-09 2.7088018e-09 2.0101373e-12 4.3832173e-08 2.6015802e-13 2.9966003e-08 4.8532234e-13 2.9404744e-08
3.4841115e-08 2.42988e-07 9.303225e-08 5.1739684e-09 1.5704339e-12 2.3660531e-09 4.491106e-12 6.953899e-14
3.937155e-12 1.3058842e-09 1.059899e-07 4.3742517e-08 6.9991596e-10 3.6023796e-08 6.173106e-14 2.8885077e-07

exp_avg f4 [128, 128]
00000000: ec3b 1ab5 ad6e 03b3 e735 7bb8 9ae3 cbb8
00000010: a87a 8633 b260 2e33 5174 c2b9 9310 eab9
00000020: 37cf 95b7 3c4d d5b5 a801 9c36 f3fc 4bb9
00000030: 1a97 dbb8 732f 22b9 9111 a533 58c5 0cb9
00000040: 6292 e733 3542 e4b8 3cb7 d8b5 e539 24b9
00000050: 9404 2cb5 8d12 58b9 fba0 ebb8 3487 55b8
00000060: 2f6e c032 3af1 9eb6 0019 2434 d40d 4ab9
00000070: c98f 58b9 bda8 88b5 487f 0838 ceb0 20b9
00000080: 5f15 17b8 f7af b936 5281 67b3 70fe 3836
00000090: 823c 79b9 6091 872f 59e3 2637 aa24 59b6
000000a0: f5b5 8db9 8ccf 0eba 70ef 7c35 bd2c 8234
000000b0: dbc9 54b9 f0fb 4d35 637d 3cb9 6301 b7b9
000000c0: 898b 89b9 42f0 6fb9 b6ac dab9 b602 8733
000000d0: b913 7d36 8076 8233 d2ec 5433 d3ba 78b9
000000e0: 0e08 0238 0779 a234 6025 b3b3 bf12 9137
000000f0: d9ff 3733 7be1 1bba 149a 30b9 0147 a2b8
00000100: 4e4c e533 84ff dfb9 a483 26b3 c487 02b5
00000110: b16a 5eb9 46b0 c3b5 44c5 69b7 1af3 9db9
00000120: 95dc f1b7 8a71 c1b4 98ee f7b8 b7bb 03ba
00000130: 71af 31b8 912b 0bba a0f6 1333 0989 38ba
00000140: 18c1 14ba c9cb 12b3 94c5 94b8 c037 3336
00000150: f902 41b9 eec2 23b4 533c 1fba aeda 1533
00000160: 20c8 8030 813a 1033 38ee aeb3 6870 b6b9
00000170: c4f8 9bb9 02a5 99b9 b341 9db1 581d 9c33
00000180: 2080 ef32 e8f9 b435 e84a 7538 2030 16b5
00000190: 261b 8eb5 df90 92b9 3e37 3ab5 0c57 87b9
000001a0: 7a40 c4b3 acd0 e434 4dd5 6e33 ba69 9b37
000001b0: b447 d033 d6d4 71b8 e7ea 7233 5881 b8b8
000001c0: 3f47 10b9 e4ec 0cb8 6538 12ba 8a8d 8936
000001d0: 996a 8b33 12a0 54b5 334a 4e33 4257 9b33
000001e0: c173 11b3 9dfd 3cb9 fc3b 26b9 91c6 7cb8
000001f0: 10cb 44b4 a2cd c8b4 c6e2 df33 a955 b5b8
00000200: 2ec1 04b6 1b31 03b5 9848 34b5 88d3 5735
00000210: f811 5735 7cf6 2235 7aef efb8 7d2e 1036
00000220: 01fc abb5 b73e 8eb9 5ef8 18b9 a039 7fb3
00000230: b4be 9a35 5e25 31b9 d442 8035 4eb1 3cb6
00000240: 2c4e a835 aa2e d6b4 8220 9db7 605f 3335
00000250: 9c4f 2ab9 d8fe d7b6 690d 1538 b9c4 35b9
00000260: 408c 94b4 bce6 00b4 c820 34b6 0bd0 6db9
00000270: bbcd 5c38 3400 88b8 dc6a e3b9 cea5 a235
00000280: 3e64 a3b9 265e 26b8 7803 fb35 bcdd 89b9
00000290: e63b 7ab6 6ec4 a236 dc67 ffb8 a7d2 0ab9
000002a0: 36f4 8ab9 6aa5 aab7 b895 9bb9 e85b 70b8
000002b0: c660 1cb9 a017 48b9 6835 6536 c634 7eb6
000002c0: b2ce 02b6 0697 9c36 85da 90b9 348d 5b35
000002d0: bfe0 57b8 66d9 2c35 2f62 1236 2d9c 97b9
000002e0: 038c 20b9 80e9 11b8 5205 88b5 0800 a9b9
000002f0: f19d f534 d052 3235 09ff 2fb9 6757 06b9
00000300: 2d3f 6135 80e3 fcb9 f8ce 38b4 253b 89b6
00000310: e3ba 45b6 f3d9 38b9 de43 43b9 81ca 0cb9
00000320: 0407 bbb8 e2f3 99b6 be24 9635 3323 d1b8
00000330: 1ae3 70b9 1197 a836 ce7a 33b6 eb3e 0e38
00000340: 8a92 88b6 5810 9bb4 f985 bfb9 700c e0b9
00000350: d6f6 6bb9 c661 70b8 1f29 06b6 748a 3a35
00000360: 5cf5 a4b4 374e ef35 b6ae c4b4 272a a3b9
00000370: c693 e9b9 d79d c8b9 4015 2634 7c5c 6c35
00000380: 7f9a a935 0642 c3b9 9dca bcb9 64d6 cbb9
00000390: 9078 99b8 cfa9 13b8 269d 50b9 b317 9337
000003a0: 841e b235 ea72 86b6 8fa0 4a35 68c5 70b9
000003b0: e4fd 9135 823f 9ab9 74a7 5835 d124 9ab9
000003c0: 5bc3 28b9 585e 47b9 d48c 4db8 d400 5ab9
000003d0: 9d4f 3335 aa06 3ab9 d198 5435 440a 6d35
000003e0: 90a8 fbb4 6308 0cb6 ec29 d2b5 1580 09b6
000003f0: f840 f1b4 d45e 1ab9 de55 9a35 495c 39b6
-5.745667e-07 -3.0601473e-08 -5.9893264e-05 -9.7221884e-05 6.262172e-08 4.0600476e-08 -0.00037089226 -0.00044644307
-1.7858676e-05 -1.5892215e-06 4.649355e-06 -0.0001945382 -0.000104708786 -0.000154672 7.6866066e-08 -0.00013424957
1.07834026e-07 -0.00010884219 -1.6146582e-06 -0.00015661826 -6.4081655e-07 -0.00020606276 -0.00011235658 -5.0909075e-05
2.2401847e-08 -4.7368494e-06 1.5282785e-07 -0.00019269373 -0.0002065293 -1.0181899e-06 3.2543467e-05 -0.00015324654
-3.602111e-05 5.5339146e-06 -5.3901495e-08 2.7566239e-06 -0.00023769031 2.4659652e-10 9.9473045e-06 -3.235686e-06
-0.00027029184 -0.0005447797 9.4225743e-07 2.4246938e-07 -0.00020293093 7.673507e-07 -0.00017975787 -0.00034905513
-0.00026234638 -0.00022882319 -0.0004170888 6.2869205e-08 3.7711418e-06 6.075152e-08 4.9575483e-08 -0.0002372072
3.1001917e-05 3.026291e-07 -8.3421355e-08 1.7294076e-05 4.28407e-08 -0.000594638 -0.00016842067 -7.7379875e-05
1.0677523e-07 -0.00042724248 -3.8769613e-08 -4.862634e-07 -0.00021211315 -1.4579934e-06 -1.3933812e-05 -0.00030126498
-2.8832155e-05 -3.6031662e-07 -0.00011822319 -0.0005025225 -4.236348e-05 -0.0005308921 3.445041e-08 -0.0007039463
-0.0005674525 -3.4178615e-08 -7.093992e-05 2.670553e-06 -0.00018407022 -1.5251473e-07 -0.00060743577 3.4890654e-08
9.370105e-10 3.358082e-08 -8.145838e-08 -0.00034797494 -0.0002974925 -0.00029305374 -4.5767705e-09 7.269654e-08
2.7881526e-08 1.3483777e-06 5.8482314e-05 -5.5949386e-07 -1.0587726e-06 -0.00027955227 -6.937079e-07 -0.00025814062
-9.1386894e-08 4.2620138e-07 5.560769e-08 1.8526673e-05 9.6987975e-08 -5.7657096e-05 5.6558658e-08 -8.797896e-05
-0.00013759451 -3.3599223e-05 -0.00055778614 4.0993955e-06 6.492082e-08 -7.920909e-07 4.8030596e-08 7.233622e-08
-3.386572e-08 -0.00018023555 -0.0001585334 -6.026641e-05 -1.8327796e-07 -3.740252e-07 1.04254966e-07 -8.646708e-05
-1.9781978e-06 -4.887276e-07 -6.7160863e-07 8.040156e-07 8.011989e-07 6.0708385e-07 -0.00011441014 2.1484732e-06
-1.2813836e-06 -0.00027131077 -0.00014588374 -5.9424224e-08 1.1529396e-06 -0.00016893956 9.556193e-07 -2.8117388e-06
1.2539726e-06 -3.989456e-07 -1.8730996e-05 6.6821485e-07 -0.0001624212 -6.437167e-06 3.5536857e-05 -0.0001733479
-2.7669194e-07 -1.200487e-07 -2.6841171e-06 -0.00022679583 5.264369e-05 -6.485023e-05 -0.0004337643 1.2118196e-06
-0.0003116447 -3.9665167e-05 1.8701967e-06 -0.0002629588 -3.7287768e-06 4.8508437e-06 -0.00012178693 -0.0001323918
-0.00026503362 -2.0342606e-05 -0.00029675453 -5.7306053e-05 -0.0001491337 -0.00019082287 3.4154746e-06 -3.7879668e-06
-1.9491822e-06 4.6667437e-06 -0.0002762863 8.1789335e-07 -5.1469306e-05 6.439135e-07 2.1812846e-06 -0.00028917324
-0.00015310947 -3.4788158e-05 -1.0134338e-06 -0.00032234215 4.5749724e-07 6.6430675e-07 -0.00016784309 -0.00012811796
8.3910965e-07 -0.00048234686 -1.721163e-07 -4.0898035e-06 -2.946407e-06 -0.000176288 -0.00018621932 -0.00013426879
-8.9181616e-05 -4.588147e-06 1.1186564e-06 -9.972453e-05 -0.00022972786 5.0243766e-06 -2.674456e-06 3.3914035e-05
-4.0701752e-06 -2.8882891e-07 -0.00036530176 -0.00042733876 -0.000225033 -5.7311518e-05 -1.9991492e-06 6.9491875e-07
-3.0725903e-07 1.7829651e-06 -3.6634964e-07 -0.0003112119 -0.00044551323 -0.00038264573 1.5467685e-07 8.8051434e-07
1.2636445e-06 -0.0003724249 -0.00036009113 -0.0003887891 -7.318065e-05 -3.5205678e-05 -0.00019894968 1.7534801e-05
1.3270915e-06 -4.006889e-06 7.548451e-07 -0.00022961723 1.0877234e-06 -0.00029420486 8.0709947e-07 -0.000294006
-0.00016094504 -0.00019013265 -4.9006965e-05 -0.00020790409 6.679855e-07 -0.00017740825 7.919853e-07 8.830432e-07
-4.687504e-07 -2.0866507e-06 -1.565842e-06 -2.0489144e-06 -4.493702e-07 -0.0001472191 1.1498885e-06 -2.7620865e-06
