results/test2/EndLessRunnerBehaviour/EndLessRunnerBehaviour-999990.onnx (onnx, 74029 bytes, 5 tensors)

network_body._body_endoder.seq_layers.0.weight f4 [128, 5]
0.5210547 -0.33004802 -0.115812585 -0.4426082 0.019718695 0.04941089 -0.49387202 -0.3400593
0.05225564 0.23770995 0.49733108 0.25970337 0.24133791 0.6990067 -0.78230166 -0.24657175
0.027235076 0.034973435 -1.0399926 -0.4590607 0.60701936 0.94485503 -0.82226616 -0.8981553
0.24897033 -0.4960838 -0.40715465 -0.5038155 0.45596078 -0.29845333 -0.71851647 0.0936681
0.6261206 -0.81594074 0.4130572 0.19704819 0.29232335 0.38903278 0.34824494 -0.6030585
0.7702433 0.047295522 -0.1669852 0.30895105 0.110207744 -0.33667004 -0.76583385 -0.05718323
-0.20885108 0.37971696 0.3734561 -0.19221555 -0.5157002 -1.1107359 -0.43856278 -0.59395146
-0.40385512 0.11812024 -0.291732 0.021587811 0.40183067 0.03152061 -0.017627995 -0.26079348
-0.36703572 -0.27435803 0.51964396 -0.11666803 -0.22241132 0.77351606 -0.24229531 -0.14238304
0.23254809 0.4171348 -0.12009364 -0.05443411 0.10487523 -0.8655387 -0.5487957 0.9507365
-0.9382209 0.41222212 -0.7111815 -0.56165814 -0.09841952 -0.25092092 -0.34320173 -0.3453232
-0.31500635 0.9661853 -0.046893995 0.22278152 -0.4420595 -0.43465644 -0.12402684 0.64488864
1.0304406 0.14478382 -0.71030474 0.21375851 -0.12266823 0.5617907 -0.8297041 0.3304426
0.55593795 0.34826264 0.61781865 -0.93898994 0.46401924 0.19721338 0.116162464 -0.041928362
-0.29721776 -0.20476718 -0.2517326 0.49908963 0.44330317 0.5555627 0.20932451 -0.7315424
-0.5323125 -0.055795547 0.18789633 0.26680222 -0.089877345 0.027811395 0.6623586 -0.3095553
0.1060124 0.135867 -1.3700761 -0.14369874 0.31528965 0.24794939 -0.19852242 0.087703004
-0.45126536 -0.09279032 0.29520687 -0.04746651 0.035199698 -0.4046665 -0.06328353 -0.15297037
-0.33181068 0.5638499 -0.15363896 0.33876723 0.4428553 -0.5761222 0.32494235 -0.505198
-0.65401983 0.12557657 -0.23088738 0.19319145 0.31827372 0.36922145 0.032593638 0.07694296
-0.98234063 0.11006636 0.048635453 -0.0012855723 -0.21586058 -0.4639971 -0.34437308 -0.11075287
0.04179452 -0.44947055 0.06837712 -0.019603914 -0.46874768 0.11126113 0.09551383 0.122956745
-0.4068964 0.31000388 -0.4177768 -0.13301776 -0.26893324 -0.05941186 0.28204408 0.47298494
-0.22072689 0.4639278 0.36385754 -0.39115912 0.30655566 0.3492292 0.21347481 -0.09127768
0.39183313 0.047225416 -0.6518348 -0.8639433 0.07861145 0.059696 0.19773263 0.16374804
-0.33386984 0.44095504 -0.9901459 0.20954509 -0.044544775 0.012726834 -0.47734475 0.3966227
0.7744072 0.29335523 0.24031338 -0.40918878 0.060223475 -0.39879298 0.5269867 0.33275157
-0.122890264 -0.24627525 -0.41824156 0.5102355 -0.20964725 0.0702195 -0.65060323 -0.6708566
0.61812454 0.16563745 0.4623769 -0.62769336 0.16542727 0.7740789 -0.6662925 -0.28270993
0.55512446 -0.02252408 0.033555936 0.02784419 0.093892224 -0.13254435 -0.7927553 0.100221746
0.2539449 -0.10289001 0.36777204 -0.092003256 0.015221779 0.17490645 -0.843866 -0.19376822
1.0652726 0.47500792 -0.3185171 0.09320554 0.15802905 -0.27634746 -0.29151735 -0.04105262
00000000: d763 053f 0efc a8be 262f edbd 8b9d e2be
00000010: 1a89 a13c 1363 4a3d cbdc fcbe 411c aebe
00000020: 030a 563d 3d6a 733e 2ea2 fe3e d7f7 843e
00000030: 4921 773e 1af2 323f ec44 48bf 4e7d 7cbe
00000040: 181c df3c 4e40 0f3d 7a1e 85bf 010a ebbe
00000050: 9f65 1b3f 05e2 713f 0980 52bf 81ed 65bf
00000060: 14f2 7e3e b2fe fdbe 9376 d0be 0dfa 00bf
00000070: b173 e93e e0ce 98be b2f0 37bf 10d5 bf3d
00000080: 7149 203f 7ee1 50bf 3c7c d33e 00c7 493e
00000090: 68ab 953e 4e2f c73e 294d b23e 0b62 1abf
000000a0: aa2e 453f f3b8 413d 2bfe 2abe d52e 9e3e
000000b0: 99b4 e13d 0460 acbe b00d 44bf f638 6abd
000000c0: 0fdd 55be 436a c23e a335 bf3e 27d4 44be
000000d0: ee04 04bf 982c 8ebf 4d8b e0be 340d 18bf
000000e0: 19c6 cebe 06e9 f13d e65d 95be ecd8 b03c
000000f0: c0bc cd3e c11b 013d 9668 90bc b986 85be
00000100: 1bec bbbe a878 8cbe 6307 053f a6ef eebd
00000110: cbbf 63be 2605 463f 431c 78be dccc 11be
00000120: 1621 6e3e b192 d53e a8f3 f5bd 4df6 5ebd
00000130: d3c8 d63d f293 5dbf e07d 0cbf 7863 733f
00000140: 3f2f 70bf c70e d33e fe0f 36bf d4c8 0fbf
00000150: 2c90 c9bd b578 80be 23b8 afbe 34ce b0be
00000160: 8348 a1be eb57 773f eb13 40bd d720 643e
00000170: 9f55 e2be 4a8b debe c901 febd 6c17 253f
00000180: 7ae5 833f 3642 143e 88d6 35bf 83e3 5a3e
00000190: 7b39 fbbd 84d1 0f3f 7d67 54bf c62f a93e
000001a0: f351 0e3f 7b4f b23e 5d29 1e3f a561 70bf
000001b0: ee93 ed3e 4ef2 493e 96e6 ed3d 13bd 2bbd
000001c0: ed2c 98be 7dae 51be 18e3 80be ad88 ff3e
000001d0: a2f8 e23e 5b39 0e3f 2a59 563e 5d46 3bbf
000001e0: a245 08bf df89 64bd e567 403e 4d9a 883e
000001f0: 9d11 b8bd b9d4 e33c 5590 293f 087e 9ebe
00000200: 071d d93d b820 0b3e a75e afbf c325 13be
00000210: a56d a13e 72e6 7d3e 7649 4bbe a29d b33d
00000220: 410c e7be da08 bebd 5b25 973e 3e6c 42bd
00000230: 8f2d 103d 7330 cfbe cc9a 81bd 44a4 1cbe
00000240: 17e3 a9be 7858 103f 8853 1dbe e672 ad3e
00000250: eebd e23e bf7c 13bf d85e a63e a854 01bf
00000260: d86d 27bf 2597 003e be6d 6cbe fbd3 453e
00000270: c6f4 a23e 980a bd3e e880 053d 4594 9d3d
00000280: ad7a 7bbf 796a e13d f835 473d a680 a8ba
00000290: 8e0a 5dbe 0791 edbe ab51 b0be 67d2 e2bd
000002a0: bb30 2b3d 0121 e6be 4e09 8c3d 6398 a0bc
000002b0: b2ff efbe e0dc e33d c19c c33d bfd0 fb3d
000002c0: ba54 d0be d4b8 9e3e d7e6 d5be cf35 08be
000002d0: 9eb1 89be da59 73bd 1568 903e 152b f23e
000002e0: 3b06 62be f287 ed3e 894b ba3e 0246 c8be
000002f0: ddf4 9c3e 2bce b23e 2499 5a3e cbef babd
00000300: 5a9e c83e 706f 413d a5de 26bf 632b 5dbf
00000310: 0aff a03d cb83 743d 6c7a 4a3e 91ad 273e
00000320: fdf0 aabe dcc4 e13e 347a 7dbf fd92 563e
00000330: 9574 36bd 3684 503c 8866 f4be 2112 cb3e
00000340: 8d3f 463f a832 963e b614 763e 3181 d1be
00000350: e4ac 763d 982e ccbe 9ae8 063f 6a5e aa3e
00000360: e4ad fbbd 942f 7cbe c223 d6be cb9e 023f
00000370: c5ad 56be 3ecf 8f3d ef8d 26bf 42bd 2bbf
00000380: 693d 1e3f dd9c 293e aabc ec3e 83b0 20bf
00000390: c465 293e 092a 463f 2592 2abf 5bbf 90be
000003a0: a31c 0e3f 6b84 b8bc f371 093d 8019 e43c
000003b0: 914a c03d b5b9 07be 03f2 4abf 0f41 cd3d
000003c0: 1105 823e ffb7 d2bd 9e4c bc3e 346c bcbd
000003d0: c564 793c ad1a 333e 9a07 58bf 2d6b 46be
000003e0: da5a 883f 3d34 f33e ac14 a3be 8ce2 be3d
000003f0: 5ed2 213e 6a7d 8dbe c341 95be cb26 28bd

network_body._body_endoder.seq_layers.0.bias f4 [128]
-0.005150668 -0.013325554 -0.0061366563 -0.0003084222 -0.002446301 0.0051894067 0.005852486 0.0029690913
0.0021249733 -0.0023545616 -0.00034066406 0.0180613 -0.0006542751 -0.0052367104 -0.016100751 -0.0017113185
0.0020229944 -0.0024867882 -0.0041556875 0.0037790362 -0.0016077845 -0.0059124758 -0.0005994442 -0.005952309
0.0025024437 -0.011530134 -0.0065729655 0.00658823 0.020052126 0.052836526 -0.0024306085 -0.005656388
-0.004200562 -0.006597003 -0.0005975522 0.05470284 0.054029014 0.00767651 -0.018372137 0.003727938
-0.0055794585 0.045083106 0.017003218 0.002893301 -0.0013897272 -0.0013613501 0.023484915 0.0171401
-0.009496218 0.010107276 -0.0017580693 -0.007953508 0.009219004 0.0016033177 3.8078273e-05 -0.0027660015
-0.02460996 0.0003511852 -0.018907571 0.0024376335 -0.0025186243 -0.016199017 -0.009137684 -0.00015471167
-0.019140827 0.020525213 0.005109376 -0.0018221146 0.048609775 0.029681321 -0.0021699797 0.0063765934
0.0069696666 -0.0024142584 0.044760425 0.0051784758 -0.0015874652 0.014206869 0.003815543 0.0025167395
-0.017769467 0.0017297904 -0.0019063228 -0.008420364 -0.0022224765 0.05882813 -3.5854348e-05 -0.004812169
0.0027935472 -8.713776e-05 0.0008576938 0.007947871 -0.0016193249 0.0015065093 -0.00033558882 -0.0010291758
0.012695602 0.024118816 -0.006732842 0.001096707 0.0021477912 -0.000617349 -0.00022530502 -0.006885126
0.009124094 -0.010561453 -0.011258024 0.03114878 -0.003323974 -0.005146325 -0.002665011 0.0014480441
-0.0068006488 0.0129552195 -3.7274764e-05 0.003013316 -0.010915555 -0.015143662 0.0037774723 -0.008604468
0.0056911414 0.009072447 -0.0016890652 0.036319327 0.007917783 0.004999997 -0.010610214 0.012574616
00000000: efc6 a8bb 6d53 5abc 0116 c9bb bab3 a1b9
00000010: 1f52 20bb e60b aa3b 36c6 bf3b 1695 423b
00000020: 2343 0b3b fd4e 1abb 289b b2b9 4bf5 933c
00000030: a983 2bba b698 abbb b9e5 83bc 524e e0ba
00000040: 3794 043b 62f9 22bb 6f2c 88bb b5a9 773b
00000050: 4cbc d2ba 71bd c1bb 0524 1dba 960b c3bb
00000060: 0a00 243b e3e8 3cbc 0862 d7bb 14e2 d73b
00000070: 5b44 a43c 1d6b 583d d84a 1fbb 3959 b9bb
00000080: dea4 89bb ac2b d8bb 0da5 1cba 1610 603d
00000090: 874d 5d3d 3c8b fb3b 2a81 96bc 6c50 743b
000000a0: e4d3 b6bb 10a9 383d 554a 8b3c 899d 3d3b
000000b0: 8227 b6ba 546f b2ba 7063 c03c 6569 8c3c
000000c0: 0696 1bbc fd98 253c 046f e6ba 6e4f 02bc
000000d0: 4e0b 173c 6a26 d23a 3cb6 1f38 ce45 35bb
000000e0: d49a c9bc 481f b839 0de4 9abc b4c0 1f3b
000000f0: 810f 25bb cdb3 84bc 39b6 15bc 193a 22b9
00000100: 39cd 9cbc 7e24 a83c 8d6c a73b 05d4 eeba
00000110: 0b1b 473d 3e26 f33c 3836 0ebb bef2 d03b
00000120: cd61 e43b 8938 1ebb b556 373d 34b0 a93b
00000130: 7e12 d0ba edc3 683c 300e 7a3b e2ef 243b
00000140: 4691 91bc 22ba e23a 94dd f9ba 91f5 09bc
00000150: f8a6 11bb c4f5 703d 5062 16b8 66af 9dbb
00000160: f213 373b bbbd b6b8 dbd6 603a ca37 023c
00000170: 873f d4ba 1076 c53a f8f1 afb9 69e5 86ba
00000180: 3701 503c d394 c53c 2c9f dcbb 61bf 8f3a
00000190: f5c1 0c3b 97d5 21ba db3f 6cb9 9f9c e1bb
000001a0: 397d 153c f209 2dbc 9373 38bc ba2b ff3c
000001b0: 08d7 59bb 81a2 a8bb 77a7 2ebb 4ccc bd3a
000001c0: fad7 debb 2142 543c 7957 1cb8 0e7b 453b
000001d0: 28d7 32bc 1f1d 78bc 788f 773b c1f9 0cbc
000001e0: c17c ba3b 9aa4 143c a063 ddba 93c3 143d
000001f0: 97b9 013c 04d7 a33b 77d6 2dbc c305 4e3c

network_body._body_endoder.seq_layers.2.weight f4 [128, 128]
0.01853602 0.033557665 0.042406473 -0.18388009 0.07086338 0.094419695 -0.19423012 0.044963565
0.083194345 0.090435825 0.039091807 -0.049493607 0.006013519 -0.099727266 0.05659655 -0.027284045
0.029972216 -0.11533744 0.107004374 0.027699852 0.054294474 -0.07853941 -0.08324692 -0.034030624
0.038963225 -0.107090525 0.1181339 -0.045450144 -0.100508384 -0.016938265 -0.086356975 0.06808292
-0.011729889 0.05126895 -0.20649797 -0.036494385 0.13194647 0.079334415 -0.007817458 -0.11240031
0.004225302 0.0064725527 0.11796974 -0.02180596 0.1252966 0.10659964 -0.047696155 0.080969475
0.0038167872 0.032557268 0.09738614 -0.0012230726 0.045116436 -0.12033162 -0.032104578 0.27276793
0.023173917 0.002684954 0.033799764 -0.04358494 -0.13353814 0.09328251 -0.008128048 0.14671035
-0.068802804 -0.06746632 -0.23150347 0.012275727 0.013385409 0.046182152 0.06660191 -0.1427019
-0.015257648 -0.0132522 -0.122453816 -0.03971101 -0.01746867 -0.019842539 0.045290243 -0.089118004
-0.0668667 -0.12234634 -0.013319839 -0.024351664 0.03378455 0.05409781 0.16307878 -0.09893901
0.17728636 0.018848075 0.08751074 -0.049330328 -0.048717525 -0.123175606 -0.24404737 -0.008435165
-0.10700217 -0.09707831 -0.05649522 -0.10313061 0.10109302 0.04008722 -0.0044168755 -0.027535759
-0.037843157 -0.05409316 -0.20594023 -0.031992253 0.016315872 0.08761776 -0.02467254 0.027751202
0.10593722 -0.034759693 -0.012311264 -0.06487993 0.029079575 -0.054287024 -0.037080094 -0.11971355
-0.054229807 -0.046663083 -0.1561888 0.07869336 -0.09372609 -0.110307254 0.05315059 -0.09547091
0.15593511 0.011837413 0.083804995 0.028230127 -0.053033717 -0.1082256 -0.09447401 0.0476637
-0.008735217 -0.008323391 -0.014751604 -0.17912515 0.0018767262 0.18209739 -0.058503166 -0.18316273
-0.08877016 0.012612984 0.07960047 -0.077173755 -0.06816527 -0.07889084 -0.08904082 -0.08872677
-0.019541396 -0.13184243 0.11444437 -0.05900026 -0.0628007 -0.037608705 -0.017711313 0.01356133
-0.030346628 -0.068939954 -0.07303886 0.01797584 -0.07080247 0.016814074 0.01834404 -0.03838245
-0.05864484 0.11859596 0.09226079 -0.07094836 0.047433555 -0.17458011 -0.0144773945 0.07922708
-0.0008717347 0.19377677 -0.07205497 0.015264673 -0.082679495 -0.109825045 0.03577368 0.041694146
-0.057027068 0.19813026 0.03774542 -0.015947333 -0.042551037 -0.11574563 0.008231623 0.025652006
0.023197176 -0.03941848 0.03302489 0.055557165 -0.0052020676 -0.14672911 -0.16173017 0.14754179
0.06226547 0.009663051 0.014573428 -0.08503754 0.03515752 0.06983748 -0.23478636 -0.009541327
0.15307075 0.026000906 0.095538296 -0.12856425 0.13458623 -0.058604285 0.11745874 0.029579168
0.0532819 -0.020440292 0.04788832 0.112606056 0.033823818 0.08637708 0.0592699 -0.09484939
0.039830852 0.009191962 0.01535766 -0.076663546 -0.08445688 0.065043464 -0.022945447 0.033897158
-0.022071755 -0.027435018 -0.024597203 -0.073369004 -0.10109643 0.04572459 -0.19271757 -0.0033524358
-0.13081443 -0.031897902 0.070345685 -0.041301664 -0.0770642 -0.07844322 0.010332062 0.0677232
-0.12012447 0.12856421 -0.15263592 0.1305543 -0.10030191 -0.108603485 0.102307715 -0.115978256
00000000: dad8 973c c373 093d 69b2 2d3d 104b 3cbe
00000010: d220 913d 1d5f c13d 43e4 46be b72b 383d
00000020: cc61 aa3d 6b36 b93d bb1e 203d cfb9 4abd
00000030: 0e0d c53b cf3d ccbd c9d1 673d ca82 dfbc
00000040: 4b88 f53c 0936 ecbd 1c25 db3d cdea e23c
00000050: e263 5e3d 45d9 a0bd 5c7d aabd b263 0bbd
00000060: e797 1f3d 4752 dbbd 30f0 f13d ee29 3abd
00000070: 57d7 cdbd 1ec2 8abc eddb b0bd 0f6f 8b3d
00000080: b82e 40bc 64ff 513d 3474 53be 237b 15bd
00000090: fa1c 073e 157a a23d cc14 00bc 2232 e6bd
000000a0: 6774 8a3b b517 d43b 1e9a f13d 6aa2 b2bc
000000b0: c04d 003e e950 da3d 0b5d 43bd 53d3 a53d
000000c0: 1023 7a3b c55a 053d 6272 c73d 824f a0ba
000000d0: 03cc 383d 6d70 f6bd 1780 03bd 3da8 8b3e
000000e0: 3ad7 bd3c 0ef6 2f3b 9f71 0a3d 1f86 32bd
000000f0: 39be 08be e70a bf3d 812b 05bc 3d3b 163e
00000100: 7ce8 8cbd c82b 8abd 3f0f 6dbe 2120 493c
00000110: 794e 5b3c 7f29 3d3d 9566 883d 7220 12be
00000120: 37fb 79bc c11f 59bc 11c9 fabd 03a8 22bd
00000130: 751a 8fbc d28c a2bc 4382 393d 8083 b6bd
00000140: 69f1 88bd b890 fabd 743b 5abc 247d c7bc
00000150: ab61 0a3d aa95 5d3d 20fe 263e 89a0 cabd
00000160: 8e8a 353e 4767 9a3c d538 b33d 990e 4abd
00000170: 078c 47bd 7e43 fcbd 8ee7 79be a533 0abc
00000180: f423 dbbd fed0 c6bd 8867 67bd 2436 d3bd
00000190: db09 cf3d 7f32 243d 70bb 90bb ac92 e1bc
000001a0: 6d01 1bbd ca90 5dbd ffe1 52be 4f0a 03bd
000001b0: dda8 853c f170 b33d 111e cabc 7d56 e33c
000001c0: 9df5 d83d 2e60 0ebd 2fb5 49bc c5df 84bd
000001d0: 4a38 ee3c 125c 5ebd 4ce1 17bd 612c f5bd
000001e0: 1320 5ebd ca21 3fbd f5ef 1fbe fc29 a13d
000001f0: 77f3 bfbd c5e8 e1bd 6fb4 593d 4186 c3bd
00000200: 74ad 1f3e b5f1 413c f4a1 ab3d de42 e73c
00000210: e239 59bd 62a5 ddbd 977b c1bd 033b 433d
00000220: 281e 0fbc d55e 08bc b6b0 71bc 956c 37be
00000230: 7bfc f53a bd77 3a3e 04a1 6fbd 038f 3bbe
00000240: 21cd b5bd b0a6 4e3c 9205 a33d 460d 9ebd
00000250: 3c9a 8bbd 8591 a1bd 095b b6bd 61b6 b5bd
00000260: 4715 a0bc b401 07be cf61 ea3d 42aa 71bd
00000270: a79d 80bd 960b 1abd 5117 91bc 5730 5e3c
00000280: 7e99 f8bc 6430 8dbd 6695 95bd 1242 933c
00000290: e300 91bd abbd 893c 3d46 963c ea36 1dbd
000002a0: 9235 70bd 70e2 f23d 3af3 bc3d 604d 91bd
000002b0: b049 423d 21c5 32be 9832 6dbc cf41 a23d
000002c0: 2085 64ba 6b6d 463e 8e91 93bd ae18 7a3c
000002d0: de53 a9bd f4eb e0bd 6c87 123d 7bc7 2a3d
000002e0: 3795 69bd a9e2 4a3e f19a 1a3d fba3 82bc
000002f0: ff49 2ebd 0b0c edbd eedd 063c 2824 d23c
00000300: 0108 be3c 4675 21bd 1b45 073d e98f 633d
00000310: 1b76 aabb 2840 16be 989c 25be 3215 173e
00000320: 140a 7f3d c651 1e3c 63c5 6e3c 2928 aebd
00000330: 5501 103d f406 8f3d d66b 70be 3a53 1cbc
00000340: 94be 1c3e daff d43c 95a9 c33d 59a6 03be
00000350: f9d0 093e 0c0b 70bd 358e f03d 0350 f23c
00000360: 1f3e 5a3d 6672 a7bc 8b26 443d 019e e63d
00000370: d88a 0a3d 77e6 b03d ffc4 723d 6640 c2bd
00000380: ad25 233d e299 163c b29e 7b3c c701 9dbd
00000390: bbf7 acbd 8235 853d 17f8 bbbc bfd7 0a3d
000003a0: d3cf b4bc 67bf e0bc 1380 c9bc 7d42 96bd
000003b0: a50b cfbd b549 3b3d c157 45be 8ab4 5bbb
000003c0: 38f4 05be 60a7 02bd 6611 903d ef2b 29bd
000003d0: d6d3 9dbd d7a6 a0bd cf47 293c 76b2 8a3d
000003e0: d103 f6bd 56a6 033e 974c 1cbe 07b0 053e
000003f0: 166b cdbd 816b debd b586 d13d 0286 edbd

network_body._body_endoder.seq_layers.2.bias f4 [128]
0.0023527485 -0.010934902 0.00054036867 -0.001490157 -0.01567257 -0.004148023 -0.027595852 0.0022760476
6.0076207e-05 0.0012537206 0.015891654 0.0014062688 -0.0007129565 0.006520483 0.02340345 -0.00064453855
0.008136636 0.0031710993 -0.00042203872 0.022073762 -0.008007206 0.003482173 -0.0002497238 -0.001439484
0.029422129 -8.398308e-05 0.00021234658 -0.0044482225 -0.005732454 -0.0012224687 -0.005513293 0.01729735
-0.0014825854 -0.005009511 -0.0010524098 0.0016642561 0.009417643 0.014705806 -0.0021849067 -0.020913657
-0.0021321632 -0.01328982 -0.0018619214 0.0011028609 0.0023860182 -0.002713676 -0.0020074942 0.0073856907
0.008963726 0.0005823276 0.019273242 -0.0039695846 -0.0031205276 0.0006346199 -0.0018177038 -0.0019886508
-0.010802183 0.00043564502 0.0019908 -0.00038723162 -0.0072183358 0.01372078 -0.026768476 -0.0014283529
0.007245365 -0.018354207 -0.0008240016 0.007879322 -0.02866476 0.00089463516 -0.0013481963 0.007614554
-0.0029051683 -0.00068716897 -0.0025028093 -0.00064165035 -0.0050908793 0.003710521 -0.023530426 0.0005868011
0.0011657015 0.0061365534 -0.008610129 0.013652571 -0.0016190893 -0.0034625137 0.0016576555 0.0011090627
0.00198262 -0.0015255994 -0.018530287 0.036397416 0.00019950648 -0.0018723605 -0.0016726984 -0.003241898
0.00045499115 0.009936604 0.0048548183 0.00016159599 0.00058820983 0.0004155616 -0.0032798375 -0.021912355
-0.0011276278 -0.001123286 0.017369946 -0.027633686 0.017452924 -0.00911802 -0.009941771 -0.011728155
-0.0007468191 -0.0016205993 -4.4831497e-05 -0.00069398544 -0.0008332933 -0.0011135408 -0.00113052 -0.0029825154
-0.0030433275 -0.0003153193 0.000714789 0.011139029 -0.0028882602 0.003463596 0.009952642 -0.00039237502
00000000: 9230 1a3b 4e28 33bc 87a7 0d3a 5f51 c3ba
00000010: c363 80bc 24ec 87bb b210 e2bc be29 153b
00000020: 56fa 7b38 e253 a43a 372f 823c 8d52 b83a
00000030: b3e5 3aba c7a9 d53b 98b8 bf3c 40f6 28ba
00000040: 864f 053c 38d2 4f3b 1445 ddb9 09d4 b43c
00000050: a830 03bc 2b35 643b 5ced 82b9 11ad bcba
00000060: ad06 f13c 1320 b0b8 5aa9 5e39 65c2 91bb
00000070: 4fd7 bbbb 3e3b a0ba dba8 b4bb 2cb3 8d3c
00000080: 5053 c2ba d326 a4bb 03f1 89ba 2b23 da3a
00000090: 754c 1a3c 9ff0 703c a730 0fbb 1e53 abbc
000000a0: c3bb 0bbb 8cbd 59bc b70b f4ba df8d 903a
000000b0: be5e 1c3b eed7 31bb 2a90 03bb aa03 f23b
000000c0: 98dc 123c 58a7 183a ebe2 9d3c 4a13 82bb
000000d0: c481 4cbb 9f5c 263a 0540 eeba 0654 02bb
000000e0: a4fb 30bc 4967 e439 1578 023b 5905 cbb9
000000f0: ca87 ecbb 1fcd 603c 9049 dbbc 9237 bbba
00000100: 876a ed3b 905b 96bc d001 58ba 4618 013c
00000110: 5cd2 eabc f385 6a3a f6b5 b0ba 8283 f93b
00000120: a364 3ebb 2123 34ba 2c06 24bb 6d34 28ba
00000130: 64d1 a6bb 362c 733b e1c2 c0bc 8ed3 193a
00000140: 74ca 983a 2415 c93b 8011 0dbc 08af 5f3c
00000150: 9f37 d4ba 57eb 62bb b045 d93a f85d 913a
00000160: d8ee 013b 9ff6 c7ba d4cc 97bc 7515 153d
00000170: 9d32 5139 fe69 f5ba 723e dbba 0676 54bb
00000180: e18b ee39 23cd 223c 2b15 9f3b 1872 2939
00000190: 1832 1a3a bcdf d939 8bf2 56bb 8a81 b3bc
000001a0: e9cc 93ba 393b 93ba 6b4b 8e3c 0a60 e2bc
000001b0: 6ff9 8e3c bf63 15bc cfe2 22bc 7327 40bc
000001c0: 2ec6 43ba 4a6a d4ba 7409 3cb8 93ec 35ba
000001d0: 5e71 5aba 3bf4 91ba f52d 94ba 4e76 43bb
000001e0: 9072 47bb 7151 a5b9 ae60 3b3a 7980 363c
000001f0: f748 3dbb 80fd 623b 6810 233c afb7 cdb9

action_model._continuous_distribution.mu.weight f4 [1, 128]
0.015235498 -0.034126583 0.013989483 -0.009664797 -0.013358497 -0.022890158 -0.035258185 -0.023122055
0.0065117385 -0.02692518 0.025639078 0.0055931783 -0.008818489 -0.00894963 0.028806016 -0.0047245077
0.017845677 -0.01084731 -0.022391206 0.035493743 -0.0035975138 -0.019756496 0.005135432 -0.02696491
-0.028424269 -0.0042366814 0.0068231113 -0.02745314 -0.01167505 0.006782493 -0.022447357 0.050550774
-0.005988176 -0.013164934 -0.014926421 0.0124304965 -0.03790187 -0.023463175 0.019407418 -8.6780594e-05
-0.006998965 -0.023994073 0.0015862094 0.015190095 0.029618604 0.020313498 0.017177789 -0.022737911
-0.048486777 0.012380799 -0.032532565 -0.003238797 0.013100809 0.032950874 -0.011860295 -0.011127836
-0.029318234 0.0022329567 0.00607091 0.009863761 -0.022186842 0.0073174 -0.030264884 -0.018900104
-0.041960694 -0.024071166 0.011321484 0.020372117 -0.018038144 0.02091229 -0.026931426 -0.010867852
-0.0039555277 0.008701342 -0.0043256236 0.010822585 -4.859745e-05 0.007934232 -0.013640081 0.015768528
0.05477536 -0.014193701 -0.0034777184 0.032338295 -0.014968237 0.0023607486 0.008153171 0.011396852
-0.03003193 0.0018185318 -0.008993699 -0.046589714 0.007742899 -0.0108026145 -0.029167978 -0.025809502
0.017371299 -0.017140802 0.0069787554 -0.01872583 0.016351605 0.013016981 0.008875891 -0.043100744
-0.014949362 -0.01314311 0.023724064 -0.019920297 0.03278774 -0.04754561 -0.01799654 -0.071794495
-0.034703966 -0.0022810875 0.007915096 -0.012801082 0.036555443 0.025569046 -0.014760962 -0.016313544
-0.0019582158 0.004294203 0.028643202 -0.023416353 0.014453535 -0.026700338 0.024487387 0.009449013
00000000: 4f9e 793c 51c8 0bbd 2534 653c 1959 1ebc
00000010: 99dd 5abc 2484 bbbc e36a 10bd 776a bdbc
00000020: 6c60 d53b 3292 dcbc 0b09 d23c fb46 b73b
00000030: 6c7b 10bc 78a1 12bc 98fa eb3c 0bd0 9abb
00000040: 1931 923c eab8 31bc c36d b7bc e361 113d
00000050: 44c4 6bbb 60d8 a1bc 2047 a83b 84e5 dcbc
00000060: 03da e8bc dcd3 8abb 6894 df3b 68e5 e0bc
00000070: b548 3fbc ad3f de3b 85e3 b7bc 540e 4f3d
00000080: 7638 c4bb bcb1 57bc f38d 74bc 48a9 4b3c
00000090: fe3e 1bbd d835 c0bc 4efc 9e3c fafd b5b8
000000a0: 9357 e5bb 388f c4bc 5be8 cf3a e0df 783c
000000b0: b7a2 f23c 7e68 a63c 6fb8 8c3c db44 babc
000000c0: 129a 46bd d6d8 4a3c de40 05bd ff41 54bb
000000d0: c7a4 563c 7ff7 063d af51 42bc 8751 36bc
000000e0: cb2c f0bc cc56 123b 7cee c63b 9d9b 213c
000000f0: 2ec1 b5bc cdc6 ef3b 10ee f7bc 64d4 9abc
00000100: fade 2bbd e530 c5bc bf7d 393c 6de3 a63c
00000110: bbc4 93bc 4050 ab3c 4b9f dcbc 130f 32bc
00000120: 5f9d 81bb 1390 0e3c f6bd 8dbb 3651 313c
00000130: 1dd5 4bb8 95fe 013c a57a 5fbc 002d 813c
00000140: 215c 603d b28c 68bc 6fea 63bb 2975 043d
00000150: 563d 75bc cab6 1a3b e194 053c ddb9 3a3c
00000160: 8605 f6bc cd5b ee3a 4f5a 13bc dbd4 3ebd
00000170: 25b8 fd3b 73fd 30bc aff1 eebc 736e d3bc
00000180: 414e 8e3c de6a 8cbc 0bae e43b e966 99bc
00000190: cdf3 853c 2d45 553c 2f6c 113c 688a 30bd
000001a0: 2bee 74bc 3356 57bc f858 c23c e42f a3bc
000001b0: 704c 063d 30bf 42bd 7b6d 93bc fe08 93bd
000001c0: bf25 0ebd 4c7e 15bb 52ae 013c a1bb 51bc
000001d0: 29bb 153d 2d76 d13c f6d7 71bc fba3 85bc
000001e0: 6955 00bb 63b6 8c3b 26a5 ea3c a7d3 bfbc
000001f0: 85ce 6c3c abba dabc c699 c83c 08d0 1a3c
