results/test2/EndLessRunnerBehaviour/EndLessRunnerBehaviour-185176.pt (torch, 437618 bytes, 30 tensors)

network_body._body_endoder.seq_layers.0.weight f4 [128, 5]
0	0xbe88e345	-0.26735893
1	0xbf27b4b3	-0.655101
2	0xbdd49eef	-0.10381877
3	0xbe6a6e37	-0.22893606
4	0xbe178646	-0.14797315
5	0xbdad6aca	-0.08467634
6	0xbea8af9e	-0.32946485
7	0x3e3a71b6	0.1820744
8	0x3f280dc4	0.65646005
9	0xba42db4e	-0.00074331916
10	0x3f11d3a2	0.5696355
11	0xbdd145ac	-0.10218367
12	0x3ec46ea1	0.38365653
13	0x3e0b312e	0.1359298
14	0xbe8f609f	-0.28003404
15	0xbed6e527	-0.41971704
16	0xbc845079	-0.016151654
17	0xbd344187	-0.044007804
18	0xbe97ed84	-0.29673398
19	0x3ea196a4	0.31560242
20	0x3c7538b3	0.014967131
21	0xbe92d07f	-0.28674695
22	0x3d27518d	0.040849257
23	0xbe9de449	-0.3083823
24	0x3e563da4	0.20921952
25	0x3ec41a69	0.383014
26	0x3e9c1359	0.3048351
27	0xbe2ee853	-0.17080812
28	0x3f5316db	0.8245675
29	0x3e7f6686	0.24941453
30	0xbf0adafa	-0.5424038
31	0xbf822f9a	-1.0170777
32	0xbf033e0d	-0.51266557
33	0xbf17630a	-0.59135497
34	0x3f085dee	0.53268325
35	0xbeaffbf2	-0.34371907
36	0xbf0ae0fc	-0.5424955
37	0xbf21acef	-0.631545
38	0xbcee98bf	-0.02912557
39	0x3eb3787a	0.35052854
40	0x3e1f25b6	0.1554173
41	0x3ef12648	0.4709952
42	0x3eb9f5a6	0.36320227
43	0xbf0ba099	-0.5454193
44	0x3d114d86	0.035474323
45	0xbd2b2878	-0.04178664
46	0x3e13ca57	0.14432655
47	0x3ed1fdcc	0.41013944
48	0xbe1e576c	-0.15463036
49	0x3dbc99b9	0.09209008
50	0x3e3bbe8b	0.18334405
51	0xbdace562	-0.08442189
52	0x3f23b390	0.63945866
53	0xbf1026d5	-0.5630925
54	0xbc4fa048	-0.012672491
55	0x3cc72318	0.024308726
56	0xbee11c2a	-0.439668
57	0x3edbde7e	0.42943186
58	0x3dcbb42c	0.099464744
59	0x3eb19646	0.34684962
60	0x3efb319b	0.49061283
61	0xbec20165	-0.3789169
62	0x3f010937	0.50404686
63	0xbe7d90ba	-0.2476224
64	0xbeb5406d	-0.35400715
65	0x3eadceae	0.33946747
66	0xbdfcc5a3	-0.12342384
67	0xbed8a1a0	-0.4231081
68	0xbe9a60df	-0.30152032
69	0xbdef143c	-0.11673781
70	0x3f88054e	1.0626619
71	0xbf1b0aae	-0.6056317
72	0xbf47518d	-0.7785881
73	0xbe60e495	-0.21962197
74	0xbed3cbe9	-0.4136651
75	0xbe2ec2a7	-0.17066441
76	0xbefb19ef	-0.49043223
77	0xbf04eb6b	-0.5192172
78	0x3eb0acf7	0.34506962
79	0x3f66ffef	0.90234274
80	0x3e4b61fe	0.198616
81	0xbe4ab3ee	-0.197952
82	0xbec3bdd4	-0.38230765
83	0xbf2a92c3	-0.6663019
84	0x3d57d49e	0.052693002
85	0xbdb93b92	-0.09044565
86	0x3eb36893	0.3504072
87	0xbf22422d	-0.63382226
88	0x3e617693	0.22017889
89	0x3f82a6bf	1.0207137
90	0x3f132d44	0.57490945
91	0x3e80a3a2	0.25124842
92	0x3ee716d4	0.45134604
93	0x3d8774ce	0.066140756
94	0x3ec980a6	0.39355963
95	0xbf330eb7	-0.6994433
96	0xbfd9c3e2	-1.7012904
97	0xbf06c1f9	-0.5263973
98	0x3ea99c0d	0.3312687
99	0x3ec0e664	0.37675774
100	0xbc60445a	-0.013688171
101	0xbdc07ea1	-0.093991525
102	0xbed81c11	-0.42208913
103	0xbdff5535	-0.12467424
104	0x3e8a9513	0.2706686
105	0x3d91291a	0.070879176
106	0x3f3bc0dd	0.7334116
107	0x3f51cafe	0.81950366
108	0x3e4707b7	0.19436537
109	0x3e1b34c3	0.15156846
110	0xbd09cd8a	-0.033643283
111	0x3e9ac81a	0.3023079
112	0x3ec69f10	0.3879323
113	0xbecf3ce6	-0.4047615
114	0x3d1a7d66	0.037717246
115	0xbf5883f5	-0.8457635
116	0x3e598beb	0.2124478
117	0x3f2db553	0.67854804
118	0xbe8e317e	-0.27772135
119	0x3f0135be	0.5047263
120	0x3ed65a68	0.4186585
121	0x3f0e9004	0.556885
122	0xbe09cb19	-0.13456382
123	0x3eac80a6	0.336919
124	0x3e13cd72	0.1443384
125	0x3eb0acda	0.34506875
126	0xbef3389d	-0.4750413
127	0xbe560d98	-0.20903623
128	0xbb9c52f0	-0.004770629
129	0x3ef15c17	0.4714057
130	0xbe1b2a7c	-0.15152925
131	0xbcca272a	-0.024676878
132	0xbd048eb8	-0.03236267
133	0x3e4b5b0a	0.19858947
134	0x3eaa40c8	0.3325255
135	0xbdf9bd7d	-0.12194345
136	0xbe967324	-0.2938472
137	0x3f54fe1b	0.83200234
138	0xbf572825	-0.8404563
139	0x3ed4bd7a	0.4155081
140	0xbbf7a2b4	-0.0075572375
141	0x3eb495df	0.35270593
142	0xbeb6b898	-0.3568771
143	0x3edbe5a2	0.42948633
144	0x3dfbe8b9	0.12300248
145	0xbeb1041c	-0.34573448
146	0x3f77e3b7	0.9683184
147	0x3eb178d3	0.34662494
148	0xbd1bbdf6	-0.038022958
149	0x3ee8c932	0.45466
150	0x3ea80224	0.32814133
151	0xbb9fffa5	-0.00488277
152	0x3e6bee51	0.23040129
153	0xbf185d23	-0.59517115
154	0xbeba9fda	-0.36450082
155	0xbe4bfdad	-0.19920988
156	0xbe2e68bb	-0.17032139
157	0xbec65398	-0.38735652
158	0x3eb7bbd4	0.3588549
159	0x3d0c97b0	0.034324348
160	0xbedd3014	-0.43200743
161	0x3e0e4ad8	0.13895738
162	0xbf47712d	-0.7790707
163	0xbea11139	-0.31458452
164	0xbeb5b82b	-0.35492072
165	0x3ea70127	0.32618067
166	0x3e694936	0.22781834
167	0x3e2ff650	0.17183805
168	0xbe8ba036	-0.2727067
169	0x3f41804b	0.75586385
170	0xbeb12bf6	-0.34603852
171	0x3b9b172c	0.004732987
172	0x3d75e6b5	0.060034472
173	0x3e16d565	0.14729841
174	0xbed99b49	-0.42501286
175	0xbe295f82	-0.1654034
176	0xbb1394f1	-0.0022519196
177	0xbecc8c91	-0.39950994
178	0xbed1bcc6	-0.40964335
179	0xbecb5e25	-0.39720264
180	0x3f31b364	0.69414353
181	0xbea259bc	-0.31709087
182	0x3ea763b2	0.3269325
183	0xbe18ee89	-0.14934744
184	0xbe715d39	-0.23570718
185	0xbd177601	-0.03697777
186	0xbc1734a8	-0.009228863
187	0x3e00297b	0.12515824
188	0xbd0bb885	-0.03411152
189	0xbee98196	-0.4560668
190	0x3db8c162	0.0902126
191	0xbd249a7d	-0.040186394
192	0x3d458157	0.04821905
193	0x3f02b652	0.5105945
194	0xbf30d827	-0.6907982
195	0xbe69f599	-0.22847594
196	0x3f597880	0.84949493
197	0xbe6ab03c	-0.2291879
198	0xbe23d9b3	-0.16001014
199	0x3f7500eb	0.95704526
200	0x3d261a1f	0.040552255
201	0xbec9e578	-0.39432883
202	0x3d1c8702	0.03821469
203	0xbf49fdb6	-0.7890276
204	0xbf0d3aac	-0.5516765
205	0xbebb322f	-0.36561725
206	0x3e8d0a63	0.27546987
207	0x3d27f3cb	0.041003983
208	0x3dbd3922	0.09239413
209	0x3f406a2a	0.75161994
210	0x3f2c7251	0.67361933
211	0x3ef7ff1c	0.4843682
212	0x3ea7d6d8	0.327811
213	0xbe5f8edd	-0.21831842
214	0x3e19812c	0.14990681
215	0xbf22fe0d	-0.636689
216	0xbed4a32c	-0.4153074
217	0x3f194363	0.5986845
218	0xbe4f1a07	-0.20224772
219	0xbeb55bb3	-0.35421523
220	0xbeadd789	-0.33953503
221	0xbe7e20e6	-0.24817237
222	0xbf18bdf2	-0.59664834
223	0x3eb93c58	0.3617885
224	0x3e47af89	0.19500555
225	0x3ddfc573	0.10926332
226	0xbf25db2b	-0.6478755
227	0x3f709662	0.93979466
228	0xbdf806b8	-0.121106565
229	0x3cfc1dec	0.030775987
230	0xbefb49dd	-0.4907979
231	0x3f12aff1	0.57299715
232	0xbf1be0a4	-0.6088965
233	0x3d1055da	0.035238124
234	0xbdd74a33	-0.10512199
235	0xbd0d2386	-0.034457706
236	0x3ef40ce9	0.476661
237	0xbecd8e34	-0.40147555
238	0x3f839b14	1.0281701
239	0xbf09cd91	-0.53829294
240	0x3e2aa7d5	0.16665585
241	0x3b12d982	0.0022407477
242	0xbf0cdd2a	-0.5502497
243	0x3db2ccc3	0.087304614
244	0xbec2dfac	-0.38061273
245	0xbd73e6dd	-0.05954634
246	0xbeec82ac	-0.46193445
247	0x3de5c1b5	0.11218587
248	0xbe754e9f	-0.23955773
249	0xbebcfc68	-0.3691132
250	0xbf7c463f	-0.9854469
251	0xbf920188	-1.1406717
252	0x3e52f9cd	0.20603104
253	0xbe63c174	-0.22241765
254	0x3d736645	0.059423704
255	0x3f8c07e7	1.0939912

network_body._body_endoder.seq_layers.0.bias f4 [128]
0	0xbb304fc5	-0.0026903015
1	0xbb27a356	-0.0025579534
2	0xb9f33ecf	-0.00046395368
3	0xbbf55e6f	-0.007488064
4	0xbb998a95	-0.0046857097
5	0xbb33099a	-0.0027318955
6	0xbb2a8e9e	-0.0026024948
7	0xbb57207d	-0.003282576
8	0xb926cfae	-0.0001590836
9	0x3b1d9c62	0.002404951
10	0xbba9c949	-0.0051814658
11	0x3c3292b9	0.010899239
12	0xbbd0525e	-0.006357475
13	0xba3443b5	-0.0006876544
14	0x3a855754	0.001017312
15	0x3a9bcfe0	0.0011887513
16	0xbbb1fdf1	-0.0054318835
17	0x3a60ec66	0.0008580148
18	0x38ae8be4	8.323023e-05
19	0xbc6c164a	-0.014409611
20	0xbaa64921	-0.0012686589
21	0x3ab75087	0.0013985791
22	0x3a9e05d7	0.0012056184
23	0x3ad9e0f6	0.001662283
24	0xbb0b33de	-0.0021240632
25	0x3a57b0ba	0.00082279334
26	0xba862844	-0.0010235389
27	0xbbfb1e9f	-0.0076635624
28	0xba29300a	-0.0006453997
29	0xbb9acc03	-0.004724027
30	0xb953c8d5	-0.00020197344
31	0x3a6ff4b1	0.00091535883
32	0xba2840eb	-0.0006418365
33	0x3ada944e	0.0016676278
34	0xb9205bac	-0.0001529294
35	0xb9b739d2	-0.0003494756
36	0x3c47e088	0.0121995285
37	0xbb814e2a	-0.0039460855
38	0x3b675d50	0.0035303421
39	0xbabfe2cc	-0.0014639734
40	0xbbc81bbd	-0.0061068223
41	0x39fc803e	0.00048160733
42	0x3aff2849	0.0019466962
43	0xbbb826b4	-0.005619848
44	0xbbed5d7e	-0.007243811
45	0xb9b910e3	-0.0003529853
46	0xb9360059	-0.00017357002
47	0xb9bd980d	-0.00036162176
48	0xbaa6e36b	-0.0012732571
49	0x3b2d5c6b	0.002645279
50	0x3bb5f998	0.0055534355
51	0xbba20b3e	-0.004945188
52	0xba9e385c	-0.001207124
53	0xb8fd727c	-0.000120853045
54	0xbb2a1adb	-0.0025955949
55	0x3a5ca9ff	0.00084176654
56	0xbaaab1ff	-0.0013023018
57	0x3bcfbec5	0.00633988
58	0x3a946a9a	0.0011323274
59	0xbae63a15	-0.0017564917
60	0x3b6be835	0.003599656
61	0x3bd3b2c4	0.0064605195
62	0x3b163008	0.0022916812
63	0xbb030dd8	-0.0019997265
64	0xba96a6d0	-0.0011493806
65	0x3ac1ff90	0.0014800895
66	0xbad927b7	-0.0016567622
67	0xba3aadb6	-0.0007121222
68	0xbab5b1fb	-0.0013862246
69	0xbb36d0d7	-0.0027895474
70	0x3b271e18	0.0025500115
71	0xbb035481	-0.0020039382
72	0x3a84752d	0.0010105722
73	0x3c9257ca	0.017864127
74	0xbaacda9c	-0.0013187709
75	0x3bfc07fc	0.0076913815
76	0xbb211e00	-0.0024584532
77	0xbae03c6a	-0.0017107849
78	0x3b441a17	0.0029922777
79	0x38ef49f9	0.000114101866
80	0xba879c5d	-0.0010346283
81	0x3c14b3f0	0.009076104
82	0x3b6bdae9	0.0035988635
83	0xba50f31f	-0.0007970798
84	0xbb8f6bb2	-0.004376852
85	0x3bb71fd9	0.0055885133
86	0x3a181127	0.0005800896
87	0x3bdce86a	0.006741573
88	0x3aedf17f	0.0018153636
89	0xbaa1ffb8	-0.0012359535
90	0x3a5ca84e	0.00084174133
91	0xbc115743	-0.0088709025
92	0xba9f7aad	-0.0012167298
93	0x3b2ca6a1	0.0026344436
94	0xbb3686e3	-0.0027851395
95	0x3c6dca9c	0.014513638
96	0xbc09b7e9	-0.008405664
97	0x3bbf46e5	0.0058373087
98	0x3a4dee44	0.0007855634
99	0x3c0e2621	0.008676083
100	0x3acf4045	0.0015812
101	0x3c4df990	0.012571707
102	0xbb284d28	-0.0025680754
103	0x3a3799ba	0.0007003803
104	0x3aae4f84	0.0013298844
105	0x3b72e575	0.0037063037
106	0xbb4b7156	-0.0031042895
107	0xbaea4f3b	-0.0017876396
108	0x3a223f48	0.0006189239
109	0xba8bf33d	-0.0010677349
110	0xbba3ba49	-0.004996572
111	0xbbaa4fb1	-0.0051974882
112	0xbc029df2	-0.007972227
113	0xba133076	-0.0005614826
114	0x3b07f011	0.0020742456
115	0x3b16bc07	0.0023000257
116	0xb94d001c	-0.00019550364
117	0x3b27d449	0.002560871
118	0xbb22691e	-0.0024781893
119	0x3aa080bb	0.0012245396
120	0x39904131	0.00027514392
121	0xbb36b4f2	-0.0027878848
122	0xbae1e6d7	-0.0017234933
123	0x3a7dd8a9	0.0009683469
124	0xbb4024b9	-0.0029318763
125	0xbbe15d0f	-0.0068775485
126	0x3ac08048	0.0014686668
127	0x39839be7	0.00025102423

network_body._body_endoder.seq_layers.2.weight f4 [128, 128]
0	0x3de9d59e	0.11417697
1	0xbc078d7e	-0.00827348
2	0x3cb8ff23	0.022582596
3	0x3e47cf16	0.19512591
4	0x3d9670c3	0.07345726
5	0x3d3d4ba0	0.0462147
6	0xbded3567	-0.11582451
7	0xbd61cd08	-0.055127174
8	0xbc66a5ba	-0.014077598
9	0xbbc058e8	-0.0058699735
10	0x3da2dc7e	0.07952212
11	0xbc95bf67	-0.018279744
12	0xbcbdf4a8	-0.02318795
13	0x3df248bc	0.11830279
14	0x3d8f1084	0.06985572
15	0x3d891468	0.06693345
16	0xbe230493	-0.15919714
17	0xbc5df723	-0.0135476915
18	0xbbd575db	-0.0065142936
19	0x3d8440d2	0.06457676
20	0x3cd11bec	0.02552601
21	0x3d216b99	0.039409254
22	0xbe0c0c39	-0.13676538
23	0xbc9233b6	-0.017846923
24	0x3d8d54fe	0.069009766
25	0x3d7415f3	0.059591245
26	0xbcc83405	-0.024438867
27	0xbe464ff3	-0.19366436
28	0xbabdb9df	-0.001447495
29	0xbdc89405	-0.097938575
30	0xbdb7ad63	-0.08968618
31	0x3d4dc8fa	0.050240494
32	0xbd127888	-0.03575948
33	0xbcae6d2d	-0.021292293
34	0xbc69f720	-0.014280111
35	0xbd7ffef0	-0.062498987
36	0x3e0152b7	0.1262921
37	0xbe45d687	-0.19320117
38	0xbdae00b2	-0.08496226
39	0xbe1d0781	-0.15334894
40	0x3d79bcb5	0.06097098
41	0x3e12e94e	0.14346811
42	0xbd53af23	-0.051680695
43	0x3cb56a9e	0.022145566
44	0xbc77533c	-0.015095528
45	0x3d9faa93	0.07796206
46	0x3ca4b067	0.020103646
47	0x3ba8bdf6	0.0051495982
48	0x3da26a17	0.07930391
49	0xbde22810	-0.110427976
50	0x3d9f27aa	0.07771237
51	0xbda9897f	-0.082781784
52	0x3d88eda6	0.06685953
53	0x3cf947f2	0.030429814
54	0xbdcd1736	-0.10014193
55	0xbdb6a85f	-0.08918833
56	0x3e14bf62	0.14526132
57	0xbd110fcf	-0.035415467
58	0xbe03bfd0	-0.1286614
59	0x3d7a6704	0.0611334
60	0x3dfac216	0.1224405
61	0xbcf8db4b	-0.030378005
62	0x3d88656a	0.06659968
63	0x3d082dd0	0.033246815
64	0x39961faa	0.0002863382
65	0xbd06901b	-0.032852273
66	0xbd9163d0	-0.07099116
67	0x3e040bea	0.1289517
68	0xbd7efe35	-0.06225415
69	0x3cf96550	0.030443817
70	0xbd59211f	-0.053010102
71	0xbd552799	-0.052039716
72	0x3ceea269	0.029130178
73	0xbcc51771	-0.02405903
74	0xbc40c94e	-0.011766745
75	0xbd72e62b	-0.059301537
76	0xbe2288b0	-0.15872455
77	0x3cf2b305	0.029626379
78	0x3dac082e	0.08399998
79	0x3d09646c	0.033543035
80	0xbb5142ef	-0.0031930765
81	0xbd411a17	-0.04714402
82	0x3c50f964	0.012754772
83	0xbdaca110	-0.08429158
84	0xbc3bd51b	-0.0114643825
85	0x3d73387e	0.059380047
86	0x3c85de81	0.01634145
87	0xbdd68e90	-0.104764104
88	0xbca51933	-0.020153617
89	0xbd896d57	-0.06710308
90	0x3cddcde7	0.027075721
91	0xbe170429	-0.1474768
92	0xbdacf26a	-0.08444674
93	0x3d53881f	0.051643487
94	0x3e06dc3a	0.13169947
95	0xbd25bbb4	-0.04046221
96	0x3c173987	0.009230024
97	0x3defd9dc	0.11711475
98	0x3c3e799e	0.0116256755
99	0xbc8a1c8d	-0.016859317
100	0xbdc3a818	-0.09553546
101	0x3d0a0f65	0.033706088
102	0xbd9be2cf	-0.0761162
103	0xbd1384f4	-0.036015466
104	0xbd92f4b0	-0.07175577
105	0xbd6f79ad	-0.05846565
106	0xbe53c041	-0.20678808
107	0x3d628e0c	0.055311248
108	0xbc8e1b4f	-0.017347006
109	0xbd03eada	-0.032206394
110	0xbdcb4e41	-0.09927035
111	0xbccf59a2	-0.025311295
112	0xbe680264	-0.22657162
113	0xbda07423	-0.07834651
114	0x3d868778	0.06568807
115	0xbd5385a5	-0.051641125
116	0x3d0f2d71	0.034955446
117	0x3d921140	0.071321964
118	0xbde53f22	-0.11193682
119	0x3c22ce39	0.009936863
120	0xbe62254f	-0.22084545
121	0xba962fb8	-0.0011458313
122	0x3d0585d2	0.032598324
123	0xbb753873	-0.003741768
124	0x3dfa86fe	0.12232779
125	0x3cd45c6b	0.025922975
126	0x3e0dbcbc	0.13841528
127	0xbd1e6c47	-0.03867748
128	0xbdcad4b9	-0.09903855
129	0xbdd30165	-0.10303
130	0x3d94a3ff	0.07257842
131	0xbcbb2293	-0.022843635
132	0xbd1238dd	-0.03569876
133	0x3e415e31	0.18883587
134	0xbd2d77a0	-0.04235041
135	0x3bb849fe	0.005624055
136	0xbd561744	-0.05226828
137	0x3dcaf6da	0.099103644
138	0xbe00347d	-0.12520023
139	0x3dee15ec	0.11625275
140	0xbced44ff	-0.028963564
141	0x3d904468	0.070442975
142	0xbe0b1446	-0.13581952
143	0xbe33a369	-0.17542805
144	0xbd355567	-0.0442709
145	0xbe2e5dac	-0.1702792
146	0x3d3cb235	0.04606839
147	0x3d73877e	0.059455387
148	0x3dd70a6b	0.10500034
149	0x3d2ca431	0.042148773
150	0xbc7735e5	-0.015088533
151	0x3ca5724d	0.020196104
152	0xbe0841bd	-0.13306327
153	0x3b9aa606	0.0047194986
154	0xbd578224	-0.052614346
155	0xbd49acca	-0.04923705
156	0xbdb9e315	-0.090765156
157	0x3d968b10	0.07350743
158	0x3dd3242b	0.10309633
159	0xbd31d839	-0.043419097
160	0xbdd1c8e0	-0.10243392
161	0x3cc70a1f	0.024296818
162	0x3d259012	0.0404206
163	0x3a9ff6b9	0.0012204266
164	0x3dc6cd24	0.09707096
165	0xbc8d3d44	-0.017241128
166	0xbc1fa61b	-0.0097441925
167	0x3c8314e1	0.016001167
168	0xbdf2732a	-0.11838372
169	0xbd25b9d3	-0.04046042
170	0x3a6ce4c8	0.00090367766
171	0xbd1bf213	-0.038072657
172	0x3e24635d	0.16053529
173	0x3e5d80be	0.21631142
174	0xbd6d04cd	-0.057865907
175	0xbcb21c50	-0.021742016
176	0x3d40f1b0	0.04710549
177	0xbd3d4e8f	-0.046217497
178	0x3bf42ddb	0.0074517555
179	0xbd2b8fd2	-0.041885205
180	0xbdd59e49	-0.10430581
181	0xbd2b62d2	-0.04184229
182	0x3d04218e	0.032258563
183	0xbcf66a57	-0.030080004
184	0x3d489f11	0.048979823
185	0xbd2f6a62	-0.042826064
186	0x3d8e9256	0.06961505
187	0x3d263b48	0.04058388
188	0x3dca5876	0.09880154
189	0xbd80bc57	-0.06285923
190	0xbe09e080	-0.13464546
191	0x3c9d6764	0.01921434
192	0xbd36a838	-0.04459402
193	0xbd426ad6	-0.047465168
194	0x3e10bc9f	0.14134453
195	0x3bfbd8df	0.007685765
196	0x3d24a88e	0.04019981
197	0x3dce23ea	0.10065444
198	0x3e2ad6fc	0.16683573
199	0xbd083b4c	-0.033259675
200	0x3db0a03a	0.08624311
201	0x3dc3ac30	0.095543265
202	0x3ce2ceb0	0.027686447
203	0xbd61fbe0	-0.055171847
204	0x3e7dbf85	0.2478009
205	0xbd581f4f	-0.052764233
206	0x3c5396ee	0.012914402
207	0x3de2a2d4	0.11066213
208	0x3e0de2f1	0.13856103
209	0x3da162ee	0.078801975
210	0xbce220dc	-0.02760356
211	0xbbe8b4da	-0.0071016373
212	0xbd907914	-0.07054344
213	0xbd808846	-0.06275992
214	0x3d30f0de	0.04319846
215	0x3db13f11	0.08654607
216	0xbe0dceed	-0.13848467
217	0x3d2545e6	0.040349863
218	0x3ce010f1	0.027351828
219	0x3d26d866	0.040733717
220	0x3e3e36a3	0.1857553
221	0xbca6d04d	-0.020362997
222	0x3dbdf663	0.0927551
223	0xbe1872ec	-0.14887589
224	0xbe1159b2	-0.14194372
225	0x3dccd711	0.10001958
226	0xbe6e0314	-0.23243362
227	0x3c17c95e	0.009264318
228	0xbd0ce95e	-0.034402244
229	0x3dba572a	0.090986565
230	0x3d7c175d	0.06154572
231	0xbe02ee53	-0.12786226
232	0xbd44d095	-0.04805048
233	0x3dc59f90	0.09649575
234	0x3db49c78	0.088189065
235	0xbd2340e4	-0.039856806
236	0xbd9573e4	-0.07297495
237	0x3cb7ba7b	0.022427788
238	0x3c630afb	0.013857598
239	0xbe73d192	-0.23810413
240	0x3d1acc0b	0.037792247
241	0x3d95b9c6	0.07310824
242	0xbdb089c7	-0.08620029
243	0x3d1e35a7	0.038625386
244	0x3db4ebea	0.088340595
245	0x3c487d9a	0.012236977
246	0xbc94f65c	-0.01818388
247	0x3d5fff39	0.05468676
248	0x3d3242cc	0.043520734
249	0x3deba334	0.11505738
250	0xbd65d877	-0.05611464
251	0xbd08c5dd	-0.033391822
252	0x3b9779b0	0.0046226606
253	0x3d9659ed	0.07341371
254	0x3cfd2e5f	0.0309059
255	0xbcd1dad6	-0.025617044

network_body._body_endoder.seq_layers.2.bias f4 [128]
0	0xbab65eba	-0.0013913729
1	0xba0f1a61	-0.0005458948
2	0xbb207a56	-0.002448698
3	0xba3e6446	-0.0007262867
4	0xb9a8ef41	-0.00032221715
5	0x3abc0e4c	0.0014347523
6	0x39499cb0	0.00019227224
7	0xba329cfa	-0.00068135525
8	0xbbc2ee1b	-0.0059487945
9	0x3b38a0e6	0.0028172075
10	0xbab1f3f2	-0.001357673
11	0xb9e41454	-0.00043502694
12	0x3bb4a406	0.005512717
13	0xbbcb118d	-0.0061971606
14	0xbb14448b	-0.0022623863
15	0xba37999e	-0.0007003787
16	0x39864c6c	0.0002561541
17	0xb9b23c19	-0.00033995582
18	0x3a3e0649	0.00072488614
19	0x3bcc7a00	0.0062401295
20	0x3ad00ff1	0.0015873892
21	0xb9a07fff	-0.00030612943
22	0xbb5fa77b	-0.0034126926
23	0xba6fccb3	-0.0009147629
24	0x3b6517c0	0.0034956783
25	0x3b3586ac	0.002769868
26	0xbc136dbf	-0.0089983335
27	0xb7b48bd2	-2.1522781e-05
28	0x3a508473	0.0007954307
29	0x3aa84d18	0.0012840359
30	0x39acbc84	0.00032946852
31	0x397644b9	0.0002348599
32	0x39a801cf	0.00032044805
33	0xbac68b4a	-0.0015147713
34	0x3ad92cbd	0.0016569119
35	0xbabaa957	-0.0014241141
36	0xbb45495b	-0.0030103538
37	0xbb82d2ba	-0.0039924057
38	0xba0cbfe7	-0.0005369172
39	0x39d98644	0.000414895
40	0xb9d2155a	-0.0004007023
41	0xb84ad090	-4.8354792e-05
42	0x3bd6440a	0.0065388726
43	0xbb9ab343	-0.0047210767
44	0xba0fc972	-0.0005485035
45	0xba07a985	-0.00051751017
46	0xba167422	-0.0005739351
47	0xba86d4d9	-0.0010286822
48	0x39ac4809	0.00032860067
49	0xbb33157b	-0.0027326036
50	0x39649ded	0.00021802606
51	0xbb264385	-0.0025369835
52	0x388010cf	6.1066465e-05
53	0x3adf8d57	0.0017055672
54	0x3b4a9aaa	0.003091494
55	0xb91543fb	-0.00014235072
56	0xbaaea8ab	-0.0013325413
57	0x3c3594ec	0.011082869
58	0xbb0c0743	-0.0021366633
59	0x3ab01200	0.0013433099
60	0xb954f8fe	-0.00020310652
61	0xbb10ca34	-0.0022093179
62	0xbb58c016	-0.0033073477
63	0xb968f5bc	-0.00022216787
64	0x3a465498	0.0007565706
65	0xb9d9d10e	-0.00041545223
66	0xbbb72a5b	-0.005589766
67	0xb8f469b2	-0.00011654514
68	0xbb2dc848	-0.0026517082
69	0xbb51210c	-0.0031910567
70	0xbbb0e630	-0.0053985342
71	0x3adcf7e2	0.0016858543
72	0x3a1b3e31	0.0005922048
73	0xbb0e4aea	-0.0021712133
74	0xbb7c10ce	-0.0038462165
75	0xb9e81c5c	-0.00044271618
76	0xbb64670d	-0.0034851462
77	0x3b77a5dc	0.003778807
78	0xb9edbf55	-0.00045346716
79	0x3a486f00	0.0007645935
80	0xbb675438	-0.0035298
81	0xba069e3d	-0.00051352737
82	0xbb08f466	-0.0020897626
83	0xb9d1df43	-0.0004002993
84	0xb999e014	-0.00029349385
85	0xba20c26c	-0.0006132487
86	0xb7631efb	-1.3537468e-05
87	0xb99c6146	-0.00029827113
88	0x3a846b7c	0.0010102834
89	0xba250ca6	-0.0006296135
90	0x3a3c36db	0.0007179805
91	0xbb3b345f	-0.002856515
92	0xbb0fbc8c	-0.002193245
93	0xbbd5c8b5	-0.0065241703
94	0xbb81c011	-0.0039596637
95	0x3932c48e	0.00017048625
96	0x38e4b130	0.00010904891
97	0xba9a863a	-0.001178927
98	0xba47eb0e	-0.00076262734
99	0xbb893df0	-0.0041882917
100	0x3991bb92	0.00027796306
101	0xbb8e8fda	-0.0043506445
102	0xbac1daf2	-0.0014789982
103	0xb98e671c	-0.00027161173
104	0x3bc10029	0.0058899117
105	0xbac74e05	-0.0015205747
106	0x3ab9577f	0.0014140456
107	0xbb67804c	-0.0035324274
108	0x3a2b3d7e	0.00065322954
109	0xba20a8be	-0.000612866
110	0xbbabc475	-0.0052419254
111	0x3ba7e53a	0.0051237615
112	0xbb1b1779	-0.0023665114
113	0x381e1869	3.769287e-05
114	0x393ec1fd	0.00018192078
115	0xbb09ef08	-0.0021047015
116	0xbbcb61a0	-0.006206706
117	0xbadb62aa	-0.0016737778
118	0x3a191aa2	0.00058404554
119	0xb9a336bc	-0.00031130563
120	0xba5bf27f	-0.0008390322
121	0xbb3e5dcd	-0.002904761
122	0xb9179f42	-0.0001445981
123	0x399b3a18	0.00029607187
124	0xba87feea	-0.0010375653
125	0xbbb59333	-0.005541229
126	0xb7927cd7	-1.746269e-05
127	0xb808f4d7	-3.265295e-05

action_model._continuous_distribution.mu.weight f4 [1, 128]
0	0xbcaaf9bb	-0.020871034
1	0x3c8c7b8c	0.017148755
2	0x3c7c5afe	0.015402554
3	0xbcbc51db	-0.02298825
4	0x3d4b151a	0.04958067
5	0xbc7ef549	-0.01556141
6	0xbce9335f	-0.028466878
7	0x3c0cd61e	0.008595971
8	0xb9f648ef	-0.00046975116
9	0xbab9a5dc	-0.001416381
10	0x3c9d03c1	0.019166829
11	0x3c4f213c	0.012642201
12	0xbc8df919	-0.017330693
13	0x3ba4cc58	0.0050292425
14	0x3aa76569	0.0012771311
15	0x3c1ed4f1	0.009694324
16	0xbc8bfd21	-0.017088475
17	0xbc0805e4	-0.008302186
18	0x3bdc1123	0.00671591
19	0x3c1ebc9a	0.009688521
20	0x3b8f62a0	0.0043757707
21	0x3d090699	0.033453558
22	0x3b110331	0.0022127146
23	0x3ca5c78d	0.020236755
24	0x3bf343da	0.00742386
25	0xbcdae5bf	-0.02672088
26	0x3c91b228	0.017785147
27	0xbc85eebe	-0.016349193
28	0xbcf50aca	-0.029912371
29	0xbd16b788	-0.036796123
30	0xbc437ad1	-0.011931137
31	0xbd089bf2	-0.033351846
32	0xbbb17a65	-0.005416202
33	0xbb1d04f5	-0.0023959253
34	0x3c45cf5f	0.012073367
35	0x3bd4723c	0.0064833444
36	0x39f1b40c	0.00046101247
37	0x3ceba4f3	0.028765177
38	0xbc96d9a4	-0.018414326
39	0xbc25a10c	-0.010109197
40	0x3cfec474	0.031099536
41	0xbc043403	-0.008069041
42	0x3b741a93	0.0037247285
43	0xbc9e8626	-0.019351076
44	0x3c3aee94	0.0114094205
45	0x3bc6d4a1	0.006067828
46	0x3c8a6d35	0.016897777
47	0x3bd3243e	0.0064435294
48	0xbafc5559	-0.001925151
49	0xb93d2858	-0.00018039474
50	0x3cbd4c06	0.02310754
51	0x3d084b0a	0.033274688
52	0xbd852efa	-0.06503101
53	0x3c2292dd	0.00992271
54	0x3c3daa2e	0.0115762185
55	0xbbfd5701	-0.007731319
56	0x3cb81eef	0.022475688
57	0xbd00b720	-0.03142464
58	0x3ca5d540	0.020243287
59	0x3b81ad8c	0.003957456
60	0xbbce3377	-0.006292756
61	0xbc2b414a	-0.010452578
62	0x3a15bb22	0.0005711784
63	0xbc13b686	-0.009015685
64	0x3c720d6d	0.014773709
65	0xbb89e06f	-0.004207663
66	0xb9279304	-0.00015981129
67	0xbbef2280	-0.007297814
68	0xbc3154ec	-0.01082347
69	0xbbbbd191	-0.0057317694
70	0xbbcbf9fa	-0.006224868
71	0x3c8de109	0.01731922
72	0xbc225d40	-0.009909928
73	0x3c8b02ac	0.016969047
74	0x3a5aa13d	0.00083400664
75	0x3cbfbbfd	0.02340507
76	0x3c5bc702	0.013414146
77	0x3d08c8d8	0.033394665
78	0x3c9b145b	0.018930605
79	0xbd142946	-0.036172174
80	0xb9f99700	-0.00047605485
81	0x3cdcfe18	0.02697663
82	0xbc59724c	-0.013271879
83	0xbba9da05	-0.0051834607
84	0x3b716c22	0.0036838134
85	0x3c871ccc	0.016493224
86	0xbce4a9f1	-0.027913066
87	0xbb9214b9	-0.0044580367
88	0x3ca6dfde	0.02037042
89	0xbb09f8c1	-0.002105281
90	0xbb317ddb	-0.0027083072
91	0xbb10e743	-0.00221105
92	0x3a6e9e54	0.0009102572
93	0xb82cfd9b	-4.1244184e-05
94	0xbc1f17fd	-0.009710309
95	0xbc92bd32	-0.017912481
96	0xbc715b7a	-0.014731282
97	0x3c8f0eed	0.017463172
98	0xbb2f663b	-0.0026763815
99	0xbb0b1549	-0.0021222404
100	0xbd0dc6ae	-0.034613304
101	0xbb3c99f2	-0.0028778282
102	0x3c694f0d	0.014240039
103	0xbb5aea07	-0.0033403651
104	0x3cb353f4	0.021890618
105	0x3b01d4fc	0.0019810786
106	0x3c9bea27	0.019032551
107	0xbd03ff62	-0.032225974
108	0xbcdba367	-0.026811315
109	0x3c9216a7	0.017833067
110	0xba3a9823	-0.0007118007
111	0xbbf5071c	-0.007477654
112	0xbc2e8d0a	-0.0106537435
113	0x3cdb8295	0.026795665
114	0xbc319d07	-0.010840661
115	0x3c9293ef	0.017892806
116	0xbc3694cc	-0.011143874
117	0xbb63083f	-0.0034642366
118	0xbc509d77	-0.012732855
119	0xbcb6ce95	-0.022315303
120	0x3b91730a	0.0044387626
121	0xbbbe07c9	-0.005799268
122	0xbcffcd8e	-0.031225946
123	0xbd20dfe9	-0.039276037
124	0x3c98131f	0.018563805
125	0xb956861d	-0.00020458591
126	0x3c30da81	0.010794283
127	0xbc1044e2	-0.008805485

exp_avg f4 [128, 5]
0	0x36c39298	5.8285186e-06
1	0xb701a724	-7.727915e-06
2	0x38d2f386	0.0001005894
3	0x36bfacae	5.712346e-06
4	0x00000000	0.0
5	0x3555663c	7.9497454e-07
6	0x3688f0f1	4.081165e-06
7	0x385142f8	4.9891853e-05
8	0xb78c41f6	-1.6720016e-05
9	0x00000000	0.0
10	0x348ba83c	2.6013174e-07
11	0x35c3c050	1.4584602e-06
12	0xb663f592	-3.3968577e-06
13	0x36107b45	2.1529424e-06
14	0x00000000	0.0
15	0x35e4b898	1.7041048e-06
16	0x39c88e6d	0.00038253088
17	0xb98ccbe6	-0.00026854797
18	0xb7c65842	-2.3644538e-05
19	0x00000000	0.0
20	0x3596965c	1.1219631e-06
21	0x36dd0298	6.586615e-06
22	0xb71b8bb0	-9.2712435e-06
23	0x3708e6c1	8.159958e-06
24	0x00000000	0.0
25	0xb8174e55	-3.6074158e-05
26	0xbb49ae2a	-0.0030773976
27	0x3a689287	0.0008871932
28	0xb848fea8	-4.7920883e-05
29	0x00000000	0.0
30	0xb7e0cb79	-2.679763e-05
31	0xb9602eed	-0.00021379786
32	0x3a271bfc	0.00063747144
33	0xb9963aab	-0.0002865394
34	0x00000000	0.0
35	0xb81545ca	-3.5589364e-05
36	0x3a77a6fe	0.0009447186
37	0xb9c30e24	-0.00037203834
38	0xb9b2ad9a	-0.0003408015
39	0x00000000	0.0
40	0x385a65a8	5.2069925e-05
41	0x3b715239	0.003682269
42	0xba7eebde	-0.0009724478
43	0x38e3effd	0.00010868905
44	0x00000000	0.0
45	0xb877f826	-5.9120495e-05
46	0xbbb54b4d	-0.005532658
47	0x3abf4c32	0.0014594852
48	0xb8ff99e3	-0.00012188011
49	0x00000000	0.0
50	0x3361270c	5.2422408e-08
51	0x35f0a606	1.7929713e-06
52	0xb420e1e6	-1.4983343e-07
53	0x3488e822	2.5500873e-07
54	0x00000000	0.0
55	0xb30cef16	-3.2813738e-08
56	0x34137178	1.3731722e-07
57	0x342e5964	1.6237533e-07
58	0xb4b4ba78	-3.3663287e-07
59	0x00000000	0.0
60	0xb4be90b2	-3.5495538e-07
61	0xb355faa0	-4.982087e-08
62	0x33e2f8e4	1.0569218e-07
63	0xb4ac83f4	-3.2133505e-07
64	0x00000000	0.0
65	0x37eccccd	2.822876e-05
66	0x3a5f97ab	0.0008529375
67	0xb98f149e	-0.00027290446
68	0xb7b52f9c	-2.1599051e-05
69	0x00000000	0.0
70	0x37f20a82	2.8853541e-05
71	0xb98d8fbe	-0.00027000712
72	0x397573f8	0.00023408222
73	0x391e31dc	0.00015086628
74	0x00000000	0.0
75	0x37d2680c	2.5082401e-05
76	0xba3c96c5	-0.0007194097
77	0x39d176c0	0.00039952062
78	0x3945af54	0.00018852699
79	0x00000000	0.0
80	0x36aa5a25	5.076889e-06
81	0x3735ead4	1.0843116e-05
82	0xb8667de6	-5.4953525e-05
83	0xb6f647b1	-7.3397173e-06
84	0x00000000	0.0
85	0x386e49d6	5.6812387e-05
86	0x3b5b7c56	0.0033490858
87	0xba9f7acf	-0.0012167337
88	0x39690114	0.00022221013
89	0x00000000	0.0
90	0xb836f3f7	-4.361939e-05
91	0xbba9108f	-0.0051594446
92	0x3af5573a	0.0018718012
93	0xb97cf25e	-0.00024122882
94	0x00000000	0.0
95	0xb6a5cb29	-4.941034e-06
96	0xb75937f8	-1.2947239e-05
97	0x368218c0	3.877183e-06
98	0xb818d088	-3.6433834e-05
99	0x00000000	0.0
100	0xb83cdf61	-4.503073e-05
101	0xbb651111	-0.00349528
102	0x3a9ccb7d	0.00119625
103	0x374ba778	1.2138735e-05
104	0x00000000	0.0
105	0x37e65c36	2.7461076e-05
106	0x3b092289	0.0020925126
107	0xba00a37f	-0.00049071753
108	0x383357a2	4.275854e-05
109	0x00000000	0.0
110	0xb8428e92	-4.6385983e-05
111	0xbb404652	-0.002933879
112	0x3a73bc1a	0.00092977437
113	0xb8ea7196	-0.000111791465
114	0x00000000	0.0
115	0x346bd267	2.1962624e-07
116	0x38d6f11c	0.00010249225
117	0xb806b51e	-3.2116768e-05
118	0x33644eed	5.315717e-08
119	0x00000000	0.0
120	0xb868f357	-5.553974e-05
121	0xbba9c340	-0.0051807463
122	0x3abe7d10	0.0014533121
123	0xb818daf2	-3.6443533e-05
124	0x00000000	0.0
125	0x371d3f8a	9.372723e-06
126	0x38963ab6	7.163493e-05
127	0xb98a2f0e	-0.0002635647
128	0x38c7073e	9.4904084e-05
129	0x00000000	0.0
130	0xb7847d8c	-1.5794089e-05
131	0xb8e21870	-0.000107810716
132	0xb946b246	-0.00018949163
133	0x376eb698	1.4228419e-05
134	0x00000000	0.0
135	0xb3abdf69	-8.003446e-08
136	0xb3ac4406	-8.0217475e-08
137	0xb2e9827a	-2.7184104e-08
138	0xb3c33aa0	-9.091059e-08
139	0x00000000	0.0
140	0x37219fee	9.633584e-06
141	0x3ad465ea	0.0016204689
142	0xb97836f0	-0.00023671589
143	0xb8cbcec3	-9.718307e-05
144	0x00000000	0.0
145	0xb6f951ef	-7.4303166e-06
146	0xb9a0cd0d	-0.00030670353
147	0xb7810df6	-1.53845e-05
148	0xb6a9e620	-5.0633826e-06
149	0x00000000	0.0
150	0xb5a07532	-1.1955037e-06
151	0xb8953f4e	-7.116665e-05
152	0x37c34e00	2.3282133e-05
153	0xb6146d19	-2.2117222e-06
154	0x00000000	0.0
155	0xb694d062	-4.4350027e-06
156	0xb9255533	-0.00015767365
157	0x38be0fe8	9.062869e-05
158	0xb89b5757	-7.407244e-05
159	0x00000000	0.0
160	0x3598f708	1.1396778e-06
161	0x39289667	0.00016077758
162	0x3935e952	0.00017348424
163	0xb8ee2779	-0.00011356077
164	0x00000000	0.0
165	0x380b8a47	3.3268963e-05
166	0x3b21baf2	0.0024678078
167	0xba406dc4	-0.0007340575
168	0x38a379a6	7.7951045e-05
169	0x00000000	0.0
170	0x36b1112c	5.27701e-06
171	0x39b0cb3a	0.00033720752
172	0x395dea30	0.00021163444
173	0xb86b1ec6	-5.6057026e-05
174	0x00000000	0.0
175	0xb88db864	-6.757749e-05
176	0xbbd943ba	-0.006630388
177	0x3aa8ee37	0.0012888376
178	0x399ac74f	0.00029521665
179	0x00000000	0.0
180	0x34df0645	4.1541549e-07
181	0xb468ee32	-2.1693339e-07
182	0x36881294	4.0552786e-06
183	0x332ae7a0	3.979187e-08
184	0x00000000	0.0
185	0x362cde75	2.5759484e-06
186	0x39600a93	0.00021366244
187	0xb831dc76	-4.240541e-05
188	0x3691c573	4.344323e-06
189	0x00000000	0.0
190	0xb60cd9a5	-2.0988311e-06
191	0xb7848c18	-1.5800862e-05
192	0x39cd200b	0.0003912452
193	0xb8a48c51	-7.846265e-05
194	0x00000000	0.0
195	0x37e8a500	2.773339e-05
196	0x3b102766	0.002199614
197	0xb9e8f14c	-0.00044430268
198	0xb82f0cac	-4.1735053e-05
199	0x00000000	0.0
200	0xb471c429	-2.2516237e-07
201	0x3486bf6b	2.509872e-07
202	0xb6970c5a	-4.5015886e-06
203	0x33bd2320	8.8073875e-08
204	0x00000000	0.0
205	0x381edbe9	3.7874943e-05
206	0x3b49b310	0.0030776896
207	0xba4deda3	-0.000785554
208	0x37cde54c	2.4544679e-05
209	0x00000000	0.0
210	0x380f7841	3.4205852e-05
211	0x3b2f8b26	0.002678582
212	0xba616500	-0.0008598119
213	0x38ab520a	8.1691964e-05
214	0x00000000	0.0
215	0xb082236c	-9.468812e-10
216	0xb361bff1	-5.2561465e-08
217	0xb3263881	-3.8701277e-08
218	0xb40d4759	-1.3157604e-07
219	0x00000000	0.0
220	0x37ce2531	2.4574432e-05
221	0x3a620b63	0.00086229126
222	0xb94bd4c2	-0.00019438847
223	0x38432da8	4.6534144e-05
224	0x00000000	0.0
225	0x32cadf07	2.3617316e-08
226	0xb2f8e444	-2.8974803e-08
227	0xb40f3bbe	-1.3339647e-07
228	0xaed94c00	-9.881518e-11
229	0x00000000	0.0
230	0x381d6c6f	3.7532704e-05
231	0x3b6e9cf0	0.003640946
232	0xba957469	-0.0011402491
233	0x38a62835	7.922986e-05
234	0x00000000	0.0
235	0xb84e5e61	-4.9202125e-05
236	0xbb71cc0b	-0.00368953
237	0x39ee0321	0.0004539723
238	0x38e9b686	0.000111443034
239	0x00000000	0.0
240	0x37a58ad9	1.9734189e-05
241	0x3b1de152	0.00240906
242	0xb9c3abaa	-0.00037321198
243	0xb9378e16	-0.00017505171
244	0x00000000	0.0
245	0x3563882b	8.476224e-07
246	0x354b9f20	7.585495e-07
247	0x36a31f56	4.8614265e-06
248	0x3662e55c	3.381013e-06
249	0x00000000	0.0
250	0x3431543b	1.6515052e-07
251	0xb3b7b644	-8.5547555e-08
252	0x365b3974	3.2666985e-06
253	0x3443c68a	1.8233018e-07
254	0x00000000	0.0
255	0xb6b94ac5	-5.522134e-06

exp_avg_sq f4 [128, 5]
0	0x30cf60cd	1.5088745e-09
1	0x3209581e	7.994485e-09
2	0x35a3d16f	1.22054e-06
3	0x32ccb1da	2.3829603e-08
4	0x00000000	0.0
5	0x2f5b6ba7	1.995618e-10
6	0x3105a561	1.9448054e-09
7	0x3404e994	1.2378433e-07
8	0x31870b6a	3.9303147e-09
9	0x00000000	0.0
10	0x2bf4bd2e	1.7389751e-12
11	0x2f1b9345	1.4149489e-10
12	0x2e434afd	4.440447e-11
13	0x2de4b03d	2.5998865e-11
14	0x00000000	0.0
15	0x311d1ffb	2.2864686e-09
16	0x37e81158	2.7664631e-05
17	0x37727db4	1.4453592e-05
18	0x343d7d79	1.7647643e-07
19	0x00000000	0.0
20	0x2e802bc3	5.82854e-11
21	0x3089a760	1.0015633e-09
22	0x33725bf1	5.6428636e-08
23	0x30a39d0c	1.1904446e-09
24	0x00000000	0.0
25	0x31e8ec53	6.7789556e-09
26	0x39cdbff4	0.00039243663
27	0x38348630	4.3040316e-05
28	0x356b3b12	8.763028e-07
29	0x00000000	0.0
30	0x3325decc	3.861969e-08
31	0x365d4b68	3.2975458e-06
32	0x38934547	7.02241e-05
33	0x35b12d8f	1.3200787e-06
34	0x00000000	0.0
35	0x339d25bf	7.317748e-08
36	0x3759bbe4	1.2977955e-05
37	0x390d2064	0.00013458874
38	0x362eba94	2.6036623e-06
39	0x00000000	0.0
40	0x32106014	8.403749e-09
41	0x39be639a	0.00036313833
42	0x383d475c	4.512757e-05
43	0x356e9b06	8.88875e-07
44	0x00000000	0.0
45	0x311e8f57	2.3073505e-09
46	0x39d1d1a1	0.00040019772
47	0x37cb14bc	2.4209141e-05
48	0x35125275	5.450923e-07
49	0x00000000	0.0
50	0x2a89a058	2.444735e-13
51	0x2e9c69f5	7.1128804e-11
52	0x2ae9e9be	4.1551306e-13
53	0x2b2edd73	6.212454e-13
54	0x00000000	0.0
55	0x2a8cc41f	2.5005082e-13
56	0x2c3f3375	2.7171297e-12
57	0x2c768132	3.503042e-12
58	0x2c3c9733	2.680034e-12
59	0x00000000	0.0
60	0x2c2b3ba3	2.4333667e-12
61	0x2da9a318	1.9285504e-11
62	0x2dea0f05	2.660939e-11
63	0x2daf1777	1.9905617e-11
64	0x00000000	0.0
65	0x324c4804	1.1890737e-08
66	0x397430a1	0.00023287769
67	0x383e152d	4.531925e-05
68	0x355bf117	8.193469e-07
69	0x00000000	0.0
70	0x324f5bcd	1.2069859e-08
71	0x36177e3f	2.2574238e-06
72	0x379fe1ba	1.905939e-05
73	0x34be8d73	3.5493176e-07
74	0x00000000	0.0
75	0x331a4251	3.5916234e-08
76	0x3688c13c	4.0756113e-06
77	0x385be18b	5.2423722e-05
78	0x35880918	1.0135436e-06
79	0x00000000	0.0
80	0x30de7088	1.6184609e-09
81	0x353b526c	6.978287e-07
82	0x365380ff	3.1516536e-06
83	0x337b5de1	5.8525874e-08
84	0x00000000	0.0
85	0x320a5580	8.052098e-09
86	0x398d0000	0.00026893616
87	0x37feb2e4	3.0362462e-05
88	0x352b9e0e	6.3932464e-07
89	0x00000000	0.0
90	0x32121989	8.5041245e-09
91	0x3a22794d	0.0006197885
92	0x3868505b	5.5387947e-05
93	0x35a93c8d	1.2609104e-06
94	0x00000000	0.0
95	0x2fa13a92	2.9327346e-10
96	0x3271bdac	1.4071173e-08
97	0x34f9dbcc	4.6539787e-07
98	0x320fb1f6	8.364159e-09
99	0x00000000	0.0
100	0x32d28d44	2.4511458e-08
101	0x3a1bf5d5	0.00059494126
102	0x38f0e663	0.00011487005
103	0x360b0c88	2.0719908e-06
104	0x00000000	0.0
105	0x31ac0ccf	5.007315e-09
106	0x3928ee2d	0.00016110456
107	0x37b699d2	2.1767719e-05
108	0x34e3575c	4.2345607e-07
109	0x00000000	0.0
110	0x31a8d70f	4.913893e-09
111	0x39a23e76	0.00030945585
112	0x380f4ab6	3.4163437e-05
113	0x353fee98	7.1500244e-07
114	0x00000000	0.0
115	0x2cba9177	5.302588e-12
116	0x36e42751	6.7995065e-06
117	0x347a2aec	2.3298679e-07
118	0x320b7974	8.11848e-09
119	0x00000000	0.0
120	0x33002c44	2.984258e-08
121	0x3a9fae20	0.0012182631
122	0x391d1bfa	0.00014983109
123	0x364e1f52	3.0714623e-06
124	0x00000000	0.0
125	0x323bdf90	1.0935665e-08
126	0x3546c867	7.405237e-07
127	0x37897af4	1.6388927e-05
128	0x34b25f29	3.3224322e-07
129	0x00000000	0.0
130	0x310b749d	2.029345e-09
131	0x38132856	3.5085097e-05
132	0x36d08188	6.2139625e-06
133	0x3432b318	1.6642696e-07
134	0x00000000	0.0
135	0x2aaf8f58	3.118571e-13
136	0x2c78ca61	3.5355263e-12
137	0x2b048a4b	4.708774e-13
138	0x2beee9b4	1.6975783e-12
139	0x00000000	0.0
140	0x31457294	2.8732403e-09
141	0x389d66a3	7.505461e-05
142	0x3752a6a5	1.2555775e-05
143	0x348f8323	2.673124e-07
144	0x00000000	0.0
145	0x2f302235	1.601926e-10
146	0x36b604f7	5.4246007e-06
147	0x3531f922	6.6300174e-07
148	0x32941528	1.7239088e-08
149	0x00000000	0.0
150	0x2bdcbb1d	1.5683875e-12
151	0x334deeb2	4.7947374e-08
152	0x31424515	2.8269984e-09
153	0x2e9bd726	7.086802e-11
154	0x00000000	0.0
155	0x2feb7477	4.2829004e-10
156	0x35225edb	6.0487736e-07
157	0x35b321a6	1.3346332e-06
158	0x32ea21cc	2.7256554e-08
159	0x00000000	0.0
160	0x3175972b	3.5738121e-09
161	0x378a5975	1.6492539e-05
162	0x37478f19	1.1894642e-05
163	0x34805d69	2.3909823e-07
164	0x00000000	0.0
165	0x319ba73b	4.5301056e-09
166	0x398f9b4a	0.00027390785
167	0x37ca3441	2.410461e-05
168	0x3518f8d8	5.698653e-07
169	0x00000000	0.0
170	0x2f12de66	1.3357634e-10
171	0x37c4f332	2.3478267e-05
172	0x3618cb39	2.2768056e-06
173	0x3393757d	6.866592e-08
174	0x00000000	0.0
175	0x33c91c21	9.3649085e-08
176	0x3afb6526	0.0019179925
177	0x39c20fc6	0.00037014316
178	0x36edd949	7.0884457e-06
179	0x00000000	0.0
180	0x2cfee0d1	7.244074e-12
181	0x2e52387d	4.7798644e-11
182	0x2f811e18	2.3486346e-10
183	0x2e8a89cc	6.299991e-11
184	0x00000000	0.0
185	0x2e937450	6.705447e-11
186	0x358cfbdc	1.0504114e-06
187	0x343d8bac	1.7652809e-07
188	0x31784aa1	3.6131171e-09
189	0x00000000	0.0
190	0x2f934a9e	2.6792163e-10
191	0x348146b6	2.407957e-07
192	0x34cc288e	3.8027468e-07
193	0x323dae9e	1.1040951e-08
194	0x00000000	0.0
195	0x32025946	7.587294e-09
196	0x38ecaf0a	0.000112859605
197	0x37c8cd6c	2.3937515e-05
198	0x3507acca	5.054286e-07
199	0x00000000	0.0
200	0x2d890120	1.5575596e-11
201	0x2ed481a3	9.663672e-11
202	0x325089c0	1.2138514e-08
203	0x2f2610c3	1.5103567e-10
204	0x00000000	0.0
205	0x31da0865	6.3455894e-09
206	0x398a9a22	0.0002643625
207	0x380be2d4	3.3351433e-05
208	0x353b7242	6.9829196e-07
209	0x00000000	0.0
210	0x320c1202	8.153167e-09
211	0x39b37e7d	0.00034235782
212	0x3828e1d0	4.0264626e-05
213	0x356b717a	8.770945e-07
214	0x00000000	0.0
215	0x28fcf156	2.8082283e-14
216	0x2c7065bb	3.4162523e-12
217	0x2b62aca6	8.0530927e-13
218	0x2b844ce3	9.400504e-13
219	0x00000000	0.0
220	0x313113f4	2.5768232e-09
221	0x37e23897	2.6967651e-05
222	0x3722af26	9.696732e-06
223	0x3461f2a1	2.1043026e-07
224	0x00000000	0.0
225	0x2a30f066	1.5715345e-13
226	0x2bb05ec4	1.2531855e-12
227	0x2b939799	1.0487055e-12
228	0x2c143345	2.1060525e-12
229	0x00000000	0.0
230	0x31a93e45	4.9256266e-09
231	0x39e3e09c	0.0004346416
232	0x381632bd	3.581004e-05
233	0x355ad6b8	8.1523785e-07
234	0x00000000	0.0
235	0x32e42fae	2.6564376e-08
236	0x3a8d3bf0	0.0010775309
237	0x390b51f0	0.00013286597
238	0x36447a86	2.9277594e-06
239	0x00000000	0.0
240	0x32ce556f	2.4020407e-08
241	0x39758dd0	0.0002341785
242	0x38917ad1	6.937015e-05
243	0x35be0765	1.4158255e-06
244	0x00000000	0.0
245	0x2cd4d763	6.049315e-12
246	0x2e4ecdca	4.7021755e-11
247	0x31b94b66	5.3927804e-09
248	0x2ee85cfb	1.0566655e-10
249	0x00000000	0.0
250	0x2a2e7a34	1.5496702e-13
251	0x2b8488e9	9.417164e-13
252	0x2ed047d4	9.471504e-11
253	0x2c4e7726	2.9340501e-12
254	0x00000000	0.0
255	0x31308444	2.5686555e-09

exp_avg f4 [128]
0	0xb66a0ac5	-3.4874986e-06
1	0xb67e2c77	-3.7874831e-06
2	0x351f3bc8	5.931911e-07
3	0x3705bfd2	7.972079e-06
4	0x3576c37a	9.19266e-07
5	0xb82691d4	-3.9713297e-05
6	0xb80b21fe	-3.317184e-05
7	0xb7b473cc	-2.1511594e-05
8	0x3870df06	5.7428166e-05
9	0xb89b5f74	-7.4087555e-05
10	0x33f318cd	1.13200805e-07
11	0xb34e7bdc	-4.8075762e-08
12	0xb45e2ff9	-2.0692814e-07
13	0x37a1c726	1.9285431e-05
14	0x371dea18	9.412433e-06
15	0x371d6370	9.381081e-06
16	0x3662f504	3.3819242e-06
17	0x388cdec5	6.717214e-05
18	0xb8c33e76	-9.309959e-05
19	0xb5a97c68	-1.2627688e-06
20	0xb8534d46	-5.0378287e-05
21	0x37f50f00	2.921326e-05
22	0xb859a60c	-5.1891475e-05
23	0x356f2530	8.9088553e-07
24	0xb88edfc1	-6.812765e-05
25	0x376e1f21	1.4193153e-05
26	0x36d4d1e8	6.3425286e-06
27	0xb1a23e54	-4.7219064e-09
28	0x3668cbea	3.4689388e-06
29	0xb68a62d0	-4.124224e-06
30	0xb5a7fcf0	-1.2516084e-06
31	0xb71352e8	-8.781186e-06
32	0xb787391f	-1.6119853e-05
33	0x38206686	3.8242455e-05
34	0xb73831f6	-1.0978887e-05
35	0xb840ab0c	-4.5935667e-05
36	0x3422d660	1.5165415e-07
37	0x3659bab1	3.2444188e-06
38	0xb7ab2aac	-2.040466e-05
39	0x37a74a33	1.9942503e-05
40	0x3435518a	1.6886602e-07
41	0x3814311b	3.5331683e-05
42	0x383a1dfc	4.437378e-05
43	0xb25627d0	-1.2465492e-08
44	0x374dad06	1.2259237e-05
45	0x31e10980	6.549442e-09
46	0x3858551f	5.157769e-05
47	0xb7ba4f9b	-2.2209997e-05
48	0x36e53e82	6.8320087e-06
49	0x344dc916	1.9165267e-07
50	0xb4062b7e	-1.2495545e-07
51	0xb3a21a50	-7.548499e-08
52	0x379e7b96	1.8892617e-05
53	0xb65aa90a	-3.2582925e-06
54	0x34de4a50	4.1404792e-07
55	0x387eb8e0	6.0730497e-05
56	0xb8191970	-3.6501733e-05
57	0x3408e9c9	1.2751038e-07
58	0x387835b8	5.9177837e-05
59	0x383aba66	4.4519453e-05
60	0x365fb770	3.3336364e-06
61	0x34328152	1.6624588e-07
62	0xb6c58557	-5.8865803e-06
63	0x363d408e	2.820077e-06
64	0xb7da242c	-2.6004469e-05
65	0x37b9198f	2.206562e-05
66	0xb884c7d5	-6.331472e-05
67	0xb8517205	-4.9935672e-05
68	0xb53f2a70	-7.12148e-07
69	0x34b2825e	3.3249938e-07
70	0xb77b5016	-1.4979412e-05
71	0x3849d2fe	4.8118636e-05
72	0xb5ac19f3	-1.2822551e-06
73	0xb74defe0	-1.2274802e-05
74	0x37f41f34	2.9101597e-05
75	0x35ad7a58	1.2925111e-06
76	0xb77591e3	-1.4637105e-05
77	0x34f6d1e2	4.597378e-07
78	0xb31bbfa5	-3.626305e-08
79	0xb80745af	-3.2251406e-05
80	0xb85bd85e	-5.2415176e-05
81	0xb2a65877	-1.9365173e-08
82	0x35e81161	1.7290405e-06
83	0xb7b02852	-2.099961e-05
84	0xb461ea60	-2.1040023e-07
85	0xb580973c	-9.580758e-07
86	0x38dc280d	0.000104978775
87	0x33f7ca3c	1.153862e-07
88	0xb5da639c	-1.6271256e-06
89	0xb7d8935f	-2.5817832e-05
90	0x38c5fd66	9.440891e-05
91	0xb5fc3e90	-1.8793671e-06
92	0xb80fe24e	-3.430462e-05
93	0x390b3104	0.00013274333
94	0x35c13365	1.4394578e-06
95	0xb59754dc	-1.1275074e-06
96	0xb486128c	-2.497294e-07
97	0x37441700	1.16878655e-05
98	0x35e96b06	1.7391001e-06
99	0x339defa7	7.354475e-08
100	0xb61b5b5d	-2.314998e-06
101	0x34271423	1.5560413e-07
102	0x377f577c	1.52195535e-05
103	0x388c1317	6.679276e-05
104	0xb243b8d0	-1.1392515e-08
105	0x358598c2	9.953731e-07
106	0xb807b5f7	-3.2355976e-05
107	0xb8a053e4	-7.6450204e-05
108	0xb7dc2fbe	-2.6248275e-05
109	0xb7faf26c	-2.9915209e-05
110	0xb7d8b493	-2.5833293e-05
111	0xb70035bc	-7.6419055e-06
112	0x358510e7	9.914191e-07
113	0xb89eb3fa	-7.56755e-05
114	0x381d44a0	3.749563e-05
115	0x38671bce	5.5100587e-05
116	0x3696e00b	4.4964304e-06
117	0x37ebc25a	2.8104685e-05
118	0xb8680c82	-5.532476e-05
119	0x32d64fc7	2.4949157e-08
120	0xb5699084	-8.700956e-07
121	0x37a605d9	1.9791465e-05
122	0xb7442059	-1.1690042e-05
123	0xb6583ff4	-3.2223734e-06
124	0x378fb9d4	1.7133461e-05
125	0x362357b8	2.4339952e-06
126	0x3853538f	5.038414e-05
127	0x37078201	8.076896e-06

exp_avg_sq f4 [128]
0	0x3120b5a8	2.3386324e-09
1	0x2fb19225	3.2299954e-10
2	0x2c1bbd79	2.2132003e-12
3	0x32e7aa80	2.6969474e-08
4	0x2eee626a	1.0840469e-10
5	0x33c2fd8d	9.0799496e-08
6	0x340d9aa1	1.3187902e-07
7	0x348b0686	2.5895514e-07
8	0x33c049fe	8.954156e-08
9	0x337bd08b	5.863016e-08
10	0x2aa9b8df	3.014871e-13
11	0x2aaba1f4	3.048808e-13
12	0x2c51c203	2.9808384e-12
13	0x33b3f7b3	8.380393e-08
14	0x331d4301	3.661535e-08
15	0x33d8ff64	1.0104739e-07
16	0x31d04c4c	6.0622707e-09
17	0x338944a0	6.3920425e-08
18	0x3402f062	1.2194644e-07
19	0x3071099d	8.768895e-10
20	0x3466ecb3	2.150653e-07
21	0x3331ecb0	4.142629e-08
22	0x339c5961	7.280574e-08
23	0x305c4960	8.0139806e-10
24	0x34a3afaf	3.0488943e-07
25	0x3305dc26	3.11667e-08
26	0x32585481	1.2592069e-08
27	0x2ae4e845	4.0662105e-13
28	0x32e328b5	2.644479e-08
29	0x30cf39d7	1.5077671e-09
30	0x2d4c9832	1.1629852e-11
31	0x313042f7	2.5649436e-09
32	0x32c67f68	2.3108171e-08
33	0x3374f325	5.7031816e-08
34	0x31b92551	5.388451e-09
35	0x353fa51f	7.139333e-07
36	0x2d1032bd	8.1967185e-12
37	0x2fbf95bc	3.484909e-10
38	0x3052c7ba	7.6681383e-10
39	0x33476131	4.6421693e-08
40	0x2dd75c46	2.4483648e-11
41	0x339200a2	6.79877e-08
42	0x33aecaaa	8.139371e-08
43	0x2a075243	1.2018949e-13
44	0x32a23d08	1.8887036e-08
45	0x2a823468	2.3129003e-13
46	0x33b23163	8.297754e-08
47	0x34949d62	2.768166e-07
48	0x3412d430	1.3674503e-07
49	0x2d44082c	1.1143125e-11
50	0x2ad09f97	3.705896e-13
51	0x32224906	9.446245e-09
52	0x3455a258	1.9896231e-07
53	0x307f1a94	9.280623e-10
54	0x2f6bbe66	2.1440769e-10
55	0x3484273f	2.461547e-07
56	0x3378fe20	5.7973125e-08
57	0x2a59596e	1.9304499e-13
58	0x35041f59	4.921945e-07
59	0x332ce971	4.0259184e-08
60	0x32ac2612	2.0040748e-08
61	0x2a5780db	1.9140542e-13
62	0x30610b9b	8.1871016e-10
63	0x306520d3	8.335636e-10
64	0x31d8c6fc	6.3090493e-09
65	0x316898a3	3.3847207e-09
66	0x349fa8c6	2.9738857e-07
67	0x34a39d42	3.0475536e-07
68	0x2d3e7a58	1.0827415e-11
69	0x2f1da035	1.4335984e-10
70	0x32081547	7.92108e-09
71	0x333a855e	4.3427796e-08
72	0x2e7eaf6b	5.7908716e-11
73	0x314a0be0	2.940162e-09
74	0x32dbe07c	2.559704e-08
75	0x2d85f203	1.5227824e-11
76	0x3363efb2	5.3070558e-08
77	0x2cd143d5	5.947668e-12
78	0x2a01804a	1.1502011e-13
79	0x34bac33e	3.4787257e-07
80	0x33ef5332	1.1144438e-07
81	0x2a27e874	1.4913228e-13
82	0x2fbe7a9a	3.4647912e-10
83	0x32199c6f	8.941341e-09
84	0x3002a2aa	4.7524884e-10
85	0x2e10307f	3.2784882e-11
86	0x352a3e4f	6.3420606e-07
87	0x2ca543ea	4.697122e-12
88	0x310af699	2.0221818e-09
89	0x338b7981	6.494793e-08
90	0x356b21dd	8.75936e-07
91	0x309889da	1.1098635e-09
92	0x329e8098	1.8452099e-08
93	0x34bccded	3.516756e-07
94	0x300adbad	5.0516286e-10
95	0x2e0790a3	3.082391e-11
96	0x2d1ae1ad	8.803997e-12
97	0x3216c05a	8.774885e-09
98	0x2e8b2061	6.32674e-11
99	0x2d141766	8.4180215e-12
100	0x31ef52bc	6.9652213e-09
101	0x2bdbdddb	1.5622463e-12
102	0x32875c4e	1.5758044e-08
103	0x34bb7f75	3.4924201e-07
104	0x2e725cf9	5.5107006e-11
105	0x2e3550d7	4.1226435e-11
106	0x328c8b8b	1.6361602e-08
107	0x34296e15	1.5779399e-07
108	0x34170ea7	1.4068301e-07
109	0x33f2ec58	1.1311994e-07
110	0x333ae397	4.351349e-08
111	0x31941325	4.3095434e-09
112	0x2ec4f2fb	8.95621e-11
113	0x347d07b6	2.3565266e-07
114	0x346c8255	2.2026627e-07
115	0x33a7bf72	7.811367e-08
116	0x33936437	6.86345e-08
117	0x33a180b5	7.5205584e-08
118	0x33eb4649	1.0955825e-07
119	0x2a0776ca	1.2031622e-13
120	0x30e07468	1.633123e-09
121	0x331e2b57	3.682666e-08
122	0x329d8237	1.833642e-08
123	0x3303e7e7	3.071173e-08
124	0x31da362e	6.3507946e-09
125	0x30bd4d8d	1.3773601e-09
126	0x338c54b6	6.534667e-08
127	0x32d6b679	2.4995858e-08
