results/test2/EndLessRunnerBehaviour/EndLessRunnerBehaviour-2499968.pt (torch, 437679 bytes, 30 tensors)

network_body._body_endoder.seq_layers.0.weight f4 [128, 5]
0	0x3f9d0c78	1.226943
1	0xbe99e51c	-0.3005761
2	0xbf42238a	-0.7583548
3	0xbdd910f9	-0.105989404
4	0xbf205bda	-0.62640154
5	0xbd8e273c	-0.06941077
6	0xbf3edf86	-0.7455982
7	0xbee07195	-0.43836656
8	0x3ecb15c8	0.39665055
9	0xbe08e1a2	-0.13367322
10	0x3c966d27	0.018362595
11	0xbf627be3	-0.88470286
12	0xbef68b80	-0.48153305
13	0xbf1cf3b9	-0.6130939
14	0x3f85e85f	1.0461539
15	0xbf2c2b47	-0.67253536
16	0x3f5a80db	0.8535287
17	0xbf35bd4c	-0.7099197
18	0xbf103a99	-0.5633941
19	0xbe6422db	-0.22278921
20	0x3d9653af	0.0734018
21	0x3f185b24	0.5951407
22	0x3e448b43	0.19193749
23	0xbe232d1b	-0.15935175
24	0xbe943b67	-0.2895157
25	0x3dd3316c	0.10312161
26	0xbe772ea3	-0.24138884
27	0x3ebd0c5f	0.369235
28	0xbe5dd7f2	-0.21664408
29	0xbdf2a4a0	-0.11847806
30	0x3eb89f37	0.3605897
31	0x3e7521e6	0.23938712
32	0x3d5ca56d	0.0538687
33	0xbf450f7d	-0.7697676
34	0xbe86364c	-0.262133
35	0xbe472774	-0.19448644
36	0xbe07f1ec	-0.1327588
37	0xbf4a062a	-0.78915656
38	0xbef9c537	-0.48783275
39	0xbfb763fe	-1.432739
40	0x3e21dedc	0.1580767
41	0x3eabaf40	0.33532143
42	0xbf17e4a1	-0.59333235
43	0xbecf7920	-0.405221
44	0xbead67b7	-0.3386819
45	0xbe19f136	-0.15033421
46	0xbe92ef90	-0.28698397
47	0xbdca7490	-0.09885514
48	0x3f3778ba	0.7166859
49	0x3ebdb2db	0.37050518
50	0x3eb6b9dc	0.35688674
51	0xbe9378b4	-0.28803027
52	0x3eec284b	0.4612449
53	0x3f3b040b	0.73053044
54	0xbef36660	-0.47539043
55	0xbf15f705	-0.58580047
56	0x3ef157b7	0.47137234
57	0x3f226b53	0.63445014
58	0xbec662a1	-0.38747123
59	0x3e9bcbf2	0.30429035
60	0x3ea8fef5	0.33007017
61	0x3de0e518	0.10981196
62	0xbf118748	-0.5684705
63	0x3ea60c4c	0.32431257
64	0x3e526b7b	0.20548813
65	0xbf60cc35	-0.87811595
66	0x3f6b1c0d	0.9183968
67	0xbc43f90e	-0.011961235
68	0x3e6b5f71	0.22985627
69	0xbeadc8e5	-0.33942333
70	0x3e02cd94	0.12773734
71	0x3dc1949c	0.09452173
72	0xbe3647ab	-0.17800777
73	0x3f11dd91	0.5697871
74	0x3ecab561	0.39591506
75	0xbe8ff803	-0.28118905
76	0xbef90c73	-0.4864231
77	0x3e11060e	0.14162466
78	0x3db0b200	0.08627701
79	0x3cb3d30d	0.021951223
80	0x3f3061cc	0.68899226
81	0xbe725c3c	-0.23667997
82	0x3d31d3aa	0.04341475
83	0x3f254b47	0.6456799
84	0xbe750e8d	-0.23931332
85	0x3f3728a2	0.71546376
86	0xbd5808b8	-0.05274269
87	0x3f50340c	0.8132942
88	0x3e56bd9a	0.20970765
89	0xbf5f4c3a	-0.8722569
90	0xbeb242f9	-0.3481672
91	0xbf008fc2	-0.50219357
92	0xbd97ecad	-0.07418189
93	0x3f5ea633	0.8697235
94	0xbe871b93	-0.26388225
95	0x3ee5a30b	0.44850954
96	0xbe9ab56d	-0.30216542
97	0x3ea7dfb5	0.32787862
98	0xbd182905	-0.037148494
99	0xbe5027f8	-0.20327747
100	0xbdc8488d	-0.09779463
101	0x3da63259	0.08115072
102	0xbedf9f72	-0.43676335
103	0x3cbad370	0.0228059
104	0xbeb70ee0	-0.35753536
105	0x3e52cdde	0.20586345
106	0xbde48769	-0.1115864
107	0xbeb2b5b3	-0.3490425
108	0xbee2ff1f	-0.44335267
109	0xbda5a14b	-0.08087405
110	0xbf4818bf	-0.7816276
111	0xbf35c2d6	-0.7100042
112	0xbcee87f8	-0.02911757
113	0xbeb17114	-0.34656584
114	0xbd57beec	-0.05267231
115	0x3e1c42ae	0.15259811
116	0xbe31eed1	-0.17376257
117	0x3efb31c7	0.49061415
118	0x3d97dd48	0.07415253
119	0x3e57a61c	0.2105946
120	0xbe555658	-0.20833719
121	0x3d2ac78e	0.041694216
122	0xbf115078	-0.5676341
123	0x3df31106	0.11868481
124	0xbf487db7	-0.78316826
125	0xbddb0f60	-0.10696292
126	0x3e8738a9	0.26410416
127	0xbe49fdb8	-0.19725692
128	0x3e3bd9fa	0.1834487
129	0xbee7c3fb	-0.4526671
130	0x3cd00586	0.025393259
131	0xbf5f123e	-0.8713721
132	0xbea4abb9	-0.32162264
133	0xbec30997	-0.38093254
134	0xbdad44bd	-0.084603764
135	0x3e09bbf3	0.13450603
136	0x3e6b0f6d	0.22955103
137	0x3e1ddb72	0.15415743
138	0x3e685652	0.22689179
139	0xbf140033	-0.57812804
140	0x3e24dcad	0.16099806
141	0xbecef2e8	-0.40419698
142	0x3c7a360a	0.015271673
143	0xbf14d468	-0.58136606
144	0x3f0b3a3d	0.5438574
145	0xbf4d914f	-0.8029985
146	0x3e2d5f25	0.16930826
147	0xbe50dd8e	-0.20397016
148	0x3d9e1c23	0.077202104
149	0x3e4ff71b	0.20309107
150	0x3eaf31be	0.34217638
151	0x3e9b2c9f	0.3030748
152	0x3ebe96cb	0.3722442
153	0xbe2025ce	-0.15639421
154	0xbebe3947	-0.37153074
155	0xbf76c06a	-0.9638735
156	0x3e7e3340	0.24824238
157	0x3f6388e1	0.88880736
158	0xbf584b95	-0.8449033
159	0xbfae772c	-1.3630118
160	0xbf0eaa42	-0.5572854
161	0x3d40f949	0.047112737
162	0xbc5fa21d	-0.013649491
163	0xbebecad3	-0.37264118
164	0x3dfe0371	0.12403
165	0x3f40ca9b	0.7530915
166	0xbe94e872	-0.29083592
167	0x3eec8a6b	0.46199355
168	0x3ec9b927	0.39399073
169	0x3d6654f2	0.056233354
170	0xbd8f5f24	-0.070005685
171	0xbe3105e2	-0.172874
172	0xbd1b3441	-0.03789163
173	0xbc20a2b6	-0.009804418
174	0x3d873a24	0.06602886
175	0x3e153d18	0.14574087
176	0x3dcd26e2	0.10017182
177	0x3cffdd0b	0.031233331
178	0x3f33d84a	0.70251906
179	0xbcab6732	-0.02092323
180	0x3f66b38d	0.9011772
181	0x3ece576a	0.40301067
182	0xbeffb6a4	-0.4994403
183	0x3e974bf0	0.29550123
184	0xbde21791	-0.11039651
185	0xbdebb1c3	-0.11508515
186	0xbde2ac11	-0.11067975
187	0x3de2f3e2	0.11081673
188	0xbebec48d	-0.3725933
189	0xbeb484d1	-0.3525758
190	0x3f0a449e	0.5401095
191	0xbeae79cb	-0.34077296
192	0xbf28e046	-0.65967214
193	0x3eef2a6c	0.46712053
194	0xbebf66d5	-0.37383142
195	0xbc98d951	-0.018658312
196	0x3e578b68	0.21049273
197	0xbda49da7	-0.08037882
198	0x3e10a08f	0.14123748
199	0x3e7cd692	0.24691227
200	0xbd3c125f	-0.045915958
201	0x3f5d1255	0.863561
202	0xbf4aec14	-0.79266477
203	0x3de1ee9a	0.11031838
204	0xbf0b5d4d	-0.5443924
205	0xbe2ec335	-0.17066653
206	0x3d9afc4d	0.07567654
207	0xbe43d343	-0.19123559
208	0xbebc0cdd	-0.36728564
209	0x3f3d87a0	0.7403507
210	0xbf490e69	-0.78537613
211	0x3e608e87	0.2192937
212	0x3e97c848	0.2964499
213	0xbde3fed5	-0.1113259
214	0x3e47b5e2	0.19502977
215	0x3cb5da1f	0.022198735
216	0xbecea110	-0.40357256
217	0xbe2e3b81	-0.17014886
218	0xbed1d466	-0.4098236
219	0xbea7d80f	-0.32782027
220	0xbe801a2a	-0.25019962
221	0x3dc100d2	0.094239846
222	0x3e4ef196	0.20209345
223	0x3e950020	0.29101658
224	0x3e29c661	0.16579582
225	0xbe64e2e7	-0.22352181
226	0x3e18920d	0.14899464
227	0xbe728006	-0.2368165
228	0x3f2e4d0a	0.680863
229	0x3edd95fa	0.43278486
230	0x3f2e5ee2	0.6811353
231	0xbe45f8d1	-0.19333197
232	0x3f2e442a	0.6807276
233	0xbdaef0f2	-0.085420504
234	0x3e956f69	0.29186562
235	0x3f11b968	0.5692353
236	0x3ea8ed9d	0.32993785
237	0x3f0f12f8	0.5588832
238	0xbd09bf3e	-0.03362965
239	0x3eec8343	0.46193895
240	0x3e0a9d51	0.13536574
241	0xbf086d86	-0.5329212
242	0x3e81ee40	0.25377083
243	0x3f11a375	0.5689004
244	0xbf863c5c	-1.048717
245	0xbe26fda4	-0.16307694
246	0x3f05af00	0.52220154
247	0xbf499820	-0.7874775
248	0x3d4ef9c0	0.05053115
249	0x3edd58ff	0.4323196
250	0xbf00973e	-0.5023078
251	0xbd439979	-0.047753785
252	0xbe7ab233	-0.2448204
253	0xbec3f36f	-0.38271663
254	0x3e10f5bf	0.14156245
255	0x3eb28b39	0.34871843

network_body._body_endoder.seq_layers.0.bias f4 [128]
0	0x3c97955d	0.01850384
1	0xbca7b04e	-0.02046981
2	0x3c3c0fd8	0.011478387
3	0x3be26429	0.0069089127
4	0x3969dc5f	0.00022302706
5	0x3b1a0a30	0.0023504607
6	0x3bd9fb2b	0.006652256
7	0x3c9d4cda	0.019201685
8	0x3b37739e	0.0027992497
9	0xbb7d7a79	-0.0038677736
10	0x3d0e7c52	0.03478653
11	0x3c233fdd	0.009963957
12	0x3b89536c	0.004190853
13	0xbc3bb8b5	-0.011457612
14	0xbbc33c6b	-0.00595813
15	0x3bf46258	0.0074580126
16	0x3ce8fa05	0.028439531
17	0x3d9e1b81	0.0772009
18	0xbba5cb1a	-0.005059612
19	0xbc344853	-0.011003572
20	0xbcbd4c0d	-0.023107553
21	0x3c49a805	0.012308125
22	0xbca1edc8	-0.019766703
23	0x3bebad2c	0.0071922746
24	0x378f8d17	1.7112628e-05
25	0xbbc8d74b	-0.0061291805
26	0x3bad8b09	0.0052961153
27	0x3b8abed9	0.0042341766
28	0xbb415c22	-0.0029504378
29	0xbc644b80	-0.013934016
30	0x39a2b17f	0.00031031293
31	0x3b87bd26	0.0041424213
32	0x3c8094d3	0.015695965
33	0x3d9c421c	0.07629797
34	0x3bd58d77	0.006517108
35	0x3a5cbb93	0.0008420285
36	0xbba118af	-0.0049162726
37	0x3d3170b6	0.04332038
38	0xbafddf6a	-0.0019368951
39	0xbc7a10aa	-0.015262762
40	0x3b3495c9	0.00275551
41	0x3c1180a6	0.00888077
42	0xbc74f418	-0.014950775
43	0x3bdf5e87	0.0068166885
44	0xbb9df2e0	-0.0048202127
45	0xbc48dabf	-0.012259184
46	0xbc84a7bf	-0.016193269
47	0xba965eac	-0.0011472306
48	0x3d1a162c	0.0376188
49	0x3a14f7f3	0.0005682699
50	0x3b31b078	0.002711324
51	0x3c275878	0.010213964
52	0xbc1f1af3	-0.009711015
53	0x3d7977b0	0.06090516
54	0x39312733	0.00016894638
55	0x3ba83b23	0.005134003
56	0xbc3eedae	-0.011653347
57	0xbb3c6d9d	-0.0028751858
58	0x3c11cf54	0.0088995285
59	0xbc07662b	-0.008264105
60	0x3c8c5e13	0.017134702
61	0xbc1521f4	-0.009102333
62	0xbbd5c8dd	-0.006524189
63	0x3d74ebd8	0.05979523
64	0xba991487	-0.0011679091
65	0x3c4e66d5	0.012597759
66	0x3cee5a87	0.029095901
67	0x3d69bc94	0.057064608
68	0x3bd2cb81	0.006432951
69	0xbbd6bae9	-0.006553043
70	0xbc3a8534	-0.011384297
71	0xbc466491	-0.012108938
72	0xb8ae5146	-8.312105e-05
73	0xbb6187f7	-0.0034413317
74	0x3d719139	0.058976386
75	0xbc0b719c	-0.008510973
76	0xbc38f179	-0.01128804
77	0xbab1c5f3	-0.0013563022
78	0xbb5079e5	-0.0031810936
79	0xbc60dfaa	-0.013725201
80	0xbc1d612d	-0.009605688
81	0xbca1259b	-0.019671252
82	0xba20067c	-0.0006104482
83	0xbba0bfe6	-0.0049056886
84	0x3d35837b	0.044314843
85	0x3961d431	0.0002153672
86	0x3d085b18	0.03329
87	0x3c6df45b	0.014523591
88	0x3c048c59	0.008090102
89	0xbc215d36	-0.009848883
90	0x3c8a5b62	0.016889278
91	0xbc40bc8d	-0.011763704
92	0xbb67e1b0	-0.0035382323
93	0xbc101484	-0.008793954
94	0x3d91710f	0.07101642
95	0x3c0f8a78	0.008761041
96	0x3c8eb0dd	0.01741832
97	0x3ad9537b	0.0016580665
98	0xbb9353e6	-0.0044960855
99	0x3bdd83d2	0.006760099
100	0xbc2861e9	-0.01027725
101	0x3d5612c1	0.05226398
102	0x3bdb5c29	0.006694336
103	0x3c257d39	0.010100656
104	0xbc1586ab	-0.009126346
105	0x3d2d5688	0.04231885
106	0x3cf9d057	0.030494852
107	0x3c092379	0.008370274
108	0x3d3efc33	0.046627235
109	0x3af63861	0.0018785113
110	0xbc5147f1	-0.0127735
111	0x3c740cfb	0.014895673
112	0x3d5aacc4	0.05338742
113	0xbc76be43	-0.01506001
114	0x3b885331	0.004160308
115	0xbb483bca	-0.0030553215
116	0x3c833efc	0.016021244
117	0xbb2b7f86	-0.002616854
118	0xbb3979ce	-0.002830136
119	0x3b3870f7	0.0028143504
120	0x3d0ac778	0.033881634
121	0x3b22b47d	0.0024826818
122	0xbc035dc4	-0.008017961
123	0x3b99bb09	0.004691486
124	0x3c67622f	0.01412253
125	0xbbef5cb6	-0.007304753
126	0xbc1058b3	-0.00881021
127	0x3ce8138e	0.028329637

network_body._body_endoder.seq_layers.2.weight f4 [128, 128]
0	0xbd8354ef	-0.06412684
1	0x3d074b37	0.033030715
2	0x3dd083ae	0.10181366
3	0x3ca46038	0.020065412
4	0x3c846dbf	0.016165612
5	0xbc932f65	-0.017966935
6	0x3dddd976	0.10832493
7	0xbd13c89b	-0.036079984
8	0x3e166342	0.14686301
9	0x3d9d3a49	0.07677133
10	0xbdab5e60	-0.0836761
11	0xbcb8d924	-0.022564478
12	0xbe86893e	-0.26276582
13	0xbd182597	-0.037145223
14	0x3beedb81	0.0072893505
15	0xbd8244a8	-0.063607514
16	0x3e0e1e02	0.13878635
17	0xbe09c0f2	-0.13452509
18	0x3d258e5b	0.040418964
19	0xbe37c54c	-0.17946357
20	0x3cd317b1	0.025768133
21	0x3d93e71a	0.072218135
22	0x3e3999d6	0.1812509
23	0x3bc889c4	0.0061199386
24	0xbd6e106d	-0.058121134
25	0xbc82cd80	-0.01596713
26	0x3d4f5fcf	0.05062848
27	0x3d60f3cd	0.054920007
28	0xbcef4549	-0.029207842
29	0xbcae8e0f	-0.021307973
30	0x3dd86a32	0.1056713
31	0x3d7509bf	0.059823748
32	0xbe48bf0a	-0.19604126
33	0xbd621ec8	-0.055205137
34	0x3d2d07d8	0.04224381
35	0x3dc67cab	0.09691747
36	0x3dacccf6	0.08437531
37	0xbc1cedb5	-0.009578158
38	0xbd3e4ecd	-0.04646187
39	0x3d68d565	0.056844134
40	0x3d875597	0.06608122
41	0x3d353bfc	0.04424666
42	0x3cdd7aa9	0.027036028
43	0xbe2b7b24	-0.16746193
44	0xbe00a75e	-0.12563846
45	0xbb2d7318	-0.0026466306
46	0x3db0ef79	0.08639426
47	0x3dfd7147	0.123751216
48	0xbbc8a5f9	-0.006123301
49	0xbe80e5dd	-0.25175372
50	0xbdd13c5c	-0.10216591
51	0x3d47d983	0.04879142
52	0x3cd9eb01	0.026601316
53	0x3df2dad9	0.11858148
54	0x3cf4c907	0.029881014
55	0x3d03f7fc	0.03221892
56	0x3e1b8c2d	0.15190192
57	0x3d49dead	0.049284626
58	0x3d8b188a	0.0679179
59	0x3c8651f4	0.0163965
60	0xbdbae9ea	-0.09126647
61	0xbdacf33a	-0.08444829
62	0x3dfb8006	0.12280278
63	0x3db847d3	0.089980744
64	0xbc9c1fc3	-0.019058114
65	0xbd88bb63	-0.06676366
66	0xbccdc39d	-0.02511769
67	0x3db149c2	0.08656646
68	0x3cb0aafd	0.021565909
69	0x3dca8303	0.0988827
70	0xbc574684	-0.013139371
71	0x3d479551	0.048726384
72	0xbd79b892	-0.060967036
73	0xbd84b8b8	-0.06480545
74	0x3d47a2b8	0.048739165
75	0xbbc90ec8	-0.0061357953
76	0x3dcab11d	0.09897063
77	0xbcad9669	-0.021189885
78	0x3d9e83ea	0.07740004
79	0x3db14fb2	0.08657779
80	0xbdf3d466	-0.11905746
81	0xbd296b0e	-0.04136186
82	0xbda3356e	-0.07969175
83	0x3db7337f	0.08945369
84	0x3d4e71fc	0.050401673
85	0x3df04ea9	0.11733753
86	0x3e4ae790	0.19814897
87	0xbc958bef	-0.018255202
88	0xbd97dc01	-0.07415009
89	0xbdc93ba3	-0.09825828
90	0xbd15005a	-0.03637729
91	0xbd182287	-0.037142303
92	0x3dde7da6	0.10863809
93	0xbd92ebfd	-0.071739174
94	0xbd79b793	-0.060966086
95	0xbdc559cc	-0.09636268
96	0x3d5cbcbd	0.053890932
97	0xbc285bc7	-0.010275788
98	0xbc59a2d1	-0.013283447
99	0xbdc6976e	-0.09696852
100	0x3b67dffe	0.0035381312
101	0xbd3ae9c6	-0.0456331
102	0xbd97f344	-0.07419446
103	0xbce21fed	-0.027603114
104	0x3e0082f5	0.12549956
105	0x3d7c3ae4	0.0615796
106	0x3df91a5f	0.12163233
107	0xbb7b3357	-0.0038330161
108	0xbc91c93f	-0.017796157
109	0xbce0a050	-0.027420193
110	0x3dcb4b03	0.09926417
111	0x3c428ac8	0.011873908
112	0xbe1f3341	-0.15546896
113	0xbc4823bd	-0.012215552
114	0xbdc08137	-0.09399646
115	0x3e0d7fb4	0.13818246
116	0xbdc32fa6	-0.095305726
117	0x3cd045be	0.02542388
118	0xbd4ef2ee	-0.050524645
119	0xbd985612	-0.074382916
120	0x3d8b1022	0.067901865
121	0x3ddae655	0.106884636
122	0x3d3726f7	0.044714894
123	0x3d8e2442	0.069405094
124	0x3bdbc7cc	0.0067071673
125	0x3dc644f1	0.09681118
126	0x3bbe0d43	0.0057999208
127	0x3d21fd35	0.039548118
128	0xbdbea9bd	-0.09309719
129	0x3dc30b19	0.09523601
130	0x3db74642	0.089489475
131	0xbd6a4da4	-0.05720295
132	0x3e198955	0.14993794
133	0xbe1063ea	-0.14100614
134	0x3e064487	0.13112079
135	0xbd628e9c	-0.055311784
136	0xbd1a237e	-0.037631504
137	0xbd1a8599	-0.037725065
138	0x3c140827	0.009035147
139	0x3e112052	0.14172485
140	0xbdb561b8	-0.08856529
141	0xbd83cf3a	-0.0643601
142	0xbe25b0ff	-0.161808
143	0x3d81d450	0.063393235
144	0x3d17775a	0.036979057
145	0x3d898116	0.06714074
146	0x3e65564c	0.22396201
147	0x3d362537	0.044469085
148	0x3bf3a5bf	0.00743553
149	0x3d89b257	0.06723469
150	0x3c946fb6	0.018119674
151	0x3cced280	0.025246859
152	0xbd92bea4	-0.07165268
153	0xbcec4b1e	-0.028844412
154	0xbdce69de	-0.10078786
155	0x3de39407	0.11112218
156	0x3dbbf36b	0.09177288
157	0x3dab5828	0.08366424
158	0xbd440b68	-0.04786244
159	0xbd878b90	-0.06618416
160	0xbd267f1b	-0.04064856
161	0xbe3424f6	-0.17592224
162	0x3d926186	0.07147507
163	0x3da0bdc5	0.07848696
164	0x3d043e51	0.032285992
165	0xbd71dcc2	-0.05904842
166	0xbc3ea9db	-0.011637176
167	0x3bc7f2f7	0.0061019617
168	0xbda7fc74	-0.082024485
169	0x3dcbfcac	0.09960303
170	0xbcc0412d	-0.023468578
171	0x3df2c813	0.118545674
172	0xbd570ea5	-0.0525042
173	0xbd54b06c	-0.05192606
174	0x3d9c10bb	0.076203786
175	0x3b4e527c	0.003148227
176	0x3ddb9160	0.107210875
177	0x3e001815	0.12509187
178	0x3e01dcb3	0.12681846
179	0xbd7d2891	-0.061806265
180	0x3dfc733b	0.12326666
181	0xbdbdc2aa	-0.09265645
182	0x3e386e10	0.18010736
183	0x3cc65d80	0.024214506
184	0xbb3b3442	-0.0028565084
185	0x3bdd52e1	0.0067542647
186	0x3c010027	0.0078735715
187	0xbdfb9b0e	-0.12285434
188	0x3d03a262	0.032137282
189	0x3e02d5e5	0.12776907
190	0x3db67969	0.08909876
191	0xbd31ab82	-0.043376453
192	0xbd66d86b	-0.056358736
193	0x3c089af3	0.008337724
194	0x3deb2b10	0.11482823
195	0x3cc1692d	0.023609722
196	0x3dc8b789	0.098006316
197	0xb9a391b4	-0.0003119834
198	0x3cce9d94	0.025221623
199	0x3ccaa9f9	0.024739252
200	0x3de09a7e	0.10966967
201	0xbdac92f4	-0.084264666
202	0x3dfd2b03	0.123617195
203	0x3bae0fe1	0.0053119515
204	0x3cc019af	0.023449747
205	0xbde69e15	-0.112606205
206	0xbd213b35	-0.039363105
207	0xbda52a98	-0.08064765
208	0x3dba5b13	0.09099402
209	0xbdb36906	-0.08760266
210	0xba2ee7c7	-0.0006672111
211	0x3dff9a6c	0.124806255
212	0xbd6c8a78	-0.05774924
213	0xbbf9f699	-0.0076282737
214	0x3bb6484a	0.0055628167
215	0xbe2f754a	-0.17134586
216	0xbc19b8ab	-0.009382407
217	0x3ddb6e75	0.107144274
218	0xbd6d42fb	-0.057925206
219	0x3cf26768	0.029590324
220	0x3dbd3214	0.09238067
221	0xbd88c6cb	-0.06678542
222	0xbdf251d2	-0.11832012
223	0xbdc55c80	-0.096367836
224	0xbc4e96cf	-0.012609198
225	0xbdc7a22b	-0.09747728
226	0xbe2e0b09	-0.16996397
227	0x3e11f790	0.14254594
228	0x3ddb5b1f	0.10710739
229	0x3c000450	0.007813528
230	0xbe8c07a7	-0.27349588
231	0xbdba1a58	-0.09087056
232	0x3d5ae3b9	0.05343983
233	0xbe458e1c	-0.19292492
234	0x3e24932d	0.16071768
235	0xbba263fb	-0.0049557663
236	0x3d92bcfa	0.07164951
237	0xbc8439ff	-0.016140936
238	0x3b2e839e	0.0026628743
239	0x3da6a182	0.08136274
240	0xbd9de9dc	-0.07710621
241	0x3d7704e4	0.0603074
242	0xbde119c9	-0.10991246
243	0x3d059e79	0.032621834
244	0xbd32d15f	-0.043656703
245	0x3dc984dd	0.09839795
246	0xbcf2e5ee	-0.029650655
247	0xbd642e26	-0.055708073
248	0x3bbaafeb	0.0056972406
249	0x3def79d2	0.11693157
250	0xbd8d635c	-0.06903717
251	0x3d1bdcc3	0.03805233
252	0xbd1fca11	-0.039011065
253	0x3b74e14f	0.003736574
254	0x3d73e918	0.059548467
255	0xbe233b29	-0.15940537

network_body._body_endoder.seq_layers.2.bias f4 [128]
0	0xbbf71e6e	-0.0075414693
1	0x3b0981ee	0.0020981985
2	0x3c11105c	0.008853998
3	0x3af692aa	0.001881202
4	0xbb0f0cb8	-0.002182765
5	0xbc1fe7af	-0.0097598275
6	0x39c71b44	0.00037976552
7	0x3c384c13	0.011248606
8	0x3bfbc370	0.00768321
9	0x3be6b62c	0.0070407595
10	0x3b85ea9b	0.004086805
11	0x3a38c52f	0.00070484256
12	0x3aeb3a40	0.0017946437
13	0xbc9dc4e0	-0.019258916
14	0xbc241b4c	-0.010016274
15	0xbc9b3552	-0.018946324
16	0xbc4c7c09	-0.012480744
17	0xbc51aa41	-0.012796939
18	0x3d28b1e1	0.041185264
19	0xbb2ff510	-0.002684895
20	0xb8e4307e	-0.000108809196
21	0x3b4c023a	0.0031129257
22	0xbc0cef57	-0.008601985
23	0xbc24b2a2	-0.010052355
24	0x3ceff1a2	0.029290024
25	0x3c22354a	0.0099004
26	0xbc150bcd	-0.009097052
27	0x3c18c0c8	0.009323306
28	0x3c2c423e	0.01051384
29	0xbc36cc5e	-0.011157123
30	0x3c2880fa	0.010284657
31	0xbc2f3b84	-0.010695342
32	0x3cc77ce0	0.024351537
33	0x3a871e23	0.0010308664
34	0xbbca095e	-0.0061656674
35	0xbbd95be3	-0.006633268
36	0xbb9341d3	-0.004493931
37	0x3b6f121d	0.0036479302
38	0x3a9ac4c6	0.0011807911
39	0x3be351dd	0.006937249
40	0x3c94e1fd	0.018174166
41	0xbc9f16df	-0.019420085
42	0x3babb067	0.0052395347
43	0x3bf42e8a	0.007451837
44	0x3aaccca8	0.0013183551
45	0xbb715f0c	-0.0036830334
46	0xbbbe8912	-0.00581468
47	0x3c224f0c	0.009906542
48	0xbc178697	-0.009248397
49	0x3c6fcd53	0.014636355
50	0x3cdd7c0a	0.027036685
51	0xbb52c844	-0.0032162825
52	0x3be38d73	0.0069443523
53	0xbc0f02ad	-0.008728665
54	0x3c800f4f	0.0156323
55	0x3bee9f04	0.0072821397
56	0x3bff28a2	0.007786826
57	0x3c17b5b3	0.009259629
58	0xbbd5d361	-0.0065254425
59	0x3c228606	0.009919649
60	0x3a058cb5	0.00050945143
61	0x3ce7f47a	0.028314818
62	0x399c379b	0.00029796068
63	0x3c2872c7	0.010281271
64	0x3c690be1	0.014224024
65	0x3cc28ad6	0.023747843
66	0x3c8a4f3d	0.016883487
67	0xbb35dbc7	-0.0027749406
68	0x3c925a30	0.01786527
69	0x3c929902	0.017895225
70	0xbb27063a	-0.002548589
71	0x3c02d863	0.007986161
72	0xbb9fb660	-0.0048740357
73	0x3c08c188	0.008346923
74	0xbc1f4722	-0.009721549
75	0xbc32770f	-0.010892644
76	0xbc15c0eb	-0.0091402335
77	0xbc278506	-0.010224586
78	0xb9a83bf0	-0.00032088114
79	0x3c0bacec	0.0085251145
80	0xbbfd928c	-0.007738417
81	0x3cc2ebaf	0.023794023
82	0xbbec55d7	-0.0072123813
83	0xbc8027ff	-0.015644072
84	0xbcb2b80c	-0.021816276
85	0x3c3bedc9	0.011470267
86	0xbbc022d0	-0.005863525
87	0x3c292a55	0.010325034
88	0x3b94adf1	0.004537337
89	0xbc147a89	-0.009062418
90	0x3c6b065d	0.014344779
91	0xbb8cbc24	-0.004294889
92	0xbc1a2eb2	-0.009410547
93	0x3c64f720	0.013974935
94	0xbc5f9e5b	-0.013648595
95	0x3b452765	0.0030083295
96	0x3bb3f66b	0.005492022
97	0x3b847cb1	0.0040431847
98	0x3c1ca2a4	0.009560261
99	0x3c64ddb3	0.013968873
100	0x3ca7897e	0.020451304
101	0xbbd81f4e	-0.0065955287
102	0x3c91e92a	0.017811377
103	0xbbd3f4b7	-0.0064683813
104	0x3beb9b83	0.0071901693
105	0x3cffbe7c	0.03121876
106	0xbc163009	-0.009166726
107	0xbc20b501	-0.00980878
108	0x3be61bae	0.0070223426
109	0x3c70558a	0.014668832
110	0x3c91660b	0.017748853
111	0x3bfd5e68	0.0077322014
112	0xbbead444	-0.0071664173
113	0x3cac7a45	0.021054396
114	0x3c522feb	0.012828807
115	0x3d05a0ad	0.032623935
116	0x3c9ee549	0.019396441
117	0x3b3ed377	0.0029117742
118	0xbc41a8f3	-0.011820066
119	0x3c79b742	0.015241446
120	0x3bfaea59	0.007657331
121	0x3cc4d3b9	0.024026738
122	0x3cc7e538	0.024401292
123	0xbbee1af2	-0.0072663957
124	0x3cdbbeca	0.026824374
125	0x3c7ce3bf	0.015435158
126	0x3d06ff57	0.032958355
127	0x3c0bec46	0.008540219

action_model._continuous_distribution.mu.weight f4 [1, 128]
0	0xbb20cd91	-0.002453659
1	0xbcf4197e	-0.029797312
2	0x3cc0de36	0.023543458
3	0xbcc762c1	-0.024339082
4	0xbd7185cb	-0.058965486
5	0xbc92a2b1	-0.017899843
6	0xbd614cf4	-0.05500503
7	0x3c96f3e0	0.018426836
8	0x3cb3cbaf	0.02194771
9	0x3baeabd4	0.005330542
10	0xbd098c6c	-0.033581182
11	0xbce49068	-0.02790089
12	0xbcfd2191	-0.030899795
13	0x37ca9c4b	2.4153056e-05
14	0xbc1dad64	-0.009623859
15	0xbce448a7	-0.027866675
16	0xbc204f6e	-0.0097845625
17	0xbd7eb824	-0.06218733
18	0x3d232427	0.0398294
19	0xbd1d238f	-0.03836399
20	0xbd266318	-0.040621847
21	0xbd623d02	-0.055233963
22	0xbc1f36d2	-0.00971766
23	0xbcdecf80	-0.027198553
24	0x3cc77141	0.024345996
25	0xbd1dc0b9	-0.038513873
26	0xbc8a30c5	-0.016868958
27	0x3cd257bc	0.0256766
28	0x3cbab40b	0.02279093
29	0xbb3ad851	-0.0028510282
30	0x3d1e993f	0.038720366
31	0xbd10c9c3	-0.035348665
32	0x3cccfa5d	0.025021726
33	0x3c452d9c	0.0120348
34	0x3b80733a	0.003919986
35	0xbd13fe38	-0.036131114
36	0xbc2c55cf	-0.010518505
37	0xbc2fc469	-0.01072798
38	0x3b890f06	0.004182699
39	0x3c8608ba	0.016361583
40	0x3d05bbea	0.032649912
41	0xbad09df3	-0.0015916213
42	0xbc2c9dc8	-0.010535665
43	0x3c803a6f	0.015652863
44	0x3d194d66	0.03742733
45	0xbc5cfcb8	-0.013487987
46	0xbb94f8dd	-0.0045462684
47	0xbd0c841f	-0.034305688
48	0xbcfc6dae	-0.030814018
49	0x3cd776b0	0.026301712
50	0x3cf61008	0.030036941
51	0x3a932605	0.0011226541
52	0xbcd7b349	-0.026330607
53	0xbd2c9c72	-0.042141385
54	0x3cd89388	0.026437536
55	0x3c3c6af1	0.011500106
56	0x3cc14989	0.023594635
57	0x3ce1ee74	0.027579524
58	0xbcb3a33f	-0.021928428
59	0xbcdccea6	-0.026954006
60	0xbdbbaf00	-0.09164238
61	0x3d2dedcd	0.042463113
62	0xbcfc4fb1	-0.030799719
63	0x3ca97950	0.02068773
64	0x3c3d9c9d	0.011572984
65	0x3d9ecdbf	0.07754087
66	0x3d20d6cb	0.039267343
67	0xbd7100d0	-0.058838665
68	0xbd9b2b03	-0.07576563
69	0x3d581180	0.052751064
70	0xbcf478e4	-0.029842801
71	0xbce6a82d	-0.028156364
72	0xbd0c182f	-0.03420275
73	0x3cadb79e	0.02120572
74	0xbd027c79	-0.031856988
75	0xbc95045f	-0.01819056
76	0xbc806055	-0.015670935
77	0xbc1d40dc	-0.009597983
78	0x3c5d942a	0.013524095
79	0x3ca9c25a	0.020722557
80	0xbc8cf222	-0.017205302
81	0x3d365ba3	0.044520985
82	0xbd2551ec	-0.04036133
83	0xbbc83196	-0.0061094267
84	0xbcadb979	-0.021206604
85	0x3c665750	0.014058903
86	0xbd08d396	-0.03340491
87	0x3d2d7184	0.042344585
88	0x3c6761f4	0.014122475
89	0xbcc240c8	-0.02371253
90	0x3d380fe5	0.044937033
91	0xbc8a50d6	-0.016884249
92	0xbb96a5ca	-0.0045974003
93	0xbd064c34	-0.032787517
94	0xbba8e3ec	-0.0051541235
95	0x3d78600a	0.060638465
96	0x3cf63a57	0.030057115
97	0xbdbd901d	-0.09256003
98	0x3a86350a	0.0010239196
99	0x3d303500	0.043019295
100	0xbd886563	-0.06659963
101	0xbcd1050b	-0.0255151
102	0x3d15d888	0.036583453
103	0xbc89cfd5	-0.016822735
104	0x3c2c1f97	0.0105055785
105	0x3d6de383	0.0580783
106	0xbc52342f	-0.012829824
107	0xbcc171c5	-0.02361382
108	0x3bc976c9	0.0061481935
109	0x3cea1df6	0.02857874
110	0x3d127aa2	0.035761483
111	0x3c85f931	0.016354175
112	0xbd527909	-0.05138496
113	0x3d3df9ce	0.04638081
114	0x3c9872b6	0.018609386
115	0x3d5fe824	0.054664746
116	0x3cf3011b	0.029663613
117	0x3b8ba2b6	0.00426134
118	0xbbba0d40	-0.005677849
119	0x3d258720	0.04041207
120	0x3cc9dcdf	0.024641452
121	0x3d16c4ff	0.036808964
122	0x3c497664	0.012296293
123	0x3b634d63	0.0034683577
124	0x3d037eec	0.032103464
125	0x3d1941ea	0.037416376
126	0x3d1ac7d8	0.037788242
127	0xbd003f68	-0.03131047

exp_avg f4 [128, 5]
0	0x39c6d668	0.00037925248
1	0x3bd6bc0a	0.0065531777
2	0xbc31668d	-0.010827673
3	0x3ac88932	0.0015299676
4	0x00000000	0.0
5	0xb8770687	-5.8895468e-05
6	0xb9810e29	-0.00024615348
7	0x3ae0265e	0.0017101278
8	0xb9630da1	-0.00021653484
9	0x00000000	0.0
10	0x39b5ec39	0.0003469901
11	0x3a96ff23	0.0011520128
12	0xbc171514	-0.009221334
13	0x3a9dc730	0.0012037512
14	0x00000000	0.0
15	0x3a1fd363	0.0006096868
16	0x3c80aa9f	0.015706358
17	0xbc8730b5	-0.016502718
18	0x3b1f9db3	0.002435547
19	0x00000000	0.0
20	0x36aa6876	5.0785557e-06
21	0xb7f608fc	-2.9329669e-05
22	0xb992b5e5	-0.00027982812
23	0x37dc5df5	2.6269796e-05
24	0x00000000	0.0
25	0x34295386	1.5769737e-07
26	0x362290e3	2.4224216e-06
27	0x3613080d	2.1909393e-06
28	0x35f0f0ed	1.7951512e-06
29	0x00000000	0.0
30	0x39e04a54	0.00042779988
31	0x3cad677e	0.021167513
32	0xbc4bc222	-0.012436422
33	0x3afdffd2	0.0019378609
34	0x00000000	0.0
35	0x38af3a78	8.355541e-05
36	0x3a912dac	0.0011076233
37	0xbb08e9b1	-0.0020891244
38	0x3997c166	0.00028945057
39	0x00000000	0.0
40	0x39a069d6	0.00030596432
41	0x3c1c76c2	0.009549798
42	0xbc0e53d2	-0.0086869765
43	0x3aa802fc	0.0012818272
44	0x00000000	0.0
45	0xb94f38e3	-0.0001976225
46	0xba15c767	-0.0005713612
47	0x3ba6bca1	0.0050884043
48	0xba34418a	-0.0006876221
49	0x00000000	0.0
50	0xb7490f76	-1.1984133e-05
51	0x36eea11a	7.1117074e-06
52	0x36c582ce	5.886285e-06
53	0xb7815bd2	-1.5420756e-05
54	0x00000000	0.0
55	0xb8114997	-3.463923e-05
56	0xba8e8e53	-0.0010876156
57	0x39ccca88	0.0003906081
58	0xb8ac316a	-8.210803e-05
59	0x00000000	0.0
60	0x393e730b	0.00018162669
61	0x3b752b74	0.0037409933
62	0xbb98681e	-0.0046510836
63	0x3a2c29d2	0.0006567511
64	0x00000000	0.0
65	0xb968b866	-0.00022193938
66	0xbb63c99e	-0.0034757624
67	0x3bcf596e	0.0063277995
68	0xba578690	-0.00082216505
69	0x00000000	0.0
70	0xb9ab9b72	-0.00032731477
71	0xbbe34e2e	-0.00693681
72	0x3c0c3a24	0.008558784
73	0xba9e8ef0	-0.0012097042
74	0x00000000	0.0
75	0xb721f847	-9.654154e-06
76	0xb7843f16	-1.5765003e-05
77	0x392ebda0	0.00016664574
78	0xb7f6a882	-2.9403953e-05
79	0x00000000	0.0
80	0xba77274d	-0.00094281585
81	0xba9d6cf3	-0.0012010619
82	0x3c94616f	0.018112866
83	0xbb3b9a0d	-0.0028625757
84	0x00000000	0.0
85	0xb75d89cd	-1.3204711e-05
86	0xb87a5da2	-5.9691847e-05
87	0x36cf392a	6.1757355e-06
88	0xb85563e3	-5.0876184e-05
89	0x00000000	0.0
90	0xba01afd3	-0.00049471593
91	0xbab7f621	-0.0014035144
92	0x3c4235f7	0.0118536865
93	0xbadf17a0	-0.0017020591
94	0x00000000	0.0
95	0x3666f214	3.4413579e-06
96	0x36ba8990	5.5592463e-06
97	0xb6d157aa	-6.238891e-06
98	0x3753ca82	1.262373e-05
99	0x00000000	0.0
100	0xb856799a	-5.1134826e-05
101	0xb9b1dd45	-0.0003392493
102	0x3a81257f	0.0009853094
103	0xb920289d	-0.00015273919
104	0x00000000	0.0
105	0x3a01dcce	0.0004953862
106	0x3c45d92a	0.012075702
107	0xbc6d4334	-0.0144813545
108	0x3b0d6771	0.0021576548
109	0x00000000	0.0
110	0x37fd9fc3	3.0234345e-05
111	0x38ac702a	8.222491e-05
112	0xba65541b	-0.00087481894
113	0x38e56e60	0.0001094013
114	0x00000000	0.0
115	0xb5763eb1	-9.173337e-07
116	0xb54fb69a	-7.737923e-07
117	0x35ed6f8e	1.7690343e-06
118	0xb6297d59	-2.5255924e-06
119	0x00000000	0.0
120	0xb87a13cc	-5.9623082e-05
121	0x38cd3070	9.784184e-05
122	0x3a87e604	0.0010368233
123	0xb937a465	-0.00017513482
124	0x00000000	0.0
125	0xb9972884	-0.0002883115
126	0xbc083ecf	-0.008315756
127	0x3bfc4ade	0.0076993546
128	0xba981ef6	-0.0011605907
129	0x00000000	0.0
130	0x389e131d	7.537587e-05
131	0x39bd1c79	0.00036070103
132	0xbb2a0843	-0.0025944866
133	0x399a462c	0.0002942545
134	0x00000000	0.0
135	0x38af443c	8.35736e-05
136	0x3b9482a6	0.004532176
137	0xbb1856db	-0.002324513
138	0x39c33704	0.00037234288
139	0x00000000	0.0
140	0x3805c14f	3.1889704e-05
141	0x388c3d67	6.687157e-05
142	0xba3412a9	-0.00068692357
143	0x38c163c7	9.221542e-05
144	0x00000000	0.0
145	0x37f57592	2.9261024e-05
146	0x386d0910	5.6513643e-05
147	0xba58f8b7	-0.00082768075
148	0x390ebdb2	0.00013612842
149	0x00000000	0.0
150	0xb83bcf5f	-4.4777404e-05
151	0xbb3b859a	-0.0028613568
152	0x3ac9c7ad	0.0015394591
153	0xb968123a	-0.00022132034
154	0x00000000	0.0
155	0xb68653c6	-4.0032637e-06
156	0xb864997f	-5.450239e-05
157	0xb5a1795c	-1.2030755e-06
158	0xb6bbaa07	-5.592828e-06
159	0x00000000	0.0
160	0x38a26086	7.742741e-05
161	0x3b95c7a3	0.0045709177
162	0xbb0ba61d	-0.0021308728
163	0x399b9692	0.00029676087
164	0x00000000	0.0
165	0xb79577b9	-1.7817934e-05
166	0xb7f6c0a5	-2.9415192e-05
167	0x37ca2bb2	2.4100624e-05
168	0xb8827031	-6.21978e-05
169	0x00000000	0.0
170	0x373e1064	1.1328699e-05
171	0x38851a4e	6.346834e-05
172	0xba03d1d8	-0.00050285226
173	0x38673466	5.512349e-05
174	0x00000000	0.0
175	0xba388033	-0.0007038146
176	0xbc56321c	-0.01307347
177	0x3c926345	0.017869601
178	0xbb28a869	-0.0025735146
179	0x00000000	0.0
180	0x38f564e7	0.00011701305
181	0x3b4ecf74	0.0031556757
182	0xbb7bed1a	-0.0038440884
183	0x3a0ab6ed	0.00052915403
184	0x00000000	0.0
185	0x37e529e2	2.731843e-05
186	0x38be13bb	9.063581e-05
187	0xba412462	-0.0007367787
188	0x38c17354	9.224439e-05
189	0x00000000	0.0
190	0xb6685380	-3.4619297e-06
191	0xbae3003d	-0.0017318797
192	0x39667cd0	0.00021981006
193	0xb8e23547	-0.000107864435
194	0x00000000	0.0
195	0xb991aac2	-0.0002778378
196	0xbb8fd5c9	-0.004389499
197	0x3bef2aff	0.0072988267
198	0xba83cf81	-0.0010056348
199	0x00000000	0.0
200	0x39b65048	0.0003477356
201	0x3c4c04f5	0.012452354
202	0xbc124082	-0.008926513
203	0x3ab632e0	0.001390066
204	0x00000000	0.0
205	0x39c0862a	0.00036721054
206	0x3c290baa	0.010317722
207	0xbc32dba2	-0.010916622
208	0x3ac82420	0.0015269555
209	0x00000000	0.0
210	0xb8a0678f	-7.648684e-05
211	0xbb9a066a	-0.0047004716
212	0x3aeb1cde	0.001793768
213	0xb9604eca	-0.00021391656
214	0x00000000	0.0
215	0x396ad0b4	0.00022393727
216	0x3a26fefb	0.00063703925
217	0xbbb559da	-0.005534393
218	0x3a42cc70	0.0007430976
219	0x00000000	0.0
220	0x3899c761	7.332746e-05
221	0x3b8b707b	0.004255352
222	0xbab362e4	-0.0013686088
223	0x39662677	0.00021948839
224	0x00000000	0.0
225	0xb9dc4302	-0.00042011595
226	0xbc645d2c	-0.0139382295
227	0x3c3eede7	0.0116534
228	0xbae89d3c	-0.0017747055
229	0x00000000	0.0
230	0x34a40b2e	3.0555515e-07
231	0x36a386cb	4.8734705e-06
232	0xb5566924	-7.987421e-07
233	0x36754866	3.6549986e-06
234	0x00000000	0.0
235	0xb60a0191	-2.0564514e-06
236	0x39804cb8	0.00024471222
237	0xb91215dd	-0.0001393179
238	0xb6e428b0	-6.799666e-06
239	0x00000000	0.0
240	0xb7e353a2	-2.7099453e-05
241	0xb80bcca6	-3.3330776e-05
242	0x39d02ee0	0.00039707776
243	0xb8b6fc62	-8.725446e-05
244	0x00000000	0.0
245	0xb7f9d20c	-2.9780924e-05
246	0x3c031f54	0.008003075
247	0x3a4d73aa	0.00078373647
248	0x376be060	1.4059333e-05
249	0x00000000	0.0
250	0x3a00f7de	0.00049197476
251	0x3c0c42ce	0.008560849
252	0xbc54ae3b	-0.012980993
253	0x3af25de1	0.0018491113
254	0x00000000	0.0
255	0x39f23daa	0.0004620378

exp_avg_sq f4 [128, 5]
0	0x35101d08	5.3686426e-07
1	0x392e3bce	0.00016616212
2	0x3a0b6e48	0.00053188624
3	0x3714bde7	8.8657025e-06
4	0x00000000	0.0
5	0x32f0a4bd	2.8014592e-08
6	0x3505e6a7	4.9882004e-07
7	0x38076334	3.22789e-05
8	0x34f6b279	4.5950927e-07
9	0x00000000	0.0
10	0x354d5a9b	7.65003e-07
11	0x373baa1e	1.1185677e-05
12	0x3a3b8f67	0.00071548525
13	0x37456699	1.1766003e-05
14	0x00000000	0.0
15	0x35a3b37f	1.2196687e-06
16	0x3b053ca7	0.002033034
17	0x3a95159d	0.0011374239
18	0x37a5b2f4	1.9752864e-05
19	0x00000000	0.0
20	0x32c71947	2.3178144e-08
21	0x38f2ef31	0.00011584012
22	0x379d6dd3	1.8767e-05
23	0x3491d730	2.7164924e-07
24	0x00000000	0.0
25	0x2da28b23	1.8479057e-11
26	0x2f43d866	1.7812027e-10
27	0x2e99fba9	7.002338e-11
28	0x2f0f6952	1.3043192e-10
29	0x00000000	0.0
30	0x3553d7a1	7.8917407e-07
31	0x3b5c8767	0.0033650042
32	0x3a395889	0.00070703827
33	0x375a0771	1.2995545e-05
34	0x00000000	0.0
35	0x336b3206	5.4760697e-08
36	0x390a2085	0.0001317282
37	0x384781f1	4.7566315e-05
38	0x35449e8f	7.3246423e-07
39	0x00000000	0.0
40	0x34b88124	3.4366633e-07
41	0x3a991437	0.0011678998
42	0x39b2e001	0.00034117702
43	0x36ba06b5	5.5440128e-06
44	0x00000000	0.0
45	0x3464b4c3	2.1299915e-07
46	0x363390e6	2.675742e-06
47	0x394ba9e6	0.0001942288
48	0x365d313d	3.2960227e-06
49	0x00000000	0.0
50	0x30aa1da8	1.2377557e-09
51	0x32dd5771	2.576755e-08
52	0x322b8653	9.984052e-09
53	0x32c48101	2.2876067e-08
54	0x00000000	0.0
55	0x32a2989b	1.8928679e-08
56	0x3904cc52	0.00012664616
57	0x3769fe7b	1.3947133e-05
58	0x345f4974	2.0795216e-07
59	0x00000000	0.0
60	0x3480530e	2.3902288e-07
61	0x3a421266	0.0007403254
62	0x396320be	0.00021660604
63	0x36686e09	3.4634743e-06
64	0x00000000	0.0
65	0x34b3f12b	3.351682e-07
66	0x3a271632	0.0006373852
67	0x39b16776	0.00033837155
68	0x36a96cf7	5.0492777e-06
69	0x00000000	0.0
70	0x34a2b227	3.0304474e-07
71	0x39277024	0.00015968137
72	0x399657a3	0.00028675524
73	0x36a161df	4.8095676e-06
74	0x00000000	0.0
75	0x304bf206	7.4194906e-10
76	0x315bc02f	3.1977938e-09
77	0x35003af1	4.7769487e-07
78	0x321f1f1c	9.2620915e-09
79	0x00000000	0.0
80	0x36a96509	5.0483545e-06
81	0x378df196	1.6921007e-05
82	0x3b4ecc9a	0.0031555058
83	0x388f04fa	6.819698e-05
84	0x00000000	0.0
85	0x30f83509	1.8059448e-09
86	0x33afa706	8.179454e-08
87	0x3096106f	1.0918607e-09
88	0x32bce3f9	2.198975e-08
89	0x00000000	0.0
90	0x35c1d4f5	1.4441599e-06
91	0x375f70e8	1.3318124e-05
92	0x3aa2362a	0.0012375761
93	0x37b5429f	2.1607904e-05
94	0x00000000	0.0
95	0x2ec54dff	8.972378e-11
96	0x2fb9ecf1	3.381966e-10
97	0x2fabf11a	3.1276032e-10
98	0x3014f32a	5.4187643e-10
99	0x00000000	0.0
100	0x32a360e9	1.9019767e-08
101	0x37e3f87c	2.7176218e-05
102	0x37647e33	1.3619242e-05
103	0x34806f15	2.392268e-07
104	0x00000000	0.0
105	0x354610ab	7.3785003e-07
106	0x3a3550cf	0.00069166435
107	0x3a41780a	0.0007380253
108	0x374f820d	1.2368441e-05
109	0x00000000	0.0
110	0x319fff5e	4.656541e-09
111	0x332c6aaa	4.014388e-08
112	0x3675769d	3.6576887e-06
113	0x338ba082	6.501888e-08
114	0x00000000	0.0
115	0x2bcf428e	1.4726707e-12
116	0x2e1558d8	3.3957587e-11
117	0x2e884b24	6.1979116e-11
118	0x2d97c76e	1.7255277e-11
119	0x00000000	0.0
120	0x338b5fe3	6.4901336e-08
121	0x398c5900	0.0002676919
122	0x384a7584	4.8269998e-05
123	0x3545f822	7.37493e-07
124	0x00000000	0.0
125	0x3457e4f1	2.0106724e-07
126	0x39b3400f	0.00034189268
127	0x394e264f	0.00019659962
128	0x366e7add	3.553628e-06
129	0x00000000	0.0
130	0x332f2ace	4.0784293e-08
131	0x358dc900	1.0563817e-06
132	0x38516bfe	4.993006e-05
133	0x3537e882	6.8511156e-07
134	0x00000000	0.0
135	0x3384faa9	6.192324e-08
136	0x39a12279	0.00030733997
137	0x385b6bf3	5.2314204e-05
138	0x357a4f8d	9.324802e-07
139	0x00000000	0.0
140	0x319044a4	4.198755e-09
141	0x330c370d	3.264636e-08
142	0x3666e335	3.4404923e-06
143	0x337a164d	5.8227943e-08
144	0x00000000	0.0
145	0x338c29ae	6.5268395e-08
146	0x39b3fdef	0.00034330736
147	0x384547e3	4.703541e-05
148	0x3548a620	7.474755e-07
149	0x00000000	0.0
150	0x32625637	1.3174534e-08
151	0x3837a5a4	4.3784865e-05
152	0x372b25f7	1.0201234e-05
153	0x345c023c	2.048991e-07
154	0x00000000	0.0
155	0x2f10d00a	1.3170634e-10
156	0x3540621f	7.166836e-07
157	0x329e0e1e	1.840004e-08
158	0x30c49c2c	1.4305264e-09
159	0x00000000	0.0
160	0x33c92560	9.36659e-08
161	0x3a250345	0.00062947377
162	0x38b69da2	8.707798e-05
163	0x35a186e9	1.2034699e-06
164	0x00000000	0.0
165	0x312e0055	2.5320521e-09
166	0x329c1a4b	1.8172747e-08
167	0x31e0be53	6.5408954e-09
168	0x32f61f0e	2.8652291e-08
169	0x00000000	0.0
170	0x318b94c2	4.0623442e-09
171	0x340565ac	1.2423578e-07
172	0x36acf253	5.1542097e-06
173	0x336e126c	5.5430448e-08
174	0x00000000	0.0
175	0x35c8913d	1.4943431e-06
176	0x3a9ec468	0.0012112977
177	0x3aae3785	0.0013291693
178	0x37c8f493	2.3955747e-05
179	0x00000000	0.0
180	0x3353115c	4.9143054e-08
181	0x389b0524	7.3919335e-05
182	0x386e5eb2	5.6831814e-05
183	0x3565a900	8.5555075e-07
184	0x00000000	0.0
185	0x31926939	4.2611217e-09
186	0x339b8d07	7.243403e-08
187	0x368e6bd2	4.2444817e-06
188	0x3371b8f1	5.628039e-08
189	0x00000000	0.0
190	0x330e01a1	3.3063433e-08
191	0x379c445e	1.8628485e-05
192	0x3810163e	3.435299e-05
193	0x3507b849	5.055959e-07
194	0x00000000	0.0
195	0x34d6e1df	4.002495e-07
196	0x3a046982	0.0005051122
197	0x39bbb382	0.00035801163
198	0x36c8a479	5.9796116e-06
199	0x00000000	0.0
200	0x351dfb52	5.8852777e-07
201	0x3b1d6dd6	0.0024021766
202	0x3a04e704	0.00050698244
203	0x3715f2b7	8.9376035e-06
204	0x00000000	0.0
205	0x34fc1537	4.6954094e-07
206	0x3a8b406e	0.001062406
207	0x3a01c30a	0.00049500226
208	0x37035cdb	7.829828e-06
209	0x00000000	0.0
210	0x344cd305	1.9075749e-07
211	0x3ab2f54e	0.0013653429
212	0x393fd888	0.00018295844
213	0x363f56dd	2.851178e-06
214	0x00000000	0.0
215	0x34b2c3df	3.32976e-07
216	0x36305fdf	2.6281848e-06
217	0x398cbfe5	0.00026845853
218	0x369b7664	4.6331425e-06
219	0x00000000	0.0
220	0x33c6cc9d	9.2573124e-08
221	0x3a0e2fbc	0.0005423983
222	0x388bb89c	6.662423e-05
223	0x35ad35e5	1.290519e-06
224	0x00000000	0.0
225	0x34ec492b	4.4011662e-07
226	0x3a97ea87	0.001159028
227	0x39ddb521	0.00042287356
228	0x37001eff	7.636611e-06
229	0x00000000	0.0
230	0x2c92839d	4.1641816e-12
231	0x2f1d3d17	1.430077e-10
232	0x2d5ff220	1.2729845e-11
233	0x2e1f1c20	3.6177394e-11
234	0x00000000	0.0
235	0x319c3bbd	4.546989e-09
236	0x37917fc4	1.7344842e-05
237	0x3616112d	2.236174e-06
238	0x3370ed91	5.609542e-08
239	0x00000000	0.0
240	0x314db6fc	2.993544e-09
241	0x323eb673	1.110094e-08
242	0x35c36084	1.4556722e-06
243	0x3337c63b	4.2788297e-08
244	0x00000000	0.0
245	0x35325f28	6.644864e-07
246	0x3b1c9c89	0.0023897013
247	0x3a0fa741	0.000547994
248	0x371385e5	8.7930575e-06
249	0x00000000	0.0
250	0x356bd3b5	8.7852396e-07
251	0x39b963ed	0.000353604
252	0x3a4bceec	0.0007774669
253	0x376376b1	1.3557889e-05
254	0x00000000	0.0
255	0x3545c7bd	7.3678876e-07

exp_avg f4 [128]
0	0x39e7a9de	0.00044186314
1	0xb8994433	-7.3083116e-05
2	0x39d211a3	0.00040067462
3	0x3a2e9bf4	0.0006660812
4	0x37531662	1.2581791e-05
5	0x350a6a39	5.156358e-07
6	0x39f1d00a	0.00046122103
7	0x38b43d08	8.594437e-05
8	0x39b51330	0.00034537306
9	0xb969e53a	-0.00022306005
10	0xb71d6cf7	-9.3833e-06
11	0xb74b7df3	-1.2129068e-05
12	0x39482652	0.00019087762
13	0xb98b4286	-0.0002656171
14	0xb9b8c916	-0.00035245036
15	0xb70cc3d4	-8.390245e-06
16	0xba5878ff	-0.0008257776
17	0xb7aac21e	-2.0355972e-05
18	0xba08726c	-0.00052050385
19	0x366d531d	3.536413e-06
20	0xb837d431	-4.382822e-05
21	0x3a179b25	0.0005783311
22	0x381b7bda	3.7070226e-05
23	0xb52c4ac0	-6.418377e-07
24	0xb83dc9bd	-4.5248995e-05
25	0xb99f4f67	-0.00030386003
26	0x38e5d508	0.00010959251
27	0x38ad0c5f	8.251587e-05
28	0x37f66b19	2.9375356e-05
29	0x38232118	3.889305e-05
30	0xb860a365	-5.3557935e-05
31	0x3596bd65	1.1230992e-06
32	0x389dd585	7.5261145e-05
33	0xb7a35e06	-1.9474897e-05
34	0x37d10eb7	2.4921594e-05
35	0xba406c8a	-0.00073403923
36	0x392763d2	0.00015963547
37	0x38090885	3.267128e-05
38	0xb67e9d20	-3.7940408e-06
39	0xb99d4dba	-0.00030003284
40	0x39b5df1e	0.00034689246
41	0x39e4e062	0.00043654727
42	0xb873be80	-5.811313e-05
43	0x397ff16e	0.00024408635
44	0x383706bb	4.363687e-05
45	0xb9f08ff1	-0.00045883612
46	0x35bbcd30	1.3992303e-06
47	0xb6747897	-3.6429026e-06
48	0xb7cd86f8	-2.4500754e-05
49	0xb881d78e	-6.1913495e-05
50	0x3a0cc2a5	0.00053695805
51	0x3a122b36	0.0005575897
52	0xb843a6d4	-4.6646994e-05
53	0xb778ba5f	-1.4825345e-05
54	0x380fbdce	3.4270626e-05
55	0x3822d1b0	3.8819097e-05
56	0xba156522	-0.0005698969
57	0xb7b3270e	-2.1356649e-05
58	0x3a6fe176	0.0009150723
59	0xb81bb5d6	-3.7124228e-05
60	0x3611b74b	2.1713374e-06
61	0xba1a6ac3	-0.00058905425
62	0xb8d1b1da	-9.999024e-05
63	0xb78aec81	-1.6561013e-05
64	0x398502fe	0.00025369966
65	0xb548c65a	-7.4794445e-07
66	0x38a8b308	8.0442114e-05
67	0x37be7d9a	2.2708253e-05
68	0xb96edad2	-0.00022778966
69	0xb80cf312	-3.3604978e-05
70	0xb96b6767	-0.00022449867
71	0xba00d2df	-0.0004914235
72	0x3a0773cd	0.0005167097
73	0x33cca040	9.5286396e-08
74	0xb7d8945e	-2.5818295e-05
75	0xb9cb41d7	-0.00038768232
76	0xb9c7dc7e	-0.00038120517
77	0x3956270e	0.0002042318
78	0xb4e0e812	-4.1892105e-07
79	0xb9cc63e0	-0.00038984325
80	0xba28855d	-0.0006428564
81	0x38bc2c89	8.972834e-05
82	0xb82324ce	-3.8896505e-05
83	0xb8350ed0	-4.3167558e-05
84	0xb634890d	-2.6901864e-06
85	0x3937e678	0.00017538096
86	0x38f6f23a	0.00011775312
87	0x388a246b	6.587136e-05
88	0x3a5ed781	0.00085007405
89	0xba404912	-0.0007335107
90	0xb69851e0	-4.5394845e-06
91	0xb8852c50	-6.350188e-05
92	0x38e8b60f	0.00011096533
93	0x37499658	1.2015538e-05
94	0x3751b624	1.2499779e-05
95	0x392fbfd5	0.00016760764
96	0xb519b476	-5.7259547e-07
97	0x39615e87	0.00021492886
98	0xb842eafe	-4.6472058e-05
99	0x38cb80a6	9.703757e-05
100	0xb949bb82	-0.00019238706
101	0x379e58f7	1.8876495e-05
102	0x38f2005e	0.000115395276
103	0xba4a3e12	-0.00077149377
104	0xba19323a	-0.0005843971
105	0x35788cab	9.25919e-07
106	0xb78333b4	-1.5640493e-05
107	0x39983cbc	0.0002903695
108	0xb9826d85	-0.0002487713
109	0xb9725c32	-0.00023113264
110	0xb99ed477	-0.00030294407
111	0xba1aca0b	-0.00059047405
112	0xb74a0958	-1.2042314e-05
113	0xb8a0fa64	-7.6760334e-05
114	0x39b1f4dd	0.00033942508
115	0xb927059e	-0.00015928454
116	0xb7e21a04	-2.6953414e-05
117	0x37aad017	2.0362479e-05
118	0xb80ff326	-3.4320306e-05
119	0x38c46957	9.3656294e-05
120	0xb40c31bd	-1.3056611e-07
121	0xb514c718	-5.5424016e-07
122	0xb9d36546	-0.0004032051
123	0xb533ea5a	-6.702372e-07
124	0x3996502f	0.0002866997
125	0xb8ae7e7e	-8.3205276e-05
126	0xb9fd6173	-0.00048328526
127	0xb73b0fe0	-1.1149765e-05

exp_avg_sq f4 [128]
0	0x3581a10f	9.658123e-07
1	0x337c8751	5.879639e-08
2	0x35b0bcdb	1.3167986e-06
3	0x360d5236	2.105849e-06
4	0x331c6185	3.6410274e-08
5	0x2dde4e27	2.5273185e-11
6	0x35b2817e	1.3299721e-06
7	0x33bf5d28	8.9110756e-08
8	0x352b1226	6.3728874e-07
9	0x34bfb5f2	3.5708905e-07
10	0x311957e6	2.2314395e-09
11	0x3301094a	3.00436e-08
12	0x34dd0615	4.1168883e-07
13	0x35285012	6.2701395e-07
14	0x350d25a0	5.2581345e-07
15	0x30837685	9.56519e-10
16	0x36c1f1db	5.780004e-06
17	0x3135645d	2.6396016e-09
18	0x36191d49	2.2815823e-06
19	0x2ed746da	9.789654e-11
20	0x32de0b6e	2.5849399e-08
21	0x35b4077f	1.3413227e-06
22	0x31e76315	6.734249e-09
23	0x2c29f3de	2.4151718e-12
24	0x33d27f7d	9.802077e-08
25	0x34bf0f70	3.5587755e-07
26	0x33c26311	9.051849e-08
27	0x33db9d94	1.02266455e-07
28	0x31da850c	6.3597607e-09
29	0x33cb9720	9.4804136e-08
30	0x32aa5675	1.982992e-08
31	0x2f761046	2.2379351e-10
32	0x3434954a	1.6818117e-07
33	0x315816ec	3.1445166e-09
34	0x32241de4	9.552853e-09
35	0x36236b7f	2.4351464e-06
36	0x33df9b7a	1.0412528e-07
37	0x3210676e	8.40542e-09
38	0x338836f5	6.34299e-08
39	0x35320cbd	6.6328704e-07
40	0x3582f73b	9.757708e-07
41	0x35762c68	9.170676e-07
42	0x34c2b6ba	3.6268267e-07
43	0x350357ce	4.8929076e-07
44	0x340d4a2d	1.3158633e-07
45	0x35519f0f	7.809003e-07
46	0x2d0ced8d	8.0108255e-12
47	0x31b4ead7	5.2653877e-09
48	0x31762f26	3.5824512e-09
49	0x358c44b1	1.0450805e-06
50	0x35bea58c	1.4204284e-06
51	0x35be4ff3	1.4179371e-06
52	0x32a89bba	1.962859e-08
53	0x3144828f	2.8595968e-09
54	0x32eb4990	2.7391053e-08
55	0x321cee65	9.1346e-09
56	0x3608bda6	2.037597e-06
57	0x32e57710	2.6713252e-08
58	0x36a3d26a	4.882274e-06
59	0x33b102da	8.2427235e-08
60	0x31ec04e3	6.8690595e-09
61	0x36005c6d	1.9127285e-06
62	0x344b4ec1	1.8934499e-07
63	0x3199738c	4.466022e-09
64	0x345b78f5	2.0439968e-07
65	0x2cd58493	6.068543e-12
66	0x33e7b160	1.078904e-07
67	0x3145df98	2.8794371e-09
68	0x34bae202	3.4809642e-07
69	0x33089bca	3.1806657e-08
70	0x34b9083d	3.446493e-07
71	0x35ba295b	1.3870116e-06
72	0x360f89c4	2.138885e-06
73	0x2f523475	1.9118025e-10
74	0x31e34cf7	6.6153194e-09
75	0x35815954	9.637247e-07
76	0x357de806	9.4587483e-07
77	0x3480298a	2.3872082e-07
78	0x2d83573f	1.493172e-11
79	0x3565dbbe	8.5628915e-07
80	0x36304099	2.6263644e-06
81	0x34059dcf	1.2444e-07
82	0x341d461f	1.4647274e-07
83	0x327c32ca	1.4679879e-08
84	0x2e36230a	4.141313e-11
85	0x345aae90	2.0366338e-07
86	0x339dcb09	7.347814e-08
87	0x3386514a	6.2546476e-08
88	0x36897439	4.0964483e-06
89	0x362b4f04	2.5526979e-06
90	0x2ed3535b	9.609976e-11
91	0x350ff8cc	5.36337e-07
92	0x342c35ef	1.6038369e-07
93	0x35322cce	6.6375367e-07
94	0x32410479	1.12350955e-08
95	0x3425dc0f	1.544688e-07
96	0x2d2a4a62	9.6798975e-12
97	0x345480ce	1.9790897e-07
98	0x33af769e	8.170649e-08
99	0x33f40ae3	1.1364116e-07
100	0x347e506c	2.368485e-07
101	0x313d0150	2.7503866e-09
102	0x341db9ac	1.4689311e-07
103	0x360dabe6	2.1110695e-06
104	0x35ea1af3	1.7442202e-06
105	0x300bf9d8	5.0922955e-10
106	0x313fc8b2	2.790824e-09
107	0x3591338a	1.0818342e-06
108	0x34f914c0	4.6394962e-07
109	0x34395b8f	1.7262776e-07
110	0x3562c89e	8.44835e-07
111	0x365b731e	3.270055e-06
112	0x315d54f9	3.2208034e-09
113	0x349f352f	2.9654754e-07
114	0x351eb488	5.9122294e-07
115	0x34a473ec	3.0631725e-07
116	0x320b8b4c	8.122537e-09
117	0x3113a087	2.1482565e-09
118	0x33c7f71b	9.311608e-08
119	0x3363aa64	5.3007525e-08
120	0x2dc1ff42	2.2054917e-11
121	0x324dc8b9	1.19782095e-08
122	0x354db32e	7.662919e-07
123	0x2e1b4474	3.530372e-11
124	0x351e7c2c	5.904028e-07
125	0x34b2676b	3.323033e-07
126	0x35adbebe	1.2945018e-06
127	0x30802cbb	9.325939e-10
