results/test2/EndLessRunnerBehaviour/EndLessRunnerBehaviour-149350.onnx (onnx, 74029 bytes, 5 tensors)

network_body._body_endoder.seq_layers.0.weight f4 [128, 5]
000000 b3 dd 74 be e2 10 a6 bd 5a 1e 5b bf 10 f9 53 bf
       -0.23912697 -0.08108689 -0.8559319 -0.82801914
000010 16 87 ba be 07 43 94 3e 13 ea 85 bc ee 41 2f 3f
       -0.36431187 0.28957388 -0.016346967 0.68459976
000020 c1 36 c1 be ca a3 0c be ba cc 55 bb e8 d8 a4 bd
       -0.37737086 -0.13734356 -0.0032623247 -0.08049184
000030 71 ba 85 3f 7a ed 76 3e 6a cd 38 bf d8 d7 cc be
       1.0447522 0.24114028 -0.72188437 -0.40008426
000040 6b 3b c5 be 59 5c 52 3f 9d 80 e9 be 77 cd a5 3e
       -0.38521895 0.8217216 -0.45605937 0.3238332
000050 3b 4e a2 3c 31 11 c5 3e e2 7b 16 3e 0d 78 89 be
       0.019812694 0.38489679 0.14695695 -0.26849404
000060 55 9b 08 bf b8 ee 1d bf 40 9d af 3e fc 7c b9 bd
       -0.5336202 -0.6169238 0.3429966 -0.09057042
000070 0b c7 be bd a5 3b d3 3e b2 f2 13 bf 2f 20 e5 3e
       -0.09315308 0.41256443 -0.577922 0.44751117
000080 41 de 56 bf 98 f4 2c 3f 4d c0 31 bf 6a b7 66 3d
       -0.8393288 0.6756072 -0.6943405 0.05632726
000090 4b dd 18 3f 53 86 ba 3e 86 24 80 3e d7 bd d1 3d
       0.59712666 0.36430606 0.25027865 0.10241287
0000a0 ec 9a a6 bc b8 76 45 bf d6 16 ae 3e 52 43 70 3e
       -0.020337544 -0.77134275 0.34001797 0.2346318
0000b0 fb 53 02 bf 2e 43 37 bd be 68 0d bf a1 c5 8b 3c
       -0.50909394 -0.044741802 -0.5523795 0.01706201
0000c0 f0 72 8d 3e 19 1f 52 3e fd 44 db 3e 40 67 a0 3e
       0.27626753 0.20519675 0.4282607 0.31328773
0000d0 36 c8 96 3e e3 03 08 3f d4 2f b7 be fd 51 f1 be
       0.29449624 0.5313093 -0.35778677 -0.47132865
0000e0 43 21 6c 3e 55 11 01 bf e3 8e ed 3d ff ab d8 be
       0.23059563 -0.5041707 0.11599519 -0.42318723
0000f0 55 80 87 3f a7 08 88 3e d3 32 2d 3d 42 43 ad be
       1.0586039 0.265691 0.042284798 -0.33840376
000100 82 66 a0 3e 5d f4 c5 bd cc fc 49 3f ee 1c 6d bf
       0.31328207 -0.09665749 0.7890136 -0.9262227
000110 44 95 22 3f a4 7b 0a be 9d fe d8 3d bd c9 a8 3e
       0.6350901 -0.13523728 0.10595439 0.32966414
000120 3f 68 b6 3e fd 42 81 bf bf ab a3 3e b6 36 80 3e
       0.35626408 -1.0098568 0.3196697 0.2504174
000130 be 08 68 be e5 90 ef 3d ca 32 64 3d c2 cd 68 3e
       -0.22659585 0.11697558 0.0557125 0.2273474
000140 d3 b8 a7 bd 62 cb ff be b2 73 da bd d7 c6 2e bf
       -0.08189549 -0.49959856 -0.106665984 -0.68272156
000150 a6 15 5b 3e c5 a4 d9 3e 2b dc ef 3e ce eb c9 3e
       0.21394977 0.42508522 0.46847662 0.39437717
000160 59 ab f0 be 35 a2 94 3e 26 2f e8 bd f7 ff c4 3d
       -0.47005728 0.29030004 -0.11337118 0.09619134
000170 a1 1c 63 bc 47 49 10 3f 92 89 ef 3e fe af c7 3e
       -0.013861806 0.5636181 0.46784645 0.3900146
000180 a5 7f 7a 3d df 35 5f 3e 24 ad 1d be 7f 48 8b be
       0.061156888 0.21797894 -0.15398079 -0.27203748
000190 fa 88 48 3d 31 23 af 3e 67 90 e3 be 7b ee d7 3e
       0.048958756 0.34206536 -0.44446108 0.42174134
0001a0 42 c0 26 bf 7f db 82 3d be 86 cb be fa 94 65 bf
       -0.6513711 0.06389522 -0.39751238 -0.89680445
0001b0 8f f7 5d 3d 10 86 2f 3e 96 f4 b8 be c9 e5 6b bd
       0.05419117 0.17140985 -0.36124104 -0.057592187
0001c0 91 79 a6 bf 91 94 7c bf 65 0b a3 3f 79 3e 58 3f
       -1.3005849 -0.98664194 1.2737852 0.84470326
0001d0 57 d2 d6 3e d8 dc db 3e 4a 3c 18 3f a0 89 c3 be
       0.41957352 0.42941928 0.59466994 -0.38190937
0001e0 a4 19 b3 be 79 02 74 bf 6d 8e 93 be 31 03 98 be
       -0.349805 -0.9531627 -0.288196 -0.29689935
0001f0 0d 6a c0 3c e2 83 df bc 5e d5 bd 3e eb e6 5f be
       0.023488069 -0.027284566 0.3707685 -0.21865432
000200 6d ab ee be 3d 57 0e bd d3 f6 c6 3e 6b a1 d0 3e
       -0.46615162 -0.034751166 0.38860187 0.40748152
000210 cc 92 09 bf 26 dc 8d 3f 67 24 99 be a0 37 01 3f
       -0.5373962 1.1082809 -0.29910585 0.504755
000220 9f ad 92 3d ca 1e fd 3d dd 4c 2d bf 2d 3e 15 3e
       0.07162022 0.12359388 -0.6769541 0.145745
000230 fc 10 a3 be 24 7b 07 be 05 56 59 bf 0b f4 5c 3e
       -0.31848896 -0.13230568 -0.8489688 0.2157747
000240 1c a0 82 be 85 89 6c 3f 9b 05 cd 3e 1c 9b 35 3e
       -0.2551278 0.9239734 0.4004334 0.17734951
000250 19 c9 ab be b7 28 04 bf ac 27 a9 be f4 6c 74 3e
       -0.33551863 -0.51624626 -0.3303808 0.23869687
000260 ad f3 41 3d 90 c9 16 bf 86 3f a6 3e 06 6b 58 3e
       0.047351528 -0.5890131 0.3247034 0.21134576
000270 47 47 8c be 80 35 56 be 8a f6 47 be 60 30 95 be
       -0.2739813 -0.20918846 -0.19527641 -0.2913847
000280 9b dd a2 bd 41 c9 80 3d 0b 53 24 be 3a 02 54 be
       -0.07952424 0.06288386 -0.16047303 -0.20703974
000290 72 98 0f 3e fd 72 f7 3e 00 ed 3a 3c 70 a5 e2 be
       0.14022997 0.48329917 0.011409044 -0.44266844
0002a0 b6 f1 f5 be 3e bf 3a bf 86 c2 d5 3e 9d 72 f3 bc
       -0.48035973 -0.7294806 0.41749972 -0.029717738
0002b0 85 43 b0 3c e3 4c 2c 3f 3d 3b 18 bf bd 11 62 3e
       0.02151657 0.6730482 -0.5946539 0.22077079
0002c0 09 9f 88 bf 37 38 1c 3f a4 3c 10 be 6e e3 55 be
       -1.0673534 0.6102328 -0.14085633 -0.20887539
0002d0 23 6c a5 be 56 85 ce 3e 4b 5c 29 bf 71 93 42 3f
       -0.32309064 0.40336102 -0.6615645 0.7600623
0002e0 84 4e a6 bd bc 97 83 be 4d 9e 72 bd c0 5b 1b 3e
       -0.081204444 -0.25701702 -0.059233 0.15171719
0002f0 1a 9d cd 3e 03 f4 c7 be 18 4e 83 3f a3 b0 81 be
       0.4015892 -0.39053354 1.0258207 -0.25330076
000300 d0 4c 71 be be 17 62 3d a1 1a 17 3f 0b 95 3d bf
       -0.23564458 0.055198424 0.5902501 -0.74055547
000310 c7 54 9b 3e 41 a4 93 bd ca d3 e5 3e 96 63 f2 be
       0.30338117 -0.07209063 0.44888145 -0.47341603
000320 7f 6f 2a 3d 43 f0 0f 3f 14 62 55 3e 49 e5 27 bf
       0.041610237 0.56225985 0.20838195 -0.65584236
000330 79 ac 5c bf dd ec 8e be 2c d6 25 be d2 48 cb 3e
       -0.8620067 -0.27915087 -0.16194981 0.39703995
000340 fd 87 38 3f 01 f2 3d 3f 0c 08 11 3d 8e 2a f7 bd
       0.720825 0.74197394 0.035408065 -0.120686635
000350 9b e9 ea 3e 46 38 b9 3e 59 3a b8 be 20 59 8a 3e
       0.45881352 0.36175746 -0.35982016 0.27021122
000360 1d 97 25 3f 16 10 e7 be 84 c3 87 3e 99 e2 40 3e
       0.64683706 -0.4512946 0.26516354 0.1883644
000370 64 76 5a bd f4 01 02 3d 8c 02 2e be 72 ae 2c 3e
       -0.053335562 0.031740144 -0.16993159 0.1686342
000380 b8 71 4d 3e 0f 1e 5e bd e2 0f 20 bf 6a 5f e3 3e
       0.20062912 -0.054227885 -0.62524235 0.44408733
000390 3f c5 13 be 19 9b 2c bf 98 0d 96 3b 77 66 d0 be
       -0.14430712 -0.6742416 0.004579257 -0.40703174
0003a0 e3 55 c0 be 9d 90 04 3f ce 70 c3 3e 5b a6 d2 be
       -0.37565526 0.5178316 0.38172 -0.41142544
0003b0 a4 62 63 3f 08 c9 d6 3e 77 14 a8 be e6 86 09 3e
       0.8882239 0.4195025 -0.32828113 0.13430366
0003c0 55 6d 05 bf 11 21 6e bd f4 9a 88 3e bd 5e 0b bf
       -0.5211995 -0.058137003 0.2668072 -0.54441434
0003d0 09 12 55 be 86 ab 30 be ae 45 3e 3e 9c 31 24 3e
       -0.20807661 -0.17252931 0.18581268 0.1603455
0003e0 1d ac ca 3e 81 04 af 3e 29 39 24 3f 94 20 e3 be
       0.39584437 0.34183124 0.6414972 -0.44360793
0003f0 8c 80 ff 3e 7f 33 b1 bd 54 c8 1d bf 89 8c b4 be
       0.4990276 -0.086524 -0.616338 -0.3526347

network_body._body_endoder.seq_layers.0.bias f4 [128]
000000 56 5b 54 3a ef 7f 12 bb 37 d8 45 bb fb 67 51 3a
       0.00081007683 -0.0022354086 -0.0030188689 0.00079882116
000010 59 dd 54 3b 79 98 01 3b ed f4 84 ba 8e 24 65 bb
       0.0032480566 0.0019774719 -0.0010143794 -0.0034964415
000020 db 4e 0e 3d 41 31 8c bc 25 1a 5b bb 3d a3 d3 3a
       0.03474317 -0.01711333 -0.0033432331 0.0016146671
000030 28 93 58 3a 7c f6 90 bb 7b 5b 85 3a b6 bb ba bb
       0.0008261674 -0.0044239145 0.0010174358 -0.0056986464
000040 a0 a3 1b bc 87 62 b1 39 8a fe 04 3b 68 0a 1f ba
       -0.00949946 0.0003383348 0.0020293319 -0.00060669193
000050 2e fe 10 ba 2e ed 1c 3b c1 07 d1 ba 50 ae dd 3a
       -0.000553104 0.002394508 -0.0015947745 0.0016912911
000060 eb e8 e4 bb 96 45 19 bb 84 ce 31 3b 42 fe 0b ba
       -0.006985774 -0.0023387424 0.002713115 -0.00053403166
000070 f5 f8 47 bb 38 0e f3 3a 79 52 a6 ba ee 0c 69 bc
       -0.003051338 0.0018543666 -0.0012689374 -0.014224274
000080 d1 17 99 3b 04 1d 2e 3b a3 c2 46 bb 54 ee 11 3d
       0.0046720286 0.0026567588 -0.0030328415 0.035627678
000090 52 63 32 bb e8 75 a6 b8 47 da 09 bc 31 1d a6 ba
       -0.0027219844 -7.9374586e-05 -0.008413858 -0.0012673495
0000a0 3d 63 4e ba c3 d2 46 bc 39 00 fc bb e4 1f 91 3b
       -0.0007873064 -0.01213521 -0.007690456 0.0044288505
0000b0 bd 3b f8 ba eb a3 2e 3c fa 83 97 bc e2 7a cf 3a
       -0.0018938702 0.010659198 -0.018495549 0.0015829469
0000c0 62 5c 0f bc cb a0 50 3a 35 5c 82 bb 82 97 3c bc
       -0.008750053 0.00079585303 -0.003978277 -0.011510732
0000d0 95 86 18 bb 10 90 61 b8 52 5f 72 3c e0 5a 62 3c
       -0.0023273577 -5.377835e-05 0.014793234 0.013815612
0000e0 bc 1d 77 bb 88 ce 08 bb 3f cf 4b ba 66 8f 83 bc
       -0.0037706932 -0.0020875055 -0.00077747175 -0.016059589
0000f0 92 a3 ec ba 02 6b 56 3a d9 40 73 3b 55 18 4c 3c
       -0.0018054119 0.00081793976 0.003711751 0.012456973
000100 9c f2 5e ba 88 7f 6b 3b f6 c6 a2 ba 57 44 1b bc
       -0.00085047795 0.003593417 -0.0012418914 -0.009476743
000110 cd 81 a1 3b 38 b1 a8 b9 15 a5 a4 ba cb 63 bd 3b
       0.0049288035 -0.00032175495 -0.0012561405 0.0057797185
000120 91 9e a4 3b c4 a6 8d 39 85 8d ae 39 db bc 01 bb
       0.0050237854 0.00027017866 0.00033293306 -0.0019796405
000130 1e 67 0a bb 70 7b 87 3a 6b 18 e1 3a 94 6c e8 3a
       -0.0021118592 0.001033647 0.0017173415 0.0017732554
000140 f4 18 a4 3c 78 2e 91 3b bf 57 a1 ba ca ee 51 3c
       0.02003143 0.0044305883 -0.0012309476 0.012813279
000150 3e 6c bf bb 52 76 d4 bb 1e a6 5c bb 70 9a 01 bb
       -0.005841761 -0.0064838314 -0.003366835 -0.001977589
000160 2f bd ae ba f8 4f 4e 3a 35 43 95 3a 44 b4 16 bc
       -0.0013331528 0.00078701926 0.0011387827 -0.009198252
000170 ef 42 77 ba 7d 1d 24 3c fe b8 e2 39 ad 4e a5 ba
       -0.0009432276 0.010016796 0.0004324391 -0.0012611948
000180 a4 53 a6 3a 71 85 92 bb c6 65 ca 3a 75 af 85 ba
       0.0012689722 -0.004471474 0.0015441708 -0.0010199385
000190 20 51 05 3b 16 5f 0b 3b 43 f7 1e 3a b9 d6 c4 3c
       0.0020342544 0.0021266392 0.00060640665 0.024028169
0001a0 a9 c7 77 ba 9e c8 91 3c a7 42 8c 3a ff 1a 75 3a
       -0.0009452054 0.017795857 0.0010701016 0.0009350031
0001b0 64 00 a3 3a 33 cb a1 bc d0 5b c4 bb 16 ab b1 3b
       0.001243603 -0.019750213 -0.00599239 0.0054220064
0001c0 c8 06 a0 3a 93 3e e1 3a d9 8d 3b bb 06 d8 de 3a
       0.0012209052 0.0017184786 -0.0028618483 0.0017001636
0001d0 1f 36 dd ba 57 26 a3 bb 3b 34 fd bb 70 5e 28 bc
       -0.0016877091 -0.0049789357 -0.0077271736 -0.010276422
0001e0 5e 5f d1 ba 87 f9 bb 3b 11 ad 2b 3b ad 73 6f ba
       -0.0015973856 0.005736533 0.0026195685 -0.00091343635
0001f0 5f e6 8a 3b 53 ec 3a ba d5 50 07 bb 97 1a f6 3c
       0.004238888 -0.0007130552 -0.0020647545 0.030041976

network_body._body_endoder.seq_layers.2.weight f4 [128, 128]
000000 d8 7a 1c be 44 1b 48 3c 4d 74 49 3d 8b e9 36 bc
       -0.15281236 0.012213532 0.04918318 -0.011164079
000010 89 ce ac bd 31 bb 47 bc af fa 36 3e b7 06 7f bd
       -0.08437831 -0.012190626 0.17869066 -0.062262263
000020 45 c8 d7 3c 33 18 d8 3a 96 43 d0 bc 2b 15 01 be
       0.026340613 0.0016486704 -0.025422852 -0.12605731
000030 ec 81 47 3d ba f9 32 be 91 79 79 be f0 00 e0 3d
       0.048707888 -0.17478076 -0.2436278 0.10937679
000040 4c 88 93 bb 3a 0d 82 bd a1 be 9f be d9 cd fc 3d
       -0.004502332 -0.06350179 -0.31200126 0.1234395
000050 74 48 22 3e 57 73 dc 3d aa fb c0 bd 43 f6 2b be
       0.15847951 0.10764187 -0.09423001 -0.1679316
000060 dd 3e b9 bd 8a 11 0f bd 65 fd 04 bc ad a3 28 3d
       -0.09045193 -0.034928836 -0.008117055 0.04117172
000070 17 0d a7 bd a4 0c 45 b9 d5 4b f9 3c d5 52 5a bc
       -0.081567936 -0.00018792093 0.030431667 -0.013325413
000080 ce 1c 06 3d 35 6e 37 bd 34 5c 4c 3c 88 50 8c bd
       0.032742314 -0.044782836 0.012473155 -0.068512976
000090 a5 03 fb bd 42 28 0f bb 9d 6f 61 bc 27 9c ba bc
       -0.122565545 -0.0021844064 -0.013759521 -0.022779537
0000a0 28 5a e5 3d 51 97 57 bd db 39 cc bd 2a 95 1c 3d
       0.111988366 -0.05263454 -0.099719726 0.03822819
0000b0 6a 84 85 bb 72 68 eb 3d 07 48 bd bc 76 bd c5 bd
       -0.004074623 0.11494531 -0.023105634 -0.096552774
0000c0 cb 3b 84 bd c3 2b f4 bb c4 c6 8c bc 61 a9 03 3e
       -0.06456717 -0.007451506 -0.017184623 0.12857582
0000d0 6e b7 83 bd 42 38 74 3d cd bc 90 bd 83 0c 3d bd
       -0.06431471 0.059623964 -0.07067261 -0.04615451
0000e0 b6 b2 6c be 34 9d 00 3d bf e9 de bd d9 75 2e 3d
       -0.23115048 0.03139992 -0.10884427 0.042592857
0000f0 1b e9 ff bd cb 14 2b 3d 03 c9 a5 bd f0 2b 3b 3d
       -0.12495633 0.041767877 -0.080949806 0.0456962
000100 44 ab d6 3b 92 8b 88 bd f9 6b 71 bd 54 d0 95 3d
       0.006551178 -0.06667246 -0.05894086 0.07315126
000110 8b 3a 98 3b 2a 6f a5 bc f6 fe 4a 3d 0b ef 3c bd
       0.0046456507 -0.020194609 0.049559556 -0.046126407
000120 e0 5b 01 3e 96 33 2c be 66 69 0d 3e 47 a5 df bb
       0.12632704 -0.16816553 0.13809738 -0.0068251225
000130 54 61 af bd 5a 7e a0 bd 80 f7 04 bd f9 3f c4 3d
       -0.08563486 -0.078366 -0.032462597 0.09582514
000140 53 fe e5 3d ee ae 84 3b 01 e3 2e be d9 f2 cd bb
       0.11230149 0.0040491736 -0.17078783 -0.006285053
000150 82 41 c8 3b f8 b9 af bc cf 58 35 be ab 39 e5 bb
       0.0061113248 -0.021450981 -0.17709659 -0.0069954
000160 28 2b 99 3d 4c 8e 87 3d 92 20 20 bc 96 b9 87 bb
       0.074789345 0.06618938 -0.00977339 -0.0041419966
000170 96 56 df bd 2c ce d1 bc 47 56 b3 bc 51 0f 33 bd
       -0.10905187 -0.025611006 -0.021891726 -0.04371578
000180 62 db a5 bd e7 93 f7 3d a9 1e cf bc d7 4e e7 bd
       -0.080984846 0.12088757 -0.025283175 -0.112943344
000190 7d f0 57 3d 67 21 d1 3c be 18 d7 bb 2b 93 a2 bb
       0.052719582 0.025528623 -0.006564229 -0.0049613914
0001a0 e0 41 9a 3c 53 c6 c0 bd 39 68 85 bd c3 30 60 3d
       0.01883024 -0.09412827 -0.065140195 0.054734003
0001b0 91 f7 8d 3c 51 f7 58 3d 90 2e 72 3d 06 c1 fa bc
       0.017329963 0.052970234 0.059126437 -0.030609619
0001c0 ce d0 9f bd b4 5d 98 3c 23 90 0e bd 4f 29 43 bd
       -0.07803498 0.018599369 -0.03480543 -0.047646817
0001d0 8c ff eb bb 50 90 f8 3d 4d 6e 59 3d 2c 38 89 3d
       -0.0072020944 0.121369004 0.053083707 0.06700167
0001e0 65 46 6c bd 8a d1 22 3b dc 59 d5 3d e0 18 6e be
       -0.05768432 0.0024844133 0.1041753 -0.23251677
0001f0 ac 78 81 3d 58 ef 8d bd e2 9e c0 bd 4b d0 9f 3d
       0.063218445 -0.06930417 -0.094053045 0.078034006
000200 4a e7 53 bd d9 12 fc bd a3 dd 6a bd d6 b9 68 bd
       -0.051734246 -0.123082824 -0.057340275 -0.056817852
000210 eb d7 ca 3d f0 fd 90 bd 0b 9b f9 3c f8 57 0a be
       0.09904464 -0.07079685 0.030469438 -0.1351012
000220 17 7c 6a bb ad ff d3 3c 5b dd 49 3c 55 ed 0c 3b
       -0.003577953 0.025878752 0.012320842 0.0021503766
000230 4a 21 1e be 3a 20 48 bd d0 5d 27 3c a2 d2 b6 3b
       -0.15442386 -0.04885886 0.010215238 0.0055793086
000240 d7 41 8f 3d ae df 29 bd 91 cc 02 be 50 48 dc bc
       0.0699498 -0.041473083 -0.12773348 -0.02688995
000250 a0 24 a9 3d e8 87 49 3c e3 c0 aa 3d 82 84 b9 3c
       0.08258939 0.012300469 0.083375715 0.022646192
000260 de b6 e7 3d 2c 30 c3 3b 02 b9 c5 bd bd a5 a0 bd
       0.11314176 0.0059566703 -0.09654428 -0.07844112
000270 d4 b1 9b bd 8a c0 09 be 14 3c ad 3d a6 ad c5 3d
       -0.076022774 -0.13452354 0.084587246 0.096522614
000280 ba 2e 7d bd 11 0f 07 bd 0a 7c 9c bd cf 49 97 3b
       -0.06181214 -0.032973353 -0.07640846 0.004616953
000290 54 0f 04 be 97 aa 1c 3e f9 03 77 bd a8 71 b6 3d
       -0.12896472 0.1529945 -0.060306523 0.08908397
0002a0 dd 53 11 3e 42 96 82 bd d7 31 89 bd a3 a9 c1 3c
       0.14192148 -0.06376316 -0.06698959 0.02364046
0002b0 0f 81 3b 3d b2 b9 04 3e d1 12 73 3d 81 c7 51 3a
       0.045777377 0.12961462 0.059344117 0.00080024457
0002c0 de 6a 6e bd f2 dd 15 3d e9 16 1d be 1b ec 73 3b
       -0.058207385 0.036588617 -0.15340771 0.0037219587
0002d0 c5 6d 9b bc 99 e9 9f bd e6 20 e1 3d 62 aa b5 3c
       -0.01897324 -0.07808227 0.10992603 0.022175971
0002e0 93 50 c1 bd bb 60 2c bd 63 af 7e 3d 90 00 cf 3d
       -0.094391964 -0.042084437 0.06217898 0.10107529
0002f0 f1 5f 56 3e ac 4f 04 3e d4 dc 8a 3d 46 d7 55 be
       0.20935036 0.12921017 0.06780401 -0.20882902
000300 2e cd 52 3d d2 6a 67 3d 47 b4 32 3c 82 28 b3 bd
       0.051465206 0.056498356 0.010907239 -0.087479606
000310 18 7f a0 3c f4 5f a1 bd 82 da 10 3c 2a 12 63 bc
       0.019591853 -0.0787963 0.008841159 -0.013859311
000320 23 a5 fd bd cf c4 a2 3d 30 aa 73 3d 0e ae f0 3d
       -0.12385013 0.079476945 0.059488475 0.11751948
000330 2a 54 75 bd 46 07 d3 bd c1 b6 30 bd b7 ad c9 bd
       -0.05989472 -0.10304122 -0.043143038 -0.098475866
000340 4c cc 25 be 6e d3 ab 3d c6 13 fc bb cb 42 36 bd
       -0.16191214 0.083899364 -0.007692787 -0.044497292
000350 74 ac 81 3c 06 61 08 bd 83 36 76 3b 51 c4 92 bc
       0.015829302 -0.033295654 0.0037569113 -0.017915877
000360 b6 7b fd bd d1 18 7c bc e6 34 03 be 48 87 45 bd
       -0.123771116 -0.015386776 -0.12813148 -0.048224717
000370 98 b2 25 be b6 c4 87 bd 66 f5 53 3d e2 18 10 bd
       -0.1618141 -0.066293165 0.051747702 -0.03517998
000380 ed ee bf 3d 14 0c d8 3c 22 45 d8 3d 01 29 40 3e
       0.09371743 0.026372947 0.10560061 0.18765642
000390 a5 77 d0 bc d6 af f8 bd c1 f9 01 be 76 ad 6d bc
       -0.025447676 -0.12142913 -0.1269293 -0.014506688
0003a0 e0 46 23 bd 78 7b 3f 3d 28 86 e7 3d f5 00 b2 3b
       -0.039862514 0.04674861 0.11304885 0.005432243
0003b0 b0 91 01 be 11 07 21 3e 63 14 02 bc 07 d0 85 3d
       -0.12653232 0.15725352 -0.007939431 0.06533819
0003c0 c5 54 c8 3c ad b1 e3 bc 19 6e c0 bd 3f 63 67 3c
       0.024454484 -0.027794683 -0.093959995 0.014122783
0003d0 d7 7f d4 bd 6b e1 96 bd 14 5c 04 3d e8 61 d0 b9
       -0.10375946 -0.07367214 0.032314375 -0.00039745797
0003e0 e7 8d 99 bd 46 ef 70 3c 0a 9f b0 3d 92 07 07 bd
       -0.07497769 0.014705485 0.08624084 -0.032966204
0003f0 93 40 52 3d c4 cd 22 3c 84 a4 15 bd ee 46 76 bd
       0.051331114 0.009936754 -0.036533847 -0.060126238

network_body._body_endoder.seq_layers.2.bias f4 [128]
000000 7c 8d 5d bc 19 d1 7d 38 7c 0d 79 bb 29 e3 59 3a
       -0.013522502 6.0514638e-05 -0.0038002422 0.00083117426
000010 8b ff 3d 3b 7e 88 24 ba b2 43 ec 3a ea c3 0c bb
       0.0028991427 -0.00062764424 0.0018025546 -0.0021479079
000020 a1 01 2a 3b 66 6f 20 3b ff 36 cd bb de 79 49 ba
       0.0025940912 0.002448046 -0.0062626596 -0.0007685701
000030 0a 00 2b 3b d8 4b d1 39 a0 3b ba ba 3e f2 bf ba
       0.0026092553 0.00039920094 -0.0014208443 -0.0014644337
000040 49 34 35 3b 7f 01 00 3c 48 12 65 3c 76 f4 37 bc
       0.0027649573 0.007812857 0.013981409 -0.011227718
000050 c8 89 ff 3b 15 a8 86 bb ab 06 2a ba c7 bf 31 bc
       0.007798407 -0.0041093924 -0.0006485979 -0.010848946
000060 5c 54 bc 3b bd 01 57 3c d3 6e 52 bb 7f 11 dd 3a
       0.005747361 0.013122973 -0.0032109513 0.0016866176
000070 23 e9 33 bb c5 15 07 3b a0 fc b1 bb 99 7a 7b bb
       -0.0027452193 0.002061234 -0.0054317266 -0.0038372634
000080 40 65 3d bb 35 0b 28 3b ff e7 28 3b 52 7e 32 ba
       -0.002889946 0.0025641446 0.0025773046 -0.00068089843
000090 e7 01 34 ba c4 0e 48 bb 14 33 0c 3b 17 01 a3 bb
       -0.00068667385 -0.003052638 0.002139275 -0.004974495
0000a0 79 eb 98 3a 93 58 40 bc 9f 99 b6 3a 80 8f e6 ba
       0.0011666856 -0.011739868 0.0013931281 -0.0017590374
0000b0 dc ba 38 3b de 78 99 bb 34 89 18 3c 65 e4 41 ba
       0.0028187549 -0.004683598 0.0093100555 -0.0007396399
0000c0 57 36 49 3c 85 45 71 3b 9a cc 8e 3c 34 12 01 bb
       0.012281022 0.0036815119 0.017431546 -0.0019694688
0000d0 ea ba fd 3a 54 7c 9f 3b e7 e6 2a 3b 29 65 31 bb
       0.0019358073 0.004867116 0.002607757 -0.0027068353
0000e0 8f d5 21 3b 83 41 9f ba 4b 56 57 3a df 40 71 ba
       0.0024693941 -0.0012150261 0.0008214458 -0.0009203087
0000f0 a8 21 61 3a 15 21 90 3c a1 91 62 3b 40 dd 51 ba
       0.0008588084 0.0175939 0.0034571665 -0.0008005686
000100 4b 34 ba bb 7d 75 0f bc c4 5d 3a bb a6 79 ad bb
       -0.0056825033 -0.008756039 -0.0028437236 -0.0052940426
000110 42 2d bb 3a bc a4 c3 3a bb 13 f9 ba 67 1d 02 3b
       0.0014280456 0.0014926414 -0.0019003073 0.001985395
000120 96 de 24 ba 99 a1 d8 bb 3c 54 83 3c 52 3d 79 3c
       -0.00062892714 -0.006611061 0.016031377 0.015212374
000130 1f 16 d3 ba 7e b1 e0 ba 63 27 4f bc 86 58 04 bb
       -0.0016104615 -0.001714274 -0.012643668 -0.0020194366
000140 ec e9 e1 ba b2 dc 27 3b cc 85 36 bb 58 e7 7d bb
       -0.0017235852 0.0025613722 -0.0027850745 -0.0038742628
000150 53 46 28 3b 8a 76 32 3b df 98 02 3b eb d8 ab 3a
       0.0025676682 0.00272313 0.0019927544 0.0013110911
000160 af 13 3a bb 67 d9 cc bb de 82 1d 3b ea ce e6 3b
       -0.002839308 -0.0062515023 0.0024034302 0.007043709
000170 29 39 6a bc 8e d2 f5 3b 20 ef 88 3c 0c a2 3e ba
       -0.014295855 0.0075019067 0.016715586 -0.00072720717
000180 ca 56 24 bb 31 65 e7 b9 37 d8 cf 3a 70 6b 9d 3b
       -0.0025076144 -0.00044135147 0.0015857284 0.0048040673
000190 bc 5e 1f 3c d3 60 00 3b 07 49 2f 3b 6c 65 1d bc
       0.009727176 0.0019588962 0.0026746409 -0.0096067
0001a0 8a 2d b5 bb a0 2f a7 3c 14 06 62 bb 66 37 d5 bb
       -0.0055291103 0.020408452 -0.0034488486 -0.006506848
0001b0 03 c9 78 3b 3f 93 aa bb 8b 8f 29 3b a9 aa 9b 3c
       0.003796161 -0.0052055414 0.0025872912 0.019002276
0001c0 9d df 21 3b 6d 4c 7e 3c 55 94 da 3a 1c fb 3c 3c
       0.0024699934 0.015521151 0.0016676286 0.0115344785
0001d0 56 a4 0a 3b 36 e9 06 ba bb 62 35 bb ac bb 4c ba
       0.002115508 -0.00051464455 -0.0027677256 -0.0007809948
0001e0 b9 2b 91 3c 2c 86 20 3b c5 8a 3d bc 67 14 ea bb
       0.017721044 0.0024494035 -0.01156873 -0.0071435454
0001f0 5c d3 b4 bb ea c0 15 3b 88 ae 1e 3c 32 81 3a bb
       -0.00551836 0.0022850581 0.009685166 -0.0028458354

action_model._continuous_distribution.mu.weight f4 [1, 128]
000000 61 c3 38 39 15 19 8c 3a 98 3f aa ba 8b d4 32 3c
       0.00017620392 0.0010688627 -0.0012988923 0.010914932
000010 ee 3f c6 3b 6b 07 b3 39 a0 73 1f 3b 43 43 20 bd
       0.0060501015 0.00034147067 0.0024330392 -0.039126646
000020 07 04 83 3c 38 f6 26 3c ec 9b 46 bb 00 c2 1e 3a
       0.015993131 0.010190539 -0.003030534 0.000605613
000030 9d e8 75 3c 76 76 5e 3c ec f1 ce b9 d7 63 89 3c
       0.015009073 0.013578048 -0.00039471628 0.01677124
000040 8e d6 1a 3b 24 c1 b2 bc bd 4a 37 bd be 02 17 bc
       0.002362642 -0.021820612 -0.04474901 -0.009216962
000050 e0 ff 86 bd ab 1d b6 bc 42 52 12 bc b2 dd 29 bc
       -0.06591773 -0.022230944 -0.008930745 -0.010367798
000060 0a 6e 8d 3c ff b9 24 bd 6f eb 7c bb 35 bc 4b 3c
       0.017264385 -0.040216442 -0.0038592478 0.012435009
000070 5b 9e 88 bc aa b2 d5 3c 49 ab 01 bd 23 30 5c bb
       -0.016677072 0.02608617 -0.03165749 -0.0033598028
000080 2f d9 c6 b9 fa b4 9b 3c a0 37 b9 3c 74 05 f0 3c
       -0.00037927317 0.019007195 0.022609532 0.029299475
000090 2f 2e 56 bb d7 7d 62 bb 6b d5 19 bd ff 6f 53 3b
       -0.0032681336 -0.003455987 -0.037557047 0.00322628
0000a0 c3 7b 2f 3c 64 85 04 bd cb bb c9 3a b4 35 06 bd
       0.010710659 -0.032353774 0.001539105 -0.03276606
0000b0 7c ef 81 bc 75 63 11 39 07 09 9e 3c 9a 17 83 39
       -0.015861265 0.00013865328 0.019291414 0.00025003852
0000c0 e5 1d 94 bc 28 1a ce 3b cc a9 4d bd fa 7e bd b8
       -0.018080661 0.006289739 -0.05021076 -9.0358735e-05
0000d0 fb bf b7 3c d6 81 fc 3c 09 ab b2 3c cf ab eb bc
       0.02243041 0.03082363 0.021810072 -0.028768448
0000e0 4f 58 2a 3c 02 5e 8a bc 76 42 c8 bb 00 8e e6 bc
       0.010397031 -0.01689053 -0.0061114384 -0.028143883
0000f0 38 ac ee bb bf e2 56 bd ff c8 cf 3c 95 fe fe 3c
       -0.0072837137 -0.052462336 0.025364397 0.031127254
000100 82 d9 98 bc 48 42 8b 3c 8b 9f 89 bc ce 5e bb 3c
       -0.018658403 0.016999379 -0.016799709 0.022872355
000110 39 34 4c 3a 69 64 00 3c 36 bf 2e bc e2 9b 62 3c
       0.0007789764 0.00783644 -0.010665705 0.013831111
000120 10 e5 90 3b 15 4c 22 bc ac 2d 57 bd 54 0c 2a bd
       0.0044218376 -0.009905835 -0.05253379 -0.041515663
000130 c3 bc 9e bc b4 9b ff bb d5 81 55 3c cf c2 de bc
       -0.019377118 -0.0078005437 0.013031443 -0.027192501
000140 b1 67 0b bd b6 aa a0 3c 4f 7a 8f bc 29 cf 12 bd
       -0.034034435 0.019612651 -0.017514376 -0.035842095
000150 27 77 70 3c 15 15 09 3d 7f 8c b2 3c 20 76 db 3c
       0.014676846 0.03346737 0.02179551 0.026789725
000160 62 ec 17 bc 2c ff fe bc 31 ea 8f 3c 99 e0 2a 3d
       -0.009272667 -0.031127535 0.017567726 0.0417181
000170 d1 44 39 3c 8a d6 d8 3c e3 a7 8b bc f2 28 81 3c
       0.011307911 0.026469488 -0.017047828 0.015766595
000180 84 82 c5 bc 67 38 58 bd 0e 04 3d bb ff 03 51 bd
       -0.024110086 -0.052788164 -0.0028841528 -0.0510292
000190 91 ca 66 bc c7 91 54 bd b2 86 c4 3c ca 9a a0 3b
       -0.0140863815 -0.051896837 0.023990009 0.004901265
0001a0 ff 90 07 bc 63 3f 5f bd 7e 2f 16 ba 20 65 f1 bb
       -0.008274316 -0.05450381 -0.0005729123 -0.0073667914
0001b0 3f da a0 bc 57 c1 9d bc 3c a1 05 3d 17 9e 80 bd
       -0.019635318 -0.01925723 0.03262447 -0.06280153
0001c0 0c 9a f3 3c fc e9 46 bd 5a 63 bd 3c 8b 8c 5b bd
       0.029736541 -0.04856299 0.023118664 -0.05360083
0001d0 cf 06 be 3b 7f 86 c9 bb a1 c7 28 bd 00 d2 60 bd
       0.0057991515 -0.0061500664 -0.041206006 -0.05488777
0001e0 5d 6b 1c bd dc b3 1c 3c 76 41 91 3c 23 f4 b7 bc
       -0.038188327 0.009564366 0.01773141 -0.02245528
0001f0 05 bd a6 bc d5 ea 9d 3b 6e da 9f 3c 13 0b 67 bc
       -0.020353803 0.004819254 0.019513335 -0.014101761
