results/test2/EndLessRunnerBehaviour/EndLessRunnerBehaviour-149350.pt (torch, 437618 bytes, 30 tensors)

network_body._body_endoder.seq_layers.0.weight f4 [128, 5]
00000000: b3dd 74be e210 a6bd 5a1e 5bbf 10f9 53bf
00000010: 1687 babe 0743 943e 13ea 85bc ee41 2f3f
00000020: c136 c1be caa3 0cbe bacc 55bb e8d8 a4bd
00000030: 71ba 853f 7aed 763e 6acd 38bf d8d7 ccbe
00000040: 6b3b c5be 595c 523f 9d80 e9be 77cd a53e
00000050: 3b4e a23c 3111 c53e e27b 163e 0d78 89be
00000060: 559b 08bf b8ee 1dbf 409d af3e fc7c b9bd
00000070: 0bc7 bebd a53b d33e b2f2 13bf 2f20 e53e
00000080: 41de 56bf 98f4 2c3f 4dc0 31bf 6ab7 663d
00000090: 4bdd 183f 5386 ba3e 8624 803e d7bd d13d
000000a0: ec9a a6bc b876 45bf d616 ae3e 5243 703e
000000b0: fb53 02bf 2e43 37bd be68 0dbf a1c5 8b3c
000000c0: f072 8d3e 191f 523e fd44 db3e 4067 a03e
000000d0: 36c8 963e e303 083f d42f b7be fd51 f1be
000000e0: 4321 6c3e 5511 01bf e38e ed3d ffab d8be
000000f0: 5580 873f a708 883e d332 2d3d 4243 adbe
00000100: 8266 a03e 5df4 c5bd ccfc 493f ee1c 6dbf
00000110: 4495 223f a47b 0abe 9dfe d83d bdc9 a83e
00000120: 3f68 b63e fd42 81bf bfab a33e b636 803e
00000130: be08 68be e590 ef3d ca32 643d c2cd 683e
00000140: d3b8 a7bd 62cb ffbe b273 dabd d7c6 2ebf
00000150: a615 5b3e c5a4 d93e 2bdc ef3e ceeb c93e
00000160: 59ab f0be 35a2 943e 262f e8bd f7ff c43d
00000170: a11c 63bc 4749 103f 9289 ef3e feaf c73e
00000180: a57f 7a3d df35 5f3e 24ad 1dbe 7f48 8bbe
00000190: fa88 483d 3123 af3e 6790 e3be 7bee d73e
000001a0: 42c0 26bf 7fdb 823d be86 cbbe fa94 65bf
000001b0: 8ff7 5d3d 1086 2f3e 96f4 b8be c9e5 6bbd
000001c0: 9179 a6bf 9194 7cbf 650b a33f 793e 583f
000001d0: 57d2 d63e d8dc db3e 4a3c 183f a089 c3be
000001e0: a419 b3be 7902 74bf 6d8e 93be 3103 98be
000001f0: 0d6a c03c e283 dfbc 5ed5 bd3e ebe6 5fbe
00000200: 6dab eebe 3d57 0ebd d3f6 c63e 6ba1 d03e
00000210: cc92 09bf 26dc 8d3f 6724 99be a037 013f
00000220: 9fad 923d ca1e fd3d dd4c 2dbf 2d3e 153e
00000230: fc10 a3be 247b 07be 0556 59bf 0bf4 5c3e
00000240: 1ca0 82be 8589 6c3f 9b05 cd3e 1c9b 353e
00000250: 19c9 abbe b728 04bf ac27 a9be f46c 743e
00000260: adf3 413d 90c9 16bf 863f a63e 066b 583e
00000270: 4747 8cbe 8035 56be 8af6 47be 6030 95be
00000280: 9bdd a2bd 41c9 803d 0b53 24be 3a02 54be
00000290: 7298 0f3e fd72 f73e 00ed 3a3c 70a5 e2be
000002a0: b6f1 f5be 3ebf 3abf 86c2 d53e 9d72 f3bc
000002b0: 8543 b03c e34c 2c3f 3d3b 18bf bd11 623e
000002c0: 099f 88bf 3738 1c3f a43c 10be 6ee3 55be
000002d0: 236c a5be 5685 ce3e 4b5c 29bf 7193 423f
000002e0: 844e a6bd bc97 83be 4d9e 72bd c05b 1b3e
000002f0: 1a9d cd3e 03f4 c7be 184e 833f a3b0 81be
00000300: d04c 71be be17 623d a11a 173f 0b95 3dbf
00000310: c754 9b3e 41a4 93bd cad3 e53e 9663 f2be
00000320: 7f6f 2a3d 43f0 0f3f 1462 553e 49e5 27bf
00000330: 79ac 5cbf ddec 8ebe 2cd6 25be d248 cb3e
00000340: fd87 383f 01f2 3d3f 0c08 113d 8e2a f7bd
00000350: 9be9 ea3e 4638 b93e 593a b8be 2059 8a3e
00000360: 1d97 253f 1610 e7be 84c3 873e 99e2 403e
00000370: 6476 5abd f401 023d 8c02 2ebe 72ae 2c3e
00000380: b871 4d3e 0f1e 5ebd e20f 20bf 6a5f e33e
00000390: 3fc5 13be 199b 2cbf 980d 963b 7766 d0be
000003a0: e355 c0be 9d90 043f ce70 c33e 5ba6 d2be
000003b0: a462 633f 08c9 d63e 7714 a8be e686 093e
000003c0: 556d 05bf 1121 6ebd f49a 883e bd5e 0bbf
000003d0: 0912 55be 86ab 30be ae45 3e3e 9c31 243e
000003e0: 1dac ca3e 8104 af3e 2939 243f 9420 e3be
000003f0: 8c80 ff3e 7f33 b1bd 54c8 1dbf 898c b4be
-0.23912697 -0.08108689 -0.8559319 -0.82801914 -0.36431187 0.28957388 -0.016346967 0.68459976
-0.37737086 -0.13734356 -0.0032623247 -0.08049184 1.0447522 0.24114028 -0.72188437 -0.40008426
-0.38521895 0.8217216 -0.45605937 0.3238332 0.019812694 0.38489679 0.14695695 -0.26849404
-0.5336202 -0.6169238 0.3429966 -0.09057042 -0.09315308 0.41256443 -0.577922 0.44751117
-0.8393288 0.6756072 -0.6943405 0.05632726 0.59712666 0.36430606 0.25027865 0.10241287
-0.020337544 -0.77134275 0.34001797 0.2346318 -0.50909394 -0.044741802 -0.5523795 0.01706201
0.27626753 0.20519675 0.4282607 0.31328773 0.29449624 0.5313093 -0.35778677 -0.47132865
0.23059563 -0.5041707 0.11599519 -0.42318723 1.0586039 0.265691 0.042284798 -0.33840376
0.31328207 -0.09665749 0.7890136 -0.9262227 0.6350901 -0.13523728 0.10595439 0.32966414
0.35626408 -1.0098568 0.3196697 0.2504174 -0.22659585 0.11697558 0.0557125 0.2273474
-0.08189549 -0.49959856 -0.106665984 -0.68272156 0.21394977 0.42508522 0.46847662 0.39437717
-0.47005728 0.29030004 -0.11337118 0.09619134 -0.013861806 0.5636181 0.46784645 0.3900146
0.061156888 0.21797894 -0.15398079 -0.27203748 0.048958756 0.34206536 -0.44446108 0.42174134
-0.6513711 0.06389522 -0.39751238 -0.89680445 0.05419117 0.17140985 -0.36124104 -0.057592187
-1.3005849 -0.98664194 1.2737852 0.84470326 0.41957352 0.42941928 0.59466994 -0.38190937
-0.349805 -0.9531627 -0.288196 -0.29689935 0.023488069 -0.027284566 0.3707685 -0.21865432
-0.46615162 -0.034751166 0.38860187 0.40748152 -0.5373962 1.1082809 -0.29910585 0.504755
0.07162022 0.12359388 -0.6769541 0.145745 -0.31848896 -0.13230568 -0.8489688 0.2157747
-0.2551278 0.9239734 0.4004334 0.17734951 -0.33551863 -0.51624626 -0.3303808 0.23869687
0.047351528 -0.5890131 0.3247034 0.21134576 -0.2739813 -0.20918846 -0.19527641 -0.2913847
-0.07952424 0.06288386 -0.16047303 -0.20703974 0.14022997 0.48329917 0.011409044 -0.44266844
-0.48035973 -0.7294806 0.41749972 -0.029717738 0.02151657 0.6730482 -0.5946539 0.22077079
-1.0673534 0.6102328 -0.14085633 -0.20887539 -0.32309064 0.40336102 -0.6615645 0.7600623
-0.081204444 -0.25701702 -0.059233 0.15171719 0.4015892 -0.39053354 1.0258207 -0.25330076
-0.23564458 0.055198424 0.5902501 -0.74055547 0.30338117 -0.07209063 0.44888145 -0.47341603
0.041610237 0.56225985 0.20838195 -0.65584236 -0.8620067 -0.27915087 -0.16194981 0.39703995
0.720825 0.74197394 0.035408065 -0.120686635 0.45881352 0.36175746 -0.35982016 0.27021122
0.64683706 -0.4512946 0.26516354 0.1883644 -0.053335562 0.031740144 -0.16993159 0.1686342
0.20062912 -0.054227885 -0.62524235 0.44408733 -0.14430712 -0.6742416 0.004579257 -0.40703174
-0.37565526 0.5178316 0.38172 -0.41142544 0.8882239 0.4195025 -0.32828113 0.13430366
-0.5211995 -0.058137003 0.2668072 -0.54441434 -0.20807661 -0.17252931 0.18581268 0.1603455
0.39584437 0.34183124 0.6414972 -0.44360793 0.4990276 -0.086524 -0.616338 -0.3526347

network_body._body_endoder.seq_layers.0.bias f4 [128]
00000000: 565b 543a ef7f 12bb 37d8 45bb fb67 513a
00000010: 59dd 543b 7998 013b edf4 84ba 8e24 65bb
00000020: db4e 0e3d 4131 8cbc 251a 5bbb 3da3 d33a
00000030: 2893 583a 7cf6 90bb 7b5b 853a b6bb babb
00000040: a0a3 1bbc 8762 b139 8afe 043b 680a 1fba
00000050: 2efe 10ba 2eed 1c3b c107 d1ba 50ae dd3a
00000060: ebe8 e4bb 9645 19bb 84ce 313b 42fe 0bba
00000070: f5f8 47bb 380e f33a 7952 a6ba ee0c 69bc
00000080: d117 993b 041d 2e3b a3c2 46bb 54ee 113d
00000090: 5263 32bb e875 a6b8 47da 09bc 311d a6ba
000000a0: 3d63 4eba c3d2 46bc 3900 fcbb e41f 913b
000000b0: bd3b f8ba eba3 2e3c fa83 97bc e27a cf3a
000000c0: 625c 0fbc cba0 503a 355c 82bb 8297 3cbc
000000d0: 9586 18bb 1090 61b8 525f 723c e05a 623c
000000e0: bc1d 77bb 88ce 08bb 3fcf 4bba 668f 83bc
000000f0: 92a3 ecba 026b 563a d940 733b 5518 4c3c
00000100: 9cf2 5eba 887f 6b3b f6c6 a2ba 5744 1bbc
00000110: cd81 a13b 38b1 a8b9 15a5 a4ba cb63 bd3b
00000120: 919e a43b c4a6 8d39 858d ae39 dbbc 01bb
00000130: 1e67 0abb 707b 873a 6b18 e13a 946c e83a
00000140: f418 a43c 782e 913b bf57 a1ba caee 513c
00000150: 3e6c bfbb 5276 d4bb 1ea6 5cbb 709a 01bb
00000160: 2fbd aeba f84f 4e3a 3543 953a 44b4 16bc
00000170: ef42 77ba 7d1d 243c feb8 e239 ad4e a5ba
00000180: a453 a63a 7185 92bb c665 ca3a 75af 85ba
00000190: 2051 053b 165f 0b3b 43f7 1e3a b9d6 c43c
000001a0: a9c7 77ba 9ec8 913c a742 8c3a ff1a 753a
000001b0: 6400 a33a 33cb a1bc d05b c4bb 16ab b13b
000001c0: c806 a03a 933e e13a d98d 3bbb 06d8 de3a
000001d0: 1f36 ddba 5726 a3bb 3b34 fdbb 705e 28bc
000001e0: 5e5f d1ba 87f9 bb3b 11ad 2b3b ad73 6fba
000001f0: 5fe6 8a3b 53ec 3aba d550 07bb 971a f63c
0.00081007683 -0.0022354086 -0.0030188689 0.00079882116 0.0032480566 0.0019774719 -0.0010143794 -0.0034964415
0.03474317 -0.01711333 -0.0033432331 0.0016146671 0.0008261674 -0.0044239145 0.0010174358 -0.0056986464
-0.00949946 0.0003383348 0.0020293319 -0.00060669193 -0.000553104 0.002394508 -0.0015947745 0.0016912911
-0.006985774 -0.0023387424 0.002713115 -0.00053403166 -0.003051338 0.0018543666 -0.0012689374 -0.014224274
0.0046720286 0.0026567588 -0.0030328415 0.035627678 -0.0027219844 -7.9374586e-05 -0.008413858 -0.0012673495
-0.0007873064 -0.01213521 -0.007690456 0.0044288505 -0.0018938702 0.010659198 -0.018495549 0.0015829469
-0.008750053 0.00079585303 -0.003978277 -0.011510732 -0.0023273577 -5.377835e-05 0.014793234 0.013815612
-0.0037706932 -0.0020875055 -0.00077747175 -0.016059589 -0.0018054119 0.00081793976 0.003711751 0.012456973
-0.00085047795 0.003593417 -0.0012418914 -0.009476743 0.0049288035 -0.00032175495 -0.0012561405 0.0057797185
0.0050237854 0.00027017866 0.00033293306 -0.0019796405 -0.0021118592 0.001033647 0.0017173415 0.0017732554
0.02003143 0.0044305883 -0.0012309476 0.012813279 -0.005841761 -0.0064838314 -0.003366835 -0.001977589
-0.0013331528 0.00078701926 0.0011387827 -0.009198252 -0.0009432276 0.010016796 0.0004324391 -0.0012611948
0.0012689722 -0.004471474 0.0015441708 -0.0010199385 0.0020342544 0.0021266392 0.00060640665 0.024028169
-0.0009452054 0.017795857 0.0010701016 0.0009350031 0.001243603 -0.019750213 -0.00599239 0.0054220064
0.0012209052 0.0017184786 -0.0028618483 0.0017001636 -0.0016877091 -0.0049789357 -0.0077271736 -0.010276422
-0.0015973856 0.005736533 0.0026195685 -0.00091343635 0.004238888 -0.0007130552 -0.0020647545 0.030041976

network_body._body_endoder.seq_layers.2.weight f4 [128, 128]
00000000: d87a 1cbe 441b 483c 4d74 493d 8be9 36bc
00000010: 89ce acbd 31bb 47bc affa 363e b706 7fbd
00000020: 45c8 d73c 3318 d83a 9643 d0bc 2b15 01be
00000030: ec81 473d baf9 32be 9179 79be f000 e03d
00000040: 4c88 93bb 3a0d 82bd a1be 9fbe d9cd fc3d
00000050: 7448 223e 5773 dc3d aafb c0bd 43f6 2bbe
00000060: dd3e b9bd 8a11 0fbd 65fd 04bc ada3 283d
00000070: 170d a7bd a40c 45b9 d54b f93c d552 5abc
00000080: ce1c 063d 356e 37bd 345c 4c3c 8850 8cbd
00000090: a503 fbbd 4228 0fbb 9d6f 61bc 279c babc
000000a0: 285a e53d 5197 57bd db39 ccbd 2a95 1c3d
000000b0: 6a84 85bb 7268 eb3d 0748 bdbc 76bd c5bd
000000c0: cb3b 84bd c32b f4bb c4c6 8cbc 61a9 033e
000000d0: 6eb7 83bd 4238 743d cdbc 90bd 830c 3dbd
000000e0: b6b2 6cbe 349d 003d bfe9 debd d975 2e3d
000000f0: 1be9 ffbd cb14 2b3d 03c9 a5bd f02b 3b3d
00000100: 44ab d63b 928b 88bd f96b 71bd 54d0 953d
00000110: 8b3a 983b 2a6f a5bc f6fe 4a3d 0bef 3cbd
00000120: e05b 013e 9633 2cbe 6669 0d3e 47a5 dfbb
00000130: 5461 afbd 5a7e a0bd 80f7 04bd f93f c43d
00000140: 53fe e53d eeae 843b 01e3 2ebe d9f2 cdbb
00000150: 8241 c83b f8b9 afbc cf58 35be ab39 e5bb
00000160: 282b 993d 4c8e 873d 9220 20bc 96b9 87bb
00000170: 9656 dfbd 2cce d1bc 4756 b3bc 510f 33bd
00000180: 62db a5bd e793 f73d a91e cfbc d74e e7bd
00000190: 7df0 573d 6721 d13c be18 d7bb 2b93 a2bb
000001a0: e041 9a3c 53c6 c0bd 3968 85bd c330 603d
000001b0: 91f7 8d3c 51f7 583d 902e 723d 06c1 fabc
000001c0: ced0 9fbd b45d 983c 2390 0ebd 4f29 43bd
000001d0: 8cff ebbb 5090 f83d 4d6e 593d 2c38 893d
000001e0: 6546 6cbd 8ad1 223b dc59 d53d e018 6ebe
000001f0: ac78 813d 58ef 8dbd e29e c0bd 4bd0 9f3d
00000200: 4ae7 53bd d912 fcbd a3dd 6abd d6b9 68bd
00000210: ebd7 ca3d f0fd 90bd 0b9b f93c f857 0abe
00000220: 177c 6abb adff d33c 5bdd 493c 55ed 0c3b
00000230: 4a21 1ebe 3a20 48bd d05d 273c a2d2 b63b
00000240: d741 8f3d aedf 29bd 91cc 02be 5048 dcbc
00000250: a024 a93d e887 493c e3c0 aa3d 8284 b93c
00000260: deb6 e73d 2c30 c33b 02b9 c5bd bda5 a0bd
00000270: d4b1 9bbd 8ac0 09be 143c ad3d a6ad c53d
00000280: ba2e 7dbd 110f 07bd 0a7c 9cbd cf49 973b
00000290: 540f 04be 97aa 1c3e f903 77bd a871 b63d
000002a0: dd53 113e 4296 82bd d731 89bd a3a9 c13c
000002b0: 0f81 3b3d b2b9 043e d112 733d 81c7 513a
000002c0: de6a 6ebd f2dd 153d e916 1dbe 1bec 733b
000002d0: c56d 9bbc 99e9 9fbd e620 e13d 62aa b53c
000002e0: 9350 c1bd bb60 2cbd 63af 7e3d 9000 cf3d
000002f0: f15f 563e ac4f 043e d4dc 8a3d 46d7 55be
00000300: 2ecd 523d d26a 673d 47b4 323c 8228 b3bd
00000310: 187f a03c f45f a1bd 82da 103c 2a12 63bc
00000320: 23a5 fdbd cfc4 a23d 30aa 733d 0eae f03d
00000330: 2a54 75bd 4607 d3bd c1b6 30bd b7ad c9bd
00000340: 4ccc 25be 6ed3 ab3d c613 fcbb cb42 36bd
00000350: 74ac 813c 0661 08bd 8336 763b 51c4 92bc
00000360: b67b fdbd d118 7cbc e634 03be 4887 45bd
00000370: 98b2 25be b6c4 87bd 66f5 533d e218 10bd
00000380: edee bf3d 140c d83c 2245 d83d 0129 403e
00000390: a577 d0bc d6af f8bd c1f9 01be 76ad 6dbc
000003a0: e046 23bd 787b 3f3d 2886 e73d f500 b23b
000003b0: b091 01be 1107 213e 6314 02bc 07d0 853d
000003c0: c554 c83c adb1 e3bc 196e c0bd 3f63 673c
000003d0: d77f d4bd 6be1 96bd 145c 043d e861 d0b9
000003e0: e78d 99bd 46ef 703c 0a9f b03d 9207 07bd
000003f0: 9340 523d c4cd 223c 84a4 15bd ee46 76bd
-0.15281236 0.012213532 0.04918318 -0.011164079 -0.08437831 -0.012190626 0.17869066 -0.062262263
0.026340613 0.0016486704 -0.025422852 -0.12605731 0.048707888 -0.17478076 -0.2436278 0.10937679
-0.004502332 -0.06350179 -0.31200126 0.1234395 0.15847951 0.10764187 -0.09423001 -0.1679316
-0.09045193 -0.034928836 -0.008117055 0.04117172 -0.081567936 -0.00018792093 0.030431667 -0.013325413
0.032742314 -0.044782836 0.012473155 -0.068512976 -0.122565545 -0.0021844064 -0.013759521 -0.022779537
0.111988366 -0.05263454 -0.099719726 0.03822819 -0.004074623 0.11494531 -0.023105634 -0.096552774
-0.06456717 -0.007451506 -0.017184623 0.12857582 -0.06431471 0.059623964 -0.07067261 -0.04615451
-0.23115048 0.03139992 -0.10884427 0.042592857 -0.12495633 0.041767877 -0.080949806 0.0456962
0.006551178 -0.06667246 -0.05894086 0.07315126 0.0046456507 -0.020194609 0.049559556 -0.046126407
0.12632704 -0.16816553 0.13809738 -0.0068251225 -0.08563486 -0.078366 -0.032462597 0.09582514
0.11230149 0.0040491736 -0.17078783 -0.006285053 0.0061113248 -0.021450981 -0.17709659 -0.0069954
0.074789345 0.06618938 -0.00977339 -0.0041419966 -0.10905187 -0.025611006 -0.021891726 -0.04371578
-0.080984846 0.12088757 -0.025283175 -0.112943344 0.052719582 0.025528623 -0.006564229 -0.0049613914
0.01883024 -0.09412827 -0.065140195 0.054734003 0.017329963 0.052970234 0.059126437 -0.030609619
-0.07803498 0.018599369 -0.03480543 -0.047646817 -0.0072020944 0.121369004 0.053083707 0.06700167
-0.05768432 0.0024844133 0.1041753 -0.23251677 0.063218445 -0.06930417 -0.094053045 0.078034006
-0.051734246 -0.123082824 -0.057340275 -0.056817852 0.09904464 -0.07079685 0.030469438 -0.1351012
-0.003577953 0.025878752 0.012320842 0.0021503766 -0.15442386 -0.04885886 0.010215238 0.0055793086
0.0699498 -0.041473083 -0.12773348 -0.02688995 0.08258939 0.012300469 0.083375715 0.022646192
0.11314176 0.0059566703 -0.09654428 -0.07844112 -0.076022774 -0.13452354 0.084587246 0.096522614
-0.06181214 -0.032973353 -0.07640846 0.004616953 -0.12896472 0.1529945 -0.060306523 0.08908397
0.14192148 -0.06376316 -0.06698959 0.02364046 0.045777377 0.12961462 0.059344117 0.00080024457
-0.058207385 0.036588617 -0.15340771 0.0037219587 -0.01897324 -0.07808227 0.10992603 0.022175971
-0.094391964 -0.042084437 0.06217898 0.10107529 0.20935036 0.12921017 0.06780401 -0.20882902
0.051465206 0.056498356 0.010907239 -0.087479606 0.019591853 -0.0787963 0.008841159 -0.013859311
-0.12385013 0.079476945 0.059488475 0.11751948 -0.05989472 -0.10304122 -0.043143038 -0.098475866
-0.16191214 0.083899364 -0.007692787 -0.044497292 0.015829302 -0.033295654 0.0037569113 -0.017915877
-0.123771116 -0.015386776 -0.12813148 -0.048224717 -0.1618141 -0.066293165 0.051747702 -0.03517998
0.09371743 0.026372947 0.10560061 0.18765642 -0.025447676 -0.12142913 -0.1269293 -0.014506688
-0.039862514 0.04674861 0.11304885 0.005432243 -0.12653232 0.15725352 -0.007939431 0.06533819
0.024454484 -0.027794683 -0.093959995 0.014122783 -0.10375946 -0.07367214 0.032314375 -0.00039745797
-0.07497769 0.014705485 0.08624084 -0.032966204 0.051331114 0.009936754 -0.036533847 -0.060126238

network_body._body_endoder.seq_layers.2.bias f4 [128]
00000000: 7c8d 5dbc 19d1 7d38 7c0d 79bb 29e3 593a
00000010: 8bff 3d3b 7e88 24ba b243 ec3a eac3 0cbb
00000020: a101 2a3b 666f 203b ff36 cdbb de79 49ba
00000030: 0a00 2b3b d84b d139 a03b baba 3ef2 bfba
00000040: 4934 353b 7f01 003c 4812 653c 76f4 37bc
00000050: c889 ff3b 15a8 86bb ab06 2aba c7bf 31bc
00000060: 5c54 bc3b bd01 573c d36e 52bb 7f11 dd3a
00000070: 23e9 33bb c515 073b a0fc b1bb 997a 7bbb
00000080: 4065 3dbb 350b 283b ffe7 283b 527e 32ba
00000090: e701 34ba c40e 48bb 1433 0c3b 1701 a3bb
000000a0: 79eb 983a 9358 40bc 9f99 b63a 808f e6ba
000000b0: dcba 383b de78 99bb 3489 183c 65e4 41ba
000000c0: 5736 493c 8545 713b 9acc 8e3c 3412 01bb
000000d0: eaba fd3a 547c 9f3b e7e6 2a3b 2965 31bb
000000e0: 8fd5 213b 8341 9fba 4b56 573a df40 71ba
000000f0: a821 613a 1521 903c a191 623b 40dd 51ba
00000100: 4b34 babb 7d75 0fbc c45d 3abb a679 adbb
00000110: 422d bb3a bca4 c33a bb13 f9ba 671d 023b
00000120: 96de 24ba 99a1 d8bb 3c54 833c 523d 793c
00000130: 1f16 d3ba 7eb1 e0ba 6327 4fbc 8658 04bb
00000140: ece9 e1ba b2dc 273b cc85 36bb 58e7 7dbb
00000150: 5346 283b 8a76 323b df98 023b ebd8 ab3a
00000160: af13 3abb 67d9 ccbb de82 1d3b eace e63b
00000170: 2939 6abc 8ed2 f53b 20ef 883c 0ca2 3eba
00000180: ca56 24bb 3165 e7b9 37d8 cf3a 706b 9d3b
00000190: bc5e 1f3c d360 003b 0749 2f3b 6c65 1dbc
000001a0: 8a2d b5bb a02f a73c 1406 62bb 6637 d5bb
000001b0: 03c9 783b 3f93 aabb 8b8f 293b a9aa 9b3c
000001c0: 9ddf 213b 6d4c 7e3c 5594 da3a 1cfb 3c3c
000001d0: 56a4 0a3b 36e9 06ba bb62 35bb acbb 4cba
000001e0: b92b 913c 2c86 203b c58a 3dbc 6714 eabb
000001f0: 5cd3 b4bb eac0 153b 88ae 1e3c 3281 3abb
-0.013522502 6.0514638e-05 -0.0038002422 0.00083117426 0.0028991427 -0.00062764424 0.0018025546 -0.0021479079
0.0025940912 0.002448046 -0.0062626596 -0.0007685701 0.0026092553 0.00039920094 -0.0014208443 -0.0014644337
0.0027649573 0.007812857 0.013981409 -0.011227718 0.007798407 -0.0041093924 -0.0006485979 -0.010848946
0.005747361 0.013122973 -0.0032109513 0.0016866176 -0.0027452193 0.002061234 -0.0054317266 -0.0038372634
-0.002889946 0.0025641446 0.0025773046 -0.00068089843 -0.00068667385 -0.003052638 0.002139275 -0.004974495
0.0011666856 -0.011739868 0.0013931281 -0.0017590374 0.0028187549 -0.004683598 0.0093100555 -0.0007396399
0.012281022 0.0036815119 0.017431546 -0.0019694688 0.0019358073 0.004867116 0.002607757 -0.0027068353
0.0024693941 -0.0012150261 0.0008214458 -0.0009203087 0.0008588084 0.0175939 0.0034571665 -0.0008005686
-0.0056825033 -0.008756039 -0.0028437236 -0.0052940426 0.0014280456 0.0014926414 -0.0019003073 0.001985395
-0.00062892714 -0.006611061 0.016031377 0.015212374 -0.0016104615 -0.001714274 -0.012643668 -0.0020194366
-0.0017235852 0.0025613722 -0.0027850745 -0.0038742628 0.0025676682 0.00272313 0.0019927544 0.0013110911
-0.002839308 -0.0062515023 0.0024034302 0.007043709 -0.014295855 0.0075019067 0.016715586 -0.00072720717
-0.0025076144 -0.00044135147 0.0015857284 0.0048040673 0.009727176 0.0019588962 0.0026746409 -0.0096067
-0.0055291103 0.020408452 -0.0034488486 -0.006506848 0.003796161 -0.0052055414 0.0025872912 0.019002276
0.0024699934 0.015521151 0.0016676286 0.0115344785 0.002115508 -0.00051464455 -0.0027677256 -0.0007809948
0.017721044 0.0024494035 -0.01156873 -0.0071435454 -0.00551836 0.0022850581 0.009685166 -0.0028458354

action_model._continuous_distribution.mu.weight f4 [1, 128]
00000000: 61c3 3839 1519 8c3a 983f aaba 8bd4 323c
00000010: ee3f c63b 6b07 b339 a073 1f3b 4343 20bd
00000020: 0704 833c 38f6 263c ec9b 46bb 00c2 1e3a
00000030: 9de8 753c 7676 5e3c ecf1 ceb9 d763 893c
00000040: 8ed6 1a3b 24c1 b2bc bd4a 37bd be02 17bc
00000050: e0ff 86bd ab1d b6bc 4252 12bc b2dd 29bc
00000060: 0a6e 8d3c ffb9 24bd 6feb 7cbb 35bc 4b3c
00000070: 5b9e 88bc aab2 d53c 49ab 01bd 2330 5cbb
00000080: 2fd9 c6b9 fab4 9b3c a037 b93c 7405 f03c
00000090: 2f2e 56bb d77d 62bb 6bd5 19bd ff6f 533b
000000a0: c37b 2f3c 6485 04bd cbbb c93a b435 06bd
000000b0: 7cef 81bc 7563 1139 0709 9e3c 9a17 8339
000000c0: e51d 94bc 281a ce3b cca9 4dbd fa7e bdb8
000000d0: fbbf b73c d681 fc3c 09ab b23c cfab ebbc
000000e0: 4f58 2a3c 025e 8abc 7642 c8bb 008e e6bc
000000f0: 38ac eebb bfe2 56bd ffc8 cf3c 95fe fe3c
00000100: 82d9 98bc 4842 8b3c 8b9f 89bc ce5e bb3c
00000110: 3934 4c3a 6964 003c 36bf 2ebc e29b 623c
00000120: 10e5 903b 154c 22bc ac2d 57bd 540c 2abd
00000130: c3bc 9ebc b49b ffbb d581 553c cfc2 debc
00000140: b167 0bbd b6aa a03c 4f7a 8fbc 29cf 12bd
00000150: 2777 703c 1515 093d 7f8c b23c 2076 db3c
00000160: 62ec 17bc 2cff febc 31ea 8f3c 99e0 2a3d
00000170: d144 393c 8ad6 d83c e3a7 8bbc f228 813c
00000180: 8482 c5bc 6738 58bd 0e04 3dbb ff03 51bd
00000190: 91ca 66bc c791 54bd b286 c43c ca9a a03b
000001a0: ff90 07bc 633f 5fbd 7e2f 16ba 2065 f1bb
000001b0: 3fda a0bc 57c1 9dbc 3ca1 053d 179e 80bd
000001c0: 0c9a f33c fce9 46bd 5a63 bd3c 8b8c 5bbd
000001d0: cf06 be3b 7f86 c9bb a1c7 28bd 00d2 60bd
000001e0: 5d6b 1cbd dcb3 1c3c 7641 913c 23f4 b7bc
000001f0: 05bd a6bc d5ea 9d3b 6eda 9f3c 130b 67bc
0.00017620392 0.0010688627 -0.0012988923 0.010914932 0.0060501015 0.00034147067 0.0024330392 -0.039126646
0.015993131 0.010190539 -0.003030534 0.000605613 0.015009073 0.013578048 -0.00039471628 0.01677124
0.002362642 -0.021820612 -0.04474901 -0.009216962 -0.06591773 -0.022230944 -0.008930745 -0.010367798
0.017264385 -0.040216442 -0.0038592478 0.012435009 -0.016677072 0.02608617 -0.03165749 -0.0033598028
-0.00037927317 0.019007195 0.022609532 0.029299475 -0.0032681336 -0.003455987 -0.037557047 0.00322628
0.010710659 -0.032353774 0.001539105 -0.03276606 -0.015861265 0.00013865328 0.019291414 0.00025003852
-0.018080661 0.006289739 -0.05021076 -9.0358735e-05 0.02243041 0.03082363 0.021810072 -0.028768448
0.010397031 -0.01689053 -0.0061114384 -0.028143883 -0.0072837137 -0.052462336 0.025364397 0.031127254
-0.018658403 0.016999379 -0.016799709 0.022872355 0.0007789764 0.00783644 -0.010665705 0.013831111
0.0044218376 -0.009905835 -0.05253379 -0.041515663 -0.019377118 -0.0078005437 0.013031443 -0.027192501
-0.034034435 0.019612651 -0.017514376 -0.035842095 0.014676846 0.03346737 0.02179551 0.026789725
-0.009272667 -0.031127535 0.017567726 0.0417181 0.011307911 0.026469488 -0.017047828 0.015766595
-0.024110086 -0.052788164 -0.0028841528 -0.0510292 -0.0140863815 -0.051896837 0.023990009 0.004901265
-0.008274316 -0.05450381 -0.0005729123 -0.0073667914 -0.019635318 -0.01925723 0.03262447 -0.06280153
0.029736541 -0.04856299 0.023118664 -0.05360083 0.0057991515 -0.0061500664 -0.041206006 -0.05488777
-0.038188327 0.009564366 0.01773141 -0.02245528 -0.020353803 0.004819254 0.019513335 -0.014101761

exp_avg f4 [128, 5]
00000000: 5cd5 17b8 b0e9 4a3b 6241 2a3a c482 4ab9
00000010: 0000 0000 bff5 7233 6e1b efb7 c50d 8635
00000020: d5df 31b5 0000 0000 d713 9734 2d9e 95b6
00000030: 5ea1 2235 fa21 de35 0000 0000 2bef 85b3
00000040: 6833 91b4 0b4c c432 46a4 31b4 0000 0000
00000050: 3782 55b6 0618 113a e7ae 3e3a 9e82 abb8
00000060: 0000 0000 7dea a836 b2ba 9cba 5b57 da39
00000070: 9c5b 7237 0000 0000 c8d8 8737 1efd 92ba
00000080: 5c83 a9ba b176 5839 0000 0000 fe92 c535
00000090: cdc8 42bb 36bb c33a f470 36b9 0000 0000
000000a0: 9ba5 bcb4 d979 6b35 40b0 ce36 71b8 a235
000000b0: 0000 0000 1213 1137 26f9 6437 4470 f6b9
000000c0: 4204 c238 0000 0000 625b a036 c863 73ba
000000d0: fa68 6939 203d 1436 0000 0000 14ad 66b8
000000e0: cae8 2a3b ddd1 e73a b09a bbb9 0000 0000
000000f0: b516 8eb6 30b4 be3a 780a ba38 bb90 a7b8
00000100: 0000 0000 eccc 9137 05f4 b9ba f15e a0b9
00000110: 6308 9938 0000 0000 5e50 bcb6 b499 6f3b
00000120: afb8 7aba 95cd cd38 0000 0000 e212 d5b4
00000130: 101d cfb7 3ec9 e138 069a 67b7 0000 0000
00000140: 8cef 5b36 d4c9 c937 3abe 64b9 6f06 9237
00000150: 0000 0000 4a20 0036 213d 2ebb ea81 a93a
00000160: 6a4a f1b8 0000 0000 a616 08b8 b6b8 be3a
00000170: f115 e93a baa1 a1b9 0000 0000 468f ae34
00000180: 6835 33ba 20f0 5338 c085 2d36 0000 0000
00000190: b121 3b37 8f30 8b3b a6e9 0cbb 54ba 5739
000001a0: 0000 0000 0e69 50b8 db90 58bb 18a2 883b
000001b0: b6f9 10ba 0000 0000 bc33 e637 0667 0fbb
000001c0: 954a d5ba 55b3 a739 0000 0000 5482 f0b5
000001d0: 64b1 fd3a ac2f e739 08cd 4bb8 0000 0000
000001e0: d906 a137 89f0 c738 197d 81ba 816a 0b39
000001f0: 0000 0000 fa32 5038 be65 4dbb fa9a f6ba
00000200: c72f af39 0000 0000 5421 e1b7 5085 1d3b
00000210: a8a9 90b8 c68f 73b8 0000 0000 06a7 c3b5
00000220: 692d e8ba a2c2 223a b0e8 49b8 0000 0000
00000230: 00f7 bd37 852b 42bb cc92 cfb9 6c71 d138
00000240: 0000 0000 9a32 16b7 e485 b73b 1af7 a3ba
00000250: c8d4 a238 0000 0000 f75c ee36 c4cd dcbb
00000260: d8a1 8a3a 98df 0138 0000 0000 78e0 a6b7
00000270: 2e24 9a39 ae18 f039 3a3b d7b8 0000 0000
00000280: 2644 26b8 6e6e 0a3b 8272 da3a 8132 8ab9
00000290: 0000 0000 a7e9 30b8 7be0 103b a1d5 d83a
000002a0: 70a1 9eb9 0000 0000 94c4 2cb7 80ce 2a39
000002b0: bcfa 723a e2f0 37b9 0000 0000 1134 6eb4
000002c0: 9367 66b4 693a 2b34 70c8 e4b4 0000 0000
000002d0: 2e94 d837 1cf5 0bba 189b 8aba f664 3b39
000002e0: 0000 0000 9977 39b6 8cf1 9db8 f069 5939
000002f0: caed f2b7 0000 0000 0add 3db7 ac16 4237
00000300: 345b 3e3a 9d36 c8b8 0000 0000 27e5 8836
00000310: db53 7ebb aacc 433a 8e75 77b8 0000 0000
00000320: 08f6 8a36 43d6 9bbb 68c3 4e3a 2481 7038
00000330: 0000 0000 8731 9435 be3e 1bb7 303d 5737
00000340: 5acb e2b5 0000 0000 64a3 2436 b318 0eb7
00000350: 2782 c736 de69 8936 0000 0000 a215 33b8
00000360: a083 5eb9 31ea 163b fb0c b5b9 0000 0000
00000370: 1175 f0b5 d802 84ba 9474 0cb9 286b 7137
00000380: 0000 0000 2fe9 91b4 a288 a6b3 d007 d0b2
00000390: 4e7d d2b3 0000 0000 f6aa 6db6 50b3 36b9
000003a0: 4f6e 0c3a 1074 86b8 0000 0000 5f74 9ab6
000003b0: 08e5 c839 f04b 463a 77aa 0db9 0000 0000
000003c0: 7640 8932 76c3 6c37 147c 61b6 38ee 9b35
000003d0: 0000 0000 1732 8fb6 a5c9 813a 4879 97b8
000003e0: 09d0 48b8 0000 0000 1b96 20b4 5cd3 2db3
000003f0: 46a2 9934 f2ef 97b3 0000 0000 d679 6135
-3.6199912e-05 0.0030962043 0.0006494728 -0.00019312935 0.0 5.656852e-08 -2.8503793e-05 9.987785e-07
-6.6263357e-07 0.0 2.8140377e-07 -4.45896e-06 6.0584523e-07 1.6550177e-06 0.0 -6.2367995e-08
-2.7045758e-07 2.2851983e-08 -1.6544172e-07 0.0 -3.1815268e-06 0.0005534891 0.0007273987 -8.178245e-05
0.0 5.034088e-06 -0.0011957495 0.00041645285 1.44456535e-05 0.0 1.61942e-05 -0.0011214351
-0.0012932825 0.00020643581 0.0 1.4720424e-06 -0.0029721737 0.0014933113 -0.00017398951 0.0
-3.5138223e-07 8.7721634e-07 6.1597966e-06 1.212362e-06 0.0 8.647114e-06 1.3647868e-05 -0.0004700442
9.251434e-05 0.0 4.77901e-06 -0.0009284583 0.00022259718 2.2089298e-06 0.0 -5.4997465e-05
0.0026078695 0.0017686445 -0.0003578267 0.0 -4.234573e-06 0.001454955 8.871121e-05 -7.990139e-05
0.0 1.7380771e-05 -0.0014187103 -0.00030588315 7.297171e-05 0.0 -5.6121926e-06 0.003656012
-0.0009564263 9.8134544e-05 0.0 -3.968808e-07 -2.4689856e-05 0.0001076632 -1.3804534e-05 0.0
3.2772978e-06 2.405505e-05 -0.0002181464 1.7407552e-05 0.0 1.909228e-06 -0.0026586729 0.0012932394
-0.00011505636 0.0 -3.244602e-05 0.0014550898 0.0017783028 -0.0003082881 0.0 3.251427e-07
-0.0006836266 5.0529954e-05 2.5856862e-06 0.0 1.1153913e-05 0.004247732 -0.002150157 0.0002057341
0.0 -4.9688904e-05 -0.0033045325 0.0041697137 -0.0005530374 0.0 2.7442227e-05 -0.0021881475
-0.0016272838 0.00031986335 0.0 -1.7919324e-06 0.0019355235 0.00044095272 -4.858992e-05 0.0
1.9195884e-05 9.5338626e-05 -0.0009879201 0.00013295749 0.0 4.963854e-05 -0.003134116 -0.0018814497
0.00033414198 0.0 -2.683761e-05 0.002403576 -6.898056e-05 -5.8069614e-05 0.0 -1.4577242e-06
-0.0017713729 0.0006208812 -4.813884e-05 0.0 2.2645574e-05 -0.002962799 -0.0003959149 9.987023e-05
0.0 -8.952478e-06 0.005600678 -0.0012509555 7.7643956e-05 0.0 7.1037753e-06 -0.0067383964
0.0010576798 3.0964235e-05 0.0 -1.9893268e-05 0.00029400125 0.00045794755 -0.00010263031 0.0
-3.9640952e-05 0.002112295 0.0016666206 -0.0002635904 0.0 -4.2179276e-05 0.0022106457 0.0016543159
-0.0003025639 0.0 -1.0297768e-05 0.0001628939 0.000926893 -0.00017541976 0.0 -2.2184419e-07
-2.14581e-07 1.5946866e-07 -4.2614147e-07 0.0 2.5818208e-05 -0.00053389533 -0.0010574786 0.0001787132
0.0 -2.7636763e-06 -7.531335e-05 0.00020734197 -2.8959377e-05 0.0 -1.13167425e-05 1.156858e-05
0.0007261515 -9.546916e-05 0.0 4.0797927e-06 -0.0038807306 0.0007469157 -5.899887e-05 0.0
4.1413623e-06 -0.0047557666 0.0007887394 5.734073e-05 0.0 1.1041274e-06 -9.253328e-06 1.2829245e-05
-1.6897495e-06 0.0 2.453301e-06 -8.46961e-06 5.945814e-06 4.0952427e-06 0.0 -4.2697073e-05
-0.00021220604 0.0023027773 -0.00034532681 0.0 -1.7915464e-06 -0.0010071648 -0.00013394869 1.4389669e-05
0.0 -2.7178018e-07 -7.754831e-08 -2.421794e-08 -9.80168e-08 0.0 -3.5415264e-06 -0.00017423672
0.00053570134 -6.411236e-05 0.0 -4.603105e-06 0.00038317614 0.0007564416 -0.00013510311 0.0
1.5978213e-08 1.41122055e-05 -3.3599836e-06 1.1617731e-06 0.0 -4.2675633e-06 0.0009902014 -7.2228315e-05
-4.7877464e-05 0.0 -1.4955769e-07 -4.047193e-08 2.861654e-07 -7.075131e-08 0.0 8.3996326e-07

exp_avg_sq f4 [128, 5]
00000000: 46d4 4e32 2385 da3a 8c18 0c39 10d0 0e36
00000010: 0000 0000 c7f9 4b29 34c6 a730 cbba 102c
00000020: ae07 ee2b 0000 0000 e84c 952a 37df df2e
00000030: fec7 022c 0254 912d 0000 0000 a073 9827
00000040: 8954 ab2a 2a5a 4929 ba83 232a 0000 0000
00000050: 0b28 1430 d926 d039 a76f 2a37 cf1c 2934
00000060: 0000 0000 130f 0e30 352f 173a 61ae 5537
00000070: c8ca 8734 0000 0000 d08a 8131 4920 cf3a
00000080: be7d 8438 d1e7 8935 0000 0000 56ee ea2f
00000090: 015c 7638 4051 7b36 fc55 9533 0000 0000
000000a0: e4e3 932b ca30 122d ba01 092f 07f1 c52d
000000b0: 0000 0000 2070 4030 21c0 cc31 f580 3935
000000c0: 5eb9 c032 0000 0000 2328 2530 ab44 2b39
000000d0: 1b5b df36 09a3 0a34 0000 0000 4017 5432
000000e0: 8a1b 423b 73c8 ff38 b0bb 0d36 0000 0000
000000f0: 4789 8e30 b611 8d3a e656 dc37 7f1f f534
00000100: 0000 0000 c868 1431 0530 3f3a 931a bc37
00000110: b517 de34 0000 0000 9737 a531 d856 bf3b
00000120: e1af fb38 77e7 0e36 0000 0000 ece5 3b2d
00000130: d84c f72f 1fb5 5332 d070 902f 0000 0000
00000140: 5c84 1030 20fa c131 7aab 3835 fcec a531
00000150: 0000 0000 7562 c82f 72a7 1b3a dd33 2b37
00000160: 6a42 5734 0000 0000 aef2 d131 db49 1b3b
00000170: fe8b b138 2cd9 c635 0000 0000 5fde f92d
00000180: 0e13 7b39 ebf8 d435 1c0d 4133 0000 0000
00000190: 5d6c 8731 92db 833b 1e4c 9538 f112 be35
000001a0: 0000 0000 4bee 0d32 bdc4 0138 6c6a 2238
000001b0: 6021 1735 0000 0000 4dd7 5d32 e686 d63b
000001c0: ad89 7839 af66 8136 0000 0000 acaa 8931
000001d0: dde1 3e3b a0a7 b238 3500 b735 0000 0000
000001e0: cb0e 0a31 ef2e 2833 1a32 5136 f773 7033
000001f0: 0000 0000 571d 2432 681c 973b 9741 1039
00000200: dc80 2036 0000 0000 fd46 8031 78cc 5e3a
00000210: 53b4 0638 bbd2 2135 0000 0000 f437 0530
00000220: e898 163a 6555 1c37 95d4 3834 0000 0000
00000230: 66b6 b031 594d b239 1757 0238 e989 0c35
00000240: 0000 0000 56a6 ae31 434d 7e3b f761 b138
00000250: 7d8f d535 0000 0000 cb9c af32 8c5c 853c
00000260: 5771 d939 bc15 f536 0000 0000 8150 1c30
00000270: 5c54 a935 18dd 0237 f330 0b34 0000 0000
00000280: 1f12 f931 ead1 2f39 63b4 fc37 476c 0f35
00000290: 0000 0000 e0b7 1032 b9a6 233b de0e af38
000002a0: aef3 c635 0000 0000 a2a6 4731 a4c6 0238
000002b0: 50c4 2d37 2193 9034 0000 0000 6b5e e028
000002c0: 5663 042a 7dd9 e92a 4753 9f2a 0000 0000
000002d0: ea4a 3431 3be5 333a e8a9 e137 bce9 ec34
000002e0: 0000 0000 8389 962d 1ac6 2433 1446 8633
000002f0: eeec a730 0000 0000 52f2 7930 491e a933
00000300: d8cd eb35 90bf ef32 0000 0000 8905 6c31
00000310: 8c0d 813b 19c8 ac38 7b2b c735 0000 0000
00000320: a06b 1e32 8005 0e3c ab80 6b39 9606 8236
00000330: 0000 0000 9450 982d f4aa e12f 00aa a130
00000340: e01f 2730 0000 0000 a2ac 1a2d 2558 1630
00000350: 8e6a 8f2f 4b50 d92f 0000 0000 2022 f631
00000360: 0ced 6e39 2207 2838 5807 2835 0000 0000
00000370: cccb 1131 13fc 883a 9ef8 1438 9c8f 1d35
00000380: 0000 0000 d7da 9529 b364 172b f0ec 4d2c
00000390: 6c40 962b 0000 0000 8db7 1c2f 2da6 4433
000003a0: fa49 ba34 8871 fd31 0000 0000 a653 3831
000003b0: d37a 473b 9f51 9c38 a67f ae35 0000 0000
000003c0: cb40 6e2b cd77 8b31 df28 1d2f b9d8 842d
000003d0: 0000 0000 853a 1130 232f 793a a72b a137
000003e0: 0bfd c534 0000 0000 64c9 3a2c d1c0 3d2d
000003f0: e5f9 0f2d f885 ce2c 0000 0000 2261 5c2d
1.20390435e-08 0.0016671758 0.00013360585 2.1280757e-06 0.0 4.5291702e-14 1.2207182e-09 2.0567322e-12
1.6913049e-12 0.0 2.652108e-13 1.0180517e-10 1.858513e-12 1.6521898e-11 0.0 4.2313836e-15
3.043436e-13 4.470917e-14 1.452301e-13 0.0 5.389899e-10 0.00039701795 1.0158786e-05 1.5749832e-07
0.0 5.168072e-10 0.0005767227 1.273639e-05 2.5293252e-07 0.0 3.7701753e-09 0.0015802468
6.317672e-05 1.0274763e-06 0.0 4.27337e-10 5.8736656e-05 3.7449208e-06 6.953994e-08 0.0
1.0508231e-12 8.3099725e-12 1.2460691e-10 2.2503345e-11 0.0 7.000853e-10 5.959024e-09 6.910553e-07
2.2436037e-08 0.0 6.008369e-10 0.00016333412 6.656524e-06 1.2911563e-07 0.0 1.23453106e-08
0.0029618465 0.00012196684 2.1119886e-06 0.0 1.0370876e-09 0.0010762725 2.6266509e-05 4.5657723e-07
0.0 2.1596396e-09 0.0007293227 2.2423721e-05 4.1367971e-07 0.0 4.808452e-09 0.00583921
0.00012001373 2.129438e-06 0.0 1.0680772e-11 4.498364e-10 1.2322999e-08 2.6273606e-10 0.0
5.257499e-10 5.645475e-09 6.879487e-07 4.829074e-09 0.0 3.6449746e-10 0.0005937732 1.020447e-05
2.0047597e-07 0.0 6.11029e-09 0.0023695144 8.466093e-05 1.4815355e-06 0.0 2.8406775e-11
0.00023944324 1.5867676e-06 4.4948237e-08 0.0 3.9413366e-09 0.0040239776 7.1190516e-05 1.4161616e-06
0.0 8.261462e-09 3.0939224e-05 3.8722923e-05 5.630045e-07 0.0 1.2912847e-08 0.006546843
0.00023702411 3.8564535e-06 0.0 4.006628e-09 0.0029126324 8.518924e-05 1.3634623e-06 0.0
2.0090052e-09 3.9158234e-08 3.117259e-06 5.5984824e-08 0.0 9.5527275e-09 0.0046115406 0.00013757344
2.3916864e-06 0.0 3.7333607e-09 0.0008499096 3.211603e-05 6.0283827e-07 0.0 4.846463e-10
0.00057448307 9.318207e-06 1.7213672e-07 0.0 5.1430105e-09 0.00034008434 3.1075524e-05 5.235475e-07
0.0 5.0829767e-09 0.0038803376 8.458265e-05 1.5911497e-06 0.0 2.0443983e-08 0.016279481
0.0004147391 7.304099e-06 0.0 5.686687e-10 1.2616033e-06 7.800081e-06 1.2963191e-07 0.0
7.248914e-09 0.000167675 3.012474e-05 5.3429216e-07 0.0 8.4237115e-09 0.00249712 8.3474195e-05
1.482307e-06 0.0 2.905303e-09 3.1179414e-05 1.0357311e-05 2.692914e-07 0.0 2.4909943e-14
1.1758419e-13 4.1540027e-13 2.830186e-13 0.0 2.6236031e-09 0.0006862466 2.6901209e-05 4.412849e-07
0.0 1.7114093e-11 3.8364398e-08 6.2526084e-08 1.2218189e-09 0.0 9.093003e-10 7.8751846e-08
1.7568773e-06 2.7910374e-08 0.0 3.4345666e-09 0.0039383825 8.23887e-05 1.483931e-06 0.0
9.2212815e-09 0.0086683035 0.00022459279 3.8750686e-06 0.0 1.7316183e-11 4.104873e-10 1.1762609e-09
6.0799543e-10 0.0 8.792219e-12 5.4694943e-10 2.608726e-10 3.9529122e-10 0.0 7.163422e-09
0.00022785756 4.0060964e-05 6.2595564e-07 0.0 2.1216122e-09 0.00104511 3.5517493e-05 5.8696037e-07
0.0 6.654892e-14 5.3785725e-13 2.9263779e-12 1.0676022e-12 0.0 1.4253328e-10 4.5785942e-08
3.4699025e-07 7.376176e-09 0.0 2.6823073e-09 0.00304382 7.453863e-05 1.3001161e-06 0.0
8.4644504e-13 4.059052e-09 1.4293587e-10 1.5102907e-11 0.0 5.2833854e-10 0.000950562 1.9213023e-05
3.6878222e-07 0.0 2.6543984e-12 1.078622e-11 8.184097e-12 5.8697457e-12 0.0 1.252712e-11

exp_avg f4 [128]
00000000: 5c2e 1fb8 8906 abb4 fcc7 9034 6329 32b3
00000010: de2b 1bb8 0061 4db7 8d52 8538 6f87 8bb8
00000020: 7149 0735 16b3 be37 30c5 eeb5 f0ba b9b8
00000030: 4a4a 7ab7 1662 9537 8101 1638 bd48 93b6
00000040: 6c42 1a37 0565 60b8 50a5 bdb8 5059 0035
00000050: d000 a938 34c6 47b9 5e5a be38 72e2 a7b7
00000060: 1273 3638 a741 c338 18cf 92b6 cf33 e8b7
00000070: 0095 a837 173f 3038 b095 cab7 5c28 96b7
00000080: 020d a7b8 4077 abb8 1e04 72b8 7c65 1cb4
00000090: 50cc 4b38 fa24 2db7 bb37 e4b7 42ab dbb7
000000a0: 90e7 60b7 e0ae 24b3 a8b1 b535 c2ef dbb8
000000b0: 4c2e 3a37 cad3 76b2 cafe adb7 9a6a 39b8
000000c0: 5469 3e35 285c bcb6 53c8 3ab3 154e 1036
000000d0: 0e75 1f38 ed09 35b8 5214 1835 fb50 2835
000000e0: 65dc cbb7 d4dc 8b38 32ce 86b7 b202 d935
000000f0: cc85 3238 a647 01b7 5050 9cb8 f211 28b7
00000100: bd08 18b3 08d0 cdb7 e1c9 2538 50e9 bcb3
00000110: d939 c6b8 4c6a 86b8 94b5 b435 0b87 c6b7
00000120: 1412 51b7 bbb1 07b8 8062 3fb8 042c efb7
00000130: 2eee ae38 8779 6d37 36ff 6b35 63da 66b9
00000140: 71df 81b3 7f40 14b7 d4a7 9638 a055 f532
00000150: a4d2 0938 ecc9 7f38 0c64 4239 609f 13b7
00000160: 73b8 f4b7 7141 f8b7 d8c3 d3b7 d6b9 28b6
00000170: 2a96 38b7 3726 22b5 bb66 2037 fcc8 01b9
00000180: ff57 95b7 962b 98b6 d1cd d837 4ce1 2238
00000190: f8cd 8a37 5afb a0b8 b06c 8738 177b 8734
000001a0: 0545 a936 f00c aab8 6825 dd37 7436 5cb6
000001b0: d583 efb7 ab37 4fb6 67d9 ba35 4bee 0bb7
000001c0: 78f5 16b8 d372 a4b8 60ef 68b6 6db8 63b8
000001d0: 49f1 78b7 36b5 6cb3 b6dc 3238 3fe2 8635
000001e0: 7ea2 80b7 fe19 9db7 66c9 ccb8 108b bd37
000001f0: d87f 04b8 2b35 b0b8 2a38 52b6 a344 d7b8
-3.795173e-05 -3.1855987e-07 2.6967598e-07 -4.1481496e-08 -3.6995734e-05 -1.2241537e-05 6.3573105e-05 -6.653263e-05
5.039829e-07 2.2733158e-05 -1.7789771e-06 -8.856307e-05 -1.4918458e-05 1.7807859e-05 3.5764187e-05 -4.3894092e-06
9.19458e-06 -5.3499843e-05 -9.043014e-05 4.781368e-07 8.058699e-05 -0.00019051955 9.076738e-05 -2.0013398e-05
4.349935e-05 9.310553e-05 -4.375248e-06 -2.768068e-05 2.0096544e-05 4.2020427e-05 -2.414998e-05 -1.7900187e-05
-7.9656034e-05 -8.1761274e-05 -5.770113e-05 -1.4565552e-07 4.8589252e-05 -1.0320213e-05 -2.720567e-05 -2.6186583e-05
-1.3405355e-05 -3.8343273e-08 1.3537256e-06 -0.00010487392 1.1097243e-05 -1.436724e-08 -2.0741852e-05 -4.4206718e-05
7.093379e-07 -5.613565e-06 -4.3488694e-08 2.1503122e-06 3.801757e-05 -4.3163007e-05 5.665398e-07 6.270272e-07
-2.4302115e-05 6.669169e-05 -1.6070062e-05 1.6168544e-06 4.2563115e-05 -7.705681e-06 -7.453619e-05 -1.00177585e-05
-3.5398205e-08 -2.4534776e-05 3.952708e-05 -8.7968715e-08 -9.452151e-05 -6.409417e-05 1.3463891e-06 -2.3666324e-05
-1.246158e-05 -3.2352033e-05 -4.5629684e-05 -2.8511517e-05 8.341331e-05 1.4154596e-05 8.79157e-07 -0.00022015865
-6.0476744e-08 -8.836504e-06 7.183818e-05 2.8560692e-08 3.285952e-05 6.0984792e-05 0.00018538552 -8.79899e-06
-2.9172958e-05 -2.9594377e-05 -2.5244357e-05 -2.5142122e-06 -1.1002217e-05 -6.040531e-07 9.560662e-06 -0.00012377271
-1.780316e-05 -4.535027e-06 2.5845047e-05 3.8833634e-05 1.6546794e-05 -7.6762124e-05 6.457546e-05 2.523527e-07
5.0446274e-06 -8.1086415e-05 2.6362672e-05 -3.281425e-06 -2.855241e-05 -3.0877807e-06 1.3921352e-06 -8.3405275e-06
-3.5991397e-05 -7.841517e-05 -3.4710029e-06 -5.4292777e-05 -1.48381305e-05 -5.5112842e-08 4.264406e-05 1.0049624e-06
-1.5334455e-05 -1.8727962e-05 -9.7649914e-05 2.2595312e-05 -3.1590316e-05 -8.402237e-05 -3.132513e-06 -0.000102647835

exp_avg_sq f4 [128]
00000000: eb80 8434 f580 a22a 732d d52b 1569 b228
00000010: 65da b932 ce72 ef32 2e2b 0734 5ff6 f931
00000020: 9965 152c 7751 ca30 fdd9 6b32 02ef 8034
00000030: 1410 7933 3c0e 4c33 610b 8934 5c5e fe2d
00000040: 80f5 b130 77ec c032 d567 3b34 0af1 bf31
00000050: ea75 2a34 00aa a033 8515 f434 0110 3934
00000060: 630b cb31 fa66 9734 00fe 8d33 ed63 af32
00000070: 3bee 7433 c921 4534 876a 6835 8bc3 7332
00000080: 013e 7733 50d5 3834 1466 b032 f449 3029
00000090: 27db 5e33 19b2 0e2f 00e1 6d31 dab2 3a34
000000a0: a359 fb34 b986 2c2e ae8f f22d 48a7 9c33
000000b0: 74af 9f33 ec4f 112a 9706 4f30 3551 2b34
000000c0: 03fb 932c 75e9 2f33 b1ee 512c 3219 242e
000000d0: 7138 e632 232f 5531 d00c f52c b4f3 602d
000000e0: 14a3 1032 815b 8232 52dc 6530 864f f82d
000000f0: 121d ef33 e4ef 8b2e 2740 0433 a7a8 a230
00000100: 280c 052a 610d 9832 9a18 e633 cb62 1929
00000110: 137d c532 ad09 d032 960a 3c31 3188 0f31
00000120: 8e7e e131 ecbc 9f33 512f 8032 c109 df34
00000130: aab9 1234 bbb6 3433 86a6 352f 05cd e933
00000140: 8393 ca27 1d03 862f 5be0 4a32 4019 862a
00000150: 5f74 4732 5ee8 a031 63e9 0b35 5787 5732
00000160: e6c1 8833 40f5 6232 cce5 7c34 6b01 0730
00000170: df00 7b33 ca2f d82b 2c15 4433 5996 d134
00000180: b6bb bb33 15a4 a530 8a43 e133 7643 3233
00000190: f01d b532 0b7c 0635 bafd a432 477a ee2b
000001a0: 0388 6b32 fa6e 0532 62a9 8535 f470 a831
000001b0: 105b 2932 098e 4c2e 6841 2f2e 5d25 c631
000001c0: 83d7 7431 9a0e 0f35 6132 7d34 f9e8 b434
000001d0: b500 0832 cdd4 d62b 3f33 1d33 d7b1 542c
000001e0: fb59 3434 f4dd 3e31 1c8e 0534 e932 2832
000001f0: 0e88 9433 2355 2633 a84f 2c32 0b44 5932
2.4680716e-07 2.8866463e-13 1.5147175e-12 1.9807542e-14 2.1636149e-08 2.7875469e-08 1.2588563e-07 7.274863e-09
2.1230572e-12 1.4720588e-09 1.3728365e-08 2.401576e-07 5.7989453e-08 4.7510397e-08 2.5526518e-07 2.891836e-11
1.294822e-09 2.2459274e-08 1.7453506e-07 5.5862346e-09 1.587538e-07 7.4815034e-08 4.54642e-07 1.723529e-07
5.909372e-09 2.8200867e-07 6.6120265e-08 2.0418122e-08 5.7027346e-08 1.8359346e-07 8.658175e-07 1.4188923e-08
5.756556e-08 1.7213938e-07 2.0535516e-08 3.9143995e-14 5.188772e-08 1.2978098e-10 3.4615937e-09 1.7387666e-07
4.6817613e-07 3.922793e-11 2.7576021e-11 7.2947444e-08 7.435929e-08 1.2906316e-13 7.5315526e-10 1.5955159e-07
4.205859e-12 4.095769e-08 2.9833187e-12 3.731166e-11 2.680119e-08 3.1022374e-09 6.9647413e-12 1.2787039e-11
8.418983e-09 1.5175603e-08 8.362281e-10 2.8229651e-11 1.11345926e-07 6.363601e-11 3.079199e-08 1.1834985e-09
1.181699e-13 1.7701213e-08 1.07146846e-07 3.4058514e-14 2.2990696e-08 2.4218787e-08 2.7363618e-09 2.0886655e-09
6.5627495e-09 7.438379e-08 1.4922678e-08 4.1544084e-07 1.3664854e-07 4.207571e-08 1.6521015e-10 1.0887201e-07
5.6226195e-15 2.437667e-10 1.180896e-08 2.3820702e-13 1.1609784e-08 4.68303e-09 5.212116e-07 1.254542e-08
6.3682634e-08 1.3210695e-08 2.3552928e-07 4.911473e-10 5.8441284e-08 1.5360987e-12 4.5654062e-08 3.9038676e-07
8.7420105e-08 1.2051965e-09 1.0489664e-07 4.150521e-08 2.1084787e-08 5.0099396e-07 1.9207494e-08 1.6944856e-12
1.3709726e-08 7.766852e-09 9.958569e-07 4.902285e-09 9.8578e-09 4.6510382e-11 3.9848486e-11 5.766806e-09
3.5629177e-09 5.32929e-07 2.3580789e-07 3.3697123e-07 7.916403e-09 1.5264679e-12 3.660102e-08 3.0225733e-12
1.6796541e-07 2.7774805e-09 1.243829e-07 9.790463e-09 6.916535e-08 3.872732e-08 1.0029829e-08 1.2646534e-08

exp_avg f4 [128, 128]
00000000: 9a29 f72f 50cc 4db0 2dc0 ac30 1bdb 38b0
00000010: 149d 0eb0 86ab c7b0 eddc a831 e897 7c31
00000020: 0a58 1eb0 a0f7 19af c47f e931 48d5 27af
00000030: c10b 1031 23a5 1332 686b 53b0 de9e 682f
00000040: af4f 2cb0 4a50 37b0 0eed 8131 df72 a22e
00000050: e65e a831 bb74 cf2f 15d8 0031 7807 2832
00000060: 04f1 26b0 b910 16b0 08a8 6532 f451 69b0
00000070: 1b30 0830 e33b e930 5608 87b0 72cf d3af
00000080: 0fcb 14b0 af2e 3430 3663 ed31 2a4f 80b0
00000090: f3ba e231 825e bb30 859e 7131 cecf 2130
000000a0: 4723 a7b0 66bb 7731 cbe5 1431 d2c1 c931
000000b0: 4002 7b30 8a8d 80b0 df48 0e31 8137 b6b0
000000c0: bc0d 32b0 a650 2231 2c75 0cb0 cf53 65b0
000000d0: 3865 4a30 b41a 8f30 7033 b9af f812 922f
000000e0: 20ec 9bad 7cd2 a02f 967e 1332 d09c 6531
000000f0: 8e03 3930 90f6 6a2f e843 70af 2fbd 49b0
00000100: b521 38b0 3505 1f32 e703 c631 1529 1bb0
00000110: 4095 9e2c 9930 1caf ce75 6fb0 b462 ec31
00000120: 12d4 6632 6619 1c30 dde1 40af 74d3 55b0
00000130: 82f4 2032 ac09 56b0 0ccb 4831 3c0e e42f
00000140: 62d1 88af 32eb 57b0 b67f 5ab0 ee7c 69b0
00000150: 3333 c531 f697 0632 beed 7331 16e8 db31
00000160: 56c5 0932 42ce ab2e 0055 7131 5eda 0eb1
00000170: b580 dd31 2996 19b0 96d9 00b1 aa6d cc30
00000180: 46e2 1632 a6eb 4f30 0e52 4730 da93 4e30
00000190: 60ba 5432 248c 5030 c4f1 0f30 624f 1cb0
000001a0: f7ac 0831 9ede da31 341c 0732 7bb7 4db0
000001b0: 6746 12b0 26f5 61b0 d65e c530 c836 4c2f
000001c0: 1a3f 582f 08ed 0a32 8cdc b62e 1057 99b0
000001d0: e507 d130 e216 63b0 bfa3 1630 b127 3830
000001e0: 68e7 93b0 a4e5 6cb0 ff3f 1b32 b024 a031
000001f0: fc9d 17b0 02af de31 02a9 6baf 7076 ad31
00000200: 606e c5b5 ca41 ca33 6a6d 1733 c80a 57b0
00000210: b982 b538 e39b a938 70a1 f838 8069 0a39
00000220: 7ce0 09b0 80bf 8eaf d41b 8f38 f0c2 8238
00000230: 9a30 7d38 da6b 5039 aee7 8e38 8e2b 7f33
00000240: 4c9f afb1 45e9 d638 8802 c337 d020 8fb4
00000250: 5690 b638 aa99 46b8 0006 0337 5ed0 be38
00000260: 5a53 8934 b705 bb38 963d da38 18ec 2036
00000270: 50e9 c5b6 5061 bb38 70c7 6438 23c6 5135
00000280: 206c 9437 10e0 2c37 9b6d 4db6 a4c8 d0b0
00000290: 9ea8 dc38 d664 fa34 c41d 0136 c06b 9638
000002a0: a572 0439 3637 1234 70f9 d233 f301 2539
000002b0: e28b 3337 7e4a b9b0 1914 ed35 c928 5039
000002c0: 52dd e533 021a 2e38 e883 4f30 ae66 72b1
000002d0: 5af8 3b39 eee5 0c34 5430 5133 8949 5932
000002e0: e210 4cb5 1a4c dd37 a813 e338 84d6 6b33
000002f0: 1577 1c39 f3a2 0334 46b2 10b8 f8ad 83b2
00000300: 326f ff31 6a48 7039 2496 3f38 34a8 96b0
00000310: fb02 0136 bf09 5ab7 1e10 3834 74fc a135
00000320: a49d 7439 55e7 be38 b6a4 7738 6fad fb37
00000330: 39b5 9838 f534 9338 348e 0536 9a54 39b7
00000340: f2eb 75af c8e6 c734 ea94 0c38 3ef8 a531
00000350: 2964 b835 ed12 9438 205f 8435 f917 ac38
00000360: 2d59 b838 4605 dd37 d24c 8c37 e828 2335
00000370: a3b4 cc38 7ecf 8332 f2c7 ef38 90ce 0936
00000380: 5438 d338 10fa 9936 e0d2 b1b4 0a6f 7939
00000390: a040 4b36 314c d138 1afd 12b7 2492 c732
000003a0: 4c52 60b6 28bf 8635 1600 7b39 462f 2e35
000003b0: ab16 a3b6 9cb0 6931 5c82 7932 780c a138
000003c0: 445c a034 f8f4 aa38 47bf 3d36 a9ba a038
000003d0: 043d dab7 2899 c4b0 607a 8538 358b bb32
000003e0: 5980 5f37 7c4e 9733 0fc5 a537 da89 1838
000003f0: ca58 3938 a1aa 4d39 24f5 2b37 caa4 8a35
4.4958598e-10 -7.486891e-10 1.2569267e-09 -6.725018e-10 -5.188252e-10 -1.4527906e-09 4.91456e-09 3.6757175e-09
-5.7605176e-10 -1.4003243e-10 6.7957178e-09 -1.5264334e-10 2.096144e-09 8.594074e-09 -7.6913986e-10 2.1156718e-10
-6.268647e-10 -6.668911e-10 3.781344e-09 7.387312e-11 4.900232e-09 3.7736023e-10 1.874928e-09 9.780585e-09
-6.073295e-10 -5.4593446e-10 1.336776e-08 -8.488137e-10 4.9544874e-10 1.6970002e-09 -9.824912e-10 -3.8528075e-10
-5.413065e-10 6.554996e-10 6.908887e-09 -9.335726e-10 6.5987193e-09 1.3632901e-09 3.5160224e-09 5.8866767e-10
-1.2160876e-09 3.6049754e-09 2.1667457e-09 5.8719047e-09 9.1316466e-10 -9.353454e-10 2.0705142e-09 -1.3258018e-09
-6.477554e-10 2.3619946e-09 -5.1098215e-10 -8.3428814e-10 7.363101e-10 1.0412209e-09 -3.3687853e-10 2.6570723e-10
-1.772632e-11 2.9253389e-10 8.5853085e-09 3.3413023e-09 6.730766e-10 2.1369773e-10 -2.1851998e-10 -7.339222e-10
-6.698671e-10 9.256202e-09 5.763002e-09 -5.644705e-10 4.5072e-12 -1.4205383e-10 -8.7115104e-10 6.8797252e-09
1.3435981e-08 5.678856e-10 -1.7542541e-10 -7.778944e-10 9.36882e-09 -7.786649e-10 2.921925e-09 4.1483073e-10
-2.488703e-10 -7.8550777e-10 -7.9489426e-10 -8.494244e-10 5.7392753e-09 7.8343785e-09 3.5496295e-09 6.400124e-09
8.0193185e-09 7.8128184e-11 3.5118433e-09 -2.0787847e-09 6.446579e-09 -5.5874466e-10 -1.8750135e-09 1.4874122e-09
8.782598e-09 7.564104e-10 7.2512385e-10 7.5152473e-10 1.2382401e-08 7.586911e-10 5.2366667e-10 -5.686528e-10
1.9888924e-09 6.3699437e-09 7.864447e-09 -7.4839307e-10 -5.321454e-10 -8.22029e-10 1.436059e-09 1.8573154e-10
1.9667504e-10 8.086552e-09 8.315579e-11 -1.115696e-09 1.5208995e-09 -8.261464e-10 5.480238e-10 6.6995215e-10
-1.0761427e-09 -8.618264e-10 9.0367385e-09 4.6607838e-09 -5.515799e-10 6.4809464e-09 -2.1433169e-10 5.0484275e-09
-1.4709767e-06 9.418325e-08 3.525694e-08 -7.8231865e-10 8.6551016e-05 8.087584e-05 0.000118556316 0.00013200007
-5.015932e-10 -2.5965718e-10 6.823955e-05 6.235193e-05 6.0365164e-05 0.00019876604 6.814241e-05 5.9411427e-08
-5.1112803e-09 0.00010247765 2.324699e-05 -2.66597e-07 8.705321e-05 -4.734999e-05 7.809605e-06 9.0987174e-05
2.5578885e-07 8.917919e-05 0.00010406521 2.3979283e-06 -5.8982187e-06 8.934981e-05 5.4545177e-05 7.8146894e-07
1.7693324e-05 1.03041675e-05 -3.061118e-06 -1.5191017e-09 0.00010521825 4.6639497e-07 1.9239824e-06 7.1726274e-05
0.0001263121 1.3617395e-07 9.8242595e-08 0.00015736352 1.07018e-05 -1.3481694e-09 1.7663725e-06 0.0001985162
1.07039014e-07 4.1509054e-05 7.549361e-10 -3.5274001e-09 0.00017926228 1.3122164e-07 4.870556e-08 1.2647782e-08
-7.602049e-07 2.638069e-05 0.00010827865 5.4910302e-08 0.00014921681 1.2259606e-07 -3.4498305e-05 -1.5329519e-08
7.434118e-09 0.0002291516 4.5677778e-05 -1.0961743e-09 1.9224233e-06 -1.2996082e-05 1.7142199e-07 1.2068908e-06
0.00023328379 9.102995e-05 5.9042788e-05 3.0002293e-05 7.28168e-05 7.01937e-05 1.9901318e-06 -1.1046557e-05
-2.2366445e-10 3.7234554e-07 3.3517288e-05 4.830354e-09 1.3738219e-06 7.060715e-05 9.862451e-07 8.2060644e-05
8.790414e-05 2.6347709e-05 1.6725073e-05 6.078176e-07 9.761124e-05 1.5344764e-08 0.00011433651 2.0534826e-06
0.00010071756 4.5888664e-06 -3.312225e-07 0.00023787856 3.0286974e-06 9.980088e-05 -8.761208e-06 2.3233106e-08
-3.3426504e-06 1.0039412e-06 0.00023937257 6.4888843e-07 -4.8604174e-06 3.4006353e-09 1.4523348e-08 7.679401e-05
2.9869454e-07 8.151861e-05 2.8274533e-06 7.664163e-05 -2.6016038e-05 -1.4304407e-09 6.364728e-05 2.183297e-08
1.3321719e-05 7.045762e-08 1.9761295e-05 3.636801e-05 4.419013e-05 0.00019613888 1.02494705e-05 1.0329761e-06
