results/test2/EndLessRunnerBehaviour/EndLessRunnerBehaviour-44164.pt (torch, 437557 bytes, 30 tensors)

network_body._body_endoder.seq_layers.0.weight f4 [128, 5]
000000 2b a9 3f 3e 34 c6 bf 3e a6 c2 08 3e 9e 34 8f 3f
       0.18716876 0.37455904 0.13355502 1.1187932
000010 ec 9d 21 3e c4 5c e5 be 29 ca 54 bf bd 3d 99 be
       0.15782899 -0.44797337 -0.8312097 -0.29929915
000020 29 1d 99 be 77 d8 b8 bd 35 32 4c 3f 77 93 89 bd
       -0.2990506 -0.090256624 0.7976411 -0.0671758
000030 a4 dc 8c 3d 29 12 94 3e c1 5e 23 bf 45 af 4c 3e
       0.06878021 0.28920105 -0.6381646 0.19988735
000040 38 41 28 be 4e fc f1 be e4 5c 02 3f 35 25 db 3d
       -0.16431129 -0.47262806 0.5092299 0.10700456
000050 2a fb fe be bc 77 98 3e 86 9e 16 3e e7 99 de 3e
       -0.49800998 0.2977885 0.1470891 0.43476793
000060 19 e9 8c 3f 71 14 88 3d 4b 2b aa be 1f 7e 2c bf
       1.1008636 0.06644524 -0.33236155 -0.67379946
000070 e5 72 81 be 5e 62 9e be b9 6b c7 be 9f c5 b6 be
       -0.2528297 -0.30934423 -0.38949373 -0.35697648
000080 e5 4c 89 bf e0 16 78 be 0d af a6 3e 88 d4 0f 3f
       -1.0726591 -0.24227476 0.32555428 0.5618367
000090 46 74 7e bf c2 ea a5 3e f0 42 bf 3e 36 22 e4 ba
       -0.9939617 0.32405668 0.37355757 -0.0017405215
0000a0 83 40 04 bf 17 4b a5 3d 5a 37 29 3d 90 c4 84 3f
       -0.5166094 0.08070963 0.041312553 1.0372486
0000b0 81 c5 ef bd 49 56 48 3d 7f 29 22 be 93 72 8b 3d
       -0.11707593 0.048910413 -0.15836142 0.06808963
0000c0 b8 94 e0 3e 43 46 85 3f 45 3e bf be 85 71 3b 3e
       0.43863463 1.0412067 -0.37352195 0.18305023
0000d0 7e b2 8f be 09 2f 2b be 27 e3 09 3f 12 70 55 3e
       -0.28065866 -0.16717161 0.5386223 0.20843533
0000e0 d9 d7 fb be 21 2f b2 3e 4b e7 d7 bd e0 4b 44 bf
       -0.49188116 0.34801582 -0.105421625 -0.76678276
0000f0 2d 8e 0e bd 8a 87 29 be fa ae fd be b2 76 fc 3c
       -0.03480356 -0.1655561 -0.4954756 0.030818317
000100 e1 5b 14 bf d9 30 cc be c6 00 19 3e 1a fd 07 3f
       -0.57952696 -0.39881018 0.14941701 0.5312058
000110 ba 30 94 bc ec 92 78 bc 0f 78 ee 3e 0c 7a 58 be
       -0.01808964 -0.015171748 0.46575972 -0.21140307
000120 ab f7 9b 3d 32 c8 09 bf 9a ca 85 3e c7 e5 fc bd
       0.07615598 -0.538211 0.26131135 -0.12348514
000130 fd 40 a9 3d ad 27 04 3f 0c d1 bc 3e a9 4c 54 bd
       0.08264349 0.5162304 0.3687824 -0.05183092
000140 b8 d6 98 3d 99 8a 08 3f ac ae e4 be fa fd 3d 3e
       0.07462829 0.53336483 -0.44664514 0.18553916
000150 ec e5 01 bf 6d 32 53 bd b7 6d 57 bd 4c 8e 1f 3f
       -0.5074146 -0.05156176 -0.052594867 0.623265
000160 c5 e8 c4 3e c6 cc 0f bf 9e 69 4f be 29 b7 43 3e
       0.3845884 -0.56171834 -0.20255134 0.19112839
000170 3c 49 b1 be 75 dc 54 3f 92 a4 26 bf 7d 35 8e 3f
       -0.34626186 0.8314889 -0.65094864 1.1110073
000180 b7 62 7d bd 54 6e 93 3e 98 45 17 be 41 b3 98 bd
       -0.06186172 0.2879511 -0.14772642 -0.07456065
000190 01 25 16 bf 1b 89 3a be 9c e2 f3 3e 37 f2 a5 3e
       -0.58650213 -0.18216364 0.47633827 0.32411358
0001a0 34 80 8e bd ca 3e cb be 3f ca 48 bf d8 b0 16 3f
       -0.069580466 -0.39696342 -0.78433603 0.5886359
0001b0 83 70 15 bf 25 18 1c 3f dc 2f 07 bf ab 1e d8 bd
       -0.58374804 0.6097434 -0.528074 -0.105527245
0001c0 c0 01 e6 be 17 01 4b bc 09 fd dd 3d 6f a0 c6 be
       -0.4492321 -0.012390397 0.10839278 -0.38794276
0001d0 e5 52 fb be c0 48 07 bf 9c c0 40 bf 43 98 f0 3e
       -0.4908668 -0.5284538 -0.752939 0.46991166
0001e0 19 77 39 3d 3f 1d a0 3e 62 cc 91 bd e2 87 cc 3e
       0.045279596 0.31272313 -0.07119061 0.3994742
0001f0 5f d7 bb 3e d9 87 79 be 72 9e bd 3e ec 7d bb 3d
       0.36687753 -0.24368228 0.37034947 0.09154877
000200 15 72 dd 3e 77 25 fe bd 7d 05 06 bf f0 0a 34 bf
       0.432511 -0.124094896 -0.52352124 -0.7032919
000210 4f d1 dc be 70 d8 80 bd 3f 59 06 bf 20 26 17 3f
       -0.4312844 -0.06291282 -0.5247993 0.5904255
000220 58 1b 59 3e 12 67 44 bc e4 8f e7 ba 92 cf 1b bf
       0.21201837 -0.0119874645 -0.0017666784 -0.608636
000230 b1 7a 05 bf 4a 9c e2 3c 05 6f bf be a1 15 92 be
       -0.5214034 0.027662415 -0.3738939 -0.28532127
000240 a9 6e e2 3e c3 a9 23 3f 23 24 8d 3c c8 e4 a1 3e
       0.44225052 0.6393091 0.017229145 0.3161986
000250 8b 7c 17 bf 9a f9 47 be 44 91 e9 be d8 f8 67 be
       -0.5917441 -0.19528809 -0.4561864 -0.2265352
000260 28 f8 cb be 2c f3 5e 3e 4b 37 d6 3d 81 34 9d 3c
       -0.39837766 0.2177245 0.10459765 0.019190075
000270 0c 07 68 3d 92 86 c4 be f7 83 11 bf c1 29 14 bf
       0.056647345 -0.3838392 -0.5684199 -0.5787621
000280 a2 5a 86 be b9 30 10 bf 08 d5 02 3e 66 8f da be
       -0.26241022 -0.56324345 0.12776577 -0.4268753
000290 4a 8e 01 3f a1 eb d1 be f0 a6 4d be fd 2f 15 3f
       0.5060774 -0.41000083 -0.20083213 0.5827635
0002a0 21 2f 13 3f f5 8c 26 be ba 8e 93 3e e8 ed 1a 3f
       0.5749379 -0.16264708 0.2881983 0.60519266
0002b0 f5 82 51 bd 09 ee 4e 3f 18 ef dd 3e 40 d1 3f 3d
       -0.05115028 0.8083196 0.43346477 0.046830416
0002c0 6e 34 60 bf de 0b eb 3e ce 6b 79 be 9e 82 27 3f
       -0.8758 0.4590749 -0.2435753 0.6543368
0002d0 67 b0 e4 be a0 86 c0 bd 7b 31 9e 3e da 00 8d 3d
       -0.44665834 -0.09400678 0.30897126 0.06884928
0002e0 82 a4 f3 3e 2b bb ef 3d 72 41 35 bf 39 2d 79 be
       0.47586447 0.11705621 -0.70802987 -0.24333657
0002f0 8f e6 ae bd aa 6d da 3d d9 84 41 bd ec b7 5b 3f
       -0.08540069 0.10665448 -0.047245834 0.8582752
000300 ac 5a 5a be 60 bf 1b bf 31 47 83 bc d0 c9 10 3f
       -0.21323651 -0.6083889 -0.016025158 0.5655794
000310 7e e8 b8 be 4d 8d 88 bf 6b 1c 91 bf 09 bc 79 3f
       -0.36114877 -1.0668122 -1.1336797 0.97552544
000320 0c 3c 5a be b9 03 f1 be fb a2 6c 3e ba 65 09 bf
       -0.21311969 -0.47073153 0.23109047 -0.5367085
000330 0f 67 47 be 8d 53 a6 3e 01 47 5c bf 56 8e f5 be
       -0.19472907 0.3248562 -0.86045843 -0.47960156
000340 38 53 dd be ec 8d e6 3e 80 8d f5 bd 75 1e dd bb
       -0.43227553 0.45030153 -0.119898796 -0.0067480155
000350 ac d9 ed 3d 70 12 cc 3e 84 fc de be 03 0c a5 be
       0.11613783 0.39857817 -0.4355203 -0.32235727
000360 b4 d3 92 be 9d a2 a8 3e 2a 3a 18 bf 13 a1 10 3e
       -0.28677142 0.32936564 -0.5946375 0.14123945
000370 39 45 87 be 0f 14 01 bf a7 b1 b0 be 88 42 a2 3d
       -0.2642 -0.5042123 -0.34510538 0.07922846
000380 2d e2 61 3e a2 99 e1 be 48 1b c2 bd 35 52 72 3f
       0.22058935 -0.44062525 -0.0947786 0.9465669
000390 9d 78 a0 be 68 0e 70 be e0 26 00 3c b4 7d d7 be
       -0.3134202 -0.23442996 0.0078217685 -0.4208809
0003a0 ba 35 2f ba b5 50 66 3f 05 72 fd 3d f5 cf 97 3d
       -0.0006683726 0.899669 0.12375263 0.074127115
0003b0 f2 24 a1 3e 56 81 19 bf 2b 61 59 3e 7f 1c a3 bd
       0.314735 -0.59962976 0.21228473 -0.079644196
0003c0 c5 b7 7c be bd fa c2 3e da 7f b8 be 64 19 c0 3d
       -0.24679478 0.38081923 -0.36035043 0.09379843
0003d0 8d 5d f7 3e 1d 5e 3f be 33 02 0c 3e 43 01 38 bf
       0.4831356 -0.18688245 0.13672714 -0.71876925
0003e0 b0 6c 42 bf d7 60 ef 3e 9d a2 11 3f 90 ca 58 be
       -0.75947094 0.4675357 0.56888753 -0.21171021
0003f0 59 ad f9 be 6f e9 ae 3e 4e 3f 5f 3d 8c 8d 31 3e
       -0.48765066 0.3416247 0.05450373 0.17339152

network_body._body_endoder.seq_layers.0.bias f4 [128]
000000 73 69 fe b9 1a 68 b5 b9 1c 7e 08 3b ee 42 73 ba
       -0.0004852522 -0.00034600572 0.002082712 -0.00092796877
000010 fb bd 7e b8 b2 1d 10 bb db 19 13 39 d3 3f e6 3b
       -6.0735252e-05 -0.0021990356 0.00014028644 0.0070266514
000020 69 2d 4f 38 86 99 58 bb 32 4b c1 b9 db 35 a6 ba
       4.9394937e-05 -0.0033050491 -0.00036867853 -0.0012680845
000030 d0 a1 44 ba 32 4b 9c b9 8f d9 50 b9 c2 fb 10 ba
       -0.00075009186 -0.00029810664 -0.00019917473 -0.0005530679
000040 25 fc 37 39 8e 4a f8 3b ff 52 c7 b8 31 a6 f9 bb
       0.00017546171 0.007577247 -9.504519e-05 -0.0076186885
000050 2a 19 0d bc ba b5 a4 3a a1 3d de b9 8a 19 84 ba
       -0.008611957 0.0012566366 -0.00042389057 -0.0010078412
000060 7f ee 3c ba d5 a4 9b ba 97 64 ed 3a 10 9a 27 39
       -0.00072071695 -0.0011874685 0.0018111643 0.00015983754
000070 a3 b3 3d 39 f2 75 82 bb f2 e7 b6 ba 98 87 78 b9
       0.00018091364 -0.0039813453 -0.0013954623 -0.00023701636
000080 0a 4f 96 3a 59 cb 0b 3c ed 82 25 bb 36 51 c1 3b
       0.0011467647 0.008532369 -0.002525504 0.0058995737
000090 4a be 91 3b 05 e6 8c 3a d2 e4 cb b8 25 c2 08 3a
       0.004447733 0.0010749704 -9.7224154e-05 0.0005216918
0000a0 cb 16 fa 3a 6c f9 24 3a e6 a9 63 bb a7 0d b4 bb
       0.0019080279 0.000629327 -0.0034738719 -0.0054947915
0000b0 52 c0 99 b9 3b 43 15 3c e9 18 0f bb 69 37 10 ba
       -0.00029325724 0.009110267 -0.0021834916 -0.0005501421
0000c0 1f 7b 96 b9 e6 5e 57 b9 79 68 34 3a 1a 1b 8c b9
       -0.00028701962 -0.0002053935 0.0006882023 -0.00026723073
0000d0 8b fe 1e 3c 99 76 de ba e0 29 23 36 3f f9 74 b7
       0.009704242 -0.0016972601 2.4313267e-06 -1.4601565e-05
0000e0 c9 f2 80 b8 2a a6 9b b7 36 d2 07 bb e5 37 01 bb
       -6.148738e-05 -1.8554816e-05 -0.002072466 -0.0019717154
0000f0 89 53 e4 b9 1a 10 65 3a 36 85 18 39 4e ec 7c bb
       -0.00043549787 0.0008738056 0.00014545475 -0.0038592997
000100 46 2c e6 38 5e 7f 8b ba 5c 79 9e 3b af 8f aa b9
       0.00010975501 -0.0010642817 0.0048362445 -0.0003253198
000110 a3 47 4c bb e9 75 8e bb bd 49 06 3c b7 ab b8 39
       -0.0031170628 -0.004347552 0.0081962915 0.00035223152
000120 67 f3 9e 3a 92 7f 00 b8 2a 9a 02 ba 4e bf 9b b8
       0.0012126983 -3.0636387e-05 -0.00049820787 -7.426609e-05
000130 27 5d 23 ba 71 d6 4a ba 62 4f ab ba 1c b2 f4 ba
       -0.00062318373 -0.0007737643 -0.0013069923 -0.0018668803
000140 cf 8f c3 b8 73 2d 40 b8 22 5c f9 38 cc 5e 83 ba
       -9.325111e-05 -4.5818695e-05 0.00011890406 -0.0010022759
000150 20 c5 85 b9 ac 33 b7 39 5b dc 92 b9 28 f6 96 b9
       -0.00025514606 0.00034942979 -0.00028011468 -0.0002879363
000160 86 99 8a bb 61 d2 c9 39 67 f9 6a b9 03 4b f1 b8
       -0.004229727 0.00038494452 -0.00022408889 -0.000115057475
000170 ca 5d b7 bb 54 38 96 b9 58 32 be bb 11 59 21 39
       -0.0055958973 -0.00028652197 -0.0058043413 0.00015387336
000180 f1 06 4d b9 53 00 c3 ba ca 96 10 b9 9e d2 93 39
       -0.0001955291 -0.0014877416 -0.00013789083 0.00028194947
000190 b0 0a 8b 39 4c 57 8b b9 8e 4b 83 ba e7 74 77 3b
       0.0002652011 -0.00026577187 -0.0010017024 0.0037758888
0001a0 2d f1 b1 3b 6b 9d cf 39 73 c6 59 ba 66 3a e7 38
       0.0054303617 0.00039599402 -0.00083074643 0.00011025816
0001b0 01 81 31 ba 34 6c 76 bb 86 7f e5 38 5b a1 92 39
       -0.0006771237 -0.0037601115 0.00010943324 0.0002796751
0001c0 b9 7e b0 39 6d ff b3 39 81 34 ca 38 f3 52 ed ba
       0.00033663752 0.00034331848 9.64189e-05 -0.0018106386
0001d0 be c3 1b 3b 9c 2d 89 3b 6c 61 d5 39 d7 65 77 b8
       0.0023767794 0.0041863453 0.0004069911 -5.8984235e-05
0001e0 69 6d fa 3b 0b be 57 ba 7d bc 64 39 af e9 18 3c
       0.0076424372 -0.0008229918 0.00021813992 0.009333058
0001f0 83 8d 76 39 94 67 36 b9 66 59 66 3b e9 f8 6d b9
       0.00023513105 -0.00017395458 0.00351485 -0.00022694808

network_body._body_endoder.seq_layers.2.weight f4 [128, 128]
000000 c3 65 90 3c b8 98 80 bd a0 32 f3 bd 29 31 b3 bc
       0.017626649 -0.06279129 -0.1187489 -0.021874027
000010 32 78 b1 bc 1c 81 55 3d 26 48 ae bd b6 c7 11 be
       -0.021663759 0.05212508 -0.08509855 -0.1423634
000020 e4 e5 8c 3d 72 97 18 bd c9 50 61 bb 2a 64 9a bd
       0.06879786 -0.037253805 -0.0034380427 -0.07538636
000030 6d 08 a9 bd 82 b8 20 be 00 1e fe bc d0 66 fe 3b
       -0.0825356 -0.15695384 -0.031020164 0.007763721
000040 7c 38 9c 3d 13 f7 a5 bd 3d 2b 0a bd 6c 77 a7 3c
       0.07627961 -0.08103766 -0.03373264 0.020442687
000050 d9 11 9c bb ca 2b df 3a 1c ea 22 bc 3b 71 d7 bd
       -0.00476287 0.00170266 -0.009943511 -0.10519644
000060 e5 bf 32 3d 55 fc 9b bd a8 8d 59 3d 62 6c 92 3d
       0.043640036 -0.07616488 0.05311361 0.07149579
000070 c9 74 09 ba 29 14 a7 3d 3c d8 12 3e 43 33 75 3d
       -0.00052435376 0.08158142 0.143403 0.05986334
000080 9c 67 07 3e 72 03 52 3c 3b 20 2a 3d ef 13 e7 bc
       0.13223118 0.012818204 0.041534644 -0.028207747
000090 7b 17 ee bd 8e 5b 10 3d e8 ca a4 b9 94 91 cc bd
       -0.11625572 0.035243563 -0.00031431695 -0.09988704
0000a0 b4 14 b6 3c f7 8e c0 bc 8d 6d 5c bd 8e d7 25 3d
       0.022226669 -0.023505671 -0.053815413 0.040488772
0000b0 ed 70 5f 39 21 90 a9 bd ad b0 1e 3d b2 60 b0 bd
       0.00021309005 -0.082794435 0.03874271 -0.08612193
0000c0 46 af b5 bd 3c 2d 45 3d 90 af 5a 3e 59 23 d5 3c
       -0.088713214 0.048138842 0.21356034 0.026017832
0000d0 dd 86 11 3d 84 1f 55 bd 60 d2 37 bc d1 cc ec bd
       0.035529006 -0.05203201 -0.011219591 -0.11562503
0000e0 78 a1 30 3d 30 e6 76 bd 7d fc 66 3d 84 3c 2c be
       0.04312274 -0.060278118 0.056393135 -0.1681996
0000f0 20 1d 24 3e f0 14 0d bd 26 fb 23 3e 48 a2 9c bd
       0.16026735 -0.034443796 0.16013774 -0.0764814
000100 09 20 2d bd 46 d7 8e 3d df 0d ab 3d 8d fa 01 be
       -0.04226688 0.06974654 0.08352255 -0.12693234
000110 24 88 6c 3c fb 0f 82 bc 8b 10 53 be 2c e5 aa bc
       0.014436755 -0.01587676 -0.2061178 -0.02086123
000120 ed 50 34 3c 66 75 cd 3d 39 20 c6 3d 14 42 ff 3d
       0.011005622 0.100321576 0.09674115 0.12463775
000130 33 a6 73 3c 5c 67 8d 3d 6a f8 eb bc d8 63 97 3d
       0.014871168 0.0690448 -0.028804976 0.073920906
000140 a1 6a cf 3c e1 8f 05 3e 29 e2 27 be f0 33 58 bc
       0.0253194 0.13043167 -0.16394867 -0.013195977
000150 d7 1f 23 bc d5 98 50 bc 87 84 b9 bd 3b 26 ae 3c
       -0.009956322 -0.0127317505 -0.09058481 0.021258464
000160 de 68 d4 3d 88 8c 6c bc 42 c1 06 3d 5f a6 e8 bc
       0.10371564 -0.014437802 0.03289915 -0.028399644
000170 6f 42 84 3d 9e 38 94 3c 11 82 41 be 5c 04 0c bc
       0.06457984 0.018093403 -0.18897273 -0.008545961
000180 97 59 a8 bd 98 00 a4 bd 8b b4 07 bd 96 c6 ec bd
       -0.08220213 -0.08007926 -0.033131164 -0.11561315
000190 8c 65 31 3d d7 a8 6b 3b 85 31 d5 bd 42 f2 56 bd
       0.043309733 0.003595879 -0.10409836 -0.05247713
0001a0 04 6e cd 3d 9d e4 20 3d 0e 07 a9 3d a5 2b 64 bd
       0.100307494 0.039280523 0.08253299 -0.055705685
0001b0 37 96 87 bd 3a 0f e9 bd 5a e4 19 be d4 01 cf bb
       -0.06620448 -0.11379857 -0.15028515 -0.0063173566
0001c0 8f c2 9e bd ab 0c 34 be 54 12 ab bc f1 6b f9 3c
       -0.07751953 -0.17582957 -0.020882763 0.030446978
0001d0 57 5f 48 3d f0 4b f7 3d 6c 02 4b 3c 5e d2 26 bc
       0.04891905 0.12075031 0.012390714 -0.010181991
0001e0 43 28 93 bc 86 f2 95 bd d3 dc b2 3d 82 d5 89 bd
       -0.017963534 -0.07321648 0.08733525 -0.067301765
0001f0 5c 7e 12 3d e8 22 82 3d bc cb b3 bd c8 c6 bb 3c
       0.035765037 0.06354314 -0.087790936 0.022921935
000200 dc e8 5e bb 8f cb 1e 3d 00 ef c6 3d 4f de 32 3c
       -0.0034013307 0.038768347 0.097135544 0.01091726
000210 4a 87 8a bd c3 45 a1 bd 6e bc d7 3d b6 11 d2 bd
       -0.067640856 -0.07874634 0.10533987 -0.10257284
000220 cd 76 83 3c 57 28 e1 3d eb 4b e2 3c f6 1d a4 bd
       0.01604786 0.10994022 0.027624091 -0.08013527
000230 a5 5a d6 3c 39 d2 cb 3c fa 81 1a bd 41 76 2f 3d
       0.02616627 0.024880515 -0.03772161 0.042837385
000240 04 8b dc bd 5b 98 55 3e 96 e8 19 3d 90 09 4e 3e
       -0.107687026 0.208589 0.037575327 0.20120835
000250 8d 00 b5 bd 80 58 4d 36 22 38 d3 bc bf bc 7d bd
       -0.08837996 3.0598894e-06 -0.025783602 -0.06194758
000260 d4 20 94 bc 92 5f d9 bd 40 24 2d 3e 3d ab 6f bd
       -0.01808206 -0.10613932 0.1690836 -0.058512915
000270 20 39 3f bd 69 ee 1a 3c 87 f8 c6 bd 87 2b e8 bc
       -0.046685338 0.0094562555 -0.097153716 -0.028341068
000280 0e e4 1e bb bc 7e 21 3d 58 3b 80 bb 5a 42 e6 bc
       -0.0024244818 0.039427504 -0.0039133243 -0.02810781
000290 2a 62 fc bc 9f 1c ea bd c6 fc cf bc db ee 37 3e
       -0.030808527 -0.1143124 -0.025389086 0.1796221
0002a0 31 11 52 3e 11 fc e0 bd bf 38 91 bc cd e2 a8 bc
       0.2051437 -0.10985578 -0.017727254 -0.02061596
0002b0 84 59 d0 3d d6 5a 55 ba d1 73 b4 3d 75 bf 84 3d
       0.10173324 -0.0008138841 0.08811153 0.0648183
0002c0 a0 98 51 bd 9c ea 53 3d e7 1b c3 3b e6 54 f3 bd
       -0.051170945 0.051737413 0.005954254 -0.118814275
0002d0 d9 76 92 3d 38 b6 28 3c 86 6a ea bc 0c fc 85 3d
       0.07151575 0.010297351 -0.028615247 0.06542215
0002e0 97 18 3b 3e 76 93 d7 bd af 9e 07 3e 98 b3 01 bd
       0.18271099 -0.10526173 0.13244127 -0.031665415
0002f0 62 a4 08 bd ee 54 28 bd 93 a4 26 bc b8 cc ad 3d
       -0.033359893 -0.04109662 -0.0101710735 0.08486313
000300 ac 71 31 3d de af 4f 3d 99 8d 0a be b3 58 58 bc
       0.043321297 0.05070483 -0.13530578 -0.013204741
000310 eb 65 0d 3e 0a bd 85 3d 0a 54 af 3d 47 fd 66 3d
       0.1380841 0.06530197 0.08560951 0.056393888
000320 6d 9a 45 bc 2d b7 cb 3d 90 a0 05 be e8 74 11 bd
       -0.012060744 0.099470474 -0.13049531 -0.03551188
000330 59 77 f5 bd 58 64 4c 3d a2 e8 14 bb 37 56 d5 3d
       -0.119856544 0.049900383 -0.0022721668 0.10416835
000340 aa 2d 4b 3e ca 44 97 3d 0d d3 f6 bb 7a 64 77 3d
       0.19841638 0.07386167 -0.0075324834 0.060398556
000350 f8 f5 a8 3d 30 bc 23 bd 40 a3 3b 3c ca ff 40 bd
       0.0825004 -0.03997439 0.011452496 -0.04711894
000360 29 6b 99 bd ad 31 80 3d 8a ed 1c 3e fd c9 14 3d
       -0.07491142 0.06259475 0.15324989 0.036325444
000370 72 5b c8 3a b3 7c c8 3d 3e 1f 85 bb ba 80 87 bd
       0.0015286042 0.097894095 -0.0040625622 -0.066163495
000380 49 6b aa 3b 72 59 9d 3d e1 5a 3b be 01 56 1f bc
       0.0052007777 0.07683076 -0.18296386 -0.009725095
000390 46 91 24 3d a8 43 82 bc 5a 2b a5 3d bc f5 8f bd
       0.040177606 -0.015901402 0.08064909 -0.07029292
0003a0 85 20 28 be df ab aa 3c f5 64 fb bc cd 65 55 bd
       -0.16418655 0.020833908 -0.030687789 -0.052099038
0003b0 0d 02 36 be ba 21 a1 3d 6b 73 8f 3d c0 84 13 bd
       -0.1777422 0.07867761 0.07004436 -0.036015272
0003c0 c2 b0 6f 3d cc 02 2d 3e 94 b2 90 bd 5e ac 66 3c
       0.05851818 0.16895598 -0.07065311 0.0140791815
0003d0 8f be 16 3d 40 79 32 bd 25 20 0d bd 74 d6 82 3d
       0.036802825 -0.043572664 -0.034454484 0.0638856
0003e0 8e 10 b8 3d a4 4d 63 3d c4 56 0c 3e 50 68 ff 3c
       0.089875326 0.055493966 0.13704973 0.03117767
0003f0 b1 6d 0a bc 0c 18 dc bd 5b 24 27 3e c4 31 39 bd
       -0.008449004 -0.10746774 0.16322462 -0.045213476

network_body._body_endoder.seq_layers.2.bias f4 [128]
000000 f9 2b 9f bb 36 15 0d b9 5b aa fb ba be 1b 00 bb
       -0.004857537 -0.0001345471 -0.001920055 -0.0019547786
000010 2f 25 49 bb c4 61 2f 39 1e f7 27 3c df 13 78 b9
       -0.003069233 0.00016725721 0.010251788 -0.00023658526
000020 47 76 47 b9 f6 d9 4f 3c d2 4a 9c b8 53 ae de b9
       -0.0001902218 0.012686243 -7.452596e-05 -0.0004247302
000030 fa 9e 32 b9 a4 d0 27 38 be 6a 8b 39 53 9a 32 3c
       -0.00017034626 4.0010214e-05 0.00026591675 0.010901052
000040 10 16 87 b9 44 17 95 ba 19 8c 48 3b f3 12 c1 b9
       -0.00025765644 -0.0011374732 0.0030601083 -0.00036825947
000050 9e 15 bb 37 81 c5 87 ba f7 15 8b 3b d7 ec 5b 3a
       2.2302203e-05 -0.0010358543 0.004244562 0.0008389479
000060 49 a5 52 b9 74 f1 1d bb 4e 92 b5 38 23 ff b6 39
       -0.00020088734 -0.0024100216 8.658004e-05 0.00034903837
000070 39 62 f9 39 41 25 85 3b 82 3b 24 b9 3a 52 f0 38
       0.00047566163 0.004063279 -0.00015662427 0.00011459408
000080 79 ab 7d b9 86 66 98 ba 12 65 92 b8 78 27 c3 3b
       -0.00024191839 -0.0011627234 -6.980648e-05 0.005955633
000090 1f e3 3b b9 d6 79 bc b9 80 2e 1b b9 f1 c5 b3 3b
       -0.00017918319 -0.0003594893 -0.00014799275 0.005486243
0000a0 0a 2f b5 ba 84 b5 43 38 89 cb 99 3b 75 7c 8b b9
       -0.0013823223 4.6660673e-05 0.0046934527 -0.00026604874
0000b0 9f c8 fc ba 60 94 31 ba c3 b5 96 b9 91 1c f4 b9
       -0.0019285864 -0.0006774124 -0.00028745653 -0.0004656059
0000c0 90 eb 17 b9 78 e0 1b b8 86 80 c2 b9 52 8d 24 b8
       -0.00014488236 -3.7163933e-05 -0.0003709832 -3.923226e-05
0000d0 5a e6 b6 bb 08 a7 bf ba 6c 8b 64 b8 dc 16 ba ba
       -0.0055816593 -0.0014621923 -5.4489283e-05 -0.0014197486
0000e0 76 87 cb b9 23 24 4c bb 52 c1 84 ba a1 cc 58 ba
       -0.00038820104 -0.003114947 -0.0010128415 -0.0008270238
0000f0 8d 70 18 ba 28 42 30 38 f6 8c 45 b9 b9 d1 08 bb
       -0.0005815111 4.2023283e-05 -0.00018839896 -0.0020876958
000100 c0 5e 3a b8 63 6d 36 b9 fe 69 cc 38 ca ec c1 39
       -4.44341e-05 -0.00017397622 9.7472206e-05 0.0003698825
000110 37 79 25 38 2e 21 b1 b9 b1 9d 56 b9 f2 09 93 3b
       3.9451956e-05 -0.00033784792 -0.00020467375 0.0044872696
000120 74 de b9 38 01 b6 a3 3a 46 0a 0e bb 90 d4 b7 37
       8.8629226e-05 0.0012490154 -0.0021673604 2.1914282e-05
000130 92 10 0e 3c 00 e8 89 b9 d8 38 39 ba e6 e5 41 ba
       0.008670943 -0.0002630353 -0.00070656603 -0.0007396623
000140 f8 84 ee 38 be 46 f5 ba 73 93 81 b9 c5 a1 a6 bb
       0.00011373492 -0.0018713099 -0.00024714656 -0.0050852024
000150 64 38 a7 38 a6 80 24 3b d4 0a b4 38 16 ae 1c ba
       7.973684e-05 0.0025101095 8.585086e-05 -0.00059768686
000160 4a 8d ab b9 8b 9a 1b 3c c3 30 64 3b 2b e7 d9 b9
       -0.0003272093 0.009497295 0.0034819103 -0.000415617
000170 75 1b c1 ba 0a 33 c7 39 91 ce da 38 73 13 5f 3b
       -0.0014732914 0.00037994265 0.00010433526 0.0034038692
000180 59 2f 12 3b d2 cb 0a ba fd 59 5b b9 1f db 94 b8
       0.0022306053 -0.0005294654 -0.00020918991 -7.0980044e-05
000190 0a 70 b7 3b 3f b7 58 3c 41 84 0f b9 f9 a4 63 38
       0.005598073 0.013227283 -0.00013686811 5.427466e-05
0001a0 2e a2 95 bb 2a 0d 22 36 31 09 e7 b9 e6 4c 29 bb
       -0.0045664525 2.4147544e-06 -0.00044066602 -0.0025833189
0001b0 56 c6 1b ba 64 27 68 bb c3 17 76 ba e2 72 8d 37
       -0.0005942335 -0.003542387 -0.0009387696 1.6862006e-05
0001c0 c4 58 e3 b8 ce b5 65 39 38 29 91 ba ea cc 3d ba
       -0.000108407374 0.0002190687 -0.0011074906 -0.00072403124
0001d0 11 f4 07 b9 4f 77 fa b8 bb 5f dd b9 00 00 8f 38
       -0.00012965525 -0.00011943152 -0.0004222373 6.818771e-05
0001e0 a0 d9 cf 3a 1b 47 23 3c 32 d9 54 39 6c 6c 90 38
       0.0015857704 0.009965683 0.00020298807 6.88665e-05
0001f0 f9 6c b3 38 64 d4 35 ba 6e ee db b8 2d 13 77 3a
       8.555683e-05 -0.0006936251 -0.00010487145 0.00094251597

action_model._continuous_distribution.mu.weight f4 [1, 128]
000000 ab e2 fa b9 f9 f0 4a bc 88 3f dd bb ef d2 8a 3c
       -0.00047852597 -0.012386554 -0.0067519583 0.016946284
000010 c8 98 27 3b f1 03 57 3d 89 c3 59 bc 92 4d eb bc
       0.0025573242 0.052493993 -0.013291248 -0.028723512
000020 58 92 15 bc 47 6c a6 bc a2 e4 b7 3b ee 84 55 bb
       -0.009129129 -0.020315303 0.005611972 -0.0032580453
000030 01 c7 4e bc 69 6c a4 3b 48 43 84 bc e6 64 a9 3b
       -0.012620688 0.0050178063 -0.016145363 0.0051694987
000040 59 06 36 bc 3e e4 69 3b ba 33 84 bc 67 87 df 3a
       -0.011109912 0.0035689021 -0.016137946 0.0017053903
000050 33 01 81 3c a2 55 71 ba 6a a9 d5 bb 95 89 0c 3d
       0.015747642 -0.00092061807 -0.00652044 0.034310896
000060 09 45 02 bc b6 f5 91 bb ac ad d6 3c dc b8 97 bc
       -0.00795103 -0.00445434 0.02620586 -0.018520765
000070 76 59 d8 bb 13 39 b3 3c 13 d7 a1 bc 0e 5e 87 3c
       -0.0066024614 0.021877801 -0.019755876 0.016524341
000080 74 59 79 bb a9 49 8e 3b 4b 33 9d 3c 8d 8e b8 bc
       -0.0038047703 0.004342277 0.019189497 -0.022528911
000090 4f ab 4e 3b a0 be 10 bd b2 e9 b1 bc e8 51 f9 3c
       0.0031535213 -0.035338044 -0.02171788 0.030434564
0000a0 13 be 29 3c 84 0d 6a 3c a9 e8 b6 ba 46 56 bd bb
       0.010360259 0.014285449 -0.0013954836 -0.005778107
0000b0 67 a3 b0 bb 18 d8 1d bd 98 e0 90 bb 7a 81 42 bb
       -0.005390573 -0.03853616 -0.004421305 -0.0029679225
0000c0 50 85 84 bc bd 57 eb bc 45 f0 c4 bb d4 57 19 3d
       -0.01617685 -0.02872836 -0.0060100877 0.037437275
0000d0 5c 9b 9b 3b 86 ee 91 3b ee 50 20 bc 61 80 5a 3b
       0.004748745 0.004453483 -0.00978492 0.003334068
0000e0 95 1e 9d bc d8 00 80 3b 90 1c be bc 0a 5a 9d 3b
       -0.019179622 0.0039063506 -0.023206979 0.0048019933
0000f0 aa a1 76 bc f7 d0 2e 3c 07 e0 28 bc 0e dd d9 38
       -0.015053192 0.010669938 -0.0103073185 0.00010388541
000100 28 42 ef bc 74 e0 d8 bc 74 63 51 3c 08 54 15 bd
       -0.02920635 -0.026474215 0.012780059 -0.03645709
000110 b6 9d 70 3c d5 c9 bf bc 17 19 05 3b 2a 22 fb 3c
       0.014686039 -0.02341167 0.0020309144 0.03065594
000120 3e 05 d6 3c 2c 0c 02 3c c0 3f 92 3b 38 8e 13 3c
       0.026125547 0.007937472 0.004463166 0.009006076
000130 f8 40 be bc a8 be 9a bb 32 96 c0 3b 57 1a 03 bc
       -0.023224339 -0.004722435 0.0058772797 -0.008001885
000140 c5 2b b2 3c a3 33 b2 3c 87 a9 96 bb e0 73 cc 3a
       0.021749387 0.021753138 -0.004597846 0.0015598498
000150 c5 f2 93 3c e2 3f 92 3c ba 42 1c 3c d5 53 d5 ba
       0.018060097 0.017852727 0.009537393 -0.0016275594
000160 f7 45 9a 3c 58 bf 10 bc 26 21 a3 3c 1e 6b 0b 3c
       0.01883219 -0.008834682 0.019913267 0.008509425
000170 ee 89 4f 3c 85 98 8f bc db 8e 39 3d 26 f9 2b 3c
       0.012667162 -0.017528782 0.045302253 0.010496413
000180 48 72 38 bc 2e 5f f6 3b 47 e3 09 bc ca a0 89 3b
       -0.0112577155 0.0075186705 -0.008416004 0.0042000758
000190 57 ec fa 3c ab b2 87 bc 98 de 25 bd 09 20 fb 3b
       0.030630274 -0.016564688 -0.040495485 0.007663731
0001a0 46 88 b0 3b 75 70 0f 3c f5 8e ca bb 22 a1 07 3a
       0.005387339 0.008754839 -0.0061815926 0.0005173852
0001b0 06 12 ea bc 19 d4 cc bb 12 c6 91 bb 3d 2f 42 3c
       -0.028573047 -0.00625087 -0.0044486606 0.011852083
0001c0 15 8b 46 bc e2 fe 18 3c ec 71 0e 3b 7d 64 d6 3b
       -0.012118121 0.009338113 0.0021735383 0.006542741
0001d0 ca 1e c4 bc da 57 59 3b 2c 6d 93 bb af 72 04 3c
       -0.023940463 0.0033163936 -0.0044990983 0.008083983
0001e0 9b e7 7f 3b cf 27 35 bc 9d 9d 4d 3c 92 8c e0 3c
       0.003904796 -0.011056854 0.012549785 0.02741078
0001f0 0e c5 a9 3c 4f 9f ca 3c 06 e7 ca 3c a7 c3 f6 3c
       0.020723846 0.024734167 0.024768364 0.030122591

exp_avg f4 [128, 5]
000000 a0 72 e3 34 25 45 c2 3a b4 86 c8 b8 76 45 fd 37
       4.2365446e-07 0.0014821632 -9.5618336e-05 3.0192296e-05
000010 00 00 00 00 ef f3 21 b8 6a a1 2f b8 1a 83 17 3a
       0.0 -3.8612572e-05 -4.187358e-05 0.00057797285
000020 58 3d db b8 00 00 00 00 48 25 87 36 04 7e be 36
       -0.0001045416 0.0 4.0276536e-06 5.6771114e-06
000030 a8 dd 9b 39 80 6f 65 35 00 00 00 00 a6 44 fa 36
       0.0002972905 8.54714e-07 0.0 7.4585723e-06
000040 9b f8 bb ba d4 ad 28 39 85 f1 8e b8 00 00 00 00
       -0.0014341058 0.00016086485 -6.816074e-05 0.0
000050 9e 0b 92 b7 d6 2e 5c bb e2 b4 12 3a 82 26 2e b9
       -1.7409966e-05 -0.0033597252 0.00055964116 -0.00016608278
000060 00 00 00 00 a1 d8 22 b8 f2 ae cf 3a 00 2f b3 38
       0.0 -3.882556e-05 0.0015844984 8.5441396e-05
000070 42 94 3f b8 00 00 00 00 ea 5e 10 b8 00 b1 19 37
       -4.5676024e-05 0.0 -3.442067e-05 9.160722e-06
000080 84 50 5e 3a 78 83 ee b7 00 00 00 00 0f 6e 99 36
       0.00084806257 -2.843303e-05 0.0 4.572568e-06
000090 1a 43 07 37 3d 43 6b b7 ca 39 89 37 00 00 00 00
       8.06225e-06 -1.4022747e-05 1.6358583e-05 0.0
0000a0 90 03 25 b7 02 ae dc 39 90 55 1b 3a 30 4b 17 b8
       -9.835596e-06 0.00042091316 0.00059255306 -3.607123e-05
0000b0 00 00 00 00 49 97 f9 b6 33 f7 fb b7 b7 10 38 b8
       0.0 -7.43839e-06 -3.0036643e-05 -4.3884585e-05
0000c0 54 59 ae b7 00 00 00 00 68 09 5b b8 e8 19 03 3b
       -2.0784013e-05 0.0 -5.222243e-05 0.0020004455
0000d0 c4 33 73 3a 16 6b a9 b8 00 00 00 00 88 23 4f 35
       0.0009277428 -8.078494e-05 0.0 7.7165214e-07
0000e0 9e 0d db 35 35 b5 5a b7 29 44 8f 35 00 00 00 00
       1.6320735e-06 -1.3036003e-05 1.0674167e-06 0.0
0000f0 c5 91 c1 b6 fe 42 30 ba 28 54 8c 38 9a 35 ab b8
       -5.768818e-06 -0.000672385 6.6913955e-05 -8.1638995e-05
000100 00 00 00 00 22 95 9f 36 83 a0 51 bb ef f3 b3 3a
       0.0 4.7559306e-06 -0.0031986542 0.0013729314
000110 3c 41 bf b8 00 00 00 00 bd e7 4b b6 26 3d d8 b6
       -9.1197406e-05 0.0 -3.0384247e-06 -6.4444203e-06
000120 b7 4f 10 38 c4 41 0a b5 00 00 00 00 c8 bc 41 b6
       3.4406516e-05 -5.150471e-07 0.0 -2.8869126e-06
000130 31 92 3e ba 20 9d 1a b8 f9 bc 81 36 00 00 00 00
       -0.0007269709 -3.6862795e-05 3.866499e-06 0.0
000140 77 d0 12 37 c5 00 23 bb 50 3c 5d b8 fc 36 9c b8
       8.750815e-06 -0.0024872285 -5.2746676e-05 -7.448901e-05
000150 00 00 00 00 30 6f ac 33 50 b0 fd 34 ae 27 71 36
       0.0 8.029599e-08 4.7253207e-07 3.5934895e-06
000160 60 20 d4 b6 00 00 00 00 15 62 a1 b7 fc 05 9c ba
       -6.3218613e-06 0.0 -1.9238369e-05 -0.0011903639
000170 dc c7 16 3a c9 5f 10 b9 00 00 00 00 44 a2 55 35
       0.0005751827 -0.00013768593 0.0 7.958481e-07
000180 1c bc 86 36 d6 3f 2d b7 e7 12 bc 36 00 00 00 00
       4.01541e-06 -1.03264665e-05 5.605037e-06 0.0
000190 21 74 c1 b5 26 d9 9b 36 f7 8d c5 b6 11 c3 29 36
       -1.4413419e-06 4.6446394e-06 -5.8875844e-06 2.5296506e-06
0001a0 00 00 00 00 f8 59 45 34 60 14 b6 34 7d d5 1b b5
       0.0 1.8379785e-07 3.3914966e-07 -5.8052666e-07
0001b0 f7 69 05 35 00 00 00 00 be 41 39 b8 2f 38 4d 3c
       4.970056e-07 0.0 -4.4168664e-05 0.012525602
0001c0 d3 d9 0b bb ac 0f d0 39 00 00 00 00 d9 3f bc b6
       -0.002133955 0.00039684528 0.0 -5.6102695e-06
0001d0 5a e8 05 38 0c 5e 66 b7 76 5f 32 36 00 00 00 00
       3.1926065e-05 -1.3730965e-05 2.6579633e-06 0.0
0001e0 fe e8 07 37 c6 ca 1f ba 44 09 36 b9 62 29 6c 37
       8.100875e-06 -0.0006095584 -0.00017360324 1.4076331e-05
0001f0 00 00 00 00 30 e9 66 35 1c 86 38 3a f2 ae 5f b9
       0.0 8.602101e-07 0.0007039027 -0.0002133211
000200 58 3b fd 37 00 00 00 00 8c a0 94 b6 48 00 bb 38
       3.0187584e-05 0.0 -4.429434e-06 8.916907e-05
000210 61 c9 06 b9 10 e2 43 b5 00 00 00 00 3e 03 23 36
       -0.00012854255 -7.2972125e-07 0.0 2.429078e-06
000220 e8 37 19 bb b0 86 2d 38 3a 72 ca b8 00 00 00 00
       -0.002337927 4.137185e-05 -9.653387e-05 0.0
000230 26 af 6b 37 14 87 88 ba 20 bc 7e b8 c2 f2 03 b8
       1.4047871e-05 -0.0010416233 -6.0733524e-05 -3.145892e-05
000240 00 00 00 00 54 88 3e b4 c2 cb 45 3a 34 a7 24 37
       0.0 -1.7744725e-07 0.0007545316 9.814092e-06
000250 cb bd 3b 37 00 00 00 00 60 f4 3b b8 1b 03 e0 3a
       1.1190258e-05 0.0 -4.4811866e-05 0.0017090769
000260 53 7e 0f 3a 73 15 ab b8 00 00 00 00 f6 2d 82 37
       0.0005473841 -8.1579106e-05 0.0 1.551861e-05
000270 4c eb 99 39 16 a3 55 b9 4a 40 2f 38 00 00 00 00
       0.00029357744 -0.00020374017 4.1783125e-05 0.0
000280 0a a1 55 b5 61 37 f9 b6 0a de 0e 38 30 ae e0 b6
       -7.9583026e-07 -7.4272252e-06 3.406223e-05 -6.6959983e-06
000290 00 00 00 00 53 d9 59 36 09 06 b4 b6 a4 6f d9 36
       0.0 3.246202e-06 -5.3651206e-06 6.4801006e-06
0002a0 78 1e 47 b6 00 00 00 00 24 c8 cb b7 b5 fb 43 ba
       -2.9671046e-06 0.0 -2.4292684e-05 -0.0007476167
0002b0 a9 36 18 3a d6 f6 9e b8 00 00 00 00 d5 af 6f 34
       0.0005806485 -7.580004e-05 0.0 2.2322577e-07
0002c0 ab 72 7d 33 05 69 ed 34 47 18 ce 34 00 00 00 00
       5.9010443e-08 4.4221102e-07 3.8388154e-07 0.0
0002d0 c6 ed 5a b4 58 b7 57 b6 9c af 9d 36 ee 4e 4c b6
       -2.0389334e-07 -3.2144217e-06 4.6994082e-06 -3.0444312e-06
0002e0 00 00 00 00 b0 f2 33 b7 94 38 7b 36 42 6a 28 37
       0.0 -1.07257365e-05 3.7434847e-06 1.003832e-05
0002f0 97 6b ab b7 00 00 00 00 98 2c 88 36 5c d8 9f ba
       -2.0434889e-05 0.0 4.0583072e-06 -0.0012195217
000300 78 bf c2 38 9e ab 85 b8 00 00 00 00 32 95 2c b7
       9.286305e-05 -6.3739004e-05 0.0 -1.0286736e-05
000310 30 e6 9a b9 de 12 89 39 5a da b1 37 00 00 00 00
       -0.00029544672 0.00026144733 2.1201722e-05 0.0
000320 39 f4 8f b5 ae f4 52 b6 3d 1d 52 37 24 55 69 b6
       -1.0725408e-06 -3.143486e-06 1.2523783e-05 -3.4769264e-06
000330 00 00 00 00 8c be 2b 38 55 c7 0a 3a c8 39 f2 ba
       0.0 4.0947038e-05 0.0005293985 -0.0018480355
000340 c2 d9 67 39 00 00 00 00 21 97 19 37 d0 ba 31 b9
       0.00022110998 0.0 9.154698e-06 -0.00016949628
000350 d4 da 1c b8 62 28 9d 37 00 00 00 00 97 e8 d5 33
       -3.7397098e-05 1.8734663e-05 0.0 9.960893e-08
000360 74 ad 6f b4 8b 0a 01 b6 08 f5 a4 33 00 00 00 00
       -2.2321711e-07 -1.9228635e-06 7.681416e-08 0.0
000370 1f 66 c5 37 66 d4 c9 b8 46 cc b6 b9 c6 e7 b5 37
       2.3531784e-05 -9.623989e-05 -0.0003486594 2.168481e-05
000380 00 00 00 00 24 66 8c 34 00 1b 2e 31 f9 8b 78 b4
       0.0 2.615135e-07 2.533568e-09 -2.3147722e-07
000390 04 d5 43 34 00 00 00 00 1e b5 84 b7 cf 39 ad b7
       1.8238285e-07 0.0 -1.5819965e-05 -2.0650126e-05
0003a0 87 25 5d 39 c2 e1 1f b8 00 00 00 00 68 af e6 35
       0.00021090182 -3.8118807e-05 0.0 1.7187385e-06
0003b0 96 05 ce 3a 00 54 ca b5 57 f5 97 38 00 00 00 00
       0.0015718217 -1.507462e-06 7.245939e-05 0.0
0003c0 4a ce ad 37 ca b4 27 ba 8b a5 59 ba 4b 40 00 38
       2.0719268e-05 -0.0006397484 -0.0008302561 3.0577456e-05
0003d0 00 00 00 00 3c 5f ce b7 60 36 19 3b 9c 51 ac 39
       0.0 -2.460146e-05 0.0023378357 0.000328672
0003e0 c0 7c d2 b5 00 00 00 00 12 be ae b6 e0 54 42 ba
       -1.5682526e-06 0.0 -5.207731e-06 -0.000741316
0003f0 6c 08 25 3a 08 d6 08 38 00 00 00 00 f8 0f 8a 37
       0.00062955054 3.262426e-05 0.0 1.6458318e-05

exp_avg_sq f4 [128, 5]
000000 76 4b a0 2f 69 04 90 39 96 34 0c 37 c5 69 26 34
       2.915745e-10 0.00027469106 8.356894e-06 1.5498433e-07
000010 00 00 00 00 5f 94 a0 31 5e 88 9e 33 f4 41 af 36
       0.0 4.6734807e-09 7.3822534e-08 5.2230844e-06
000020 03 8b af 33 00 00 00 00 8b 99 99 30 42 e3 49 32
       8.1743586e-08 0.0 1.1175855e-09 1.1751412e-08
000030 ac 12 19 35 54 77 82 32 00 00 00 00 7c 07 b7 30
       5.702411e-07 1.5188256e-08 0.0 1.331713e-09
000040 54 99 09 38 0b 60 23 37 da 5d 38 34 00 00 00 00
       3.2806143e-05 9.737919e-06 1.7170478e-07 0.0
000050 c2 cc cf 2f f0 bc 5e 3b 09 93 58 38 c7 c1 89 35
       3.779857e-10 0.0033987127 5.163535e-05 1.0263692e-06
000060 00 00 00 00 02 4f ea 31 f1 f7 5c 37 4f 84 5b 37
       0.0 6.8192785e-09 1.317075e-05 1.3084223e-05
000070 b8 2e 83 34 00 00 00 00 ae fd ef 31 61 49 9e 38
       2.4434644e-07 0.0 6.9846555e-09 7.547695e-05
000080 b5 4b f3 37 94 05 0f 35 00 00 00 00 2d 9a 74 2c
       2.9003111e-05 5.327977e-07 0.0 3.476007e-12
000090 91 9f 32 2d b2 e5 80 2e c2 09 8f 2e 00 00 00 00
       1.0153559e-11 5.861568e-11 6.5046205e-11 0.0
0000a0 f1 31 18 31 3f f7 e3 39 c0 93 3c 37 a1 96 62 34
       2.21473e-09 0.00043481027 1.1240074e-05 2.1102689e-07
0000b0 00 00 00 00 ea 06 0e 30 f5 a8 c4 31 ee 63 9a 34
       0.0 5.1669125e-10 5.723559e-09 2.8757444e-07
0000c0 0c fc 52 32 00 00 00 00 13 27 4e 32 39 7c 87 3a
       1.2280918e-08 0.0 1.1999663e-08 0.0010336704
0000d0 71 03 16 38 3d 70 30 35 00 00 00 00 4e 02 bf 2a
       3.5765992e-05 6.572844e-07 0.0 3.3930015e-13
0000e0 3e bc 42 2c e7 5b f8 2d 4f 59 e8 2c 00 00 00 00
       2.7673554e-12 2.8235149e-11 6.603752e-12 0.0
0000f0 69 2d 32 30 02 05 a5 37 71 de b3 36 79 f6 e4 33
       6.4820554e-10 1.9671865e-05 5.3605113e-06 1.06619105e-07
000100 00 00 00 00 b1 48 97 2d c3 92 84 3b aa 3b 31 38
       0.0 1.7198994e-11 0.0040458157 4.2255655e-05
000110 6a 24 62 35 00 00 00 00 54 b7 7f 2e 2d fa 45 30
       8.424455e-07 0.0 5.8143115e-11 7.2023704e-10
000120 28 54 68 33 f7 68 5b 30 00 00 00 00 3b 67 f9 2b
       5.409325e-08 7.98209e-10 0.0 1.7721166e-12
000130 ff fb 07 39 7c c8 93 35 58 a1 bd 32 00 00 00 00
       0.00012968479 1.1010702e-06 2.2075866e-08 0.0
000140 b8 20 9b 31 a2 6e ad 3a 13 d7 28 38 1e 86 55 35
       4.5148134e-09 0.0013231824 4.0254625e-05 7.954385e-07
000150 00 00 00 00 98 50 ec 2a 2f 15 23 2f b6 54 74 2c
       0.0 4.1977945e-13 1.483229e-10 3.472151e-12
000160 6a 9d 91 2d 00 00 00 00 f4 3f 2c 30 c9 b3 33 3a
       1.6554497e-11 0.0 6.266412e-10 0.0006855098
000170 f9 aa 50 37 28 fa 87 34 00 00 00 00 95 08 dd 2b
       1.2437574e-05 2.5327722e-07 0.0 1.5705376e-12
000180 41 32 8e 2f cd f0 13 2f 9c 64 b9 2d 00 00 00 00
       2.5865357e-10 1.3455122e-10 2.1076745e-11 0.0
000190 3f 73 75 2b d9 c6 43 2d 45 12 d7 2c a1 a5 f2 2d
       8.720142e-13 1.112862e-11 6.112696e-12 2.7585769e-11
0001a0 00 00 00 00 04 88 44 28 f8 8c 49 29 0d 76 83 29
       0.0 1.0909679e-14 4.4753236e-14 5.838047e-14
0001b0 08 3a 4e 2a 00 00 00 00 79 06 db 32 41 7e 94 39
       1.8316609e-13 0.0 2.5497899e-08 0.00028322826
0001c0 30 7c c0 38 bf 00 e2 35 00 00 00 00 83 a6 5a 2f
       9.178405e-05 1.6838529e-06 0.0 1.9886141e-10
0001d0 c7 f2 14 31 f9 ca 47 34 ec c2 37 31 00 00 00 00
       2.1674837e-09 1.860716e-07 2.6740805e-09 0.0
0001e0 e3 46 f6 2f e9 d9 e3 36 21 54 45 35 d5 e2 69 32
       4.4797507e-10 6.7904953e-06 7.351064e-07 1.3613961e-08
0001f0 00 00 00 00 15 73 61 2e 5d 6a 09 38 8e b2 a3 35
       0.0 5.126129e-11 3.2762404e-05 1.2196413e-06
000200 8b ae c1 32 00 00 00 00 43 3a 07 2f 5d 57 d5 32
       2.254753e-08 0.0 1.2298877e-10 2.4836192e-08
000210 de 88 73 34 fa f0 90 31 00 00 00 00 84 76 8f 30
       2.268093e-07 4.2183474e-09 0.0 1.0438304e-09
000220 2f a1 22 3b a4 60 3e 38 e5 31 68 35 00 00 00 00
       0.0024815311 4.5389534e-05 8.649934e-07 0.0
000230 fb 54 e3 30 11 3c 55 3a 33 a2 a8 37 38 bb cc 34
       1.6540577e-09 0.0008134256 2.010269e-05 3.813418e-07
000240 00 00 00 00 42 a6 a5 2b e9 1f 38 36 e7 cb e5 32
       0.0 1.1770101e-12 2.743671e-06 2.6751833e-08
000250 84 92 c6 2f 00 00 00 00 76 b9 72 32 96 df 88 37
       3.6120096e-10 0.0 1.4128423e-08 1.6316579e-05
000260 2a fb d1 37 62 4b 02 35 00 00 00 00 61 53 e2 30
       2.5031699e-05 4.853847e-07 0.0 1.6467362e-09
000270 86 a7 13 38 2f 86 25 36 a0 69 61 33 00 00 00 00
       3.520355e-05 2.466502e-06 5.248296e-08 0.0
000280 8e 3a e6 2c 32 37 42 2e a5 31 bf 31 76 58 ab 2e
       6.543494e-12 4.4159516e-11 5.5644755e-09 7.7918935e-11
000290 00 00 00 00 c7 7f 2a 2c dd 84 71 2e 6d 16 95 2d
       0.0 2.4229384e-12 5.4915062e-11 1.6949298e-11
0002a0 48 4c ca 2e 00 00 00 00 f5 1e 6a 30 1a ef 81 38
       9.199447e-11 0.0 8.5172697e-10 6.1957355e-05
0002b0 fd f2 e6 35 a3 49 f3 32 00 00 00 00 e3 85 f6 28
       1.7207054e-06 2.832241e-08 0.0 2.736955e-14
0002c0 3f ee 12 2a 3d fe 45 2a c2 b8 12 2b 00 00 00 00
       1.3050063e-13 1.7585321e-13 5.212602e-13 0.0
0002d0 49 e8 1c 2a ea c0 8e 2d a2 99 b1 2e 68 5e a5 2c
       1.3936173e-13 1.6229202e-11 8.076319e-11 4.7000633e-12
0002e0 00 00 00 00 40 9a 19 2f 68 93 0b 31 cc fe 32 34
       0.0 1.397007e-10 2.0310953e-09 1.6670236e-07
0002f0 96 71 21 31 00 00 00 00 00 36 93 30 cb 2d 33 3a
       2.349315e-09 0.0 1.0711005e-09 0.0006835132
000300 ab 08 93 37 d1 96 b9 34 00 00 00 00 79 c0 3f 30
       1.7527802e-05 3.456867e-07 0.0 6.9758915e-10
000310 c4 16 80 37 59 58 b6 36 6c 68 af 33 00 00 00 00
       1.526939e-05 5.4343077e-06 8.168067e-08 0.0
000320 67 e0 af 2a 4d 6b 07 2c 3a f4 08 2e ac f2 a0 2c
       3.1241955e-13 1.9244218e-12 3.1139737e-11 4.5744155e-12
000330 00 00 00 00 08 7c ec 31 fb bc 92 34 45 61 12 37
       0.0 6.8826047e-09 2.733212e-07 8.7249255e-06
000340 89 c9 28 34 00 00 00 00 ce f2 cb 2d f1 13 42 37
       1.5719537e-07 0.0 2.3186255e-11 1.1567944e-05
000350 c0 3a 6f 34 5b 54 62 31 00 00 00 00 5d ac 42 28
       2.2279983e-07 3.293528e-09 0.0 1.0806539e-14
000360 2e ae 95 2a ab b4 48 2b d7 bf d4 29 00 00 00 00
       2.6588578e-13 7.1305e-13 9.44797e-14 0.0
000370 73 ee 29 31 da 68 fd 33 97 8d 48 36 95 86 64 33
       2.472828e-09 1.1800303e-07 2.9884739e-06 5.320779e-08
000380 00 00 00 00 0a 4e 16 29 4c 94 6d 2c f4 45 0b 2a
       0.0 3.337438e-14 3.3762047e-12 1.236995e-13
000390 8f f9 26 2b 00 00 00 00 c9 f4 40 2f 51 22 b5 30
       5.932138e-13 0.0 1.7549263e-10 1.3179237e-09
0003a0 55 d0 2c 34 0c 2b 2e 31 00 00 00 00 f6 39 35 30
       1.6094539e-07 2.5344802e-09 0.0 6.5929784e-10
0003b0 d4 5e 1e 3a 98 0c 88 37 cf 0c a5 34 00 00 00 00
       0.0006041352 1.6218328e-05 3.0742964e-07 0.0
0003c0 2e e4 9b 31 c4 66 12 3a ef f6 bc 37 9c 9b ec 34
       4.5370347e-09 0.0005584771 2.2526334e-05 4.4071646e-07
0003d0 00 00 00 00 a4 a9 55 31 5b a2 81 3a e2 1c 9d 37
       0.0 3.109201e-09 0.0009890305 1.8729308e-05
0003e0 50 a0 be 34 00 00 00 00 04 51 a0 30 59 e4 bf 37
       3.55069e-07 0.0 1.1664558e-09 2.2875307e-05
0003f0 a0 ef 05 37 5d be 26 34 00 00 00 00 6a 72 e4 2e
       7.98321e-06 1.5529208e-07 0.0 1.03885636e-10

exp_avg f4 [128]
000000 54 a2 fa 36 a1 7c 15 b7 bb 62 0b 37 6f 5e a5 b7
       7.469478e-06 -8.9101095e-06 8.308033e-06 -1.9713507e-05
000010 cd 56 3c b8 d2 54 ea 37 10 fd 2c 36 d6 a2 ab 36
       -4.4903532e-05 2.7934471e-05 2.57773e-06 5.1151537e-06
000020 80 5e 39 36 b6 45 1a b7 9c f1 cb 36 6d 2f b3 35
       2.7622154e-06 -9.195346e-06 6.0779985e-06 1.3350342e-06
000030 29 50 a9 b7 21 0f 34 b8 27 fe d7 34 3a c0 c3 b5
       -2.0183697e-05 -4.2929434e-05 4.023179e-07 -1.4584577e-06
000040 90 91 0f b8 f5 a3 96 b5 7e 79 dc b7 ed 6f db 35
       -3.4229422e-05 -1.1223589e-06 -2.6282618e-05 1.6349346e-06
000050 ba e6 b2 34 c7 77 82 34 46 0f 1f 39 82 b2 4b 36
       3.332296e-07 2.4301536e-07 0.00015169111 3.0353262e-06
000060 b8 b6 a1 b4 59 86 5c 37 4b b0 9d 36 ca 95 dc b7
       -3.0121532e-07 1.3144302e-05 4.699488e-06 -2.6295795e-05
000070 aa dc 5a b7 19 5a 9e 36 0c 39 b4 37 c0 c8 99 b5
       -1.304519e-05 4.7192557e-06 2.1484237e-05 -1.1457814e-06
000080 94 a1 93 b6 f8 91 01 34 cb 51 9c b7 9a 34 d6 33
       -4.3997516e-06 1.2067164e-07 -1.8634737e-05 9.97472e-08
000090 67 80 96 b5 48 0a 0f b6 f0 ec d3 b7 e0 53 0a b6
       -1.1213241e-06 -2.1314645e-06 -2.5263493e-05 -2.0612424e-06
0000a0 06 00 0b b6 5f e7 5e 38 ae 5e 0f 37 f5 09 ef 33
       -2.0712628e-06 5.3144406e-05 8.5455085e-06 1.1131116e-07
0000b0 29 78 d6 b6 c6 50 14 34 28 46 f6 b6 ec 3a 9a 37
       -6.3916855e-06 1.381296e-07 -7.3395386e-06 1.8385668e-05
0000c0 e0 86 63 b5 44 9f 84 37 40 f6 f4 b4 8a ad 10 38
       -8.476036e-07 1.580979e-05 -4.5627712e-07 3.4493896e-05
0000d0 fd 6b ee 34 04 e7 fb 37 0b 5b 01 b5 40 49 6c b8
       4.4409526e-07 3.0029107e-05 -4.818873e-07 -5.6335004e-05
0000e0 2c 41 91 b8 ac 03 bd b4 ae e2 e6 b4 98 bd 0c b7
       -6.926278e-05 -3.5206665e-07 -4.300577e-07 -8.3887935e-06
0000f0 00 68 09 33 37 3a ca 37 68 87 4f 35 ba 2e 1d 36
       3.1992386e-08 2.4107385e-05 7.731055e-07 2.3422022e-06
000100 0e 8e a9 b7 d5 71 92 35 dd cc 14 b5 64 1f e5 37
       -2.021252e-05 1.0910977e-06 -5.543241e-07 2.7313545e-05
000110 a7 6f d8 37 63 21 a0 35 9a 89 6c b5 e9 30 14 b8
       2.5801199e-05 1.1930646e-06 -8.811709e-07 -3.53315e-05
000120 b0 1e 02 36 89 15 cc b7 c5 1e 1b 38 e8 ce a8 37
       1.9389372e-06 -2.4328723e-05 3.6983536e-05 2.0123509e-05
000130 1e 0f ad b7 4e be 9a 37 b6 59 eb 36 c9 ca 8d b6
       -2.0630247e-05 1.8446848e-05 7.0139895e-06 -4.2257348e-06
000140 6a b9 4e b8 40 d0 7a 38 1a d8 84 37 21 f2 99 35
       -4.9286908e-05 5.9798593e-05 1.5836256e-05 1.1469857e-06
000150 76 6a 4d b8 56 2d a3 b7 a0 6c 6a 38 4d 2f f6 35
       -4.897496e-05 -1.9452225e-05 5.5891112e-05 1.8342195e-06
000160 d4 3a 5d b6 50 06 39 37 ac 21 67 37 ca b1 aa 36
       -3.2965809e-06 1.1028329e-05 1.3776513e-05 5.087092e-06
000170 ea 37 7a 36 12 b7 63 b7 88 be 3e 35 ae 89 f6 b7
       3.728545e-06 -1.3572879e-05 7.1057775e-07 -2.9389597e-05
000180 f4 a3 69 b7 bf 3f 65 37 b8 c1 48 36 0e 0a 8e b8
       -1.39260555e-05 1.3664306e-05 2.9915082e-06 -6.7729605e-05
000190 7d 4e 51 b8 48 02 4f b6 bc d9 b8 b7 86 a5 23 37
       -4.990258e-05 -3.0846732e-06 -2.20359e-05 9.754096e-06
0001a0 00 24 41 b4 94 dc 3b b8 97 37 9e b6 92 27 68 37
       -1.7987622e-07 -4.4789704e-05 -4.7152384e-06 1.3837491e-05
0001b0 64 87 90 37 52 d5 b6 36 c0 96 82 34 4a a5 5b 36
       1.7229184e-05 5.4488564e-06 2.4324072e-07 3.2729754e-06
0001c0 09 47 17 37 14 93 cd b6 cd 80 1a b8 d7 c6 14 37
       9.0168405e-06 -6.1265982e-06 -3.6836416e-05 8.867783e-06
0001d0 d2 d4 fa b5 49 e2 4a 37 c5 77 9b b7 fb c7 23 38
       -1.868839e-06 1.2092824e-05 -1.8533212e-05 3.9048475e-05
0001e0 b5 37 c4 b4 a4 ca 80 b7 2a 3e 5c b7 ec cc 8a 34
       -3.6548377e-07 -1.5353151e-05 -1.3127496e-05 2.5853603e-07
0001f0 6a ab e6 37 07 04 dc 36 72 3d b7 b6 38 b1 e0 37
       2.7497957e-05 6.5569798e-06 -5.460978e-06 2.6785405e-05

exp_avg_sq f4 [128]
000000 e3 46 8d 32 9f fd 2c 32 2d d3 b3 30 02 9b 9d 32
       1.6446796e-08 1.0069384e-08 1.3083984e-09 1.8347695e-08
000010 d8 65 e5 33 01 eb d8 32 8a 1d 6b 33 81 da 91 2c
       1.0682169e-07 2.5252577e-08 5.4742067e-08 4.1454067e-12
000020 82 66 c1 32 a7 55 54 30 1e a4 98 33 f2 d6 17 2b
       2.2514772e-08 7.724687e-10 7.107904e-08 5.3944273e-13
000030 74 2f 2e 32 3b ad bf 33 2c c1 f5 2e 53 4d 22 31
       1.0138923e-08 8.925641e-08 1.1175624e-10 2.3618056e-09
000040 77 5e ab 33 06 43 a2 2b 50 e4 dc 32 ba d9 1c 2c
       7.979991e-08 1.1529395e-12 2.5715195e-08 2.2289796e-12
000050 5f 5c d0 2b dc 75 8a 28 1e b6 3c 34 48 e8 c4 2f
       1.4804927e-12 1.5372191e-14 1.7575118e-07 3.5817238e-10
000060 88 a6 c7 30 a2 5b 22 31 f5 3d f7 2f 22 ff c5 33
       1.4526487e-09 2.362619e-09 4.497306e-10 9.219936e-08
000070 11 3d 2c 33 e2 a7 b7 2e 8a eb 52 33 32 cb a7 31
       4.010241e-08 8.3516985e-11 4.9108657e-08 4.8834403e-09
000080 28 32 63 2d 3e e2 bf 2c 62 0e 69 31 80 2e 31 29
       1.2914593e-11 5.4536644e-12 3.3914138e-09 3.9342227e-14
000090 41 c1 0a 2b 7c 95 bb 2f d4 63 15 33 79 83 28 32
       4.929564e-13 3.4121317e-10 3.478256e-08 9.8087805e-09
0000a0 7e 37 14 2b 0d 15 94 32 11 ff bd 2f 79 d3 c3 28
       5.2657173e-13 1.723904e-08 3.4560135e-10 2.174106e-14
0000b0 9a 01 cf 31 91 f6 6b 29 ce 09 b8 2f 34 ca 09 33
       6.024675e-09 5.2394344e-14 3.3476372e-10 3.20817e-08
0000c0 08 4d 40 33 a4 ee 24 33 02 83 7e 32 d8 5d b4 33
       4.4773543e-08 3.8401268e-08 1.4814534e-08 8.398973e-08
0000d0 68 ff 8e 2c 38 1d 44 32 2d 0c 88 2b ab 74 26 34
       4.0642385e-12 1.1415345e-08 9.666761e-13 1.5502398e-07
0000e0 c7 2d dd 33 a7 b6 80 30 bb 8c 07 2b f0 29 d0 30
       1.0299441e-07 9.365139e-10 4.815694e-13 1.5145911e-09
0000f0 0b d9 81 33 58 7a d9 31 20 74 80 32 f6 54 8c 2c
       6.0465105e-08 6.32944e-09 1.4953969e-08 3.988472e-12
000100 0e 44 44 33 b6 a6 6d 2c b2 3e 89 2a c0 66 66 33
       4.56967e-08 3.3772269e-12 2.4379592e-13 5.36445e-08
000110 6e 0f 8f 31 21 4c 1f 2e 18 77 89 29 8c b6 71 33
       4.163602e-09 3.622003e-11 6.1046816e-14 5.627821e-08
000120 dd 9c d1 31 bf 35 33 32 70 52 9b 33 ef 4d d6 32
       6.100534e-09 1.0431392e-08 7.232745e-08 2.4948319e-08
000130 85 27 ca 31 90 5a 99 32 5c 54 d1 31 6a 95 33 30
       5.8834666e-09 1.7852727e-08 6.092291e-09 6.533215e-10
000140 70 f2 dc 33 8f f9 4a 34 55 0c ed 32 83 11 1d 30
       1.02886474e-07 1.8903505e-07 2.759604e-08 5.7141153e-10
000150 fb 08 fe 32 9d 91 d5 33 33 b8 2a 34 2b 4c 64 2c
       2.9573576e-08 9.945072e-08 1.5899495e-07 3.244303e-12
000160 98 56 c9 2f 13 50 3f 31 1b d1 20 33 84 fc 64 31
       3.6623216e-10 2.7839675e-09 3.7443083e-08 3.3321905e-09
000170 19 23 dd 2e 6e a6 62 33 69 e2 2e 2c 10 fb ef 33
       1.0056151e-10 5.2771092e-08 2.485257e-12 1.1174973e-07
000180 22 69 a3 33 9a 8a a8 31 49 31 64 33 42 f4 05 34
       7.6094025e-08 4.9052007e-09 5.313021e-08 1.2475451e-07
000190 9b 9b a0 33 69 47 b5 32 96 48 11 32 f3 41 a8 2e
       7.478885e-08 2.1103647e-08 8.456615e-09 7.6514704e-11
0001a0 80 6f 5d 2d 0a bc 10 34 66 4c 2c 32 d4 d4 0f 32
       1.25871535e-11 1.3479453e-07 1.0029089e-08 8.372087e-09
0001b0 3f 33 e6 31 6c 9a 91 2f 15 85 4d 32 c9 fc d2 2f
       6.699707e-09 2.648507e-10 1.196283e-08 3.8378392e-10
0001c0 71 7d 30 32 f6 7b d6 33 b1 5f dc 33 13 d6 2f 31
       1.027307e-08 9.9877e-08 1.02619545e-07 2.5587539e-09
0001d0 88 b2 45 2b b0 c9 5a 2f cf f9 90 32 05 b5 17 34
       7.023622e-13 1.9898638e-10 1.6877406e-08 1.4128825e-07
0001e0 4b 6b 29 29 ef d5 9b 32 8a f6 bb 31 4a 7b 92 2b
       3.76186e-14 1.814166e-08 5.4704445e-09 1.0408144e-12
0001f0 74 e7 71 33 8b 71 a1 31 8d 18 95 2e b6 b0 5c 33
       5.632269e-08 4.698625e-09 6.7800966e-11 5.138346e-08
