results/test2/EndLessRunnerBehaviour/EndLessRunnerBehaviour-23524.pt (torch, 437557 bytes, 30 tensors)

network_body._body_endoder.seq_layers.0.weight f4 [128, 5]
000000 4c e1 27 3e ba 8d 9e 3e bc 39 32 be d5 d2 07 3e
       0.16394538 0.30967504 -0.17404836 0.1326402
000010 d1 3d 9e 3e 6d ca e8 3e 9b 84 04 bf 44 19 72 be
       0.30906537 0.4546694 -0.5176484 -0.2364245
000020 ea 8a 10 3f 61 84 26 3e af b0 20 3f 15 22 00 3f
       0.56461966 0.16261436 0.627696 0.50052005
000030 5d d3 f0 3e a7 f8 cf 3d 1b cd c0 be 66 65 3b be
       0.47036257 0.101548485 -0.37656483 -0.18300399
000040 5d c8 49 3e a7 1c bc be 15 e9 af 3d 14 ba 02 be
       0.19705339 -0.3674061 0.08589379 -0.12766296
000050 62 ae 4c 3e dc cc 64 3e f7 b3 4e be 9b 1e 0a bf
       0.19988397 0.22343773 -0.20185839 -0.5395295
000060 7c 24 2d 3d 16 87 33 3e 04 9a 83 bf 80 3a 7e be
       0.042271122 0.17532 -1.0281377 -0.24827003
000070 7a 88 2c bf 36 dd 3d be 04 96 99 3e 4e 5f 3c bf
       -0.67395747 -0.18541417 0.29997265 -0.73582923
000080 06 45 43 be 99 9c 48 bf 7e 7a 5a 3f 24 7f 1e bf
       -0.19069299 -0.7836395 0.8534316 -0.6191275
000090 23 5b e2 3e ad dc 57 be 24 fd 51 be 53 cc 53 bd
       0.44210157 -0.21080275 -0.20506722 -0.05170853
0000a0 8d ed 5b 3e ef 18 10 be a5 63 e2 be 1b 09 f7 bc
       0.21477337 -0.14072011 -0.44216648 -0.030155709
0000b0 97 ef ee 3e 13 f7 8e bf 5e ce 8c 3e 79 4c da 3e
       0.46667168 -1.1169151 0.27501196 0.4263647
0000c0 40 29 ce be 38 73 5e be 06 1f 9d be e1 8b da bd
       -0.40265846 -0.2172364 -0.30687732 -0.10671211
0000d0 7c 7c a0 3d c0 1e d4 be 56 e3 df 3e a0 f8 b5 3d
       0.078362435 -0.4142971 0.4372813 0.08885312
0000e0 f5 d9 b0 bd 29 7f 42 be 17 3d 6c 3f 51 ba 85 3e
       -0.08635322 -0.1899382 0.92280716 0.2611871
0000f0 75 5c fb be 86 90 5c 3f 32 bb b8 3e 57 09 09 be
       -0.49093977 0.86158025 0.3608032 -0.13382469
000100 bd 39 be be 70 e8 7c be a3 fd 0a bf 60 c2 1b 3f
       -0.37153426 -0.24698043 -0.5429327 0.6084347
000110 a3 05 fb 3d d8 4d 18 bf f8 bf 23 be 9f 05 98 be
       0.122569345 -0.5949378 -0.15991199 -0.2969179
000120 ba 69 67 be ef 8e 73 3f d5 4a d5 bd 09 eb f0 be
       -0.22598925 0.95139974 -0.10414664 -0.47054318
000130 f1 63 81 3e 3c 60 51 3c f4 f5 11 3f 89 e2 62 3f
       0.25271562 0.012779292 0.5701592 0.88626915
000140 51 61 bb be eb 8c ef 3e be eb 4e be 37 50 07 bf
       -0.36597684 0.467872 -0.20207116 -0.52856773
000150 ff 98 2d bf f8 ad 1a 3d af 00 0b 3f 6e 7f 5d 3e
       -0.6781158 0.037763566 0.5429792 0.21630642
000160 ab c7 d4 3e c0 17 2b be cf 9e fd 3e 0e 21 82 3e
       0.41558585 -0.16708279 0.49535224 0.25415844
000170 f6 ad ee 3d c0 48 9c 3e 4f 33 35 3f 2e f1 10 3f
       0.11654274 0.30524254 0.70781416 0.5661801
000180 8d 99 bb be ad 33 19 3e 79 d3 e3 be f8 43 ba 3e
       -0.36640587 0.14961119 -0.44497278 0.3637998
000190 53 17 6a 3e 17 bd 1a be 19 6a 4b 3f 12 d4 b7 3d
       0.2286046 -0.15111195 0.7945877 0.08975996
0001a0 d5 55 4b be ac d8 66 bf a1 d2 6c be 18 15 74 3f
       -0.19856961 -0.90174365 -0.23127224 0.95344687
0001b0 45 15 0d 3f 6d 66 36 3d 29 32 4e be 03 63 e2 3d
       0.5511058 0.044531275 -0.20136322 0.11054041
0001c0 52 ee a6 bc ee 59 1e 3d 48 bc 4b 3d 80 47 e3 be
       -0.020377312 0.038659982 0.049740106 -0.44390488
0001d0 11 11 99 bf 52 4a 97 bf c9 3f 2a 3f 0d c8 87 bd
       -1.1958333 -1.1819556 0.6650358 -0.066299535
0001e0 46 d2 56 3f 02 c0 b2 3e 4b 61 22 be ef 4c 1f 3f
       0.839146 0.34912115 -0.15857427 0.62226766
0001f0 b6 b8 0f be e3 12 81 3e 56 d1 45 be 5f ff 2c 3f
       -0.14035305 0.25209722 -0.19318137 0.67577165
000200 f8 92 23 bf 79 95 92 3d b5 35 b6 3d 23 02 d3 3e
       -0.6389613 0.07157416 0.088969626 0.41212568
000210 6e ae 80 be 2f 12 55 bd 47 74 d5 3e ca db c7 3d
       -0.2513308 -0.052019294 0.41690275 0.09758718
000220 f4 34 c8 be 9f 8f b3 3e 74 d3 1f 3e a0 ad 4e be
       -0.391029 0.35070512 0.15608007 -0.2018342
000230 1f f4 95 bd de 32 ff be 81 91 b9 3e 79 84 28 3e
       -0.07321953 -0.49843496 0.36243823 0.16456784
000240 c9 29 92 be 70 5b 9e be 14 09 b9 be 88 b4 0a bf
       -0.28547505 -0.30929136 -0.3613974 -0.5418172
000250 2f 42 ac 3e e8 35 35 bf 17 4b c6 be 93 94 1b bd
       0.33644244 -0.7078538 -0.38729164 -0.03798349
000260 36 2f a2 be 5c 9d c5 3d ce c6 05 3f 80 df a2 3e
       -0.31676644 0.096491545 0.52256477 0.31811142
000270 17 2d 2a be 57 2b df bc 17 1c 1e bf 00 a4 d4 be
       -0.16618763 -0.027242346 -0.6176161 -0.41531372
000280 9b 4b c1 be d2 e4 e4 bd 0e d5 12 be d3 90 94 3e
       -0.37752995 -0.111764565 -0.14339086 0.29016742
000290 b4 9a 93 be 6d ca 34 3f 0b b0 a6 3e 3a 3f 15 3f
       -0.28828967 0.7062138 0.32556185 0.582996
0002a0 54 fc 2f bc 40 91 81 3f 25 b2 70 3f c0 b7 bf be
       -0.010741312 1.0122452 0.94021827 -0.37444878
0002b0 2c d8 2c bf 2d 8c cd be 95 49 f5 be 53 4b d6 be
       -0.6751735 -0.40146008 -0.479077 -0.41854343
0002c0 b0 22 93 3e f9 27 20 bf d8 18 32 bf a4 ca b8 be
       0.28737402 -0.62560993 -0.6956916 -0.36092103
0002d0 af eb c1 bd ca 84 b1 bd 0e 88 f1 3d 34 7c ca be
       -0.09468781 -0.08667906 0.117935285 -0.39547884
0002e0 29 68 c5 3d 4c 79 e1 3c d3 7e 44 3e ef 05 c9 3e
       0.096390076 0.02752366 0.19189005 0.3926234
0002f0 0f 98 34 bf c3 8e 34 3f cb d8 1b 3e 2d f9 a2 be
       -0.70544523 0.7053034 0.15219419 -0.3183073
000300 e7 7b cd bc 2c b8 8c bc 6e 15 8e 3c 13 d5 14 be
       -0.025083495 -0.017177664 0.017344203 -0.14534406
000310 ec 60 69 bf 5b cf db 3d 82 b0 0e 3f 84 07 b4 3e
       -0.91163516 0.10732909 0.5573808 0.35161984
000320 14 52 d0 3e 2e be 4a 3e 01 62 6f 3e 7c 54 34 bd
       0.4068762 0.1979911 0.2337723 -0.044025883
000330 71 00 88 bd b9 bb a2 be 85 92 a0 be 04 bd af be
       -0.06640709 -0.31783846 -0.31361786 -0.34323895
000340 3e 3e da 3d ad 15 28 bf 60 51 cb 3e 4c 6c 1f 3f
       0.10656403 -0.65658075 0.39710522 0.6227462
000350 1f d5 24 3f 0a 60 0a be 01 7f fd 3b 03 16 c8 3e
       0.64387697 -0.13513198 0.0077360873 0.39079294
000360 10 38 37 3e a9 7f cf 3e e4 07 1e bf 33 ba 09 3f
       0.1789248 0.40527084 -0.6173079 0.5379974
000370 f7 9d 60 3e 14 00 cd 3d 7e 05 ec bd a2 07 0f bf
       0.21935259 0.100097805 -0.11524485 -0.5587102
000380 1d 12 c7 be 6e c0 3b 3f 8f 4a 91 3e 4c a4 49 bc
       -0.38881007 0.733405 0.28377196 -0.012307238
000390 50 9f 13 bf 82 75 bb 3d 98 cd 42 3e 5b 8f e5 3e
       -0.57664967 0.09153272 0.1902374 0.44835934
0003a0 2a a5 31 3f 1e fb e5 3e f7 3f 0a 3f a5 f2 53 be
       0.69392645 0.4491815 0.5400385 -0.2069803
0003b0 6e 97 40 be 73 4a 1e 3d e7 e6 24 3d 91 04 a1 be
       -0.18807766 0.03864522 0.040259268 -0.31448796
0003c0 70 a2 57 3e 44 a3 76 3f a1 54 12 3e 05 90 24 bf
       0.21058059 0.96342874 0.14290096 -0.64282256
0003d0 85 e9 30 3e 4a b0 c6 be b3 be e4 3e 4e df d8 3c
       0.1727658 -0.38806373 0.44676742 0.026473667
0003e0 f3 d8 57 be 41 aa fc bd 90 ee 95 bd 2e 2a 0d be
       -0.21078853 -0.12337161 -0.07320893 -0.13785622
0003f0 f4 49 ed be 12 79 37 bf 8a 40 b6 3e fe dc c0 3c
       -0.46345484 -0.71669114 0.35596114 0.023542877

network_body._body_endoder.seq_layers.0.bias f4 [128]
000000 49 67 66 b9 94 00 0a bb 92 d8 1a 3a 82 16 5c ba
       -0.00021972986 -0.0021057473 0.0005906905 -0.0008395688
000010 d2 8e da b7 a4 ab b9 b9 b8 a0 b1 39 1d 53 d2 b9
       -2.6054131e-05 -0.00035413832 0.00033879816 -0.00040116246
000020 d2 ed 77 39 cc df 23 bb af 1b 9d b9 2f fb 62 ba
       0.0002364435 -0.002500522 -0.00029966 -0.0008658645
000030 57 39 77 b9 13 6a 1e bb d7 8c 45 bb 44 b1 bf 39
       -0.00023577116 -0.0024172112 -0.0030143762 0.00036562432
000040 c2 37 d0 38 68 e4 12 ba 60 67 32 b9 06 75 08 bb
       9.9285986e-05 -0.0005603493 -0.00017013913 -0.0020821705
000050 12 7e 53 bb 6e 8e 56 bb 5a 0f 78 b9 b6 50 fa 39
       -0.0032271189 -0.0032738703 -0.00023656842 0.0004774385
000060 1c c3 a9 b7 2a 65 95 39 12 5b 8c b9 fd af 3f 3b
       -2.0237225e-05 0.00028494868 -0.00026770734 0.0029249184
000070 e8 5b 56 3a d0 5a 75 3a 76 d4 77 ba d1 34 ec ba
       0.0008177147 0.00093595404 -0.00094539614 -0.0018021112
000080 ba 14 f3 38 a2 86 85 38 74 e5 38 37 65 be f7 37
       0.000115910036 6.3670115e-05 1.1020678e-05 2.9533354e-05
000090 79 49 aa ba c4 12 4d ba 15 14 ef 38 ec a7 c6 b9
       -0.0012991867 -0.00078229257 0.00011400149 -0.00037890614
0000a0 3e 1e b6 b9 30 e9 e1 39 b8 45 19 39 5d 75 73 b9
       -0.00034736277 0.00043089082 0.0001461719 -0.00023218007
0000b0 69 6f 41 3a 54 ab f7 38 36 76 36 38 fb 8e 1b bb
       0.0007378967 0.0001180979 4.3502274e-05 -0.0023736346
0000c0 43 4c e1 b9 9c 81 78 b8 f6 a1 66 ba 76 32 a8 b9
       -0.00042972164 -5.9248516e-05 -0.0008797938 -0.00032081053
0000d0 75 5f 95 ba 60 fd a6 ba d8 cc 1d 3b 2b fd 8b b9
       -0.0011396246 -0.0012740307 0.0024078395 -0.0002670077
0000e0 5b ab 26 3a 8f 8d 67 37 4a 5f a0 b9 08 84 8f b9
       0.00063579314 1.3801632e-05 -0.00030588574 -0.00027373456
0000f0 b2 f6 be b8 af 60 ab b8 9f a4 c9 ba 0e 09 87 39
       -9.1058566e-05 -8.171924e-05 -0.0015384144 0.00025755953
000100 4a 43 63 bb 36 84 5c ba e6 63 a0 3a 23 0b 32 bb
       -0.0034677559 -0.0008412035 0.0012236803 -0.0027167283
000110 15 c8 7d 39 a6 13 03 3a be 48 e4 b9 7b aa a8 ba
       0.00024202497 0.0005000181 -0.00043541746 -0.001286819
000120 34 6b 4a b9 72 77 32 39 f2 dc 32 ba d1 5c 73 3b
       -0.00019304157 0.000170199 -0.00068230845 0.003713418
000130 10 b8 8e b7 4a b5 c2 3a ec b8 da ba e6 ce 00 ba
       -1.701343e-05 0.0014855054 -0.0016687191 -0.0004913643
000140 99 53 8a b8 69 9f dd b9 6f 9f 8b b9 31 4f 1f 39
       -6.595924e-05 -0.00042271175 -0.00026630933 0.00015192923
000150 79 af 14 ba 5f ab 28 b9 1e be 96 38 bc 96 8c b8
       -0.00056718994 -0.00016085569 7.1879695e-05 -6.703797e-05
000160 d3 fe 24 b9 ad 0a 8c b9 2a 81 92 b9 9c 7c 96 b8
       -0.00015735188 -0.00026710835 -0.00027943525 -7.175768e-05
000170 7d 10 30 b9 b0 27 0e ba ad 71 6e 38 83 be b8 39
       -0.0001679081 -0.0005422784 5.684949e-05 0.00035237157
000180 4e 22 96 b8 52 fe a6 b9 4f 59 d4 38 3a 24 6b ba
       -7.158947e-05 -0.0003185147 0.00010125583 -0.0008969937
000190 56 1f f6 39 ac 63 c1 b8 64 cf e6 3a de 5e 15 ba
       0.00046944123 -9.2215225e-05 0.0017609415 -0.0005698035
0001a0 58 ce df 3a 6e c8 bd 3a 14 cc 2b ba 93 f8 94 bb
       0.0017075045 0.0014479288 -0.00065535423 -0.004546234
0001b0 09 51 97 b9 26 5a b2 ba 32 9c 03 bb b5 67 3c b8
       -0.0002886134 -0.0013607189 -0.0020082113 -4.4919278e-05
0001c0 97 b2 61 b9 13 56 7e ba 80 f7 84 b9 25 0c c6 b9
       -0.00021524202 -0.0009702157 -0.00025361404 -0.0003777455
0001d0 9c 68 cc b9 fb 1e 52 b9 60 2d e5 ba 36 33 c1 3a
       -0.00038987852 -0.00020038702 -0.0017484836 0.0014739993
0001e0 25 0a 4c ba 82 9c 86 3a da 48 12 b9 45 9d a1 ba
       -0.0007783494 0.0010270032 -0.00013950784 -0.0012330195
0001f0 90 4d 4f b9 ee 2d 42 3b ce 6f f2 b8 b9 50 67 39
       -0.00019769953 0.0029629427 -0.000115602845 0.00022059948

network_body._body_endoder.seq_layers.2.weight f4 [128, 128]
000000 e2 fb 81 bb f1 bf ba bd 1d 2a dc bd ef 4a 8a 3d
       -0.0039667943 -0.09118641 -0.1075022 0.06752574
000010 5a 64 8d 3a 84 10 d2 3c 98 06 e4 3a dc 7c 90 3d
       0.0010787353 0.02564264 0.0017396985 0.07055065
000020 d0 01 dc 3d ef 4f 57 bb 8a 1d bf bd 7c 4e 83 bd
       0.10742533 -0.003285404 -0.09331806 -0.06411454
000030 61 d5 06 bd 16 6f e4 bc 34 b8 bd bc 91 4f b1 bd
       -0.032918338 -0.027885001 -0.023159124 -0.08657754
000040 89 d7 11 3e 0c 3e 3c 3d 14 5e 90 3d 47 9e 08 3c
       0.14242376 0.04595761 0.07049194 0.0083385175
000050 96 e1 41 bd 24 49 07 be 79 1c fa bd 29 34 01 be
       -0.047334276 -0.13211495 -0.12212462 -0.12617554
000060 b7 96 da bc 17 32 4b bd 7d 5a 48 bc bd 2e 03 be
       -0.026683195 -0.049608316 -0.012228605 -0.12810798
000070 77 57 8f 3c e3 6e db bd e4 62 86 bc c4 28 ac bd
       0.017497761 -0.10714509 -0.016404577 -0.08406213
000080 7b 30 d8 3c ba 47 0f bc bb b8 03 3d ce 16 35 3e
       0.026390305 -0.008745128 0.032158595 0.1768448
000090 3b 8a bb 3d 78 4b b9 3d e4 1b da bd 66 d7 d9 3d
       0.09157225 0.09047598 -0.10649851 0.10636787
0000a0 30 5a dd 3d c8 a3 20 3c 5e 44 9d bd d9 1c a9 3d
       0.108082175 0.0098046735 -0.07679056 0.082574554
0000b0 bc 95 95 bd 3d 21 05 be d5 d6 78 3d 33 72 b2 3c
       -0.0730395 -0.1300096 0.060751755 0.02178297
0000c0 03 85 19 3e 22 5d 15 bd 2f a3 de 3d d1 6f cc 3c
       0.14992146 -0.03646577 0.108709686 0.024955662
0000d0 98 84 5c bd c5 90 e3 bb 39 8c b9 bd 49 7a d4 3b
       -0.05383739 -0.006944748 -0.090599485 0.006484304
0000e0 c6 46 79 3d d5 47 31 bc c1 40 71 bd a6 c3 9b 3d
       0.06085851 -0.010820349 -0.058899645 0.07605676
0000f0 03 26 16 3e bd 7a 3f bd 82 fb 1a bd 85 b3 17 bb
       0.14662938 -0.04674791 -0.037837513 -0.0023147773
000100 24 c4 20 3d a8 d0 75 3c 9d 4d b0 3d d7 2a d2 3d
       0.039249554 0.015003361 0.086085536 0.10262077
000110 b3 fe a6 bb 88 96 d2 3d 0b 78 81 3d d0 a6 3c 3e
       -0.0050962805 0.10282618 0.063217245 0.18423009
000120 f9 05 05 3e 75 5c 94 3c 5d f7 4e bd 4b 4e 90 3c
       0.1299056 0.018110493 -0.050528873 0.017615458
000130 e1 de d6 bd 28 f4 60 3c 2a b6 b2 bc 7f 27 2f 3e
       -0.104917295 0.013730086 -0.021815378 0.1710491
000140 c2 7a 1e bd 7b b5 3f 3d 2b 3e 49 bd 28 ea 0a 3d
       -0.03869129 0.046803933 -0.049131554 0.033914715
000150 d5 10 9a 3c 69 fe 14 bd d7 35 27 bd 87 e6 37 bc
       0.018806854 -0.036375437 -0.04082283 -0.011224396
000160 fe 4f 88 3c 2d c4 cc bd 05 ee 07 bd 63 df b7 3d
       0.016639706 -0.09998355 -0.033185977 0.089781545
000170 ab ce 70 bd 51 10 a6 3d 7c da 66 3d 7a d0 25 bb
       -0.058790844 0.08108581 0.056360707 -0.0025301264
000180 f1 e3 c4 bd 94 e5 82 bd 8f fb 5d bc 4a 8d 29 3d
       -0.09613789 -0.06391445 -0.013548746 0.04139451
000190 b8 94 3f bc de 0e 21 ba 36 36 0a 3e d5 f4 be bd
       -0.011693172 -0.0006143878 0.13497242 -0.09324042
0001a0 fe 9a 76 3d 72 7d f5 3d a5 16 d4 3d b2 4e 26 3d
       0.060206406 0.119868174 0.103558816 0.040602393
0001b0 96 31 73 bd ca 17 c6 3c 78 4f 81 bd 77 fc 0b be
       -0.05937346 0.024181265 -0.063139856 -0.13670526
0001c0 94 7f 5c bd b4 e8 f4 bd eb 4f e2 bd 17 cd 87 bd
       -0.053832605 -0.11958447 -0.110503994 -0.06630915
0001d0 30 02 0e be d1 76 c9 bc 2e 9d da 3c 56 65 71 3d
       -0.13868022 -0.024592789 0.026686277 0.058934532
0001e0 58 8b 70 bd 78 f2 1e 3d 5f 56 21 be 51 67 80 3c
       -0.05872664 0.038805455 -0.15755604 0.015674265
0001f0 2f 2b fe 3c d8 81 e6 bc 00 0e 7e 3d e2 72 03 3e
       0.03102645 -0.028138086 0.06202507 0.12836793
000200 14 fa a2 bd 26 0e be 3d 17 c1 04 3e dd 78 03 bd
       -0.07957855 0.09280042 0.12964283 -0.032097686
000210 a2 4a 96 bd 24 d2 a8 bd c5 17 c8 3d ba 77 02 bc
       -0.07338454 -0.08243206 0.09770159 -0.007963115
000220 62 bf c7 3d 08 38 8f 3d b7 ca c4 3d 65 fd 1c 3e
       0.097533 0.06993109 0.09608977 0.15331037
000230 40 5e 8f bd b0 fc e7 bd ce d5 42 3c 02 2c 45 bd
       -0.07000399 -0.11327493 0.011891795 -0.048137672
000240 28 04 2d 3e 39 d8 a1 bd 64 e8 ea bd 2f 76 cb bd
       0.16896117 -0.07902569 -0.11470106 -0.09934651
000250 30 09 1f 3d 0c 25 9c 3d a2 f6 db 3d e9 bf 15 bd
       0.03882712 0.07624254 0.10740401 -0.036559973
000260 e7 71 31 bd 4b 27 b9 bd de 54 10 be 23 3b 36 3c
       -0.043321516 -0.09040698 -0.14094874 0.011122498
000270 01 5f 2e 3d f3 23 4c 3e 32 f6 9a 3c ec 4f 2a bd
       0.04257107 0.19935589 0.018916223 -0.041580126
000280 c6 73 02 3e 7b 61 f0 3d 54 33 7e bd ff 6f 07 be
       0.12739477 0.11737343 -0.06206067 -0.13226317
000290 a4 b0 85 3c 5f e3 60 3d 60 f7 fd bb 97 b0 44 3e
       0.01631958 0.054904338 -0.0077504367 0.19207989
0002a0 09 f9 31 be 7e 9d ed bc de a1 02 3e ae ff 67 3c
       -0.17380156 -0.029005762 0.1275706 0.01416008
0002b0 d7 cd 1f bd 11 93 74 3d 66 f1 18 bd 93 1d 6b bb
       -0.039014664 0.059710566 -0.03733959 -0.0035875782
0002c0 f3 ed 5e 3d ad ef 6c 3d b6 09 0e 3e 03 dd d3 bd
       0.054426145 0.05784576 0.13870892 -0.10344889
0002d0 96 36 9d bc a4 0b 17 bd 96 bf 01 3d b8 68 f4 3c
       -0.019191068 -0.036876336 0.03167685 0.02983509
0002e0 c3 5b 29 3d df da db bc 53 e8 e7 bd 88 60 64 3d
       0.041347276 -0.026837764 -0.11323609 0.055756122
0002f0 a1 19 a3 3d 85 de bb 3d b5 76 5d 3d 93 e4 38 be
       0.07963873 0.091733016 0.054068286 -0.18055944
000300 2f f5 37 bd 18 29 11 bd c4 90 ae bd 18 40 ed 3d
       -0.04491156 -0.03543958 -0.085237056 0.115844905
000310 7a 06 8c 3d 1d c3 21 3d 56 b1 94 bc 4d ab b3 3d
       0.06837173 0.039492715 -0.018150967 0.087729074
000320 2b bb 84 3d af 67 4d bc 58 18 bd 3d eb e4 55 bd
       0.06481012 -0.012536927 0.09233159 -0.052220266
000330 6f 78 bf 3d 6c 20 3f bd 92 80 5c be 2c a3 85 3d
       0.09349143 -0.04666178 -0.2153342 0.06525263
000340 a3 8c 19 3c 05 86 c2 3d 17 47 10 3b f6 4d b1 3d
       0.009371909 0.094982184 0.002201503 0.08657448
000350 52 94 16 bc c3 ec c0 bd ef 52 4d 3d 05 5e b4 bd
       -0.009190636 -0.09420159 0.05012792 -0.08806995
000360 35 ce 81 bd 24 80 25 3d c4 2b ea 3d 81 0d 98 bd
       -0.06338159 0.040405408 0.11434129 -0.07424451
000370 dc d6 21 b9 14 78 af bd d0 a6 06 3d 98 e3 4b 3d
       -0.00015434198 -0.08567825 0.03287393 0.049777597
000380 09 b4 fe 3b a5 e1 22 be 2f 34 24 3d 7f 79 a1 bd
       0.0077729267 -0.15906389 0.04008883 -0.07884502
000390 46 53 e1 3d e1 4a f9 3d 05 35 52 3d 9a 00 65 bc
       0.11002211 0.12172485 0.051320095 -0.013977194
0003a0 2c 84 1a be 9c 95 bf bd e9 83 ff 3b c4 71 0a 3c
       -0.15089482 -0.093547076 0.0077977073 0.008449975
0003b0 b4 fe 24 3c fe 8d c6 3d 3e 75 de bd 90 ba bb bd
       0.010070492 0.096950516 -0.10862206 -0.09166443
0003c0 1f cc 22 be 7c b6 7e bd 5d 8c 80 3c dc 04 06 3e
       -0.15898179 -0.06218575 0.01569193 0.13087791
0003d0 d4 24 a6 3c d7 b2 d7 3c bd 76 d4 3d 60 07 c8 3c
       0.020281233 0.026330395 0.1037421 0.02441758
0003e0 7f a8 86 3d 14 4a e5 bd e1 eb e8 3c ec 48 e7 3d
       0.06575107 -0.1119577 0.028432788 0.112932056
0003f0 99 9c e3 3c cc d6 8f 3c d5 f2 33 bd 2e cc 7a be
       0.027784633 0.017558478 -0.043932755 -0.24491951

network_body._body_endoder.seq_layers.2.bias f4 [128]
000000 dd 2b 3f ba ba fa 9c b9 11 a5 01 3b 70 41 19 ba
       -0.0007292608 -0.00029941445 0.0019782225 -0.0005846238
000010 5d be eb b9 e0 bb f5 3a 5f 38 a0 b8 56 72 57 3b
       -0.00044964525 0.0018748008 -7.6398945e-05 0.0032874546
000020 02 e2 33 b9 dd d5 ea 37 ea a2 3d b9 33 fa 04 ba
       -0.00017154965 2.7994562e-05 -0.00018085135 -0.0005072683
000030 96 42 cd b9 dd 4a 06 38 43 ab e8 ba 38 2e 18 bb
       -0.00039150257 3.201781e-05 -0.0017751235 -0.0023220908
000040 ac 98 bc 39 5c 8c 7c 39 b2 06 9d b9 04 55 18 b8
       0.00035971904 0.0002408488 -0.00029950362 -3.63188e-05
000050 42 9d 38 bb bf e7 4c bb 54 f1 7c b9 fc c1 21 b9
       -0.0028169905 -0.003126606 -0.00024122495 -0.00015426421
000060 68 87 1a b9 8f 0d c6 39 f6 f8 96 bb 82 a2 0e b9
       -0.00014737027 0.00037775605 -0.004607315 -0.00013602714
000070 bb de 16 ba 7e 73 02 38 52 a7 29 bb 10 3c 89 ba
       -0.00057552353 3.1101976e-05 -0.0025887084 -0.001047017
000080 39 49 76 b9 21 68 17 b9 06 46 bc 38 7f a1 9a ba
       -0.00023487666 -0.00014439273 8.9775815e-05 -0.0011797397
000090 a9 dc 9b 37 10 04 6b 38 7c 69 10 ba e4 62 b8 b9
       1.8580193e-05 5.603215e-05 -0.00055088825 -0.00035168894
0000a0 a9 b6 11 3a 21 e1 07 bb b7 e6 a4 ba 18 c5 d0 ba
       0.00055585295 -0.0020733553 -0.0012580965 -0.0015927879
0000b0 c3 45 4d b9 69 b9 23 3b a5 82 ce b9 6d da a4 ba
       -0.00019576312 0.002498234 -0.0003938872 -0.0012577303
0000c0 fc c8 1e 3b 0e 9d f2 3a b4 7e fb b9 04 cd d5 ba
       0.0024228683 0.0018509941 -0.00047968852 -0.001631171
0000d0 cb 0c 8a b9 c4 00 ad b6 80 44 9d b4 b1 00 97 ba
       -0.00026330943 -5.155891e-06 -2.929337e-07 -0.0011520592
0000e0 31 8f 53 ba c8 16 81 b8 45 dc f4 b9 f8 95 e7 b9
       -0.00080703484 -6.155443e-05 -0.0004670342 -0.0004417149
0000f0 4b 2a 21 ba 39 2b d3 ba 4b d6 9a 39 b8 38 e5 3a
       -0.0006147965 -0.0016110904 0.0002953283 0.0017488217
000100 9c bd 18 bb b2 b9 ec b9 20 3a ea b8 e4 2b 6d ba
       -0.0023306375 -0.00045151782 -0.00011168816 -0.0009047373
000110 f4 07 70 b9 12 45 06 3a 5e ba f7 b8 97 83 93 38
       -0.00022891146 0.00051219866 -0.000118125914 7.034017e-05
000120 72 f2 e4 b8 cc 92 c7 38 8a 21 db b9 18 12 d1 3a
       -0.00010917046 9.5164025e-05 -0.00041795924 0.0015950827
000130 6a 8a 8f ba cc c3 b3 3a 29 2d c1 b9 4e 88 ae 38
       -0.0010951285 0.0013714968 -0.00036845476 8.322355e-05
000140 5a 98 6d b9 1a 59 3b ba f4 43 ad 38 28 cc 99 bb
       -0.00022658837 -0.0007146761 8.26194e-05 -0.004693527
000150 48 82 8a 3a f0 6d 5b b9 d7 5b 04 b9 22 ee 40 bb
       0.0010567391 -0.00020926422 -0.00012622714 -0.0029438813
000160 ed ff 50 b9 a0 ef 56 b9 54 5a 58 37 36 a5 67 3a
       -0.00019931766 -0.00020497898 1.2895634e-05 0.0008836569
000170 5d 22 c4 3a 2e 7e 36 3b 41 62 71 b9 69 2b 84 38
       0.0014963854 0.0027846205 -0.00023020153 6.302336e-05
000180 5f 29 d9 3a 67 83 0d b8 20 14 83 ba a1 c8 4d b9
       0.0016568116 -3.3739398e-05 -0.0010000505 -0.00019625064
000190 48 b1 4a b7 75 ce 36 b9 3e 27 e0 b9 27 c7 12 b9
       -1.2081415e-05 -0.00017433784 -0.00042753847 -0.00013997835
0001a0 63 ff 01 bb e2 15 9d b9 b3 c0 b1 b9 43 6e 9e 3a
       -0.001983606 -0.00029961678 -0.00033903643 0.0012087304
0001b0 04 9d 61 ba 9e 30 c3 b8 b0 d0 c5 b9 75 44 cf 39
       -0.0008606466 -9.30738e-05 -0.00037730252 0.0003953312
0001c0 2f 45 23 ba ab 24 c5 ba ed 93 29 b9 46 61 3c bb
       -0.00062282657 -0.0015040835 -0.00016172203 -0.0028744503
0001d0 0e e1 b4 3a 29 cf 8c b9 4a f7 d4 b7 de bd 47 3b
       0.0013799982 -0.00026857227 -2.5387522e-05 0.003047816
0001e0 10 51 45 ba 24 fb 0b ba 80 31 27 36 36 3a 44 ba
       -0.0007527033 -0.0005339852 2.4913752e-06 -0.0007485481
0001f0 46 1c 88 b9 b9 e9 98 ba 5a de b4 ba a3 ba 97 ba
       -0.00025961007 -0.0011666334 -0.0013799176 -0.0011576008

action_model._continuous_distribution.mu.weight f4 [1, 128]
000000 05 9b 96 bc d9 ed f7 bc 8a 8c 1f 3c 70 d2 d6 bb
       -0.018384466 -0.030264782 0.009738097 -0.006555848
000010 fa 70 26 3b 38 28 42 3c 3a 99 77 3c b5 1c 0d bc
       0.002539693 0.011850409 0.015112216 -0.008612801
000020 f7 5a aa bc 72 e1 01 3d 3a bd 16 bc e2 1e b9 3c
       -0.020795329 0.031709142 -0.009200389 0.022597734
000030 aa 57 a0 3c 60 07 2f bc df 46 34 3b f9 35 29 3b
       0.019573051 -0.010682911 0.0027508063 0.0025819524
000040 71 49 2c bc 71 86 26 bc 0d 33 7b ba 96 10 08 3d
       -0.010515557 -0.010163889 -0.00095824973 0.033218943
000050 59 52 16 3c 2e 5c 15 3d 51 8b 4c bc 2b 7c 7b bc
       0.009174907 0.036464863 -0.0124843875 -0.015349428
000060 33 70 c6 3b 8e 09 7d bc 4d e1 19 bd ce 89 fc 3b
       0.0060558557 -0.015444173 -0.03756838 0.0077068573
000070 e4 1c 7e bc 48 e0 34 3c a6 cf 47 3c 7b 91 cd bc
       -0.015509818 0.011039801 0.012195503 -0.025093785
000080 63 a3 9b bc bb 20 61 bc 93 e4 63 3c e1 a9 78 3a
       -0.018998807 -0.013740714 0.013909477 0.0009485763
000090 0c c3 d6 bb 4f 8c 9d 3c df 2c 10 bb 95 4b 50 3b
       -0.006554013 0.019231943 -0.0021999402 0.0031783332
0000a0 03 27 c1 bc c4 be 75 3c 3d f2 39 3a 08 e4 e6 3c
       -0.023578173 0.014999095 0.0007093286 0.028184906
0000b0 8f 88 36 bc 8c 4e 8c bc bf 9b 77 3c 9b 72 40 3c
       -0.011140957 -0.017127298 0.015112816 0.011746074
0000c0 7e 2b 75 bd ef 24 18 bd a5 1a 93 bb aa 32 71 3b
       -0.05985593 -0.037144598 -0.0044892603 0.003680388
0000d0 0f 87 4a bc 79 d6 30 3c 0a 0f 22 3c eb c1 c5 3c
       -0.012361302 0.010793322 0.009891281 0.024140319
0000e0 b4 e3 df bc 87 a0 83 bd 7f af 84 3c a0 b1 c2 bc
       -0.027330257 -0.064271025 0.016196964 -0.023766339
0000f0 b0 7a 28 3b 53 64 a8 3c 35 1e 99 3c 68 bc 31 bc
       0.0025707893 0.02055565 0.018691162 -0.010848142
000100 59 63 a7 3c ec f8 93 3c f9 2f e9 3c ef db 13 3b
       0.020433115 0.018063031 0.028465258 0.002256151
000110 61 53 f3 bc e2 e4 15 bc 3c dd ab bc 7c e9 f0 3b
       -0.029702844 -0.009148808 -0.020979516 0.0073520523
000120 e6 8c 9e bc 0b db 9d bc 13 4c 8b bc 59 30 62 bc
       -0.019354295 -0.019269487 -0.017004048 -0.013805472
000130 e5 a3 85 3a a0 f3 43 bc 95 40 49 3b fc e2 95 3c
       0.0010195939 -0.01195994 0.003070866 0.018296711
000140 9a 77 46 bc ae 74 35 bc f0 d3 5c 3c c6 85 0f bc
       -0.012113476 -0.011075182 0.013478264 -0.008759921
000150 ba b0 a9 bc 40 7d e5 3b db 75 1f bd 26 6c fb 3b
       -0.020714153 0.0070034564 -0.038930755 0.0076728044
000160 1e da 94 bb c4 16 d2 3b 5f 55 ae 3c c7 40 cd 3a
       -0.004542603 0.0064114053 0.021280942 0.0015659564
000170 02 18 f1 bb db fd e9 bc e9 5b e0 bb 47 3b e3 3c
       -0.0073575983 -0.02856343 -0.006846894 0.027738227
000180 ef 7e 4e bc ca 8f 1e 3c 59 a3 b1 3b 71 6d 18 bc
       -0.0126035055 0.009677837 0.005421084 -0.009303437
000190 31 5f bd 3b b5 ef 79 bc e3 93 e3 bb ab fd 7a bc
       0.00577917 -0.0152549045 -0.0069451197 -0.015319268
0001a0 52 69 64 3a 83 b1 bf bb c0 c4 9a bb 49 a8 8e ba
       0.0008713204 -0.0058500185 -0.0047231615 -0.0010883893
0001b0 11 37 88 3a 46 e2 06 bd 31 e7 10 3b 36 34 c0 bc
       0.0010392388 -0.032930635 0.0022110457 -0.023462396
0001c0 ef 44 dd 3a 07 da 0d 3a 69 91 7a bc 12 e7 9e 3c
       0.0016881506 0.0005411212 -0.015293458 0.019397292
0001d0 01 90 07 bd 03 cf da 3b d4 20 aa 3c fc 81 27 bc
       -0.033096317 0.0066775098 0.020767607 -0.010223862
0001e0 3c 0c 0d bb 52 dd e7 3c 83 f6 40 3c 14 1a c8 3b
       -0.0021522185 0.028303776 0.011777523 0.0061066244
0001f0 02 7e fe bb 26 a2 82 ba e9 5d e2 ba 91 5c c3 39
       -0.007766486 -0.0009966537 -0.0017270419 0.00037262266

exp_avg f4 [128, 5]
000000 99 a4 c4 38 f5 ef 21 3b 80 78 20 bb 5d ab 0b 3a
       9.376667e-05 0.0024709676 -0.0024485886 0.00053279643
000010 00 00 00 00 a8 ea 15 37 62 59 3c 38 93 02 09 ba
       0.0 8.935727e-06 4.4905937e-05 -0.0005226519
000020 3c f5 f3 38 00 00 00 00 61 a1 26 b8 6f 02 43 bb
       0.000116328214 0.0 -3.972778e-05 -0.002975609
000030 25 46 80 3a 66 04 61 b9 00 00 00 00 0b 73 3a 38
       0.000978653 -0.0002145931 0.0 4.4452998e-05
000040 df 70 a3 3a e5 48 9e ba 30 57 6e 39 00 00 00 00
       0.0012469551 -0.0012076168 0.00022729929 0.0
000050 ca 85 a0 b8 c8 7c 14 bb c5 c0 c4 3a ea 2d d6 b9
       -7.654315e-05 -0.0022657383 0.0015011063 -0.0004085147
000060 00 00 00 00 fb 30 6a b7 44 95 5f b7 8a 48 96 39
       0.0 -1.3958891e-05 -1.3326589e-05 0.00028664275
000070 fb ca 57 b8 00 00 00 00 78 26 dc 37 74 e8 fe 37
       -5.1449035e-05 0.0 2.6243957e-05 3.0387404e-05
000080 3f 5b 33 ba 20 56 c0 38 00 00 00 00 9f 99 a4 37
       -0.0006841905 9.1713155e-05 0.0 1.9621859e-05
000090 cc 85 72 3a 40 e6 16 b8 39 11 97 38 00 00 00 00
       0.00092515047 -3.5977224e-05 7.203449e-05 0.0
0000a0 1c fe d1 38 e4 42 3b 3b e6 e3 1d bb 71 6a 1b 3a
       0.00010013228 0.0028573805 -0.0024092137 0.0005928642
0000b0 00 00 00 00 65 d5 e6 37 b0 96 dc 3a 14 bf 1e ba
       0.0 2.7517506e-05 0.0016829576 -0.00060556945
0000c0 e2 dd d6 38 00 00 00 00 79 56 2f b5 78 41 82 35
       0.00010245644 0.0 -6.5318414e-07 9.704809e-07
0000d0 3e 98 9b 37 7c 07 76 b6 00 00 00 00 2c 5b bc b7
       1.8548333e-05 -3.6661213e-06 0.0 -2.2453802e-05
0000e0 b3 59 2e ba 30 df 1b 3a 86 a7 26 b9 00 00 00 00
       -0.00066509395 0.0005946038 -0.00015893401 0.0
0000f0 45 21 85 38 9f b7 5a 3b c1 40 97 ba 8b c1 98 39
       6.348131e-05 0.0033373607 -0.0011539684 0.000291359
000100 00 00 00 00 02 e7 fc b4 ac 24 99 b5 3d a0 8f 35
       0.0 -4.7106738e-07 -1.1410061e-06 1.0700966e-06
000110 91 05 1f b6 00 00 00 00 54 4b ff b6 c3 76 4f 38
       -2.3696086e-06 0.0 -7.6083616e-06 4.946325e-05
000120 e0 1a 31 36 af 6d 80 b7 00 00 00 00 b4 80 95 b8
       2.6390699e-06 -1.5309864e-05 0.0 -7.1288465e-05
000130 0a 79 6a bb 85 cd b7 3a b1 75 ce b9 00 00 00 00
       -0.0035777711 0.0014023042 -0.0003937907 0.0
000140 23 a3 41 38 b5 3b 15 3b 28 e1 5a ba 58 26 62 39
       4.616672e-05 0.0022771184 -0.0008349591 0.00021567324
000150 00 00 00 00 bc 35 1a b7 54 56 5e ba b0 c1 56 39
       0.0 -9.191626e-06 -0.0008481492 0.00020480785
000160 e6 d7 09 b9 00 00 00 00 a0 07 bb 37 78 1d e4 3a
       -0.00013145767 0.0 2.2295688e-05 0.0017403802
000170 6b 2a 27 ba ca bc 02 39 00 00 00 00 84 81 fd 34
       -0.0006376865 0.00012468096 0.0 4.7219157e-07
000180 61 63 fc 34 a6 54 61 b6 4b 23 14 b5 00 00 00 00
       4.7010965e-07 -3.3576885e-06 -5.5185654e-07 0.0
000190 ad 67 36 b6 98 f9 88 b5 75 d0 d0 35 8a 63 c4 b6
       -2.718046e-06 -1.0205431e-06 1.5557877e-06 -5.852843e-06
0001a0 00 00 00 00 62 ec 1c b6 90 71 f6 b2 2a cb 81 35
       0.0 -2.3383404e-06 -2.8689811e-08 9.670377e-07
0001b0 f2 69 b8 b6 00 00 00 00 35 c7 1a 38 50 de eb 3a
       -5.495961e-06 0.0 3.6901987e-05 0.0017995331
0001c0 68 e6 f9 b9 01 2c 29 39 00 00 00 00 8a 66 2e b8
       -0.00047664647 0.00016133489 0.0 -4.158033e-05
0001d0 66 26 df b7 d3 19 a4 3a fe 8a 6e b9 00 00 00 00
       -2.6601552e-05 0.0012519903 -0.00022749227 0.0
0001e0 08 67 a5 b8 b0 62 33 bb ed 06 f5 3a 66 1d f7 b9
       -7.887004e-05 -0.0027372055 0.0018694081 -0.00047133415
0001f0 00 00 00 00 3e 21 d1 34 70 ca de 33 d2 a3 69 34
       0.0 3.895347e-07 1.0374504e-07 2.1759413e-07
000200 2c aa 04 34 00 00 00 00 28 1e dc 38 39 3d 2d 3b
       1.2355366e-07 0.0 0.000104960345 0.0026434197
000210 ca 62 1f bb 1b 9a 02 3a 00 00 00 00 7c a6 86 35
       -0.0024320357 0.000498207 0.0 1.0032231e-06
000220 f9 32 d5 35 be d1 eb b5 0f 70 83 36 00 00 00 00
       1.5884572e-06 -1.7569907e-06 3.9171496e-06 0.0
000230 fd 70 9b 34 94 09 cb 35 2a 9d e6 b5 f2 3b 6a 36
       2.895321e-07 1.5127466e-06 -1.7182076e-06 3.490361e-06
000240 00 00 00 00 cf a6 3e b8 08 e0 b2 b9 79 6c c0 3a
       0.0 -4.5454883e-05 -0.00034117722 0.0014680765
000250 09 0f b4 b9 00 00 00 00 04 11 d7 b7 fe 72 dc 39
       -0.00034343477 0.0 -2.563792e-05 0.00042047346
000260 bc 15 4e 3a 24 d2 64 b9 00 00 00 00 f5 2c 80 34
       0.0007861515 -0.00021822058 0.0 2.3874568e-07
000270 2b d4 9a 37 3c 16 91 b6 20 0a 97 35 00 00 00 00
       1.8457029e-05 -4.323925e-06 1.1253323e-06 0.0
000280 28 23 c0 b8 0c ff df b9 6c 0d 22 3b d5 c6 f7 b9
       -9.161822e-05 -0.000427239 0.0024727238 -0.00047259653
000290 00 00 00 00 3d 2c c2 37 98 58 ba 3a be e9 06 ba
       0.0 2.3147202e-05 0.0014217077 -0.00051465246
0002a0 35 e3 e5 38 00 00 00 00 2c 6c 93 37 e4 92 bd b8
       0.000109618915 0.0 1.7574137e-05 -9.039583e-05
0002b0 02 52 11 ba b9 46 9f 38 00 00 00 00 f2 ab 00 b9
       -0.0005543531 7.594884e-05 0.0 -0.00012271086
0002c0 41 10 8d bb 0e 73 24 3b b6 2c 17 ba 00 00 00 00
       -0.004304916 0.0025092992 -0.00057668553 0.0
0002d0 68 fa 3a b1 98 15 03 37 f5 2f a0 b6 fb 48 10 35
       -2.7208902e-09 7.813236e-06 -4.7739545e-06 5.375038e-07
0002e0 00 00 00 00 bd 3d ae 37 d5 28 9e 3a 98 2b b4 b9
       0.0 2.0771166e-05 0.0012066612 -0.00034364755
0002f0 b4 2e 9d 38 00 00 00 00 c6 33 d0 37 80 22 13 38
       7.4950425e-05 0.0 2.4819641e-05 3.507966e-05
000300 e0 95 22 ba 92 e0 d2 38 00 00 00 00 23 08 0f 36
       -0.00062021427 0.0001005541 0.0 2.1313397e-06
000310 50 de 34 b5 50 86 e2 36 98 81 b9 36 00 00 00 00
       -6.737873e-07 6.750961e-06 5.5285163e-06 0.0
000320 f9 f6 6f b8 5a 6d 26 bb 9c 2e 61 3a b3 84 8c b9
       -5.721205e-05 -0.0025394768 0.0008590014 -0.0002680175
000330 00 00 00 00 26 5f 2e b8 d0 1e af b8 ff 97 9e 3a
       0.0 -4.1573447e-05 -8.3503895e-05 0.0012099742
000340 7a 7b 6b b9 00 00 00 00 00 b8 26 b7 dc 32 7c ba
       -0.00022457345 0.0 -9.937212e-06 -0.0009620616
000350 ec 4d 97 39 0e 4d bb b8 00 00 00 00 b4 04 41 b7
       0.0002885902 -8.9312074e-05 0.0 -1.15047915e-05
000360 1c c5 13 ba 8c 16 10 39 dc a8 5a b8 00 00 00 00
       -0.00056369766 0.0001374131 -5.2132513e-05 0.0
000370 04 a8 8a 36 4c 61 8a b9 90 dc fa b8 92 ce 8c b7
       4.13228e-06 -0.00026393903 -0.00011962012 -1.6785492e-05
000380 00 00 00 00 c3 a7 5c 38 2f a5 2c 3b 15 62 6b ba
       0.0 5.2608328e-05 0.0026343574 -0.0008979154
000390 30 21 8f 39 00 00 00 00 f1 0b a0 b8 ac fa 6c bb
       0.00027299812 0.0 -7.631619e-05 -0.0036160154
0003a0 af 78 cf 3a dc 4e ab b9 00 00 00 00 e5 48 8c b6
       0.0015828813 -0.00032674416 0.0 -4.180811e-06
0003b0 a1 4b 79 36 f9 c0 4a 38 68 a7 d4 b5 00 00 00 00
       3.7147913e-06 4.8340273e-05 -1.5843952e-06 0.0
0003c0 4a 2d e9 b7 dc 1e d1 ba 70 2a e2 39 46 89 3b b9
       -2.7796854e-05 -0.0015954631 0.00043137698 -0.00017884848
0003d0 00 00 00 00 d3 eb 65 38 44 16 4b 3b 53 bd 84 ba
       0.0 5.4817483e-05 0.0030988613 -0.0010127224
0003e0 e6 f4 8b 39 00 00 00 00 2e fe 74 38 b0 dd b3 39
       0.0002669461 0.0 5.8410857e-05 0.0003430671
0003f0 92 92 d1 ba b9 79 a3 39 00 00 00 00 e8 6a 5a b8
       -0.0015989116 0.00031180473 0.0 -5.2074814e-05

exp_avg_sq f4 [128, 5]
000000 7a cb 8a 33 c0 b3 22 39 55 5b ee 37 21 56 0f 35
       6.463138e-08 0.00015516486 2.841434e-05 5.3396985e-07
000010 00 00 00 00 67 d3 6e 30 c4 4d 64 31 d5 e1 54 34
       0.0 8.6884316e-10 3.3222571e-09 1.9826196e-07
000020 75 c3 81 32 00 00 00 00 2b 8a 5d 33 57 ed 2d 39
       1.510646e-08 0.0 5.1581235e-08 0.00016586982
000030 d1 70 8d 37 b5 18 e4 34 00 00 00 00 07 7c a0 31
       1.6861044e-05 4.2486286e-07 0.0 4.670713e-09
000040 f0 5b 1f 37 6f 11 20 36 29 7a 25 33 00 00 00 00
       9.498544e-06 2.3852006e-06 3.852816e-08 0.0
000050 12 cc 9d 33 2a f2 6f 39 60 fc 16 38 81 4c 15 35
       7.3480024e-08 0.0002288303 3.599783e-05 5.5618153e-07
000060 00 00 00 00 09 63 96 2f 1a f3 4c 30 06 bf 20 34
       0.0 2.735521e-10 7.4560236e-10 1.4970655e-07
000070 ac 0d 11 31 00 00 00 00 c8 bc e1 30 a6 16 8b 31
       2.1108049e-09 0.0 1.642456e-09 4.0480073e-09
000080 f4 55 6c 35 e9 b5 1c 32 00 00 00 00 a7 c7 e2 31
       8.804193e-07 9.121757e-09 0.0 6.6001635e-09
000090 e7 dc b2 37 d2 4b ab 36 f5 89 7a 33 00 00 00 00
       2.132212e-05 5.105024e-06 5.8333132e-08 0.0
0000a0 1b f7 c5 33 20 91 7d 39 e1 47 6d 38 9f b5 47 35
       9.2184756e-08 0.00024182023 5.6572146e-05 7.439757e-07
0000b0 00 00 00 00 58 e8 ff 30 fb e4 09 37 dc df a5 35
       0.0 1.8619728e-09 8.21915e-06 1.235861e-06
0000c0 f3 db 69 32 00 00 00 00 e2 1a 0d 2c f1 67 8e 2f
       1.3612396e-08 0.0 2.0052228e-12 2.5903504e-10
0000d0 b4 b1 8c 30 de 70 86 2d 00 00 00 00 ed 44 16 32
       1.0236847e-09 1.528416e-11 0.0 8.746821e-09
0000e0 43 fc 9b 37 45 33 ae 36 0f 05 bc 33 00 00 00 00
       1.8594908e-05 5.1915727e-06 8.755352e-08 0.0
0000f0 d4 63 46 33 5f 3d 22 39 14 c3 a9 37 81 13 bd 34
       4.619126e-08 0.00015472386 2.023721e-05 3.5218184e-07
000100 00 00 00 00 96 b5 26 2b 0a fd f2 2b 76 3c 58 2c
       0.0 5.922705e-13 1.7265367e-12 3.0729009e-12
000110 34 cd 60 2d 00 00 00 00 e7 87 29 2f dd 1f 5a 32
       1.277849e-11 0.0 1.5418743e-10 1.2696515e-08
000120 0b 68 27 33 9e 33 08 31 00 00 00 00 05 eb 91 33
       3.8977344e-08 1.9819946e-09 0.0 6.7948385e-08
000130 3a 48 74 39 2b bf 14 38 04 e7 13 35 00 00 00 00
       0.0002329656 3.546399e-05 5.509794e-07 0.0
000140 61 4b 03 33 30 29 f4 38 94 73 49 37 47 1f 72 34
       3.056937e-08 0.000116424984 1.2007444e-05 2.2549385e-07
000150 00 00 00 00 8b 27 40 33 f4 68 2d 39 94 83 91 37
       0.0 4.4739448e-08 0.00016537664 1.7346618e-05
000160 e5 a7 ad 34 00 00 00 00 1a 3c 45 32 7a dd 1a 38
       3.234592e-07 0.0 1.1480575e-08 3.6922727e-05
000170 f4 11 9f 36 0a 47 c5 33 00 00 00 00 7b 39 36 2c
       4.7406593e-06 9.186449e-08 0.0 2.5895664e-12
000180 9d 54 f6 2c 47 fe 94 30 53 db 5e 2d 00 00 00 00
       7.0011345e-12 1.0840687e-09 1.2667939e-11 0.0
000190 f8 4e 1a 2d 84 2c 58 2f bc 49 e2 2c 40 df fe 2e
       8.771421e-12 1.96609e-10 6.4314925e-12 1.159024e-10
0001a0 00 00 00 00 5f 4b 24 2d 85 50 68 2e 14 42 9a 2c
       0.0 9.3390564e-12 5.282221e-11 4.3842794e-12
0001b0 a8 df 95 2f 00 00 00 00 ea a5 ae 32 70 78 a4 38
       2.726186e-10 0.0 2.0331715e-08 7.8425626e-05
0001c0 19 ec 35 37 a5 1b 12 34 00 00 00 00 81 1f 8f 31
       1.08434115e-05 1.3607367e-07 0.0 4.1654293e-09
0001d0 c1 a8 45 32 53 22 09 36 bc 17 06 33 00 00 00 00
       1.1505279e-08 2.043457e-06 3.1220893e-08 0.0
0001e0 a3 56 a6 33 f4 af 71 39 fb 89 1e 38 dd d4 24 35
       7.7457365e-08 0.00023049099 3.779864e-05 6.140452e-07
0001f0 00 00 00 00 52 35 59 2b af e9 07 2c 63 8f 1b 2b
       0.0 7.7167884e-13 1.9314374e-12 5.526605e-13
000200 06 b8 8e 2b 00 00 00 00 f4 72 2d 33 a3 02 b8 38
       1.0140784e-12 0.0 4.038425e-08 8.774295e-05
000210 b3 f2 a8 37 2e 24 af 34 00 00 00 00 00 61 c4 2b
       2.0140176e-05 3.2622614e-07 0.0 1.395356e-12
000220 43 b7 7e 2c 63 24 d2 2c 0f 2c ca 2d 00 00 00 00
       3.6197302e-12 5.9725987e-12 2.2984307e-11 0.0
000230 1d a5 e9 2b c0 1f a8 2c 65 00 4d 2e 1a 78 0c 2e
       1.6601474e-12 4.778372e-12 4.6611954e-11 3.1938986e-11
000240 00 00 00 00 9f 34 7e 32 9e 27 3e 37 54 9c 2d 37
       0.0 1.47967105e-08 1.1334107e-05 1.03480015e-05
000250 b8 29 32 34 00 00 00 00 61 82 08 32 f1 66 e1 36
       1.6592719e-07 0.0 7.945887e-09 6.7175065e-06
000260 d3 bf af 36 7c 62 a0 33 00 00 00 00 b8 fc ce 2d
       5.2377377e-06 7.468495e-08 0.0 2.3531718e-11
000270 a6 96 27 31 5f bd 2c 32 d6 46 dc 2e 00 00 00 00
       2.4387332e-09 1.0054776e-08 1.0017025e-10 0.0
000280 6f eb a5 32 f5 86 cf 36 38 b3 5c 37 5f 34 58 34
       1.9315591e-08 6.184792e-06 1.31547495e-05 2.013562e-07
000290 00 00 00 00 36 4d ae 31 50 50 b0 37 5d d1 2c 36
       0.0 5.0728444e-09 2.1018233e-05 2.5751863e-06
0002a0 53 bf 06 33 00 00 00 00 22 6a 90 30 14 98 3d 35
       3.1373315e-08 0.0 1.0507544e-09 7.062929e-07
0002b0 79 9f 10 35 c2 7a 01 32 00 00 00 00 21 0f 1b 34
       5.3876244e-07 7.5367e-09 0.0 1.4441004e-07
0002c0 e5 72 f7 39 4e 6d 86 38 a3 8d 8e 35 00 00 00 00
       0.00047197114 6.4099775e-05 1.0621046e-06 0.0
0002d0 23 22 6f 2b 78 65 73 30 e8 3b 80 2f 78 4f b3 2c
       8.495723e-13 8.854708e-10 2.332563e-10 5.096309e-12
0002e0 00 00 00 00 d5 48 04 32 46 3d 0a 38 5b 1d 4c 36
       0.0 7.699971e-09 3.295883e-05 3.0415456e-06
0002f0 a1 58 48 33 00 00 00 00 9e fc 60 30 fd 1b 0b 31
       4.6646736e-08 0.0 8.1849716e-10 2.0243072e-09
000300 30 04 ed 34 38 5b ae 31 00 00 00 00 92 4b 08 2e
       4.4147737e-07 5.074437e-09 0.0 3.098994e-11
000310 6d 63 d1 2e 40 8a da 30 09 18 4b 30 00 00 00 00
       9.521881e-11 1.5900881e-09 7.3885126e-10 0.0
000320 48 24 52 33 70 31 35 39 47 d0 d2 37 c1 29 c7 34
       4.8927433e-08 0.00017279922 2.5130938e-05 3.7097018e-07
000330 00 00 00 00 91 1f 6d 31 13 e6 36 32 5e f5 dd 35
       0.0 3.4505983e-09 1.0646107e-08 1.6537194e-06
000340 fe 83 05 33 00 00 00 00 c7 f2 e1 32 ad cc c3 38
       3.1086522e-08 0.0 2.630385e-08 9.3364484e-05
000350 65 79 dc 36 2d bf 53 34 00 00 00 00 e4 2f 48 32
       6.570643e-06 1.9720456e-07 0.0 1.1652421e-08
000360 8f 44 4c 38 45 c3 76 36 e0 7b a2 33 00 00 00 00
       4.870124e-05 3.6770518e-06 7.5662456e-08 0.0
000370 11 31 d1 30 3b 50 a3 36 a3 c1 2f 35 78 7a 2c 32
       1.5220697e-09 4.8671186e-06 6.547436e-07 1.0039564e-08
000380 00 00 00 00 c9 93 5c 33 5d fd 1f 39 60 dd d1 37
       0.0 5.135715e-08 0.00015257807 2.5017827e-05
000390 7b 45 df 34 00 00 00 00 66 cd 8b 33 6a 2f 6d 39
       4.158754e-07 0.0 6.510054e-08 0.00022619744
0003a0 3f 62 11 38 24 bb 0a 35 00 00 00 00 06 e5 28 2d
       3.4662193e-05 5.168133e-07 0.0 9.600548e-12
0003b0 f9 15 bc 30 72 af de 30 38 89 25 2f 00 00 00 00
       1.3685045e-09 1.620249e-09 1.5055412e-10 0.0
0003c0 34 7c 19 33 11 0f 00 39 83 af 86 37 9b 8f 94 34
       3.573605e-08 0.00012212644 1.6055774e-05 2.7671635e-07
0003d0 00 00 00 00 9c 59 49 33 66 da 28 39 e0 9c a7 37
       0.0 4.688046e-08 0.00016103088 1.9981002e-05
0003e0 e4 3d c0 34 00 00 00 00 79 fb 8f 31 79 21 02 35
       3.5807818e-07 0.0 4.190437e-09 4.8477483e-07
0003f0 fc de 19 36 fa c1 29 33 00 00 00 00 86 0d 3b 32
       2.292857e-06 3.95248e-08 0.0 1.08879075e-08

exp_avg f4 [128]
000000 1e 94 bb 38 e8 95 c8 37 cc b2 fa b7 1a b4 3c 38
       8.944444e-05 2.3911663e-05 -2.9885581e-05 4.4990426e-05
000010 f8 d0 63 b8 67 34 0f b7 c9 cc 9d 37 e8 b6 4d b6
       -5.4315635e-05 -8.535665e-06 1.8811219e-05 -3.0653846e-06
000020 9c f1 a0 38 91 5e b4 37 da fe fe b4 1b ec 5c b7
       7.674398e-05 2.1501708e-05 -4.7496616e-07 -1.3167994e-05
000030 2b 42 3d 38 ff d2 48 b5 90 47 51 b6 70 3a 6d b8
       4.5122735e-05 -7.4812846e-07 -3.1185082e-06 -5.6559627e-05
000040 5d 30 1c 38 80 e1 4f b6 b8 86 bb 37 c3 60 b6 34
       3.723834e-05 -3.0976662e-06 2.235487e-05 3.3970545e-07
000050 68 26 ef b5 e5 fc 9e b5 b2 eb b7 37 60 e3 24 b8
       -1.7818065e-06 -1.1845519e-06 2.1925054e-05 -3.9312406e-05
000060 99 9c 82 b8 58 42 3c 34 ae 91 b6 38 56 06 9b 35
       -6.228052e-05 1.7533e-07 8.705571e-05 1.1550244e-06
000070 bc 1d 87 35 c0 11 45 b8 95 c0 96 b7 1a 2b 20 b4
       1.0066938e-06 -4.698499e-05 -1.7971071e-05 -1.4916841e-07
000080 96 c6 b0 b8 46 80 9e 37 5a 6d 94 37 58 5f c9 b8
       -8.4293235e-05 1.88948e-05 1.7693896e-05 -9.602186e-05
000090 30 3c 47 34 b7 4e a1 37 3e 7c b5 37 40 eb 9e 32
       1.8555215e-07 1.922935e-05 2.1634736e-05 1.85006e-08
0000a0 f2 9a 0c b8 54 be 3e b8 70 77 10 b7 d0 7b 1f b7
       -3.3522905e-05 -4.5476787e-05 -8.610878e-06 -9.505966e-06
0000b0 38 00 a7 36 94 35 e0 37 68 62 65 b8 67 77 f5 b5
       4.9770133e-06 2.672783e-05 -5.4689503e-05 -1.8288673e-06
0000c0 70 fa 08 b7 da 28 21 38 60 cb 7e 38 2b 79 33 b8
       -8.164541e-06 3.8423437e-05 6.0747727e-05 -4.2789772e-05
0000d0 a9 87 5e b7 46 b3 00 b7 9b ea 67 b4 0f fa 2d b5
       -1.3263817e-05 -7.671135e-06 -2.15989e-07 -6.4811405e-07
0000e0 b6 a0 1f b7 ee 17 6f 38 32 d7 c8 b7 a4 fa 80 b8
       -9.514557e-06 5.7004327e-05 -2.3942066e-05 -6.150201e-05
0000f0 64 a5 a4 37 aa bd 0c 38 a0 69 7d b5 fd 0c 30 38
       1.962734e-05 3.355524e-05 -9.440355e-07 4.1973766e-05
000100 22 7f 4d b5 53 80 97 b7 55 07 bf b7 98 8b 9d b5
       -7.6553454e-07 -1.8060358e-05 -2.2772389e-05 -1.1738039e-06
000110 d7 d3 ed 38 66 29 80 b7 18 10 11 b8 2a fd b4 34
       0.00011340499 -1.5278067e-05 -3.4585682e-05 3.3711814e-07
000120 5b 23 35 b8 9a 78 18 37 4c 32 c8 35 d6 0c 0f b8
       -4.318669e-05 9.087986e-06 1.49158e-06 -3.410581e-05
000130 66 0b ec 37 d8 1e 87 33 b1 42 56 b6 f8 06 08 38
       2.81387e-05 6.292038e-08 -3.1927304e-06 3.2431417e-05
000140 de f9 b8 37 ae f7 2c b8 a8 b7 1a b7 78 90 e7 37
       2.2050863e-05 -4.1238665e-05 -9.221876e-06 2.760462e-05
000150 f9 4d db 37 80 04 87 b8 04 2c 31 39 f0 6e d1 37
       2.6143143e-05 -6.43814e-05 0.00016896432 2.49664e-05
000160 be 78 8d b8 b0 50 85 b7 c4 60 69 b7 1d 38 90 b8
       -6.745894e-05 -1.5892409e-05 -1.3910412e-05 -6.876907e-05
000170 1e ba d9 b7 fe 0b 26 38 10 66 61 37 da db 56 37
       -2.5955083e-05 3.9588653e-05 1.3434808e-05 1.2806582e-05
000180 60 e1 c0 b4 0e 5e d6 b7 c2 d6 77 b8 23 78 a6 37
       -3.592677e-07 -2.5554586e-05 -5.9089398e-05 1.9844685e-05
000190 cc 75 09 35 1f 33 37 b7 a7 16 2a b7 6a 9a de 38
       5.1207894e-07 -1.0919553e-05 -1.0138064e-05 0.00010614547
0001a0 4a fa b1 b6 14 75 ab 36 39 0f a9 38 eb be 83 33
       -5.3041485e-06 5.109827e-06 8.0613834e-05 6.1348906e-08
0001b0 22 ba 04 37 6c 65 79 38 6c 44 5b 36 95 d1 cd 38
       7.9111505e-06 5.9460683e-05 3.267337e-06 9.8141994e-05
0001c0 d1 89 ad b7 18 e1 35 32 1e 77 b6 b7 df 68 44 b8
       -2.0687383e-05 1.0586767e-08 -2.1751559e-05 -4.682771e-05
0001d0 ce 84 1b b8 85 b0 7c 35 10 55 87 b5 5b 05 4e b6
       -3.7078564e-05 9.4134185e-07 -1.008304e-06 -3.069951e-06
0001e0 c0 34 9e b7 e0 d2 a9 33 e2 fd da b7 29 d0 9f 36
       -1.8859631e-05 7.908034e-08 -2.6105849e-05 4.7628023e-06
0001f0 39 aa 0f b7 53 d8 89 35 6f fc 4e b8 04 ec f8 36
       -8.563097e-06 1.0270254e-06 -4.9349324e-05 7.418452e-06

exp_avg_sq f4 [128]
000000 81 7a a5 33 34 17 9f 30 51 d7 83 33 fe 33 b3 31
       7.7056946e-08 1.1575367e-09 6.139329e-08 5.2154965e-09
000010 d1 53 b8 33 42 ce a4 2f 6c af ea 30 bc a0 21 32
       8.583414e-08 2.997798e-10 1.7075599e-09 9.40798e-09
000020 0b 7b fa 33 4e 80 11 31 7b 92 2a 2c 5c dc 4b 32
       1.16639136e-07 2.117321e-09 2.4239766e-12 1.1866259e-08
000030 2e d2 68 33 b1 50 43 2b e8 85 47 2f 86 b8 b1 33
       5.4207867e-08 6.93899e-13 1.8146518e-10 8.2757694e-08
000040 25 fe 16 33 bb 60 5b 33 e7 8c 6c 32 a3 23 44 2c
       3.515574e-08 5.1077887e-08 1.37690455e-08 2.7873058e-12
000050 38 a8 3e 2d dc c6 84 2d dd f0 c6 32 70 dc 9b 31
       1.0837602e-11 1.5094974e-11 2.3159766e-08 4.5361546e-09
000060 ce e0 c6 33 33 7e 4e 2b 53 65 51 33 75 c5 c2 2b
       9.260985e-08 7.336104e-13 4.875376e-08 1.3839334e-12
000070 7a 17 fc 2b 74 33 b9 32 0e 97 3c 32 b8 62 d6 2d
       1.7912193e-12 2.1560233e-08 1.0977386e-08 2.4372823e-11
000080 33 24 e8 32 37 83 bd 31 a5 da 9e 30 4d 2b 2f 34
       2.7024816e-08 5.5155414e-09 1.1558156e-09 1.6313898e-07
000090 cf 13 96 2b 43 91 0b 32 19 d7 6b 30 70 8c 29 2e
       1.0663639e-12 8.123894e-09 8.5798174e-10 3.8550885e-11
0000a0 16 66 7a 33 c1 2a 87 31 38 c7 fd 32 8d 71 56 32
       5.8300508e-08 3.9338777e-09 2.954367e-08 1.2482258e-08
0000b0 c7 d4 ef 30 1a fd 87 33 43 71 af 33 47 e2 78 2d
       1.7450014e-09 6.332466e-08 8.169675e-08 1.41474115e-11
0000c0 c6 fc 35 33 46 0d 6a 33 7c c2 af 31 c4 9b 84 32
       4.2372243e-08 5.4494443e-08 5.1152806e-09 1.5437656e-08
0000d0 3d 68 50 32 b3 91 2a 30 47 6d d5 2b 91 38 d0 2b
       1.21308945e-08 6.205269e-10 1.5164891e-12 1.4794989e-12
0000e0 0e c7 82 32 14 4a 1c 34 84 c7 4f 33 79 34 cf 33
       1.5224511e-08 1.4555582e-07 4.83774e-08 9.6487334e-08
0000f0 64 ac 45 30 c1 8e ef 31 66 a1 62 2d 4c 92 0d 32
       7.1913164e-10 6.9720447e-09 1.288245e-11 8.240544e-09
000100 75 7a 34 2c 8c ba ef 30 40 b1 8e 30 72 12 4e 30
       2.5647516e-12 1.7442559e-09 1.0382237e-09 7.4968576e-10
000110 8c 57 c0 34 9a 7c be 2f f2 ec c5 33 a1 f4 2c 2e
       3.5826486e-07 3.4649333e-10 9.2166275e-08 3.9325546e-11
000120 d9 82 87 32 f1 ad 68 32 33 25 39 2c bd 65 f1 30
       1.5775571e-08 1.3543727e-08 2.631073e-12 1.7563974e-09
000130 18 df 6c 33 41 57 1d 29 77 96 89 2e e5 24 bd 31
       5.5150934e-08 3.4936684e-14 6.2567666e-11 5.5048184e-09
000140 10 82 a7 30 c7 d4 c3 32 8c 0c e7 32 1c cb 21 31
       1.2187815e-09 2.2797748e-08 2.6897645e-08 2.3544038e-09
000150 09 76 51 32 68 88 a5 33 fa 71 d3 34 5e e9 84 33
       1.2192239e-08 7.7082234e-08 3.9384742e-07 6.189178e-08
000160 f6 f3 f6 33 fb a7 a0 32 cc aa 4c 33 5c 1f b5 33
       1.1499644e-07 1.870284e-08 4.765279e-08 8.4341735e-08
000170 2d 9b 05 33 dd 9a 45 32 4f 81 aa 32 a3 9f 75 31
       3.1107607e-08 1.1502121e-08 1.9849407e-08 3.5742935e-09
000180 96 9b cb 30 49 75 24 31 7c 85 c0 33 4b 6c 2c 31
       1.4814414e-09 2.393181e-09 8.9649774e-08 2.5090852e-09
000190 1b b3 98 2d 32 ed e9 2f 81 43 bb 2f 96 9e a9 33
       1.7359938e-11 4.255099e-10 3.4063066e-10 7.8985224e-08
0001a0 a9 f2 c6 30 25 98 89 2e e9 47 25 33 83 b3 32 2a
       1.4475364e-09 6.257065e-11 3.8482458e-08 1.5871857e-13
0001b0 ed de 8e 31 b3 f8 2f 32 c3 80 b2 2f 0e dc 34 34
       4.1580877e-09 1.0242888e-08 3.2469502e-10 1.6843862e-07
0001c0 59 78 99 32 03 28 84 2a 5a c0 dc 32 81 e0 a0 33
       1.7866272e-08 2.3475674e-13 2.5698842e-08 7.4914176e-08
0001d0 b1 6b 51 34 16 e4 de 2f 30 10 8f 30 13 c5 1c 2f
       1.950382e-07 4.054363e-10 1.040922e-09 1.4258132e-10
0001e0 16 fe 02 32 e1 1d fd 2d 56 a9 34 33 f6 04 90 2f
       7.624768e-09 2.8776039e-11 4.2063526e-08 2.6196972e-10
0001f0 41 d5 89 30 9c b0 28 2c 75 41 0b 32 91 78 9a 32
       1.0028672e-09 2.3972274e-12 8.105748e-09 1.7982787e-08
