results/test2/EndLessRunnerBehaviour/EndLessRunnerBehaviour-185176.onnx (onnx, 74029 bytes, 5 tensors)

network_body._body_endoder.seq_layers.0.weight f4 [128, 5]
00000000: 45e3 88be b3b4 27bf ef9e d4bd 376e 6abe
00000010: 4686 17be ca6a adbd 9eaf a8be b671 3a3e
00000020: c40d 283f 4edb 42ba a2d3 113f ac45 d1bd
00000030: a16e c43e 2e31 0b3e 9f60 8fbe 27e5 d6be
00000040: 7950 84bc 8741 34bd 84ed 97be a496 a13e
00000050: b338 753c 7fd0 92be 8d51 273d 49e4 9dbe
00000060: a43d 563e 691a c43e 5913 9c3e 53e8 2ebe
00000070: db16 533f 8666 7f3e fada 0abf 9a2f 82bf
00000080: 0d3e 03bf 0a63 17bf ee5d 083f f2fb afbe
00000090: fce0 0abf efac 21bf bf98 eebc 7a78 b33e
000000a0: b625 1f3e 4826 f13e a6f5 b93e 99a0 0bbf
000000b0: 864d 113d 7828 2bbd 57ca 133e ccfd d13e
000000c0: 6c57 1ebe b999 bc3d 8bbe 3b3e 62e5 acbd
000000d0: 90b3 233f d526 10bf 48a0 4fbc 1823 c73c
000000e0: 2a1c e1be 7ede db3e 2cb4 cb3d 4696 b13e
000000f0: 9b31 fb3e 6501 c2be 3709 013f ba90 7dbe
00000100: 6d40 b5be aece ad3e a3c5 fcbd a0a1 d8be
00000110: df60 9abe 3c14 efbd 4e05 883f ae0a 1bbf
00000120: 8d51 47bf 95e4 60be e9cb d3be a7c2 2ebe
00000130: ef19 fbbe 6beb 04bf f7ac b03e efff 663f
00000140: fe61 4b3e eeb3 4abe d4bd c3be c392 2abf
00000150: 9ed4 573d 923b b9bd 9368 b33e 2d42 22bf
00000160: 9376 613e bfa6 823f 442d 133f a2a3 803e
00000170: d416 e73e ce74 873d a680 c93e b70e 33bf
00000180: e2c3 d9bf f9c1 06bf 0d9c a93e 64e6 c03e
00000190: 5a44 60bc a17e c0bd 111c d8be 3555 ffbd
000001a0: 1395 8a3e 1a29 913d ddc0 3b3f feca 513f
000001b0: b707 473e c334 1b3e 8acd 09bd 1ac8 9a3e
000001c0: 109f c63e e63c cfbe 667d 1a3d f583 58bf
000001d0: eb8b 593e 53b5 2d3f 7e31 8ebe be35 013f
000001e0: 685a d63e 0490 0e3f 19cb 09be a680 ac3e
000001f0: 72cd 133e daac b03e 9d38 f3be 980d 56be
00000200: f052 9cbb 175c f13e 7c2a 1bbe 2a27 cabc
00000210: b88e 04bd 0a5b 4b3e c840 aa3e 7dbd f9bd
00000220: 2473 96be 1bfe 543f 2528 57bf 7abd d43e
00000230: b4a2 f7bb df95 b43e 98b8 b6be a2e5 db3e
00000240: b9e8 fb3d 1c04 b1be b7e3 773f d378 b13e
00000250: f6bd 1bbd 32c9 e83e 2402 a83e a5ff 9fbb
00000260: 51ee 6b3e 235d 18bf da9f babe adfd 4bbe
00000270: bb68 2ebe 9853 c6be d4bb b73e b097 0c3d
00000280: 1430 ddbe d84a 0e3e 2d71 47bf 3911 a1be
00000290: 2bb8 b5be 2701 a73e 3649 693e 50f6 2f3e
000002a0: 36a0 8bbe 4b80 413f f62b b1be 2c17 9b3b
000002b0: b5e6 753d 65d5 163e 499b d9be 825f 29be
000002c0: f194 13bb 918c ccbe c6bc d1be 255e cbbe
000002d0: 64b3 313f bc59 a2be b263 a73e 89ee 18be
000002e0: 395d 71be 0176 17bd a834 17bc 7b29 003e
000002f0: 85b8 0bbd 9681 e9be 62c1 b83d 7d9a 24bd
00000300: 5781 453d 52b6 023f 27d8 30bf 99f5 69be
00000310: 8078 593f 3cb0 6abe b3d9 23be eb00 753f
00000320: 1f1a 263d 78e5 c9be 0287 1c3d b6fd 49bf
00000330: ac3a 0dbf 2f32 bbbe 630a 8d3e cbf3 273d
00000340: 2239 bd3d 2a6a 403f 5172 2c3f 1cff f73e
00000350: d8d6 a73e dd8e 5fbe 2c81 193e 0dfe 22bf
00000360: 2ca3 d4be 6343 193f 071a 4fbe b35b b5be
00000370: 89d7 adbe e620 7ebe f2bd 18bf 583c b93e
00000380: 89af 473e 73c5 df3d 2bdb 25bf 6296 703f
00000390: b806 f8bd ec1d fc3c dd49 fbbe f1af 123f
000003a0: a4e0 1bbf da55 103d 334a d7bd 8623 0dbd
000003b0: e90c f43e 348e cdbe 149b 833f 91cd 09bf
000003c0: d5a7 2a3e 82d9 123b 2add 0cbf c3cc b23d
000003d0: acdf c2be dde6 73bd ac82 ecbe b5c1 e53d
000003e0: 9f4e 75be 68fc bcbe 3f46 7cbf 8801 92bf
000003f0: cdf9 523e 74c1 63be 4566 733d e707 8c3f
-0.26735893 -0.655101 -0.10381877 -0.22893606 -0.14797315 -0.08467634 -0.32946485 0.1820744
0.65646005 -0.00074331916 0.5696355 -0.10218367 0.38365653 0.1359298 -0.28003404 -0.41971704
-0.016151654 -0.044007804 -0.29673398 0.31560242 0.014967131 -0.28674695 0.040849257 -0.3083823
0.20921952 0.383014 0.3048351 -0.17080812 0.8245675 0.24941453 -0.5424038 -1.0170777
-0.51266557 -0.59135497 0.53268325 -0.34371907 -0.5424955 -0.631545 -0.02912557 0.35052854
0.1554173 0.4709952 0.36320227 -0.5454193 0.035474323 -0.04178664 0.14432655 0.41013944
-0.15463036 0.09209008 0.18334405 -0.08442189 0.63945866 -0.5630925 -0.012672491 0.024308726
-0.439668 0.42943186 0.099464744 0.34684962 0.49061283 -0.3789169 0.50404686 -0.2476224
-0.35400715 0.33946747 -0.12342384 -0.4231081 -0.30152032 -0.11673781 1.0626619 -0.6056317
-0.7785881 -0.21962197 -0.4136651 -0.17066441 -0.49043223 -0.5192172 0.34506962 0.90234274
0.198616 -0.197952 -0.38230765 -0.6663019 0.052693002 -0.09044565 0.3504072 -0.63382226
0.22017889 1.0207137 0.57490945 0.25124842 0.45134604 0.066140756 0.39355963 -0.6994433
-1.7012904 -0.5263973 0.3312687 0.37675774 -0.013688171 -0.093991525 -0.42208913 -0.12467424
0.2706686 0.070879176 0.7334116 0.81950366 0.19436537 0.15156846 -0.033643283 0.3023079
0.3879323 -0.4047615 0.037717246 -0.8457635 0.2124478 0.67854804 -0.27772135 0.5047263
0.4186585 0.556885 -0.13456382 0.336919 0.1443384 0.34506875 -0.4750413 -0.20903623
-0.004770629 0.4714057 -0.15152925 -0.024676878 -0.03236267 0.19858947 0.3325255 -0.12194345
-0.2938472 0.83200234 -0.8404563 0.4155081 -0.0075572375 0.35270593 -0.3568771 0.42948633
0.12300248 -0.34573448 0.9683184 0.34662494 -0.038022958 0.45466 0.32814133 -0.00488277
0.23040129 -0.59517115 -0.36450082 -0.19920988 -0.17032139 -0.38735652 0.3588549 0.034324348
-0.43200743 0.13895738 -0.7790707 -0.31458452 -0.35492072 0.32618067 0.22781834 0.17183805
-0.2727067 0.75586385 -0.34603852 0.004732987 0.060034472 0.14729841 -0.42501286 -0.1654034
-0.0022519196 -0.39950994 -0.40964335 -0.39720264 0.69414353 -0.31709087 0.3269325 -0.14934744
-0.23570718 -0.03697777 -0.009228863 0.12515824 -0.03411152 -0.4560668 0.0902126 -0.040186394
0.04821905 0.5105945 -0.6907982 -0.22847594 0.84949493 -0.2291879 -0.16001014 0.95704526
0.040552255 -0.39432883 0.03821469 -0.7890276 -0.5516765 -0.36561725 0.27546987 0.041003983
0.09239413 0.75161994 0.67361933 0.4843682 0.327811 -0.21831842 0.14990681 -0.636689
-0.4153074 0.5986845 -0.20224772 -0.35421523 -0.33953503 -0.24817237 -0.59664834 0.3617885
0.19500555 0.10926332 -0.6478755 0.93979466 -0.121106565 0.030775987 -0.4907979 0.57299715
-0.6088965 0.035238124 -0.10512199 -0.034457706 0.476661 -0.40147555 1.0281701 -0.53829294
0.16665585 0.0022407477 -0.5502497 0.087304614 -0.38061273 -0.05954634 -0.46193445 0.11218587
-0.23955773 -0.3691132 -0.9854469 -1.1406717 0.20603104 -0.22241765 0.059423704 1.0939912

network_body._body_endoder.seq_layers.0.bias f4 [128]
00000000: c54f 30bb 56a3 27bb cf3e f3b9 6f5e f5bb
00000010: 958a 99bb 9a09 33bb 9e8e 2abb 7d20 57bb
00000020: aecf 26b9 629c 1d3b 49c9 a9bb b992 323c
00000030: 5e52 d0bb b543 34ba 5457 853a e0cf 9b3a
00000040: f1fd b1bb 66ec 603a e48b ae38 4a16 6cbc
00000050: 2149 a6ba 8750 b73a d705 9e3a f6e0 d93a
00000060: de33 0bbb bab0 573a 4428 86ba 9f1e fbbb
00000070: 0a30 29ba 03cc 9abb d5c8 53b9 b1f4 6f3a
00000080: eb40 28ba 4e94 da3a ac5b 20b9 d239 b7b9
00000090: 88e0 473c 2a4e 81bb 505d 673b cce2 bfba
000000a0: bd1b c8bb 3e80 fc39 4928 ff3a b426 b8bb
000000b0: 7e5d edbb e310 b9b9 5900 36b9 0d98 bdb9
000000c0: 6be3 a6ba 6b5c 2d3b 98f9 b53b 3e0b a2bb
000000d0: 5c38 9eba 7c72 fdb8 db1a 2abb ffa9 5c3a
000000e0: ffb1 aaba c5be cf3b 9a6a 943a 153a e6ba
000000f0: 35e8 6b3b c4b2 d33b 0830 163b d80d 03bb
00000100: d0a6 96ba 90ff c13a b727 d9ba b6ad 3aba
00000110: fbb1 b5ba d7d0 36bb 181e 273b 8154 03bb
00000120: 2d75 843a ca57 923c 9cda acba fc07 fc3b
00000130: 001e 21bb 6a3c e0ba 171a 443b f949 ef38
00000140: 5d9c 87ba f0b3 143c e9da 6b3b 1ff3 50ba
00000150: b26b 8fbb d91f b73b 2711 183a 6ae8 dc3b
00000160: 7ff1 ed3a b8ff a1ba 4ea8 5c3a 4357 11bc
00000170: ad7a 9fba a1a6 2c3b e386 36bb 9cca 6d3c
00000180: e9b7 09bc e546 bf3b 44ee 4d3a 2126 0e3c
00000190: 4540 cf3a 90f9 4d3c 284d 28bb ba99 373a
000001a0: 844f ae3a 75e5 723b 5671 4bbb 3b4f eaba
000001b0: 483f 223a 3df3 8bba 49ba a3bb b14f aabb
000001c0: f29d 02bc 7630 13ba 11f0 073b 07bc 163b
000001d0: 1c00 4db9 49d4 273b 1e69 22bb bb80 a03a
000001e0: 3141 9039 f2b4 36bb d7e6 e1ba a9d8 7d3a
000001f0: b924 40bb 0f5d e1bb 4880 c03a e79b 8339
-0.0026903015 -0.0025579534 -0.00046395368 -0.007488064 -0.0046857097 -0.0027318955 -0.0026024948 -0.003282576
-0.0001590836 0.002404951 -0.0051814658 0.010899239 -0.006357475 -0.0006876544 0.001017312 0.0011887513
-0.0054318835 0.0008580148 8.323023e-05 -0.014409611 -0.0012686589 0.0013985791 0.0012056184 0.001662283
-0.0021240632 0.00082279334 -0.0010235389 -0.0076635624 -0.0006453997 -0.004724027 -0.00020197344 0.00091535883
-0.0006418365 0.0016676278 -0.0001529294 -0.0003494756 0.0121995285 -0.0039460855 0.0035303421 -0.0014639734
-0.0061068223 0.00048160733 0.0019466962 -0.005619848 -0.007243811 -0.0003529853 -0.00017357002 -0.00036162176
-0.0012732571 0.002645279 0.0055534355 -0.004945188 -0.001207124 -0.000120853045 -0.0025955949 0.00084176654
-0.0013023018 0.00633988 0.0011323274 -0.0017564917 0.003599656 0.0064605195 0.0022916812 -0.0019997265
-0.0011493806 0.0014800895 -0.0016567622 -0.0007121222 -0.0013862246 -0.0027895474 0.0025500115 -0.0020039382
0.0010105722 0.017864127 -0.0013187709 0.0076913815 -0.0024584532 -0.0017107849 0.0029922777 0.000114101866
-0.0010346283 0.009076104 0.0035988635 -0.0007970798 -0.004376852 0.0055885133 0.0005800896 0.006741573
0.0018153636 -0.0012359535 0.00084174133 -0.0088709025 -0.0012167298 0.0026344436 -0.0027851395 0.014513638
-0.008405664 0.0058373087 0.0007855634 0.008676083 0.0015812 0.012571707 -0.0025680754 0.0007003803
0.0013298844 0.0037063037 -0.0031042895 -0.0017876396 0.0006189239 -0.0010677349 -0.004996572 -0.0051974882
-0.007972227 -0.0005614826 0.0020742456 0.0023000257 -0.00019550364 0.002560871 -0.0024781893 0.0012245396
0.00027514392 -0.0027878848 -0.0017234933 0.0009683469 -0.0029318763 -0.0068775485 0.0014686668 0.00025102423

network_body._body_endoder.seq_layers.2.weight f4 [128, 128]
00000000: 9ed5 e93d 7e8d 07bc 23ff b83c 16cf 473e
00000010: c370 963d a04b 3d3d 6735 edbd 08cd 61bd
00000020: baa5 66bc e858 c0bb 7edc a23d 67bf 95bc
00000030: a8f4 bdbc bc48 f23d 8410 8f3d 6814 893d
00000040: 9304 23be 23f7 5dbc db75 d5bb d240 843d
00000050: ec1b d13c 996b 213d 390c 0cbe b633 92bc
00000060: fe54 8d3d f315 743d 0534 c8bc f34f 46be
00000070: dfb9 bdba 0594 c8bd 63ad b7bd fac8 4d3d
00000080: 8878 12bd 2d6d aebc 20f7 69bc f0fe 7fbd
00000090: b752 013e 87d6 45be b200 aebd 8107 1dbe
000000a0: b5bc 793d 4ee9 123e 23af 53bd 9e6a b53c
000000b0: 3c53 77bc 93aa 9f3d 67b0 a43c f6bd a83b
000000c0: 176a a23d 1028 e2bd aa27 9f3d 7f89 a9bd
000000d0: a6ed 883d f247 f93c 3617 cdbd 5fa8 b6bd
000000e0: 62bf 143e cf0f 11bd d0bf 03be 0467 7a3d
000000f0: 16c2 fa3d 4bdb f8bc 6a65 883d d02d 083d
00000100: aa1f 9639 1b90 06bd d063 91bd ea0b 043e
00000110: 35fe 7ebd 5065 f93c 1f21 59bd 9927 55bd
00000120: 69a2 ee3c 7117 c5bc 4ec9 40bc 2be6 72bd
00000130: b088 22be 05b3 f23c 2e08 ac3d 6c64 093d
00000140: ef42 51bb 171a 41bd 64f9 503c 10a1 acbd
00000150: 1bd5 3bbc 7e38 733d 81de 853c 908e d6bd
00000160: 3319 a5bc 576d 89bd e7cd dd3c 2904 17be
00000170: 6af2 acbd 1f88 533d 3adc 063e b4bb 25bd
00000180: 8739 173c dcd9 ef3d 9e79 3e3c 8d1c 8abc
00000190: 18a8 c3bd 650f 0a3d cfe2 9bbd f484 13bd
000001a0: b0f4 92bd ad79 6fbd 41c0 53be 0c8e 623d
000001b0: 4f1b 8ebc daea 03bd 414e cbbd a259 cfbc
000001c0: 6402 68be 2374 a0bd 7887 863d a585 53bd
000001d0: 712d 0f3d 4011 923d 223f e5bd 39ce 223c
000001e0: 4f25 62be b82f 96ba d285 053d 7338 75bb
000001f0: fe86 fa3d 6b5c d43c bcbc 0d3e 476c 1ebd
00000200: b9d4 cabd 6501 d3bd ffa3 943d 9322 bbbc
00000210: dd38 12bd 315e 413e a077 2dbd fe49 b83b
00000220: 4417 56bd daf6 ca3d 7d34 00be ec15 ee3d
00000230: ff44 edbc 6844 903d 4614 0bbe 69a3 33be
00000240: 6755 35bd ac5d 2ebe 35b2 3c3d 7e87 733d
00000250: 6b0a d73d 31a4 2c3d e535 77bc 4d72 a53c
00000260: bd41 08be 06a6 9a3b 2482 57bd caac 49bd
00000270: 15e3 b9bd 108b 963d 2b24 d33d 39d8 31bd
00000280: e0c8 d1bd 1f0a c73c 1290 253d b9f6 9f3a
00000290: 24cd c63d 443d 8dbc 1ba6 1fbc e114 833c
000002a0: 2a73 f2bd d3b9 25bd c8e4 6c3a 13f2 1bbd
000002b0: 5d63 243e be80 5d3e cd04 6dbd 501c b2bc
000002c0: b0f1 403d 8f4e 3dbd db2d f43b d28f 2bbd
000002d0: 499e d5bd d262 2bbd 8e21 043d 576a f6bc
000002e0: 119f 483d 626a 2fbd 5692 8e3d 483b 263d
000002f0: 7658 ca3d 57bc 80bd 80e0 09be 6467 9d3c
00000300: 38a8 36bd d66a 42bd 9fbc 103e dfd8 fb3b
00000310: 8ea8 243d ea23 ce3d fcd6 2a3e 4c3b 08bd
00000320: 3aa0 b03d 30ac c33d b0ce e23c e0fb 61bd
00000330: 85bf 7d3e 4f1f 58bd ee96 533c d4a2 e23d
00000340: f1e2 0d3e ee62 a13d dc20 e2bc dab4 e8bb
00000350: 1479 90bd 4688 80bd def0 303d 113f b13d
00000360: edce 0dbe e645 253d f110 e03c 66d8 263d
00000370: a336 3e3e 4dd0 a6bc 63f6 bd3d ec72 18be
00000380: b259 11be 11d7 cc3d 1403 6ebe 5ec9 173c
00000390: 5ee9 0cbd 2a57 ba3d 5d17 7c3d 53ee 02be
000003a0: 95d0 44bd 909f c53d 789c b43d e440 23bd
000003b0: e473 95bd 7bba b73c fb0a 633c 92d1 73be
000003c0: 0bcc 1a3d c6b9 953d c789 b0bd a735 1e3d
000003d0: eaeb b43d 9a7d 483c 5cf6 94bc 39ff 5f3d
000003e0: cc42 323d 34a3 eb3d 77d8 65bd ddc5 08bd
000003f0: b079 973b ed59 963d 5f2e fd3c d6da d1bc
0.11417697 -0.00827348 0.022582596 0.19512591 0.07345726 0.0462147 -0.11582451 -0.055127174
-0.014077598 -0.0058699735 0.07952212 -0.018279744 -0.02318795 0.11830279 0.06985572 0.06693345
-0.15919714 -0.0135476915 -0.0065142936 0.06457676 0.02552601 0.039409254 -0.13676538 -0.017846923
0.069009766 0.059591245 -0.024438867 -0.19366436 -0.001447495 -0.097938575 -0.08968618 0.050240494
-0.03575948 -0.021292293 -0.014280111 -0.062498987 0.1262921 -0.19320117 -0.08496226 -0.15334894
0.06097098 0.14346811 -0.051680695 0.022145566 -0.015095528 0.07796206 0.020103646 0.0051495982
0.07930391 -0.110427976 0.07771237 -0.082781784 0.06685953 0.030429814 -0.10014193 -0.08918833
0.14526132 -0.035415467 -0.1286614 0.0611334 0.1224405 -0.030378005 0.06659968 0.033246815
0.0002863382 -0.032852273 -0.07099116 0.1289517 -0.06225415 0.030443817 -0.053010102 -0.052039716
0.029130178 -0.02405903 -0.011766745 -0.059301537 -0.15872455 0.029626379 0.08399998 0.033543035
-0.0031930765 -0.04714402 0.012754772 -0.08429158 -0.0114643825 0.059380047 0.01634145 -0.104764104
-0.020153617 -0.06710308 0.027075721 -0.1474768 -0.08444674 0.051643487 0.13169947 -0.04046221
0.009230024 0.11711475 0.0116256755 -0.016859317 -0.09553546 0.033706088 -0.0761162 -0.036015466
-0.07175577 -0.05846565 -0.20678808 0.055311248 -0.017347006 -0.032206394 -0.09927035 -0.025311295
-0.22657162 -0.07834651 0.06568807 -0.051641125 0.034955446 0.071321964 -0.11193682 0.009936863
-0.22084545 -0.0011458313 0.032598324 -0.003741768 0.12232779 0.025922975 0.13841528 -0.03867748
-0.09903855 -0.10303 0.07257842 -0.022843635 -0.03569876 0.18883587 -0.04235041 0.005624055
-0.05226828 0.099103644 -0.12520023 0.11625275 -0.028963564 0.070442975 -0.13581952 -0.17542805
-0.0442709 -0.1702792 0.04606839 0.059455387 0.10500034 0.042148773 -0.015088533 0.020196104
-0.13306327 0.0047194986 -0.052614346 -0.04923705 -0.090765156 0.07350743 0.10309633 -0.043419097
-0.10243392 0.024296818 0.0404206 0.0012204266 0.09707096 -0.017241128 -0.0097441925 0.016001167
-0.11838372 -0.04046042 0.00090367766 -0.038072657 0.16053529 0.21631142 -0.057865907 -0.021742016
0.04710549 -0.046217497 0.0074517555 -0.041885205 -0.10430581 -0.04184229 0.032258563 -0.030080004
0.048979823 -0.042826064 0.06961505 0.04058388 0.09880154 -0.06285923 -0.13464546 0.01921434
-0.04459402 -0.047465168 0.14134453 0.007685765 0.04019981 0.10065444 0.16683573 -0.033259675
0.08624311 0.095543265 0.027686447 -0.055171847 0.2478009 -0.052764233 0.012914402 0.11066213
0.13856103 0.078801975 -0.02760356 -0.0071016373 -0.07054344 -0.06275992 0.04319846 0.08654607
-0.13848467 0.040349863 0.027351828 0.040733717 0.1857553 -0.020362997 0.0927551 -0.14887589
-0.14194372 0.10001958 -0.23243362 0.009264318 -0.034402244 0.090986565 0.06154572 -0.12786226
-0.04805048 0.09649575 0.088189065 -0.039856806 -0.07297495 0.022427788 0.013857598 -0.23810413
0.037792247 0.07310824 -0.08620029 0.038625386 0.088340595 0.012236977 -0.01818388 0.05468676
0.043520734 0.11505738 -0.05611464 -0.033391822 0.0046226606 0.07341371 0.0309059 -0.025617044

network_body._body_endoder.seq_layers.2.bias f4 [128]
00000000: ba5e b6ba 611a 0fba 567a 20bb 4664 3eba
00000010: 41ef a8b9 4c0e bc3a b09c 4939 fa9c 32ba
00000020: 1bee c2bb e6a0 383b f2f3 b1ba 5414 e4b9
00000030: 06a4 b43b 8d11 cbbb 8b44 14bb 9e99 37ba
00000040: 6c4c 8639 193c b2b9 4906 3e3a 007a cc3b
00000050: f10f d03a ff7f a0b9 7ba7 5fbb b3cc 6fba
00000060: c017 653b ac86 353b bf6d 13bc d28b b4b7
00000070: 7384 503a 184d a83a 84bc ac39 b944 7639
00000080: cf01 a839 4a8b c6ba bd2c d93a 57a9 baba
00000090: 5b49 45bb bad2 82bb e7bf 0cba 4486 d939
000000a0: 5a15 d2b9 90d0 4ab8 0a44 d63b 43b3 9abb
000000b0: 72c9 0fba 85a9 07ba 2274 16ba d9d4 86ba
000000c0: 0948 ac39 7b15 33bb ed9d 6439 8543 26bb
000000d0: cf10 8038 578d df3a aa9a 4a3b fb43 15b9
000000e0: aba8 aeba ec94 353c 4307 0cbb 0012 b03a
000000f0: fef8 54b9 34ca 10bb 16c0 58bb bcf5 68b9
00000100: 9854 463a 0ed1 d9b9 5b2a b7bb b269 f4b8
00000110: 48c8 2dbb 0c21 51bb 30e6 b0bb e2f7 dc3a
00000120: 313e 1b3a ea4a 0ebb ce10 7cbb 5c1c e8b9
00000130: 0d67 64bb dca5 773b 55bf edb9 006f 483a
00000140: 3854 67bb 3d9e 06ba 66f4 08bb 43df d1b9
00000150: 14e0 99b9 6cc2 20ba fb1e 63b7 4661 9cb9
00000160: 7c6b 843a a60c 25ba db36 3c3a 5f34 3bbb
00000170: 8cbc 0fbb b5c8 d5bb 11c0 81bb 8ec4 3239
00000180: 30b1 e438 3a86 9aba 0eeb 47ba f03d 89bb
00000190: 92bb 9139 da8f 8ebb f2da c1ba 1c67 8eb9
000001a0: 2900 c13b 054e c7ba 7f57 b93a 4c80 67bb
000001b0: 7e3d 2b3a bea8 20ba 75c4 abbb 3ae5 a73b
000001c0: 7917 1bbb 6918 1e38 fdc1 3e39 08ef 09bb
000001d0: a061 cbbb aa62 dbba a21a 193a bc36 a3b9
000001e0: 7ff2 5bba cd5d 3ebb 429f 17b9 183a 9b39
000001f0: eafe 87ba 3393 b5bb d77c 92b7 d7f4 08b8
-0.0013913729 -0.0005458948 -0.002448698 -0.0007262867 -0.00032221715 0.0014347523 0.00019227224 -0.00068135525
-0.0059487945 0.0028172075 -0.001357673 -0.00043502694 0.005512717 -0.0061971606 -0.0022623863 -0.0007003787
0.0002561541 -0.00033995582 0.00072488614 0.0062401295 0.0015873892 -0.00030612943 -0.0034126926 -0.0009147629
0.0034956783 0.002769868 -0.0089983335 -2.1522781e-05 0.0007954307 0.0012840359 0.00032946852 0.0002348599
0.00032044805 -0.0015147713 0.0016569119 -0.0014241141 -0.0030103538 -0.0039924057 -0.0005369172 0.000414895
-0.0004007023 -4.8354792e-05 0.0065388726 -0.0047210767 -0.0005485035 -0.00051751017 -0.0005739351 -0.0010286822
0.00032860067 -0.0027326036 0.00021802606 -0.0025369835 6.1066465e-05 0.0017055672 0.003091494 -0.00014235072
-0.0013325413 0.011082869 -0.0021366633 0.0013433099 -0.00020310652 -0.0022093179 -0.0033073477 -0.00022216787
0.0007565706 -0.00041545223 -0.005589766 -0.00011654514 -0.0026517082 -0.0031910567 -0.0053985342 0.0016858543
0.0005922048 -0.0021712133 -0.0038462165 -0.00044271618 -0.0034851462 0.003778807 -0.00045346716 0.0007645935
-0.0035298 -0.00051352737 -0.0020897626 -0.0004002993 -0.00029349385 -0.0006132487 -1.3537468e-05 -0.00029827113
0.0010102834 -0.0006296135 0.0007179805 -0.002856515 -0.002193245 -0.0065241703 -0.0039596637 0.00017048625
0.00010904891 -0.001178927 -0.00076262734 -0.0041882917 0.00027796306 -0.0043506445 -0.0014789982 -0.00027161173
0.0058899117 -0.0015205747 0.0014140456 -0.0035324274 0.00065322954 -0.000612866 -0.0052419254 0.0051237615
-0.0023665114 3.769287e-05 0.00018192078 -0.0021047015 -0.006206706 -0.0016737778 0.00058404554 -0.00031130563
-0.0008390322 -0.002904761 -0.0001445981 0.00029607187 -0.0010375653 -0.005541229 -1.746269e-05 -3.265295e-05

action_model._continuous_distribution.mu.weight f4 [1, 128]
00000000: bbf9 aabc 8c7b 8c3c fe5a 7c3c db51 bcbc
00000010: 1a15 4b3d 49f5 7ebc 5f33 e9bc 1ed6 0c3c
00000020: ef48 f6b9 dca5 b9ba c103 9d3c 3c21 4f3c
00000030: 19f9 8dbc 58cc a43b 6965 a73a f1d4 1e3c
00000040: 21fd 8bbc e405 08bc 2311 dc3b 9abc 1e3c
00000050: a062 8f3b 9906 093d 3103 113b 8dc7 a53c
00000060: da43 f33b bfe5 dabc 28b2 913c beee 85bc
00000070: ca0a f5bc 88b7 16bd d17a 43bc f29b 08bd
00000080: 657a b1bb f504 1dbb 5fcf 453c 3c72 d43b
00000090: 0cb4 f139 f3a4 eb3c a4d9 96bc 0ca1 25bc
000000a0: 74c4 fe3c 0334 04bc 931a 743b 2686 9ebc
000000b0: 94ee 3a3c a1d4 c63b 356d 8a3c 3e24 d33b
000000c0: 5955 fcba 5828 3db9 064c bd3c 0a4b 083d
000000d0: fa2e 85bd dd92 223c 2eaa 3d3c 0157 fdbb
000000e0: ef1e b83c 20b7 00bd 40d5 a53c 8cad 813b
000000f0: 7733 cebb 4a41 2bbc 22bb 153a 86b6 13bc
00000100: 6d0d 723c 6fe0 89bb 0493 27b9 8022 efbb
00000110: ec54 31bc 91d1 bbbb faf9 cbbb 09e1 8d3c
00000120: 405d 22bc ac02 8b3c 3da1 5a3a fdbb bf3c
00000130: 02c7 5b3c d8c8 083d 5b14 9b3c 4629 14bd
00000140: 0097 f9b9 18fe dc3c 4c72 59bc 05da a9bb
00000150: 226c 713b cc1c 873c f1a9 e4bc b914 92bb
00000160: dedf a63c c1f8 09bb db7d 31bb 43e7 10bb
00000170: 549e 6e3a 9bfd 2cb8 fd17 1fbc 32bd 92bc
00000180: 7a5b 71bc ed0e 8f3c 3b66 2fbb 4915 0bbb
00000190: aec6 0dbd f299 3cbb 0d4f 693c 07ea 5abb
000001a0: f453 b33c fcd4 013b 27ea 9b3c 62ff 03bd
000001b0: 67a3 dbbc a716 923c 2398 3aba 1c07 f5bb
000001c0: 0a8d 2ebc 9582 db3c 079d 31bc ef93 923c
000001d0: cc94 36bc 3f08 63bb 779d 50bc 95ce b6bc
000001e0: 0a73 913b c907 bebb 8ecd ffbc e9df 20bd
000001f0: 1f13 983c 1d86 56b9 81da 303c e244 10bc
-0.020871034 0.017148755 0.015402554 -0.02298825 0.04958067 -0.01556141 -0.028466878 0.008595971
-0.00046975116 -0.001416381 0.019166829 0.012642201 -0.017330693 0.0050292425 0.0012771311 0.009694324
-0.017088475 -0.008302186 0.00671591 0.009688521 0.0043757707 0.033453558 0.0022127146 0.020236755
0.00742386 -0.02672088 0.017785147 -0.016349193 -0.029912371 -0.036796123 -0.011931137 -0.033351846
-0.005416202 -0.0023959253 0.012073367 0.0064833444 0.00046101247 0.028765177 -0.018414326 -0.010109197
0.031099536 -0.008069041 0.0037247285 -0.019351076 0.0114094205 0.006067828 0.016897777 0.0064435294
-0.001925151 -0.00018039474 0.02310754 0.033274688 -0.06503101 0.00992271 0.0115762185 -0.007731319
0.022475688 -0.03142464 0.020243287 0.003957456 -0.006292756 -0.010452578 0.0005711784 -0.009015685
0.014773709 -0.004207663 -0.00015981129 -0.007297814 -0.01082347 -0.0057317694 -0.006224868 0.01731922
-0.009909928 0.016969047 0.00083400664 0.02340507 0.013414146 0.033394665 0.018930605 -0.036172174
-0.00047605485 0.02697663 -0.013271879 -0.0051834607 0.0036838134 0.016493224 -0.027913066 -0.0044580367
0.02037042 -0.002105281 -0.0027083072 -0.00221105 0.0009102572 -4.1244184e-05 -0.009710309 -0.017912481
-0.014731282 0.017463172 -0.0026763815 -0.0021222404 -0.034613304 -0.0028778282 0.014240039 -0.0033403651
0.021890618 0.0019810786 0.019032551 -0.032225974 -0.026811315 0.017833067 -0.0007118007 -0.007477654
-0.0106537435 0.026795665 -0.010840661 0.017892806 -0.011143874 -0.0034642366 -0.012732855 -0.022315303
0.0044387626 -0.005799268 -0.031225946 -0.039276037 0.018563805 -0.00020458591 0.010794283 -0.008805485
