results/test2/EndLessRunnerBehaviour/EndLessRunnerBehaviour-0.onnx (onnx, 76168 bytes, 4 tensors)

network_body._body_endoder.seq_layers.0.weight f4 [128, 10]
000000 a4 c4 61 3d fe ed 57 3e 40 e6 13 3e 69 89 62 be
       0.05511917 0.2108688 0.14443302 -0.2212273
000010 02 ea d9 3d e0 1e ea bd 16 dc dd 3d 07 94 e8 bd
       0.106403366 -0.1143167 0.10832994 -0.11356359
000020 42 c3 2f 3c 29 0a 52 3e ad 6f 6b 3d 76 7d 96 bd
       0.010727705 0.20511688 0.05747955 -0.073481485
000030 41 5a 9e 3e 53 c1 3d 3f e0 ae aa 3d 79 eb 82 3e
       0.30928233 0.74123114 0.08334136 0.25570276
000040 fc 80 9a be 52 90 a2 be 02 a2 57 bf ba f1 90 be
       -0.30176532 -0.31750733 -0.8423158 -0.28309423
000050 cb 6f ab 3d 75 b2 a6 3d 7e f1 05 be e1 90 8b be
       0.08370932 0.08139507 -0.13080403 -0.2725897
000060 da d6 6c be 5e f6 cc be 6c fe 55 3d 10 49 b1 3e
       -0.23128834 -0.40031713 0.05224459 0.34626055
000070 95 14 48 3e 21 3b ff be 5c 2c e2 3e c4 05 9e 3e
       0.19539101 -0.498498 0.4417447 0.30863774
000080 dc 25 74 be 4c db 2d bd 6d b8 74 bd 28 4f f4 3d
       -0.23842567 -0.042445466 -0.059746195 0.1192916
000090 62 d6 0d bf f7 f4 40 3e f6 9a e2 bc a0 85 dd 3e
       -0.5540525 0.18843447 -0.027661782 0.4326601
0000a0 5d e1 2b be 7e b2 e4 3b a4 57 1c be 47 2f 4f 3e
       -0.16785188 0.0069792857 -0.15267807 0.20232879
0000b0 9f c8 9d be 6b bc 48 3e 2c 09 97 3d da d2 40 3e
       -0.30817124 0.19603126 0.07374796 0.18830433
0000c0 29 bb cc 3e 23 ab b9 be 0a 93 38 be a4 42 18 be
       0.39986542 -0.3626338 -0.18024841 -0.14869171
0000d0 44 97 be 3e a6 d5 00 be 73 72 be be cf 46 ea 3c
       0.37224782 -0.125815 -0.37196693 0.028598217
0000e0 06 ac e7 be 30 d3 57 be 7a e8 13 be 87 3f b1 be
       -0.4524843 -0.21076655 -0.14444152 -0.3461878
0000f0 75 36 09 be 4a 62 1a 3f 62 56 92 bd 8d ab 95 3e
       -0.1339968 0.6030623 -0.071453825 0.29232445
000100 76 9f 8e be 07 40 91 3c 9d d7 e3 3e e6 fe b1 be
       -0.27856034 0.017730726 0.44500437 -0.34764785
000110 14 21 c0 3d f1 a4 7f 3e a7 3a 5d be 2b 84 5f bf
       0.09381309 0.24965264 -0.21604405 -0.8731105
000120 9f cd 54 be 95 43 17 bd bb 9f 85 be 42 57 2c 3e
       -0.20781563 -0.036929686 -0.26098427 0.16830161
000130 05 51 ae 3e 5f 94 ad bd db 60 00 3f 19 3f 39 3e
       0.34046188 -0.08475565 0.5014779 0.18090476
000140 0d c8 17 3d 61 25 11 3f b9 58 56 3e 3e 76 12 3e
       0.037056018 0.5669766 0.20932283 0.14302918
000150 15 9b 0c be eb 15 8a 3d 2b f6 c1 3e 40 f3 e3 3e
       -0.13731034 0.06742462 0.37883124 0.44521523
000160 93 ca 83 be 28 b6 a8 bd e3 77 e9 3e f4 af 34 3f
       -0.2574049 -0.082378685 0.4559928 0.70580983
000170 6e 59 c3 bb aa df 5b 3e 9d 94 1b be 96 ea 95 ba
       -0.0059615886 0.2147204 -0.1519341 -0.001143771
000180 3b 6b 0f be 13 aa b5 be e0 92 f4 bc 99 29 a3 be
       -0.14005749 -0.3548132 -0.029855192 -0.31867674
000190 a3 5b 15 be 9f 3b 53 be a2 63 4f bf cb 32 ea 3d
       -0.14585738 -0.20628212 -0.810114 0.11435469
0001a0 18 cd 82 3d a8 4f 37 bc d9 92 73 bd c6 5a 07 be
       0.06386775 -0.011188425 -0.059466217 -0.13218221
0001b0 b4 cd c6 be 0f 12 6e be 74 b9 a9 3d b7 2e cf 3e
       -0.38828814 -0.23249076 0.082873255 0.40465328
0001c0 79 d4 e1 3e 45 88 46 bf a0 68 aa be 24 41 3c 3e
       0.44107416 -0.7755168 -0.33282948 0.18384224
0001d0 c9 ac 8e be 2f 03 a6 be 4e b7 c4 bd 32 4a 95 3d
       -0.278662 -0.32424304 -0.09605275 0.07289542
0001e0 1e a0 5e 3f 89 9d 38 be a3 42 10 bf 31 20 1f bf
       0.8696307 -0.18028845 -0.5635168 -0.62158495
0001f0 53 95 81 be 78 7a 2c 3d 07 d7 fd bc 2c 0b b0 3e
       -0.25309238 0.042108983 -0.030986322 0.34383523
000200 e4 2e 05 be dd 10 ec be db bf d1 3b 7f 61 dd be
       -0.13006169 -0.46106616 0.006401045 -0.43238446
000210 94 8c da 3e c1 47 4d be 9c fe 8f 3d 4c 1b 03 3e
       0.42685378 -0.20046903 0.07030985 0.12803382
000220 7f a4 d9 be fa 24 a0 bd 2e f9 74 3e f5 71 c6 be
       -0.42508313 -0.07819553 0.2392318 -0.38758817
000230 58 d7 5a 3d 1c 28 2b 3e d6 5f fa 3d f6 79 2b bf
       0.053428024 0.1671452 0.122253105 -0.6698297
000240 cc 9f a9 be 28 db 06 3f bc dc 3b be 1c c2 49 be
       -0.33129728 0.52678156 -0.18345922 -0.19702953
000250 88 73 e3 3e 44 1a 14 3e 85 a9 a6 3d 34 46 9f 3d
       0.4442408 0.14463145 0.08137802 0.07777062
000260 85 3b 73 be 54 01 fe bc 2b 45 2b 3d 58 b4 8b bd
       -0.23753174 -0.031006493 0.04181401 -0.06821507
000270 ae 51 70 bf 74 f3 c1 3e 4c 62 0f bd 25 13 9a 3e
       -0.93874633 0.37881052 -0.035005853 0.3009273
000280 82 ed 96 be a7 41 ef 3e 94 a9 33 be c3 11 17 be
       -0.2947808 0.46729776 -0.17545158 -0.1475287
000290 19 5f b7 bd 36 ee 40 bf ce 30 9d 3d 74 b7 21 3e
       -0.08953685 -0.7536348 0.076753244 0.15792638
0002a0 05 b8 d6 bd 36 b8 c9 3d 6a 22 6f 3e 4d 4d b7 be
       -0.10484318 0.098495886 0.23352972 -0.35801163
0002b0 d0 f7 30 3d 03 bf 30 3e 99 7a db bc 5d 4a 75 3d
       0.043205082 0.17260365 -0.026791858 0.05988537
0002c0 59 c8 2f 3e 28 77 3c be 85 54 7f bc fe 74 2c 3e
       0.1716627 -0.1840483 -0.015584116 0.16841504
0002d0 21 3f 9f 3e 95 11 37 bf ec 94 cc 3d e3 a8 78 3e
       0.3110285 -0.71511203 0.09989342 0.24283175
0002e0 c7 cb 55 bc f8 ef 1b 3e 90 d7 f5 bd 61 36 b6 be
       -0.013049073 0.1522826 -0.12004006 -0.35588363
0002f0 f4 75 3a bd 48 c8 47 3d 70 9b 1e bf e4 b7 9a 3e
       -0.045522645 0.048774987 -0.6195593 0.30218422
000300 d7 85 2f 3e cf ca 21 be c3 0a be 3e 08 f8 8e bd
       0.171409 -0.15800022 0.37117586 -0.06980902
000310 70 09 94 bd 4c de e3 3e bf 69 4b 3e 96 c5 b5 be
       -0.072283626 0.44505537 0.19864558 -0.3550231
000320 65 38 95 3e 7d 81 e4 3e f1 48 ae bd 46 df 20 bf
       0.29144588 0.44630042 -0.08510006 -0.6284069
000330 9f 0a 5e be 13 f1 28 3b e9 04 24 3f 88 fa ac 3e
       -0.21683739 0.0025778457 0.6406999 0.3378489
000340 22 eb 05 bf ec 1f f9 3d cc ab f7 3d e6 18 c3 3e
       -0.5231191 0.12164292 0.120933145 0.38104934
000350 2a a3 db 3e b0 5d 8d 3e ab 83 ea bc a3 00 03 3e
       0.42897922 0.2761054 -0.028627237 0.12793212
000360 93 8c db be 2b 3a d0 be 90 e5 44 bd 16 1b f1 3d
       -0.42880687 -0.4066938 -0.04807049 0.11772744
000370 97 27 9e 3d 8a 4e 27 3e 23 21 69 3d e7 74 c3 3e
       0.07722395 0.16338554 0.056916367 0.38175127
000380 eb 53 72 be 28 21 9d be 0f eb b9 be 95 cf 3d 3f
       -0.23664825 -0.3068936 -0.36312148 0.7414487
000390 b9 dd 3d 3e 6d 26 23 3f 22 fa 9d bb 31 de 9d bb
       0.18541612 0.6373051 -0.004821078 -0.004817747
0003a0 55 ba d6 3e 41 7c 5a be 3e b4 53 be 4a a5 04 be
       0.41939035 -0.21336462 -0.20674226 -0.12953678
0003b0 6b 2e 93 3e 3c bd bb 3d a7 c9 9e 3e 58 4f 2f 3e
       0.28746352 0.09166953 0.31013224 0.17120111
0003c0 7c 6b 19 be 63 99 06 3e da bd a7 be fe 30 22 3e
       -0.14982408 0.1314445 -0.32762033 0.15839002
0003d0 e5 f0 d1 3e ac 9d 56 be a9 d3 15 3d 59 17 3b bd
       0.410041 -0.20958585 0.036578808 -0.045676563
0003e0 00 ad 0a 3e 36 36 62 3e 25 11 11 3c 04 a1 93 be
       0.13542557 0.22090992 0.008854185 -0.28833783
0003f0 e5 ee c5 bd 7d 22 a0 be 6f 3e 72 be a4 a3 12 3e
       -0.09664706 -0.31276312 -0.23656629 0.14320236

network_body._body_endoder.seq_layers.0.bias f4 [128]
000000 00 00 00 00 00 00 00 00 00 00 00 00 00 00 00 00
       0.0 0.0 0.0 0.0
000010 00 00 00 00 00 00 00 00 00 00 00 00 00 00 00 00
       0.0 0.0 0.0 0.0
000020 00 00 00 00 00 00 00 00 00 00 00 00 00 00 00 00
       0.0 0.0 0.0 0.0
000030 00 00 00 00 00 00 00 00 00 00 00 00 00 00 00 00
       0.0 0.0 0.0 0.0
000040 00 00 00 00 00 00 00 00 00 00 00 00 00 00 00 00
       0.0 0.0 0.0 0.0
000050 00 00 00 00 00 00 00 00 00 00 00 00 00 00 00 00
       0.0 0.0 0.0 0.0
000060 00 00 00 00 00 00 00 00 00 00 00 00 00 00 00 00
       0.0 0.0 0.0 0.0
000070 00 00 00 00 00 00 00 00 00 00 00 00 00 00 00 00
       0.0 0.0 0.0 0.0
000080 00 00 00 00 00 00 00 00 00 00 00 00 00 00 00 00
       0.0 0.0 0.0 0.0
000090 00 00 00 00 00 00 00 00 00 00 00 00 00 00 00 00
       0.0 0.0 0.0 0.0
0000a0 00 00 00 00 00 00 00 00 00 00 00 00 00 00 00 00
       0.0 0.0 0.0 0.0
0000b0 00 00 00 00 00 00 00 00 00 00 00 00 00 00 00 00
       0.0 0.0 0.0 0.0
0000c0 00 00 00 00 00 00 00 00 00 00 00 00 00 00 00 00
       0.0 0.0 0.0 0.0
0000d0 00 00 00 00 00 00 00 00 00 00 00 00 00 00 00 00
       0.0 0.0 0.0 0.0
0000e0 00 00 00 00 00 00 00 00 00 00 00 00 00 00 00 00
       0.0 0.0 0.0 0.0
0000f0 00 00 00 00 00 00 00 00 00 00 00 00 00 00 00 00
       0.0 0.0 0.0 0.0
000100 00 00 00 00 00 00 00 00 00 00 00 00 00 00 00 00
       0.0 0.0 0.0 0.0
000110 00 00 00 00 00 00 00 00 00 00 00 00 00 00 00 00
       0.0 0.0 0.0 0.0
000120 00 00 00 00 00 00 00 00 00 00 00 00 00 00 00 00
       0.0 0.0 0.0 0.0
000130 00 00 00 00 00 00 00 00 00 00 00 00 00 00 00 00
       0.0 0.0 0.0 0.0
000140 00 00 00 00 00 00 00 00 00 00 00 00 00 00 00 00
       0.0 0.0 0.0 0.0
000150 00 00 00 00 00 00 00 00 00 00 00 00 00 00 00 00
       0.0 0.0 0.0 0.0
000160 00 00 00 00 00 00 00 00 00 00 00 00 00 00 00 00
       0.0 0.0 0.0 0.0
000170 00 00 00 00 00 00 00 00 00 00 00 00 00 00 00 00
       0.0 0.0 0.0 0.0
000180 00 00 00 00 00 00 00 00 00 00 00 00 00 00 00 00
       0.0 0.0 0.0 0.0
000190 00 00 00 00 00 00 00 00 00 00 00 00 00 00 00 00
       0.0 0.0 0.0 0.0
0001a0 00 00 00 00 00 00 00 00 00 00 00 00 00 00 00 00
       0.0 0.0 0.0 0.0
0001b0 00 00 00 00 00 00 00 00 00 00 00 00 00 00 00 00
       0.0 0.0 0.0 0.0
0001c0 00 00 00 00 00 00 00 00 00 00 00 00 00 00 00 00
       0.0 0.0 0.0 0.0
0001d0 00 00 00 00 00 00 00 00 00 00 00 00 00 00 00 00
       0.0 0.0 0.0 0.0
0001e0 00 00 00 00 00 00 00 00 00 00 00 00 00 00 00 00
       0.0 0.0 0.0 0.0
0001f0 00 00 00 00 00 00 00 00 00 00 00 00 00 00 00 00
       0.0 0.0 0.0 0.0

network_body._body_endoder.seq_layers.2.weight f4 [128, 128]
000000 db 8a 90 3e 19 fa ed 3c 00 11 2d bd 88 54 8f bd
       0.28230938 0.02904992 -0.04225254 -0.06998545
000010 1c 12 bb bd 0a eb 73 be fa b5 43 3d 26 6e de bd
       -0.091343135 -0.23820129 0.04778097 -0.10860853
000020 09 e4 9c 3d ad 24 65 3d 33 58 72 3d 38 9f 46 be
       0.07660682 0.05594318 0.059166145 -0.19396675
000030 10 73 6a 3d 0e 77 3b 3d 8a df 81 bd 1b 8d 56 3d
       0.05723864 0.045767836 -0.06341465 0.052380662
000040 bf c5 5c bd 33 3c 50 3d 98 45 27 bd d5 63 a7 3d
       -0.053899523 0.05083866 -0.040837854 0.08173338
000050 38 39 21 bd 39 80 1f bd 73 de 24 3d e3 6c f9 bd
       -0.03936121 -0.038940642 0.040251207 -0.121789716
000060 f5 7d a9 3e f9 8e 89 3c e0 ba 4c 3d e6 eb 12 3d
       0.3310391 0.016791807 0.049982905 0.0358695
000070 d2 43 94 3d 00 1d 1e 3d 88 c5 8c 3b e2 f5 25 3e
       0.07239498 0.038601875 0.0042960085 0.16207078
000080 2d 8d b4 bd 35 12 dd bc 22 a5 8b 3d 81 64 b3 bc
       -0.0881599 -0.02698622 0.06818606 -0.02189851
000090 85 39 3e 3e fb 93 c1 3c c6 ab 02 3e a1 77 66 bd
       0.1857663 0.023630133 0.12760839 -0.05626643
0000a0 3e ce 0c 3e 0b a3 34 3e 57 71 9f 3d 43 e1 16 be
       0.1375055 0.17640321 0.0778529 -0.14734368
0000b0 57 a3 94 3d 56 6f 17 3e ac 7f 4d bd ea 68 c1 ba
       0.07257717 0.14788565 -0.050170586 -0.0014755998
0000c0 c1 3a 46 bd 7f 82 2f bd 2e c6 c1 bb bf a6 d3 bd
       -0.048395876 -0.04284906 -0.0059135174 -0.10334539
0000d0 04 63 ad bd 79 f1 06 3d b6 86 e4 bd 1f f5 ae bd
       -0.08466151 0.03294513 -0.111585066 -0.08542847
0000e0 6e 00 84 3c 5d ba 03 3e 74 00 84 3d 8d 9a 5d 3d
       0.016113486 0.1286406 0.06445399 0.05410247
0000f0 20 2e 10 3e e2 1f d9 3d 74 43 cd bd a5 a1 4d 3d
       0.14080095 0.10601784 -0.10022631 0.050202984
000100 dd e3 b2 bd c5 ca a1 bd 8e df 09 3d 67 b2 3c 3d
       -0.08734868 -0.07900003 0.033660464 0.046068575
000110 b8 32 87 bd a8 8e c1 3c fe 2a 17 be 1f a0 05 be
       -0.06601471 0.023627594 -0.14762494 -0.13049363
000120 4f 29 8d 3d 6f 03 d1 3c b6 df 77 3d 11 bc 84 bd
       0.068926446 0.025514333 0.06051608 -0.06481183
000130 d7 48 2c bb aa b9 d9 bc 39 05 97 bd 34 a6 90 bd
       -0.0026288533 -0.02657779 -0.07374043 -0.07062951
000140 ae d2 33 3e ed f9 0b 3e 33 4d fa bc 6b 4e 4b be
       0.17560837 0.13669558 -0.03055439 -0.19854133
000150 35 69 ad 3d 54 b9 33 be 32 88 da 3c 6a 0f 83 3d
       0.08467332 -0.17551166 0.026676271 0.063994244
000160 69 35 24 be 13 8a 02 bd 2d 16 4c 3d 08 51 de 3d
       -0.16036 -0.03186996 0.049825836 0.10855299
000170 07 2b c0 3d 54 b6 45 3d 2c 0d 38 3d 77 7d 1e 3a
       0.09383207 0.048269585 0.044934437 0.00060459174
000180 35 fe 24 be d3 d6 ab 3d 77 a1 0b 3e b7 0a 91 3d
       -0.16112597 0.08390584 0.13635813 0.07082122
000190 0c c1 1d be a1 5f ed 3a 65 75 ee 3d ef 0e 37 3d
       -0.15405673 0.0018110165 0.11643485 0.044691976
0001a0 93 94 e9 bc 02 df 83 3b 46 b1 b3 3b c0 ed f4 3b
       -0.028513229 0.0040243873 0.005483779 0.007474631
0001b0 7a be a5 3c 49 d5 c7 3c 1c fe ff bd c5 2a 9f bd
       0.020232428 0.024393694 -0.124996394 -0.077718295
0001c0 00 98 02 bd 0e e3 bb bd 28 d7 2c 3d ba a8 db 3c
       -0.03188324 -0.091741666 0.042197376 0.026813854
0001d0 01 be 7b bd 68 58 b9 bd 1d e1 b4 3c 88 fc 3a 3d
       -0.0614605 -0.09050065 0.022079999 0.04565099
0001e0 80 9f 5d 3c c7 1b 89 3d 8e 74 00 3e 67 49 eb 3c
       0.013526797 0.06694751 0.12544462 0.028721524
0001f0 43 3b 11 be b4 c8 04 3e 2a 22 d4 bd fb e8 80 bd
       -0.14182763 0.12967187 -0.10358079 -0.062944375
000200 a7 00 ab 3d 67 93 95 ba ef f5 0d 3e cd d9 0d bd
       0.08349734 -0.0011411727 0.13863347 -0.03463154
000210 ad a2 0e 3e 31 0b 0c 3e 19 06 b8 bd 2a b5 0b be
       0.13929243 0.13676144 -0.08985538 -0.13643327
000220 28 ef 21 3e f9 37 88 3d 6a 9e 90 3d bf 71 90 3c
       0.15813887 0.06651301 0.07061465 0.017632363
000230 30 b4 2e 3e f0 25 b0 bc 07 ee f2 3c c4 3b 00 3c
       0.17060924 -0.021502465 0.029654516 0.007826749
000240 7f 44 9e 3d c6 76 55 bd 96 81 54 3d d6 78 1f be
       0.07727908 -0.052115224 0.051881395 -0.15573439
000250 45 5c 90 3b d8 c0 d3 bd 6c 21 c7 bc af af 83 bc
       0.0044055306 -0.103395164 -0.024307929 -0.016074983
000260 b5 3b 96 3d 72 82 28 bc 8b a3 25 3e cb 0d 69 be
       0.07335607 -0.010285007 0.16175668 -0.22759168
000270 58 5f 1f be b3 ae 92 3d 53 24 06 3c d7 e1 54 be
       -0.15563715 0.071622275 0.008187371 -0.20789276
000280 30 c8 ee 3d a8 6a 6f 3c 69 ed 58 3d 19 60 0a 3d
       0.116592765 0.014612831 0.052960787 0.033783052
000290 df 77 30 3e 0b e2 71 3d bf 4d 11 3d c1 14 3b bc
       0.17233227 0.059053462 0.035474535 -0.011418522
0002a0 a6 43 8a bd 96 88 b2 3c 41 fc d6 3d e8 98 64 3d
       -0.06751184 0.021793645 0.10497332 0.055809885
0002b0 c1 59 f6 bb 39 f7 ba bb 16 09 b8 bd 3c b9 ba bc
       -0.0075180237 -0.005705741 -0.08986108 -0.022793405
0002c0 0a 9d 5c be 04 c5 66 3c 85 a5 05 3d 35 cd 47 3c
       -0.2154428 0.014085058 0.032628555 0.012194921
0002d0 d5 b2 62 3d b1 bb 19 3d f3 0e f9 bd fd ab d1 3d
       0.05534633 0.037532512 -0.121610545 0.10237882
0002e0 65 f5 29 3d 8b 21 85 3d 6b 6c 0f bd 74 b2 c7 3d
       0.041493792 0.065005384 -0.035015505 0.09750834
0002f0 79 b2 ca 3b 5b 3a 31 3d d7 61 5f bd 64 45 c9 3d
       0.0061858264 0.043268543 -0.054536667 0.09827688
000300 80 a8 a1 bc 57 b1 58 3b 10 50 91 3d 3b d5 37 be
       -0.019733667 0.0033064687 0.07095349 -0.17952435
000310 96 1d 00 be 1c aa 12 3e bb 0f dc bc 78 05 51 3d
       -0.12511286 0.14322704 -0.02686297 0.051030606
000320 c3 c8 ee 3c 35 16 08 3e 30 dc 9b bd be b8 d8 3b
       0.029148465 0.13289721 -0.07610357 0.00661382
000330 24 07 59 3d b9 56 9e 3c 76 4a 07 3e 40 9f 57 3d
       0.052985325 0.019328462 0.13211998 0.052642107
000340 0c 52 90 3d 8d 83 56 3c fd 0e 22 be 32 b0 85 3d
       0.07046899 0.013092888 -0.1582603 0.06527747
000350 8c b8 50 3d 8b 94 61 3d dd e5 75 bd 79 0b 76 bd
       0.050957248 0.055073302 -0.060033668 -0.060069535
000360 fc 1a 7f 3d 02 64 43 be 4d 9e 7b bd ef e0 80 3d
       0.062281594 -0.19081119 -0.061430264 0.06292903
000370 62 7b c5 3d 5b 2b e7 3d 42 ff 79 3c 91 de 11 ba
       0.09642674 0.11287566 0.015258612 -0.0005564476
000380 4d 37 a7 bd 04 05 27 bd b4 a8 fd bc 42 51 1a 3c
       -0.08164845 -0.040776268 -0.030964233 0.009418787
000390 4d 61 04 3e 35 f0 2a bd df 74 1c 3e 7d f7 de bd
       0.12927742 -0.041732986 0.15278958 -0.108870484
0003a0 62 55 a5 3b 4c d7 df bc e4 9f d6 3d 20 46 b3 3d
       0.005045579 -0.027324341 0.104797155 0.0875361
0003b0 ec d3 37 3e da 6b d5 bd 11 1d 9b bd 30 8a fc bd
       0.17951936 -0.10420962 -0.07573903 -0.12331045
0003c0 0f f1 7d bd 65 cb 69 be 3f 40 cc 3d 30 33 c5 39
       -0.06199747 -0.22831495 0.099731915 0.00037612906
0003d0 ed 97 a7 bd 96 2a c6 bd 4d 14 dc bc 37 79 ba bd
       -0.081832744 -0.096760914 -0.026865149 -0.09105151
0003e0 9b f7 87 bd 71 13 90 3d 16 a7 8d bd 7c 72 34 3d
       -0.06639024 0.07034958 -0.06916635 0.044054493
0003f0 a3 e3 68 3d c4 69 b4 3d 64 36 8e bd f0 88 90 bd
       0.056857716 0.08809236 -0.06943968 -0.07057369

action_model._continuous_distribution.mu.weight f4 [1, 128]
000000 40 0a f7 bb 72 56 94 bb 4b 87 16 3d 58 01 b9 3b
       -0.0075390637 -0.0045269066 0.03675012 0.005645912
000010 c8 a6 2e bb 4f ce e5 bc 1b a0 99 bc 4a 63 66 bb
       -0.0026649702 -0.028052477 -0.018753102 -0.0035154396
000020 70 f8 11 3c 76 13 94 bb 43 98 3b bc 55 bd 4c bc
       0.00890933 -0.0045189215 -0.011449876 -0.012496312
000030 3f e9 54 bb 2b 72 b7 bc 8f e5 ae 3c b2 6c 90 3b
       -0.0032487658 -0.022393307 0.021349696 0.0044074887
000040 6b bf ab 3c ec fe 8f bc 4b 61 34 bc 28 14 67 bc
       0.020965299 -0.01757761 -0.011009525 -0.014103927
000050 fa 75 f5 bb 2f 14 23 bd 7b 73 64 bb 95 17 2b 3c
       -0.0074908705 -0.03981417 -0.003485887 0.010442634
000060 f3 6b 03 3c 63 cf 58 3c 96 34 21 39 c5 a6 5e bc
       0.008021343 0.013233039 0.00015373746 -0.013589566
000070 25 42 f5 3c 51 db 9d bc 48 f3 a8 3c ea ca 63 bc
       0.029938767 -0.019269617 0.020623818 -0.013903359
000080 c3 21 b5 bb 5d d6 1d bc 6b 58 3e 3c 8e c0 82 bc
       -0.0055277064 -0.009633628 0.01161776 -0.015960958
000090 8d c1 f0 3c 0b d4 2a 3c bc d0 9f bb cf bf 00 3d
       0.029389167 0.010426532 -0.004877178 0.031432923
0000a0 e3 73 f4 bc 95 6e 52 bc e5 8d 36 3c a3 19 7d bc
       -0.029840415 -0.012843748 0.011142229 -0.015448007
0000b0 7d 8e f1 3a 85 aa d1 3c e8 06 9b bb 85 4a 2f bb
       0.0018429306 0.025594005 -0.004731048 -0.0026747298
0000c0 02 87 52 bc e6 c7 23 bd 67 38 ca ba 2d 28 fd 3b
       -0.012849571 -0.03998556 -0.0015428186 0.0077257366
0000d0 1f b1 16 3c d1 68 b3 bb 7f ac e5 3b 62 90 5d 3b
       0.009197502 -0.0054751416 0.0070090885 0.0033807983
0000e0 c3 c5 fd bb f3 25 0d 3b 67 21 22 bb 5c 2d 10 bd
       -0.0077445223 0.0021537512 -0.0024739148 -0.035199508
0000f0 a4 a5 38 bc 65 c5 eb 3c 9e f2 ad ba 43 e2 2f bc
       -0.011269961 0.028780648 -0.0013271158 -0.010735097
000100 13 ff 09 bd b0 71 e4 39 e3 4e fb b8 59 17 12 bc
       -0.033690523 0.00043572253 -0.000119833065 -0.008916699
000110 80 4d ca 3b cb fe cb bb 9f cf 23 3c 1a f3 70 bc
       0.0061737895 -0.006225442 0.009998231 -0.014706397
000120 7b d8 c4 3a bb 0f 04 bc f4 6e 11 bb 13 1e 51 3b
       0.001501813 -0.008060391 -0.0022191377 0.0031908795
000130 8c 90 b9 bb 5e 2b a0 ba b7 f6 40 3c f0 cc f0 3c
       -0.0056629833 -0.0012219956 0.011777571 0.029394597
000140 02 d9 43 bc e4 73 01 3d aa f4 66 3c bd 42 4b bc
       -0.011953594 0.031604663 0.014096418 -0.012406048
000150 ba ea 54 bc f1 a4 b9 bb 7b b8 90 3c c5 68 e0 bb
       -0.012995416 -0.0056654145 0.017666092 -0.006848427
000160 72 d4 e5 3c 85 0c c0 3c 6d 83 ad 3b bd 64 9f 3b
       0.028055403 0.02344347 0.005295208 0.004864304
000170 03 66 b9 ba a0 6c 88 3c 57 61 90 ba 69 ae 07 bc
       -0.0014144782 0.016653359 -0.0011015338 -0.008281329
000180 57 de a1 bb 26 ae 86 bc cc 5b be b7 08 8c 47 3c
       -0.004939835 -0.016440462 -2.2692511e-05 0.012179382
000190 cf 03 95 bc 8f 52 09 bc a2 62 9d bc c3 27 2a 3c
       -0.018190293 -0.0083815 -0.01921207 0.0103854565
0001a0 3a c7 5f 3c 95 1c 35 3b 62 85 64 bc 8a 77 93 3c
       0.013658339 0.0027635444 -0.013947817 0.018001337
0001b0 70 38 dd bc 25 40 be 3b 95 10 9a bc 23 25 1a 3c
       -0.02700445 0.0058059865 -0.018806735 0.009408268
0001c0 1e 57 90 3c 32 c2 fc 3c 2f 7e fe 3c b7 b3 c8 3c
       0.017619666 0.030854318 0.031066028 0.024499757
0001d0 2d f1 75 3b af 75 16 bd 3d 5c e6 3c ff 1e 95 3c
       0.0037527785 -0.036733326 0.028120155 0.018203257
0001e0 e7 21 d4 3c ac 90 88 bc 42 ef 3b bb f7 b2 88 bb
       0.025895072 -0.016670547 -0.0028676544 -0.004171725
0001f0 b7 0e be bc 44 d6 b1 bb 43 b4 3f bc 8e 20 0c 3d
       -0.023200376 -0.005427154 -0.011700693 0.034210734
