results/test2/EndLessRunnerBehaviour/EndLessRunnerBehaviour-23524.onnx (onnx, 74029 bytes, 5 tensors)

network_body._body_endoder.seq_layers.0.weight f4 [128, 5]
0.16394538 0.30967504 -0.17404836 0.1326402 0.30906537 0.4546694 -0.5176484 -0.2364245
0.56461966 0.16261436 0.627696 0.50052005 0.47036257 0.101548485 -0.37656483 -0.18300399
0.19705339 -0.3674061 0.08589379 -0.12766296 0.19988397 0.22343773 -0.20185839 -0.5395295
0.042271122 0.17532 -1.0281377 -0.24827003 -0.67395747 -0.18541417 0.29997265 -0.73582923
-0.19069299 -0.7836395 0.8534316 -0.6191275 0.44210157 -0.21080275 -0.20506722 -0.05170853
0.21477337 -0.14072011 -0.44216648 -0.030155709 0.46667168 -1.1169151 0.27501196 0.4263647
-0.40265846 -0.2172364 -0.30687732 -0.10671211 0.078362435 -0.4142971 0.4372813 0.08885312
-0.08635322 -0.1899382 0.92280716 0.2611871 -0.49093977 0.86158025 0.3608032 -0.13382469
-0.37153426 -0.24698043 -0.5429327 0.6084347 0.122569345 -0.5949378 -0.15991199 -0.2969179
-0.22598925 0.95139974 -0.10414664 -0.47054318 0.25271562 0.012779292 0.5701592 0.88626915
-0.36597684 0.467872 -0.20207116 -0.52856773 -0.6781158 0.037763566 0.5429792 0.21630642
0.41558585 -0.16708279 0.49535224 0.25415844 0.11654274 0.30524254 0.70781416 0.5661801
-0.36640587 0.14961119 -0.44497278 0.3637998 0.2286046 -0.15111195 0.7945877 0.08975996
-0.19856961 -0.90174365 -0.23127224 0.95344687 0.5511058 0.044531275 -0.20136322 0.11054041
-0.020377312 0.038659982 0.049740106 -0.44390488 -1.1958333 -1.1819556 0.6650358 -0.066299535
0.839146 0.34912115 -0.15857427 0.62226766 -0.14035305 0.25209722 -0.19318137 0.67577165
-0.6389613 0.07157416 0.088969626 0.41212568 -0.2513308 -0.052019294 0.41690275 0.09758718
-0.391029 0.35070512 0.15608007 -0.2018342 -0.07321953 -0.49843496 0.36243823 0.16456784
-0.28547505 -0.30929136 -0.3613974 -0.5418172 0.33644244 -0.7078538 -0.38729164 -0.03798349
-0.31676644 0.096491545 0.52256477 0.31811142 -0.16618763 -0.027242346 -0.6176161 -0.41531372
-0.37752995 -0.111764565 -0.14339086 0.29016742 -0.28828967 0.7062138 0.32556185 0.582996
-0.010741312 1.0122452 0.94021827 -0.37444878 -0.6751735 -0.40146008 -0.479077 -0.41854343
0.28737402 -0.62560993 -0.6956916 -0.36092103 -0.09468781 -0.08667906 0.117935285 -0.39547884
0.096390076 0.02752366 0.19189005 0.3926234 -0.70544523 0.7053034 0.15219419 -0.3183073
-0.025083495 -0.017177664 0.017344203 -0.14534406 -0.91163516 0.10732909 0.5573808 0.35161984
0.4068762 0.1979911 0.2337723 -0.044025883 -0.06640709 -0.31783846 -0.31361786 -0.34323895
0.10656403 -0.65658075 0.39710522 0.6227462 0.64387697 -0.13513198 0.0077360873 0.39079294
0.1789248 0.40527084 -0.6173079 0.5379974 0.21935259 0.100097805 -0.11524485 -0.5587102
-0.38881007 0.733405 0.28377196 -0.012307238 -0.57664967 0.09153272 0.1902374 0.44835934
0.69392645 0.4491815 0.5400385 -0.2069803 -0.18807766 0.03864522 0.040259268 -0.31448796
0.21058059 0.96342874 0.14290096 -0.64282256 0.1727658 -0.38806373 0.44676742 0.026473667
-0.21078853 -0.12337161 -0.07320893 -0.13785622 -0.46345484 -0.71669114 0.35596114 0.023542877
00000000: 4ce1 273e ba8d 9e3e bc39 32be d5d2 073e
00000010: d13d 9e3e 6dca e83e 9b84 04bf 4419 72be
00000020: ea8a 103f 6184 263e afb0 203f 1522 003f
00000030: 5dd3 f03e a7f8 cf3d 1bcd c0be 6665 3bbe
00000040: 5dc8 493e a71c bcbe 15e9 af3d 14ba 02be
00000050: 62ae 4c3e dccc 643e f7b3 4ebe 9b1e 0abf
00000060: 7c24 2d3d 1687 333e 049a 83bf 803a 7ebe
00000070: 7a88 2cbf 36dd 3dbe 0496 993e 4e5f 3cbf
00000080: 0645 43be 999c 48bf 7e7a 5a3f 247f 1ebf
00000090: 235b e23e addc 57be 24fd 51be 53cc 53bd
000000a0: 8ded 5b3e ef18 10be a563 e2be 1b09 f7bc
000000b0: 97ef ee3e 13f7 8ebf 5ece 8c3e 794c da3e
000000c0: 4029 cebe 3873 5ebe 061f 9dbe e18b dabd
000000d0: 7c7c a03d c01e d4be 56e3 df3e a0f8 b53d
000000e0: f5d9 b0bd 297f 42be 173d 6c3f 51ba 853e
000000f0: 755c fbbe 8690 5c3f 32bb b83e 5709 09be
00000100: bd39 bebe 70e8 7cbe a3fd 0abf 60c2 1b3f
00000110: a305 fb3d d84d 18bf f8bf 23be 9f05 98be
00000120: ba69 67be ef8e 733f d54a d5bd 09eb f0be
00000130: f163 813e 3c60 513c f4f5 113f 89e2 623f
00000140: 5161 bbbe eb8c ef3e beeb 4ebe 3750 07bf
00000150: ff98 2dbf f8ad 1a3d af00 0b3f 6e7f 5d3e
00000160: abc7 d43e c017 2bbe cf9e fd3e 0e21 823e
00000170: f6ad ee3d c048 9c3e 4f33 353f 2ef1 103f
00000180: 8d99 bbbe ad33 193e 79d3 e3be f843 ba3e
00000190: 5317 6a3e 17bd 1abe 196a 4b3f 12d4 b73d
000001a0: d555 4bbe acd8 66bf a1d2 6cbe 1815 743f
000001b0: 4515 0d3f 6d66 363d 2932 4ebe 0363 e23d
000001c0: 52ee a6bc ee59 1e3d 48bc 4b3d 8047 e3be
000001d0: 1111 99bf 524a 97bf c93f 2a3f 0dc8 87bd
000001e0: 46d2 563f 02c0 b23e 4b61 22be ef4c 1f3f
000001f0: b6b8 0fbe e312 813e 56d1 45be 5fff 2c3f
00000200: f892 23bf 7995 923d b535 b63d 2302 d33e
00000210: 6eae 80be 2f12 55bd 4774 d53e cadb c73d
00000220: f434 c8be 9f8f b33e 74d3 1f3e a0ad 4ebe
00000230: 1ff4 95bd de32 ffbe 8191 b93e 7984 283e
00000240: c929 92be 705b 9ebe 1409 b9be 88b4 0abf
00000250: 2f42 ac3e e835 35bf 174b c6be 9394 1bbd
00000260: 362f a2be 5c9d c53d cec6 053f 80df a23e
00000270: 172d 2abe 572b dfbc 171c 1ebf 00a4 d4be
00000280: 9b4b c1be d2e4 e4bd 0ed5 12be d390 943e
00000290: b49a 93be 6dca 343f 0bb0 a63e 3a3f 153f
000002a0: 54fc 2fbc 4091 813f 25b2 703f c0b7 bfbe
000002b0: 2cd8 2cbf 2d8c cdbe 9549 f5be 534b d6be
000002c0: b022 933e f927 20bf d818 32bf a4ca b8be
000002d0: afeb c1bd ca84 b1bd 0e88 f13d 347c cabe
000002e0: 2968 c53d 4c79 e13c d37e 443e ef05 c93e
000002f0: 0f98 34bf c38e 343f cbd8 1b3e 2df9 a2be
00000300: e77b cdbc 2cb8 8cbc 6e15 8e3c 13d5 14be
00000310: ec60 69bf 5bcf db3d 82b0 0e3f 8407 b43e
00000320: 1452 d03e 2ebe 4a3e 0162 6f3e 7c54 34bd
00000330: 7100 88bd b9bb a2be 8592 a0be 04bd afbe
00000340: 3e3e da3d ad15 28bf 6051 cb3e 4c6c 1f3f
00000350: 1fd5 243f 0a60 0abe 017f fd3b 0316 c83e
00000360: 1038 373e a97f cf3e e407 1ebf 33ba 093f
00000370: f79d 603e 1400 cd3d 7e05 ecbd a207 0fbf
00000380: 1d12 c7be 6ec0 3b3f 8f4a 913e 4ca4 49bc
00000390: 509f 13bf 8275 bb3d 98cd 423e 5b8f e53e
000003a0: 2aa5 313f 1efb e53e f73f 0a3f a5f2 53be
000003b0: 6e97 40be 734a 1e3d e7e6 243d 9104 a1be
000003c0: 70a2 573e 44a3 763f a154 123e 0590 24bf
000003d0: 85e9 303e 4ab0 c6be b3be e43e 4edf d83c
000003e0: f3d8 57be 41aa fcbd 90ee 95bd 2e2a 0dbe
000003f0: f449 edbe 1279 37bf 8a40 b63e fedc c03c

network_body._body_endoder.seq_layers.0.bias f4 [128]
-0.00021972986 -0.0021057473 0.0005906905 -0.0008395688 -2.6054131e-05 -0.00035413832 0.00033879816 -0.00040116246
0.0002364435 -0.002500522 -0.00029966 -0.0008658645 -0.00023577116 -0.0024172112 -0.0030143762 0.00036562432
9.9285986e-05 -0.0005603493 -0.00017013913 -0.0020821705 -0.0032271189 -0.0032738703 -0.00023656842 0.0004774385
-2.0237225e-05 0.00028494868 -0.00026770734 0.0029249184 0.0008177147 0.00093595404 -0.00094539614 -0.0018021112
0.000115910036 6.3670115e-05 1.1020678e-05 2.9533354e-05 -0.0012991867 -0.00078229257 0.00011400149 -0.00037890614
-0.00034736277 0.00043089082 0.0001461719 -0.00023218007 0.0007378967 0.0001180979 4.3502274e-05 -0.0023736346
-0.00042972164 -5.9248516e-05 -0.0008797938 -0.00032081053 -0.0011396246 -0.0012740307 0.0024078395 -0.0002670077
0.00063579314 1.3801632e-05 -0.00030588574 -0.00027373456 -9.1058566e-05 -8.171924e-05 -0.0015384144 0.00025755953
-0.0034677559 -0.0008412035 0.0012236803 -0.0027167283 0.00024202497 0.0005000181 -0.00043541746 -0.001286819
-0.00019304157 0.000170199 -0.00068230845 0.003713418 -1.701343e-05 0.0014855054 -0.0016687191 -0.0004913643
-6.595924e-05 -0.00042271175 -0.00026630933 0.00015192923 -0.00056718994 -0.00016085569 7.1879695e-05 -6.703797e-05
-0.00015735188 -0.00026710835 -0.00027943525 -7.175768e-05 -0.0001679081 -0.0005422784 5.684949e-05 0.00035237157
-7.158947e-05 -0.0003185147 0.00010125583 -0.0008969937 0.00046944123 -9.2215225e-05 0.0017609415 -0.0005698035
0.0017075045 0.0014479288 -0.00065535423 -0.004546234 -0.0002886134 -0.0013607189 -0.0020082113 -4.4919278e-05
-0.00021524202 -0.0009702157 -0.00025361404 -0.0003777455 -0.00038987852 -0.00020038702 -0.0017484836 0.0014739993
-0.0007783494 0.0010270032 -0.00013950784 -0.0012330195 -0.00019769953 0.0029629427 -0.000115602845 0.00022059948
00000000: 4967 66b9 9400 0abb 92d8 1a3a 8216 5cba
00000010: d28e dab7 a4ab b9b9 b8a0 b139 1d53 d2b9
00000020: d2ed 7739 ccdf 23bb af1b 9db9 2ffb 62ba
00000030: 5739 77b9 136a 1ebb d78c 45bb 44b1 bf39
00000040: c237 d038 68e4 12ba 6067 32b9 0675 08bb
00000050: 127e 53bb 6e8e 56bb 5a0f 78b9 b650 fa39
00000060: 1cc3 a9b7 2a65 9539 125b 8cb9 fdaf 3f3b
00000070: e85b 563a d05a 753a 76d4 77ba d134 ecba
00000080: ba14 f338 a286 8538 74e5 3837 65be f737
00000090: 7949 aaba c412 4dba 1514 ef38 eca7 c6b9
000000a0: 3e1e b6b9 30e9 e139 b845 1939 5d75 73b9
000000b0: 696f 413a 54ab f738 3676 3638 fb8e 1bbb
000000c0: 434c e1b9 9c81 78b8 f6a1 66ba 7632 a8b9
000000d0: 755f 95ba 60fd a6ba d8cc 1d3b 2bfd 8bb9
000000e0: 5bab 263a 8f8d 6737 4a5f a0b9 0884 8fb9
000000f0: b2f6 beb8 af60 abb8 9fa4 c9ba 0e09 8739
00000100: 4a43 63bb 3684 5cba e663 a03a 230b 32bb
00000110: 15c8 7d39 a613 033a be48 e4b9 7baa a8ba
00000120: 346b 4ab9 7277 3239 f2dc 32ba d15c 733b
00000130: 10b8 8eb7 4ab5 c23a ecb8 daba e6ce 00ba
00000140: 9953 8ab8 699f ddb9 6f9f 8bb9 314f 1f39
00000150: 79af 14ba 5fab 28b9 1ebe 9638 bc96 8cb8
00000160: d3fe 24b9 ad0a 8cb9 2a81 92b9 9c7c 96b8
00000170: 7d10 30b9 b027 0eba ad71 6e38 83be b839
00000180: 4e22 96b8 52fe a6b9 4f59 d438 3a24 6bba
00000190: 561f f639 ac63 c1b8 64cf e63a de5e 15ba
000001a0: 58ce df3a 6ec8 bd3a 14cc 2bba 93f8 94bb
000001b0: 0951 97b9 265a b2ba 329c 03bb b567 3cb8
000001c0: 97b2 61b9 1356 7eba 80f7 84b9 250c c6b9
000001d0: 9c68 ccb9 fb1e 52b9 602d e5ba 3633 c13a
000001e0: 250a 4cba 829c 863a da48 12b9 459d a1ba
000001f0: 904d 4fb9 ee2d 423b ce6f f2b8 b950 6739

network_body._body_endoder.seq_layers.2.weight f4 [128, 128]
-0.0039667943 -0.09118641 -0.1075022 0.06752574 0.0010787353 0.02564264 0.0017396985 0.07055065
0.10742533 -0.003285404 -0.09331806 -0.06411454 -0.032918338 -0.027885001 -0.023159124 -0.08657754
0.14242376 0.04595761 0.07049194 0.0083385175 -0.047334276 -0.13211495 -0.12212462 -0.12617554
-0.026683195 -0.049608316 -0.012228605 -0.12810798 0.017497761 -0.10714509 -0.016404577 -0.08406213
0.026390305 -0.008745128 0.032158595 0.1768448 0.09157225 0.09047598 -0.10649851 0.10636787
0.108082175 0.0098046735 -0.07679056 0.082574554 -0.0730395 -0.1300096 0.060751755 0.02178297
0.14992146 -0.03646577 0.108709686 0.024955662 -0.05383739 -0.006944748 -0.090599485 0.006484304
0.06085851 -0.010820349 -0.058899645 0.07605676 0.14662938 -0.04674791 -0.037837513 -0.0023147773
0.039249554 0.015003361 0.086085536 0.10262077 -0.0050962805 0.10282618 0.063217245 0.18423009
0.1299056 0.018110493 -0.050528873 0.017615458 -0.104917295 0.013730086 -0.021815378 0.1710491
-0.03869129 0.046803933 -0.049131554 0.033914715 0.018806854 -0.036375437 -0.04082283 -0.011224396
0.016639706 -0.09998355 -0.033185977 0.089781545 -0.058790844 0.08108581 0.056360707 -0.0025301264
-0.09613789 -0.06391445 -0.013548746 0.04139451 -0.011693172 -0.0006143878 0.13497242 -0.09324042
0.060206406 0.119868174 0.103558816 0.040602393 -0.05937346 0.024181265 -0.063139856 -0.13670526
-0.053832605 -0.11958447 -0.110503994 -0.06630915 -0.13868022 -0.024592789 0.026686277 0.058934532
-0.05872664 0.038805455 -0.15755604 0.015674265 0.03102645 -0.028138086 0.06202507 0.12836793
-0.07957855 0.09280042 0.12964283 -0.032097686 -0.07338454 -0.08243206 0.09770159 -0.007963115
0.097533 0.06993109 0.09608977 0.15331037 -0.07000399 -0.11327493 0.011891795 -0.048137672
0.16896117 -0.07902569 -0.11470106 -0.09934651 0.03882712 0.07624254 0.10740401 -0.036559973
-0.043321516 -0.09040698 -0.14094874 0.011122498 0.04257107 0.19935589 0.018916223 -0.041580126
0.12739477 0.11737343 -0.06206067 -0.13226317 0.01631958 0.054904338 -0.0077504367 0.19207989
-0.17380156 -0.029005762 0.1275706 0.01416008 -0.039014664 0.059710566 -0.03733959 -0.0035875782
0.054426145 0.05784576 0.13870892 -0.10344889 -0.019191068 -0.036876336 0.03167685 0.02983509
0.041347276 -0.026837764 -0.11323609 0.055756122 0.07963873 0.091733016 0.054068286 -0.18055944
-0.04491156 -0.03543958 -0.085237056 0.115844905 0.06837173 0.039492715 -0.018150967 0.087729074
0.06481012 -0.012536927 0.09233159 -0.052220266 0.09349143 -0.04666178 -0.2153342 0.06525263
0.009371909 0.094982184 0.002201503 0.08657448 -0.009190636 -0.09420159 0.05012792 -0.08806995
-0.06338159 0.040405408 0.11434129 -0.07424451 -0.00015434198 -0.08567825 0.03287393 0.049777597
0.0077729267 -0.15906389 0.04008883 -0.07884502 0.11002211 0.12172485 0.051320095 -0.013977194
-0.15089482 -0.093547076 0.0077977073 0.008449975 0.010070492 0.096950516 -0.10862206 -0.09166443
-0.15898179 -0.06218575 0.01569193 0.13087791 0.020281233 0.026330395 0.1037421 0.02441758
0.06575107 -0.1119577 0.028432788 0.112932056 0.027784633 0.017558478 -0.043932755 -0.24491951
00000000: e2fb 81bb f1bf babd 1d2a dcbd ef4a 8a3d
00000010: 5a64 8d3a 8410 d23c 9806 e43a dc7c 903d
00000020: d001 dc3d ef4f 57bb 8a1d bfbd 7c4e 83bd
00000030: 61d5 06bd 166f e4bc 34b8 bdbc 914f b1bd
00000040: 89d7 113e 0c3e 3c3d 145e 903d 479e 083c
00000050: 96e1 41bd 2449 07be 791c fabd 2934 01be
00000060: b796 dabc 1732 4bbd 7d5a 48bc bd2e 03be
00000070: 7757 8f3c e36e dbbd e462 86bc c428 acbd
00000080: 7b30 d83c ba47 0fbc bbb8 033d ce16 353e
00000090: 3b8a bb3d 784b b93d e41b dabd 66d7 d93d
000000a0: 305a dd3d c8a3 203c 5e44 9dbd d91c a93d
000000b0: bc95 95bd 3d21 05be d5d6 783d 3372 b23c
000000c0: 0385 193e 225d 15bd 2fa3 de3d d16f cc3c
000000d0: 9884 5cbd c590 e3bb 398c b9bd 497a d43b
000000e0: c646 793d d547 31bc c140 71bd a6c3 9b3d
000000f0: 0326 163e bd7a 3fbd 82fb 1abd 85b3 17bb
00000100: 24c4 203d a8d0 753c 9d4d b03d d72a d23d
00000110: b3fe a6bb 8896 d23d 0b78 813d d0a6 3c3e
00000120: f905 053e 755c 943c 5df7 4ebd 4b4e 903c
00000130: e1de d6bd 28f4 603c 2ab6 b2bc 7f27 2f3e
00000140: c27a 1ebd 7bb5 3f3d 2b3e 49bd 28ea 0a3d
00000150: d510 9a3c 69fe 14bd d735 27bd 87e6 37bc
00000160: fe4f 883c 2dc4 ccbd 05ee 07bd 63df b73d
00000170: abce 70bd 5110 a63d 7cda 663d 7ad0 25bb
00000180: f1e3 c4bd 94e5 82bd 8ffb 5dbc 4a8d 293d
00000190: b894 3fbc de0e 21ba 3636 0a3e d5f4 bebd
000001a0: fe9a 763d 727d f53d a516 d43d b24e 263d
000001b0: 9631 73bd ca17 c63c 784f 81bd 77fc 0bbe
000001c0: 947f 5cbd b4e8 f4bd eb4f e2bd 17cd 87bd
000001d0: 3002 0ebe d176 c9bc 2e9d da3c 5665 713d
000001e0: 588b 70bd 78f2 1e3d 5f56 21be 5167 803c
000001f0: 2f2b fe3c d881 e6bc 000e 7e3d e272 033e
00000200: 14fa a2bd 260e be3d 17c1 043e dd78 03bd
00000210: a24a 96bd 24d2 a8bd c517 c83d ba77 02bc
00000220: 62bf c73d 0838 8f3d b7ca c43d 65fd 1c3e
00000230: 405e 8fbd b0fc e7bd ced5 423c 022c 45bd
00000240: 2804 2d3e 39d8 a1bd 64e8 eabd 2f76 cbbd
00000250: 3009 1f3d 0c25 9c3d a2f6 db3d e9bf 15bd
00000260: e771 31bd 4b27 b9bd de54 10be 233b 363c
00000270: 015f 2e3d f323 4c3e 32f6 9a3c ec4f 2abd
00000280: c673 023e 7b61 f03d 5433 7ebd ff6f 07be
00000290: a4b0 853c 5fe3 603d 60f7 fdbb 97b0 443e
000002a0: 09f9 31be 7e9d edbc dea1 023e aeff 673c
000002b0: d7cd 1fbd 1193 743d 66f1 18bd 931d 6bbb
000002c0: f3ed 5e3d adef 6c3d b609 0e3e 03dd d3bd
000002d0: 9636 9dbc a40b 17bd 96bf 013d b868 f43c
000002e0: c35b 293d dfda dbbc 53e8 e7bd 8860 643d
000002f0: a119 a33d 85de bb3d b576 5d3d 93e4 38be
00000300: 2ff5 37bd 1829 11bd c490 aebd 1840 ed3d
00000310: 7a06 8c3d 1dc3 213d 56b1 94bc 4dab b33d
00000320: 2bbb 843d af67 4dbc 5818 bd3d ebe4 55bd
00000330: 6f78 bf3d 6c20 3fbd 9280 5cbe 2ca3 853d
00000340: a38c 193c 0586 c23d 1747 103b f64d b13d
00000350: 5294 16bc c3ec c0bd ef52 4d3d 055e b4bd
00000360: 35ce 81bd 2480 253d c42b ea3d 810d 98bd
00000370: dcd6 21b9 1478 afbd d0a6 063d 98e3 4b3d
00000380: 09b4 fe3b a5e1 22be 2f34 243d 7f79 a1bd
00000390: 4653 e13d e14a f93d 0535 523d 9a00 65bc
000003a0: 2c84 1abe 9c95 bfbd e983 ff3b c471 0a3c
000003b0: b4fe 243c fe8d c63d 3e75 debd 90ba bbbd
000003c0: 1fcc 22be 7cb6 7ebd 5d8c 803c dc04 063e
000003d0: d424 a63c d7b2 d73c bd76 d43d 6007 c83c
000003e0: 7fa8 863d 144a e5bd e1eb e83c ec48 e73d
000003f0: 999c e33c ccd6 8f3c d5f2 33bd 2ecc 7abe

network_body._body_endoder.seq_layers.2.bias f4 [128]
-0.0007292608 -0.00029941445 0.0019782225 -0.0005846238 -0.00044964525 0.0018748008 -7.6398945e-05 0.0032874546
-0.00017154965 2.7994562e-05 -0.00018085135 -0.0005072683 -0.00039150257 3.201781e-05 -0.0017751235 -0.0023220908
0.00035971904 0.0002408488 -0.00029950362 -3.63188e-05 -0.0028169905 -0.003126606 -0.00024122495 -0.00015426421
-0.00014737027 0.00037775605 -0.004607315 -0.00013602714 -0.00057552353 3.1101976e-05 -0.0025887084 -0.001047017
-0.00023487666 -0.00014439273 8.9775815e-05 -0.0011797397 1.8580193e-05 5.603215e-05 -0.00055088825 -0.00035168894
0.00055585295 -0.0020733553 -0.0012580965 -0.0015927879 -0.00019576312 0.002498234 -0.0003938872 -0.0012577303
0.0024228683 0.0018509941 -0.00047968852 -0.001631171 -0.00026330943 -5.155891e-06 -2.929337e-07 -0.0011520592
-0.00080703484 -6.155443e-05 -0.0004670342 -0.0004417149 -0.0006147965 -0.0016110904 0.0002953283 0.0017488217
-0.0023306375 -0.00045151782 -0.00011168816 -0.0009047373 -0.00022891146 0.00051219866 -0.000118125914 7.034017e-05
-0.00010917046 9.5164025e-05 -0.00041795924 0.0015950827 -0.0010951285 0.0013714968 -0.00036845476 8.322355e-05
-0.00022658837 -0.0007146761 8.26194e-05 -0.004693527 0.0010567391 -0.00020926422 -0.00012622714 -0.0029438813
-0.00019931766 -0.00020497898 1.2895634e-05 0.0008836569 0.0014963854 0.0027846205 -0.00023020153 6.302336e-05
0.0016568116 -3.3739398e-05 -0.0010000505 -0.00019625064 -1.2081415e-05 -0.00017433784 -0.00042753847 -0.00013997835
-0.001983606 -0.00029961678 -0.00033903643 0.0012087304 -0.0008606466 -9.30738e-05 -0.00037730252 0.0003953312
-0.00062282657 -0.0015040835 -0.00016172203 -0.0028744503 0.0013799982 -0.00026857227 -2.5387522e-05 0.003047816
-0.0007527033 -0.0005339852 2.4913752e-06 -0.0007485481 -0.00025961007 -0.0011666334 -0.0013799176 -0.0011576008
00000000: dd2b 3fba bafa 9cb9 11a5 013b 7041 19ba
00000010: 5dbe ebb9 e0bb f53a 5f38 a0b8 5672 573b
00000020: 02e2 33b9 ddd5 ea37 eaa2 3db9 33fa 04ba
00000030: 9642 cdb9 dd4a 0638 43ab e8ba 382e 18bb
00000040: ac98 bc39 5c8c 7c39 b206 9db9 0455 18b8
00000050: 429d 38bb bfe7 4cbb 54f1 7cb9 fcc1 21b9
00000060: 6887 1ab9 8f0d c639 f6f8 96bb 82a2 0eb9
00000070: bbde 16ba 7e73 0238 52a7 29bb 103c 89ba
00000080: 3949 76b9 2168 17b9 0646 bc38 7fa1 9aba
00000090: a9dc 9b37 1004 6b38 7c69 10ba e462 b8b9
000000a0: a9b6 113a 21e1 07bb b7e6 a4ba 18c5 d0ba
000000b0: c345 4db9 69b9 233b a582 ceb9 6dda a4ba
000000c0: fcc8 1e3b 0e9d f23a b47e fbb9 04cd d5ba
000000d0: cb0c 8ab9 c400 adb6 8044 9db4 b100 97ba
000000e0: 318f 53ba c816 81b8 45dc f4b9 f895 e7b9
000000f0: 4b2a 21ba 392b d3ba 4bd6 9a39 b838 e53a
00000100: 9cbd 18bb b2b9 ecb9 203a eab8 e42b 6dba
00000110: f407 70b9 1245 063a 5eba f7b8 9783 9338
00000120: 72f2 e4b8 cc92 c738 8a21 dbb9 1812 d13a
00000130: 6a8a 8fba ccc3 b33a 292d c1b9 4e88 ae38
00000140: 5a98 6db9 1a59 3bba f443 ad38 28cc 99bb
00000150: 4882 8a3a f06d 5bb9 d75b 04b9 22ee 40bb
00000160: edff 50b9 a0ef 56b9 545a 5837 36a5 673a
00000170: 5d22 c43a 2e7e 363b 4162 71b9 692b 8438
00000180: 5f29 d93a 6783 0db8 2014 83ba a1c8 4db9
00000190: 48b1 4ab7 75ce 36b9 3e27 e0b9 27c7 12b9
000001a0: 63ff 01bb e215 9db9 b3c0 b1b9 436e 9e3a
000001b0: 049d 61ba 9e30 c3b8 b0d0 c5b9 7544 cf39
000001c0: 2f45 23ba ab24 c5ba ed93 29b9 4661 3cbb
000001d0: 0ee1 b43a 29cf 8cb9 4af7 d4b7 debd 473b
000001e0: 1051 45ba 24fb 0bba 8031 2736 363a 44ba
000001f0: 461c 88b9 b9e9 98ba 5ade b4ba a3ba 97ba

action_model._continuous_distribution.mu.weight f4 [1, 128]
-0.018384466 -0.030264782 0.009738097 -0.006555848 0.002539693 0.011850409 0.015112216 -0.008612801
-0.020795329 0.031709142 -0.009200389 0.022597734 0.019573051 -0.010682911 0.0027508063 0.0025819524
-0.010515557 -0.010163889 -0.00095824973 0.033218943 0.009174907 0.036464863 -0.0124843875 -0.015349428
0.0060558557 -0.015444173 -0.03756838 0.0077068573 -0.015509818 0.011039801 0.012195503 -0.025093785
-0.018998807 -0.013740714 0.013909477 0.0009485763 -0.006554013 0.019231943 -0.0021999402 0.0031783332
-0.023578173 0.014999095 0.0007093286 0.028184906 -0.011140957 -0.017127298 0.015112816 0.011746074
-0.05985593 -0.037144598 -0.0044892603 0.003680388 -0.012361302 0.010793322 0.009891281 0.024140319
-0.027330257 -0.064271025 0.016196964 -0.023766339 0.0025707893 0.02055565 0.018691162 -0.010848142
0.020433115 0.018063031 0.028465258 0.002256151 -0.029702844 -0.009148808 -0.020979516 0.0073520523
-0.019354295 -0.019269487 -0.017004048 -0.013805472 0.0010195939 -0.01195994 0.003070866 0.018296711
-0.012113476 -0.011075182 0.013478264 -0.008759921 -0.020714153 0.0070034564 -0.038930755 0.0076728044
-0.004542603 0.0064114053 0.021280942 0.0015659564 -0.0073575983 -0.02856343 -0.006846894 0.027738227
-0.0126035055 0.009677837 0.005421084 -0.009303437 0.00577917 -0.0152549045 -0.0069451197 -0.015319268
0.0008713204 -0.0058500185 -0.0047231615 -0.0010883893 0.0010392388 -0.032930635 0.0022110457 -0.023462396
0.0016881506 0.0005411212 -0.015293458 0.019397292 -0.033096317 0.0066775098 0.020767607 -0.010223862
-0.0021522185 0.028303776 0.011777523 0.0061066244 -0.007766486 -0.0009966537 -0.0017270419 0.00037262266
00000000: 059b 96bc d9ed f7bc 8a8c 1f3c 70d2 d6bb
00000010: fa70 263b 3828 423c 3a99 773c b51c 0dbc
00000020: f75a aabc 72e1 013d 3abd 16bc e21e b93c
00000030: aa57 a03c 6007 2fbc df46 343b f935 293b
00000040: 7149 2cbc 7186 26bc 0d33 7bba 9610 083d
00000050: 5952 163c 2e5c 153d 518b 4cbc 2b7c 7bbc
00000060: 3370 c63b 8e09 7dbc 4de1 19bd ce89 fc3b
00000070: e41c 7ebc 48e0 343c a6cf 473c 7b91 cdbc
00000080: 63a3 9bbc bb20 61bc 93e4 633c e1a9 783a
00000090: 0cc3 d6bb 4f8c 9d3c df2c 10bb 954b 503b
000000a0: 0327 c1bc c4be 753c 3df2 393a 08e4 e63c
000000b0: 8f88 36bc 8c4e 8cbc bf9b 773c 9b72 403c
000000c0: 7e2b 75bd ef24 18bd a51a 93bb aa32 713b
000000d0: 0f87 4abc 79d6 303c 0a0f 223c ebc1 c53c
000000e0: b4e3 dfbc 87a0 83bd 7faf 843c a0b1 c2bc
000000f0: b07a 283b 5364 a83c 351e 993c 68bc 31bc
00000100: 5963 a73c ecf8 933c f92f e93c efdb 133b
00000110: 6153 f3bc e2e4 15bc 3cdd abbc 7ce9 f03b
00000120: e68c 9ebc 0bdb 9dbc 134c 8bbc 5930 62bc
00000130: e5a3 853a a0f3 43bc 9540 493b fce2 953c
00000140: 9a77 46bc ae74 35bc f0d3 5c3c c685 0fbc
00000150: bab0 a9bc 407d e53b db75 1fbd 266c fb3b
00000160: 1eda 94bb c416 d23b 5f55 ae3c c740 cd3a
00000170: 0218 f1bb dbfd e9bc e95b e0bb 473b e33c
00000180: ef7e 4ebc ca8f 1e3c 59a3 b13b 716d 18bc
00000190: 315f bd3b b5ef 79bc e393 e3bb abfd 7abc
000001a0: 5269 643a 83b1 bfbb c0c4 9abb 49a8 8eba
000001b0: 1137 883a 46e2 06bd 31e7 103b 3634 c0bc
000001c0: ef44 dd3a 07da 0d3a 6991 7abc 12e7 9e3c
000001d0: 0190 07bd 03cf da3b d420 aa3c fc81 27bc
000001e0: 3c0c 0dbb 52dd e73c 83f6 403c 141a c83b
000001f0: 027e febb 26a2 82ba e95d e2ba 915c c339
