results/test2/EndLessRunnerBehaviour/EndLessRunnerBehaviour-500019.pt (torch, 437618 bytes, 30 tensors)

network_body._body_endoder.seq_layers.0.weight f4 [128, 5]
00000000: ac63 043f c898 a7be f41f eebd 96f8 e2be
00000010: 1a89 a13c 4fbf 1b3d 35bc f9be a625 b0be
00000020: 3ce3 4e3d 3d6a 733e 9ff7 fe3e a7b0 833e
00000030: d3b7 793e 4817 333f ec44 48bf afae 7abe
00000040: bc21 fb3c 2b8f 143d db88 84bf 010a ebbe
00000050: c3f4 1a3f 6916 723f 059c 52bf 2f11 66bf
00000060: 14f2 7e3e dc34 01bf 70ea ccbe f4f9 00bf
00000070: 06eb e33e e0ce 98be 0e5a 38bf 5590 c03d
00000080: d1cb 203f 8c5e 51bf 3c7c d33e 3d4c 473e
00000090: 5f73 943e bd12 c93e ef17 b13e 0b62 1abf
000000a0: 5514 463f 9edc 463d d4d6 2dbe c3e3 a03e
000000b0: 99b4 e13d 495d b2be 7577 45bf 852d 49bd
000000c0: 8212 5dbe 436a c23e 04f8 bb3e 5d02 48be
000000d0: 159d 03bf 3842 8fbf 4d8b e0be 4e44 16bf
000000e0: f0c6 cfbe e126 ec3d 10b4 8fbe ecd8 b03c
000000f0: 353c d03e ae3d 0c3d 930a 8ebc 1a93 83be
00000100: 1bec bbbe 1e30 8bbe 7b27 053f 5dbe f0bd
00000110: 16f8 5dbe 2605 463f 9d13 80be 2082 11be
00000120: 63e8 6b3e 8921 d53e a8f3 f5bd 02f6 5fbd
00000130: 7ba5 d53d 458a 5dbf 1233 0cbf 7863 733f
00000140: 522a 6fbf 2718 d33e 381b 36bf ad44 0fbf
00000150: 2c90 c9bd 49ea 7abe c0eb b4be 1503 afbe
00000160: b967 9ebe eb57 773f 46b4 3bbd 1f93 643e
00000170: eab6 e2be acbc dcbe c901 febd 1b0f 253f
00000180: 89d2 833f b411 163e af64 36bf 83e3 5a3e
00000190: 4df0 01be 770a 103f c0ab 53bf df76 a63e
000001a0: f351 0e3f c9a3 b73e 01ec 1e3f 130e 71bf
000001b0: 6375 f33e 4ef2 493e e530 f63d 22cf 29bd
000001c0: 7379 98be 831d 4fbe 18e3 80be aa80 003f
000001d0: ed28 e33e 4ed5 0d3f 41fe 573e 5d46 3bbf
000001e0: 2b1a 07bf 09f5 64bd bd22 3d3e 78b1 8a3e
000001f0: 9d11 b8bd abb7 ea3c 483c 2a3f a529 9fbe
00000200: 3d2b d83d b820 0b3e 67e5 abbf 45ba 0cbe
00000210: 819d 993e b4df 8a3e 7649 4bbe 0958 9d3d
00000220: 7855 eabe 8887 b4bd b544 8f3e 3e6c 42bd
00000230: 92f9 f13c c1ad cebe 6033 81bd 2655 25be
00000240: 17e3 a9be 0951 073f c908 35be 4f27 b83e
00000250: 651b d23e bf7c 13bf e4c8 a43e 9c02 ffbe
00000260: ecd8 27bf b75e f23d be6d 6cbe a952 483e
00000270: e8d1 a33e 4c83 bb3e f4dc 183d 4594 9d3d
00000280: 738c 7bbf 513b e23d 91b1 413d 0900 993a
00000290: 8e0a 5dbe 6b72 e9be fe3d aebe 6cf2 e8bd
000002a0: 31b2 573d 0121 e6be e603 9f3d 0071 96bc
000002b0: cbed f0be af82 f33d c19c c33d 80df f83d
000002c0: ac20 d5be 1e3a 953e 2c9d d3be cf35 08be
000002d0: 023b a0be 6b43 84bd 763b a03e ce13 df3e
000002e0: 3b06 62be e69a ee3e b991 b93e 2629 c7be
000002f0: 6445 9c3e 2bce b23e 009e 733e 3c90 b0bd
00000300: 8c52 bf3e 8f41 953d a5de 26bf e579 5cbf
00000310: ad8c a23d 1e88 713d b376 4a3e 91ad 273e
00000320: b97a a8be 5a31 e23e e009 7ebf 9235 603e
00000330: 9574 36bd e79e a3bc 2873 fdbe ee68 de3e
00000340: 2705 403f a832 963e 98af 7c3e bf7a d2be
00000350: 946e 723d ecc9 c7be 9ae8 063f eac2 a73e
00000360: bfc5 00be c988 77be b7e3 dabe cb9e 023f
00000370: 33d2 53be cdfb 903d 1aa0 26bf 8634 2bbf
00000380: 693d 1e3f 06e3 2c3e 2aa1 ec3e 7ff1 20bf
00000390: 4cfa 2c3e 092a 463f 5844 2ebf d344 95be
000003a0: 1437 0a3f df40 06bd f371 093d 2c00 f33c
000003b0: 52ff c03d 7798 00be 210a 4bbf 0f41 cd3d
000003c0: 6a1a 983e 8432 c7bd 83e3 af3e f086 7dbd
000003d0: c564 793c 9a93 2d3e e5b7 58bf f98d 43be
000003e0: c438 873f 3d34 f33e 3e1b a2be becb c03d
000003f0: 9849 213e 562a 8dbe c341 95be f4f7 3abd
0.5171459 -0.3273375 -0.11627188 -0.4433028 0.019718695 0.038024243 -0.48776403 -0.34403723
0.050509676 0.23770995 0.49798295 0.25720713 0.2438653 0.699574 -0.78230166 -0.24480699
0.030655734 0.036269348 -1.0354265 -0.4590607 0.60529727 0.94565445 -0.82269317 -0.8986997
0.24897033 -0.5047128 -0.40022612 -0.503814 0.44515246 -0.29845333 -0.7201241 0.09402529
0.62811 -0.8178489 0.4130572 0.19462676 0.2899427 0.3927211 0.34588572 -0.6030585
0.77374774 0.04855024 -0.16976482 0.31423768 0.110207744 -0.34836796 -0.771354 -0.049115676
-0.21589091 0.37971696 0.36712658 -0.19532152 -0.51411563 -1.1192083 -0.43856278 -0.58697975
-0.40581465 0.11530853 -0.28067064 0.021587811 0.40670934 0.03423851 -0.017339027 -0.25698167
-0.36703572 -0.27185148 0.5201337 -0.11755059 -0.21676669 0.77351606 -0.25014964 -0.14209795
0.23037867 0.41627148 -0.12009364 -0.05467797 0.104319535 -0.8653911 -0.5476543 0.9507365
-0.9342395 0.41229364 -0.7113528 -0.55964166 -0.09841952 -0.24503435 -0.35336113 -0.3418204
-0.3093851 0.9661853 -0.04582622 0.22321747 -0.44280177 -0.43112695 -0.12402684 0.64476174
1.0298625 0.1465519 -0.7124738 0.21375851 -0.12689324 0.5626597 -0.82683945 0.32512566
0.55593795 0.35867146 0.62078863 -0.941621 0.47550496 0.19721338 0.12021045 -0.041457303
-0.29780158 -0.20226102 -0.2517326 0.50196326 0.4436716 0.554036 0.21093084 -0.7315424
-0.52774304 -0.055897746 0.18470283 0.27088523 -0.089877345 0.028652033 0.6649823 -0.3108646
0.10555122 0.135867 -1.3429383 -0.13742931 0.30002978 0.27123797 -0.19852242 0.07682807
-0.45768332 -0.08814913 0.27982107 -0.04746651 0.02953795 -0.4036694 -0.06308627 -0.16145763
-0.33181068 0.52858025 -0.17679133 0.3596749 0.41036525 -0.5761222 0.32184517 -0.49806678
-0.6556537 0.11834472 -0.23088738 0.19562782 0.31996083 0.3662361 0.037320092 0.07694296
-0.98261184 0.1104647 0.04728848 0.0011672984 -0.21586058 -0.45595106 -0.3403167 -0.11374363
0.05266017 -0.44947055 0.077644154 -0.01836443 -0.47056422 0.1189016 0.09551383 0.12152004
-0.4162649 0.29145902 -0.4133085 -0.13301776 -0.3129502 -0.064581715 0.31295365 0.43569797
-0.22072689 0.46602553 0.3624399 -0.3889858 0.3052169 0.3492292 0.23790741 -0.086212605
0.37367666 0.07287895 -0.6518348 -0.86123496 0.07936988 0.058967702 0.19771843 0.16374804
-0.3290613 0.44178277 -0.9923382 0.21895435 -0.044544775 -0.019973231 -0.4950192 0.4343943
0.7500786 0.29335523 0.24676359 -0.41109273 0.059187487 -0.39021242 0.5269867 0.32765895
-0.12575434 -0.24173273 -0.42751858 0.5102355 -0.20685653 0.07079277 -0.65088046 -0.6687702
0.61812454 0.16883478 0.46216708 -0.62868494 0.16892356 0.7740789 -0.68073034 -0.2915407
0.5399029 -0.03277671 0.033555936 0.029663168 0.094236985 -0.1255816 -0.7931233 0.100221746
0.29707652 -0.09726432 0.34353265 -0.061896265 0.015221779 0.16950837 -0.846556 -0.19097127
1.0564198 0.47500792 -0.3166141 0.09413861 0.1575073 -0.27571362 -0.29151735 -0.045646623

network_body._body_endoder.seq_layers.0.bias f4 [128]
00000000: 294c b5bb 4cc5 31bc 69df a1bb 3e27 49ba
00000010: 86c2 30bb 7a20 a73a 0e95 443b 821f a038
00000020: bb86 b43b 46ab 40bc 06f4 6ebb 08f7 a03c
00000030: 10a2 3eba 3102 69bb 873c 9ebc e5ec ceba
00000040: 8708 293b bc71 98bb 0636 70bb 85cc 283b
00000050: 50fa b2bb 0979 a5ba 0c09 ea39 a528 0bbb
00000060: 9819 753b 9faf 29bc fe01 573c 41f7 47ba
00000070: f0bb 973c 109c 7b3c b682 88bb 7729 4dbb
00000080: a258 46bb adcd e6ba e11b 063b c54f 3f3d
00000090: 2a38 5b3c 1d47 bd3b f3ee ff3a 397c 883b
000000a0: 2ac8 1bbb cdbe 543c 3a2c 9e3c decd 0dbb
000000b0: 0453 adba ebf1 a339 e707 6e3b 5224 2b3c
000000c0: b805 9e3c 2c9a bc3b 647f 6cb9 9af4 08bc
000000d0: cd6d 6f3b 2e62 28bb 6feb 27bb 8b91 81bb
000000e0: 7b4e b7bc 08ec e339 45a6 69bc 987d a0bb
000000f0: ecbc afbb 447b 21bc 08e6 cabb 3233 47bb
00000100: 8206 1cbc 9951 a33c 1b6a 673b 8d0f f7ba
00000110: a07b e23c fabe ff3c 2dfb 673b 380c a2ba
00000120: 801f 373c f07e d9ba 76ca a73c 0f5a 5f3b
00000130: 2840 4abb ce7c 17bb 305a 3d3a 98d8 513b
00000140: 4c7c 77bc fe63 d539 6aac 893a 7ebf 81bb
00000150: 3ab6 93bb 48a2 073d 5679 5c3a fc87 9eba
00000160: a515 833b 0a95 e83a b05b 4cbb b488 973b
00000170: b3a0 2b3c dbde ccb8 15cd cab9 5424 92bb
00000180: 603e 903c 597a 243c 82a0 a2bb f890 0abb
00000190: 742c 463b 5879 2d3a 35c0 493a 47cf abbb
000001a0: 6cb9 563b 7434 e2bb aa9c c1bb 02e1 203c
000001b0: 0ca0 07bb 2d84 06bb 054c 9db7 df66 eeba
000001c0: 0380 debb 2b7e 3e3c e209 b63a e740 b13a
000001d0: f6a8 93bc 1068 09bc 6788 cc3a 913a bc3b
000001e0: 1337 38bb 8678 fb3b dc0b 7eba 6b62 093d
000001f0: b4fa e53b 8f3e ac3b 1114 23bb a56d c33b
-0.0055327606 -0.010850262 -0.0049399626 -0.0007673389 -0.0026971414 0.0012750768 0.002999607 7.635263e-05
0.005509225 -0.011759585 -0.0036461367 0.019649044 -0.0007272074 -0.0035554285 -0.019315971 -0.0015787153
0.0025792436 -0.00465223 -0.0036653294 0.0025756669 -0.0054619685 -0.0012624572 0.00044638698 -0.0021233943
0.0037399288 -0.010356813 0.013123034 -0.0007628091 0.018522233 0.015357032 -0.0041659726 -0.0031305233
-0.0030265232 -0.0017608904 0.0020463394 0.046706934 0.01338009 0.0057762996 0.0019526168 0.004165199
-0.002377043 0.012984944 0.019308198 -0.00216376 -0.0013223593 0.00031270026 0.0036320628 0.010445671
0.019289836 0.0057556834 -0.0002255417 -0.008359099 0.0036533952 -0.0025693285 -0.0025622507 -0.0039541177
-0.02237629 0.0004347267 -0.014260833 -0.0048977844 -0.0053630974 -0.009856049 -0.0061919726 -0.0030395505
-0.009523036 0.01993637 0.0035311047 -0.0018849239 0.02764684 0.031218994 0.0035397515 -0.0012363261
0.011176944 -0.0016593616 0.020482283 0.0034080779 -0.0030860994 -0.002311516 0.0007223217 0.003201997
-0.015105318 0.00040701026 0.0010503654 -0.003959595 -0.004507807 0.033113748 0.00084104144 -0.001209497
0.004000383 0.0017744612 -0.003118258 0.0046244506 0.010475325 -9.768988e-05 -0.0003868124 -0.004459897
0.017607868 0.010038936 -0.0049629817 -0.0021143537 0.0030238898 0.0006617508 0.00076961826 -0.0052432152
0.0032764329 -0.0069032256 -0.0059085684 0.009819271 -0.002069476 -0.002052556 -1.8751258e-05 -0.0018188617
-0.0067901625 0.0116267605 0.0013888443 0.0013523371 -0.018024903 -0.008386627 0.0015604616 0.0057442863
-0.0028108999 0.0076742796 -0.0009691098 0.033541124 0.0070184115 0.005256481 -0.0024883787 0.0059639984

network_body._body_endoder.seq_layers.2.weight f4 [128, 128]
00000000: b5a1 583c 0553 183d 2b20 3d3d 11ef 32be
00000010: 0158 8e3d af8e c53d 63bf 2ebe 4de8 2b3d
00000020: 2670 af3d 66d1 a93d 57d5 143d d658 5dbd
00000030: 2511 eebb be7c d2bd 7816 0a3d 0bab e3bc
00000040: 467f ea3c 3545 ebbd 95a0 d83d d2ea c83c
00000050: 360e 5f3d 8e12 a0bd 6521 abbd 2798 05bd
00000060: 526a df3c 9190 dcbd 9782 df3d ab3a 13bd
00000070: 121c dabd fb6b 73bd ab6f adbd 2850 933d
00000080: ad40 8ebc 8a5d 613d 28b7 52be 3b50 dcbc
00000090: b690 cc3d 44a3 a33d 8986 c5bc 7d59 eebd
000000a0: 06cb 8e3b ab80 f5bc a4f9 e93d 3313 c0bc
000000b0: 4f39 fe3d 7c84 da3d e768 cebc 1013 8c3d
000000c0: 8cf2 cbbb fc8d 2e3d 5a16 c93d 9ae9 85bb
000000d0: fdc8 143d 8231 efbd 7433 05bd 2324 8c3e
000000e0: 30c8 df3c 7ac7 ba3a f512 063d 2c1e 7cbd
000000f0: 841d ddbd 8d17 cf3d 7255 afbb 7fbf 0a3e
00000100: 5116 81bd bafb 8dbd 8f16 6abe 55cf 1f3d
00000110: 505f cb3c 7ed8 303d 3d05 793d 8d91 09be
00000120: d443 97bc c26d 2bbc fad7 b5bd 808b 3dbd
00000130: 3cfc 87bc 7d7d 21bd bb92 3f3d ea84 b1bd
00000140: 6a2d 6cbd 806c ecbd 69b4 39bc 5bf4 c6bc
00000150: 1c7b 073d dc11 af3d 6666 253e 2414 cbbd
00000160: 5559 343e e42c a43c 5607 b43d 8e64 43bd
00000170: b0f7 e9bc 963a efbd 1c15 77be 2e2a 07bc
00000180: 5f73 b2bd efb6 cfbd 62a4 73bd e4cc d3bd
00000190: 89c6 d43d 0caa 1f3d a971 aebb b863 c9bc
000001a0: 9ed3 34bd ee1d 55bd f0a6 57be f609 36bb
000001b0: 556c 38bb 76c7 b23d 21f7 e1bc 5c78 f13c
000001c0: 11e5 d73d d032 f7bc bc75 3bbc 2df0 75bd
000001d0: 7e95 713c 325b ffbc 47ea 12bd e470 05be
000001e0: 0f96 4cbd 8d5e 3fbd 6e7a 1fbe 874c 823d
000001f0: 5f2e bfbd 13d3 debd 41f4 4a3d 16e4 d7bd
00000200: 9cc9 143e 09a8 ea3c 3592 bc3d 6bbb 9b3c
00000210: b147 5fbd 386c adbd 2ee0 d2bd ba99 513d
00000220: 8140 9a3b 0ce9 7abc 09ba 91bc 7f25 3cbe
00000230: 14de 30bc bdf4 363e c609 62bd 8632 34be
00000240: 6643 b5bd c7e8 5c3c a42e a43d 1783 a8bd
00000250: da95 78bd 6cf2 8fbd 536e a4bd 80c3 b2bd
00000260: 6482 b5bc a9f3 04be 4601 d73d ac31 1fbd
00000270: 92e2 8fbd 3134 03bd 2b84 d83b 4490 4b3c
00000280: c0b8 06bd 0d68 91bd 96c3 67bd 52ec 593c
00000290: 1039 85bd b49d cc3c 974e 353c 64af 1ebd
000002a0: b1b4 4cbd 6c46 fd3d fc1e ad3d d6e5 9abd
000002b0: c240 4f3d 09a7 2bbe a9a8 99bc b327 793d
000002c0: b2bd 84bc 5fa0 553e 0f33 9cbd c3db 593c
000002d0: 1fff a0bd c832 c2bd 5b0d 1e3d 9379 6f3d
000002e0: 2206 80bd d73b 4b3e ebbd 1b3d 5f75 d7bc
000002f0: 0087 5abd ecea f6bd 0e9d 8a3b ad7f ab3c
00000300: 6bb7 c83c 0b9e 37bd e9d2 023d 5b30 623d
00000310: 1b34 e5bb 21f9 1abe 4023 2cbe 4377 293e
00000320: e944 673d 1306 2a3c 40fc 953b ab96 b8bd
00000330: bc49 333d ba24 7e3d 47e7 63be f0bc 933a
00000340: 07a6 183e f1ee bd3c 5057 db3d c107 efbd
00000350: 8c4c 0c3e 08e4 83bd aed4 e73d 742c 093d
00000360: f810 553d 1528 fdbb a828 803d 47df c93d
00000370: 805e f33c 32b1 a93d 31d6 653d 14ac b3bd
00000380: 71e1 d43c 44c7 023b 6777 383c 8799 91bd
00000390: a0cb 82bd 0d58 863d 33b1 cfbc 3399 293d
000003a0: 893c efbc 171e 41bb 33bf 02bd 60d2 b8bd
000003b0: 5004 d7bd 78be 463d 3abf 48be 5866 b93c
000003c0: e1b7 03be 4bb3 0ebd e23c b33d 149f 62bd
000003d0: ca74 94bd 998d b4bd e282 823c 40ca 783d
000003e0: 49c2 d3bd 0195 fc3d 69a0 27be 5d2b fc3d
000003f0: 9a5a babd a729 b6bd 720b db3d 60da ffbd
0.013222148 0.03718855 0.046173256 -0.17474009 0.06950379 0.09646355 -0.17065196 0.041969586
0.085663125 0.08291893 0.03633627 -0.0540398 -0.0072652274 -0.10277699 0.033712834 -0.02779152
0.028625142 -0.114878096 0.105775036 0.024526034 0.054456912 -0.07816039 -0.08355979 -0.032615807
0.027272377 -0.10769761 0.1091358 -0.035944622 -0.10649885 -0.05942915 -0.084685646 0.07193023
-0.017364824 0.055020846 -0.20577681 -0.026893726 0.09988539 0.07990125 -0.024112003 -0.11638162
0.0043576984 -0.02996858 0.11424568 -0.023446655 0.124132745 0.10669801 -0.025196506 0.068395734
-0.006223982 0.042615876 0.09818716 -0.0040866854 0.03632449 -0.11679365 -0.032519773 0.2737132
0.027317137 0.0014250122 0.032732923 -0.06155221 -0.10796645 0.10111914 -0.005350762 0.13549612
-0.06303085 -0.06932779 -0.22860168 0.039016087 0.024825722 0.043175213 0.06079601 -0.1343443
-0.01846496 -0.01046318 -0.08879085 -0.046275616 -0.016599767 -0.039426316 0.046770792 -0.086679295
-0.057660498 -0.11544132 -0.011334517 -0.02428644 0.03307639 0.08548328 0.16152343 -0.09915951
0.17612202 0.020040937 0.08790462 -0.04770332 -0.02856049 -0.11681096 -0.24129146 -0.0082498025
-0.087134115 -0.10142314 -0.05948294 -0.10341814 0.1038943 0.03898053 -0.005323608 -0.024583682
-0.044147126 -0.052030496 -0.21059775 -0.0027776933 -0.0028140743 0.087294504 -0.02758366 0.029476337
0.10541738 -0.030175596 -0.011441644 -0.060043503 0.014745114 -0.031171415 -0.035867956 -0.13031346
-0.049947795 -0.04672103 -0.15574047 0.06362253 -0.093350165 -0.10880103 0.049549345 -0.10541551
0.14530033 0.028644579 0.09207574 0.019010266 -0.05451173 -0.08467907 -0.10296665 0.051171996
0.0047073965 -0.015314352 -0.017788904 -0.18373679 -0.010795135 0.17866798 -0.055185102 -0.17597398
-0.08850746 0.013483233 0.080167085 -0.082281284 -0.060689785 -0.0702866 -0.08028855 -0.08728695
-0.022156902 -0.12983574 0.1049829 -0.03886573 -0.07025637 -0.032032195 0.0066075525 0.012424532
-0.032891035 -0.07099924 -0.05658301 0.013300972 -0.065050244 0.024977542 0.011066101 -0.038741484
-0.04997701 0.123669475 0.084531754 -0.07563369 0.050598867 -0.16762938 -0.018757181 0.060828876
-0.016203735 0.20861958 -0.07626926 0.013297024 -0.078611605 -0.09482342 0.038586956 0.05846555
-0.0625117 0.19847046 0.038022917 -0.026301084 -0.053351402 -0.120565265 0.004230148 0.020934904
0.024501523 -0.044828456 0.03193942 0.055221897 -0.006994737 -0.15134098 -0.16810322 0.16549401
0.056462202 0.010377425 0.0045771897 -0.09013113 0.04377149 0.062046744 -0.22256194 0.0011271518
0.14907084 0.023185225 0.10710013 -0.11671401 0.13701075 -0.06439978 0.11319862 0.03348966
0.052018136 -0.0077257254 0.062577546 0.0985704 0.029708147 0.082857504 0.056112472 -0.08773056
0.025986405 0.0019955197 0.0112589365 -0.07109361 -0.06386495 0.06559763 -0.02535305 0.041405868
-0.02920367 -0.0029467398 -0.031920623 -0.09024501 -0.104988694 0.04852149 -0.19604197 0.02263181
-0.12863113 -0.034838956 0.08751847 -0.05532749 -0.07248838 -0.0881607 0.01593155 0.060739756
-0.10339791 0.12333108 -0.16369785 0.123129584 -0.09099312 -0.08894663 0.106955424 -0.124928236

network_body._body_endoder.seq_layers.2.bias f4 [128]
00000000: 6305 863b 3fd0 6fbb 183c e73a 04c3 29bb
00000010: de7b bcbb d3f7 343b aebb 81bc 150d f3b9
00000020: 85f4 9c3a 563e d4bb 7f97 733c cb80 44ba
00000030: efb2 00bb 8748 1f3a 3948 443c 0c70 dbba
00000040: 287d 883b 1adf 72bb 0e64 ff3b 1caf 8d3c
00000050: 9164 1dbc 58cb 513b cb08 8b3a 6b8a 193b
00000060: 02ee 003d b7c4 27ba 9e37 bf3a 2207 9fbb
00000070: ff80 86bb e8ef 3e3a 1b69 8abb 6d3a 8f3c
00000080: 4a39 2bbb 9830 d1bb f989 17bb 1aff b4ba
00000090: dc71 323c f01a b23c 7443 17b9 b8b5 88bc
000000a0: 5064 42bb 1fe7 bfba 9be6 ebb8 b317 e239
000000b0: 930e 7e3b 46f9 c9ba f875 333a 7bdd 333b
000000c0: 33d4 133b 2fbd f23a a42d b13c c8e1 19bb
000000d0: cf81 2fbb d795 fd3a bf11 31bb bfec feba
000000e0: 1063 5ebb be52 7bb9 c07c 18bb 044f bcba
000000f0: 4ac4 9abb 98c8 5b3b c5d0 91bc 600d 25bb
00000100: a53c 413c bcee 41bc 0fa3 a43a 6b34 053c
00000110: e828 86bc 6442 063b 655e 20bb 946f 383b
00000120: 3a46 67bb 6c2c 7839 9bba 55bb 2141 e9ba
00000130: 0fd9 88bb 1d10 cd3a abd0 90bc ac64 d1b8
00000140: efa7 613b af32 ec3a faf0 fcbb ab2b 233c
00000150: 8a55 28bb 68e6 99ba 58f3 97b9 1144 0e3b
00000160: ed0a 6bba 0e24 e038 b253 e5bb d9ee af3c
00000170: 5418 be3a 9ca0 33bb be56 32bb 1610 88bb
00000180: 110b e63a b5b6 1d3c c3e4 613b 9c45 adba
00000190: f764 fd3a e94a 91b8 0cdd 1cbb 6d1b 84bc
000001a0: 65f7 aaba f207 1cbb 460e 0b3c ec5e 88bc
000001b0: 795b 923c 94bd ddbb 1ff9 6239 9a55 aebb
000001c0: ef8b 09bb 08ac e6ba b5a9 be3a ddf7 fcba
000001d0: 99b2 ab39 d2fd 083a 8c97 1dbb b72d a0ba
000001e0: 06c6 72bb cef8 853a ebdd 033b f692 8d3c
000001f0: 1258 9bbb f850 d6ba 987c 1a3c 7986 cdba
0.0040899976 -0.003659263 0.0017641811 -0.0025903592 -0.005752071 0.0027613535 -0.015836563 -0.0004635832
0.0011974728 -0.0064771576 0.014867662 -0.0007495998 -0.0019637903 0.0006076176 0.01198011 -0.0016741767
0.0041653104 -0.0037059248 0.00779391 0.017295413 -0.009606496 0.0032012071 0.0010607479 0.002342845
0.031476982 -0.0006399857 0.0014588719 -0.004853145 -0.004104733 0.00072836736 -0.0042239553 0.017483914
-0.0026126676 -0.0063839667 -0.002312301 -0.0013808936 0.010891404 0.02174136 -0.0001442561 -0.016688213
-0.0029661842 -0.0014641023 -0.00011248627 0.00043123736 0.003876601 -0.0015409372 0.0006845887 0.0027445245
0.00225569 0.0018519516 0.021628208 -0.0023480523 -0.0026780253 0.0019347024 -0.0027018634 -0.0019449218
-0.0033933558 -0.00023968049 -0.0023267716 -0.001436681 -0.0047231065 0.0033536311 -0.017799744 -0.0025184974
0.011794244 -0.011836704 0.0012560802 0.008130173 -0.016376927 0.002048635 -0.0024470326 0.0028142678
-0.003528966 0.00023667671 -0.0032612446 -0.0017795899 -0.004176266 0.0015645061 -0.017677626 -9.984648e-05
0.0034432372 0.0018020476 -0.0077191563 0.009959142 -0.002568575 -0.001174164 -0.0002898227 0.0021708051
-0.00089661666 0.00010687868 -0.0069985026 0.021476196 0.00145031 -0.0027408963 -0.0027212347 -0.004152308
0.0017550905 0.00962608 0.0034468628 -0.0013219598 0.0019332458 -6.928092e-05 -0.0023935465 -0.016126359
-0.00130437 -0.0023808447 0.00848729 -0.016646825 0.017865883 -0.0067669842 0.00021645844 -0.005320263
-0.0020987948 -0.0017598877 0.0014546426 -0.0019299943 0.00032748727 0.00052258105 -0.0024046628 -0.0012220655
-0.00370443 0.0010221244 0.0020121287 0.01728199 -0.0047407234 -0.0016351035 0.0094291195 -0.0015680335

action_model._continuous_distribution.mu.weight f4 [1, 128]
00000000: feb7 543c e4af 76bc 7997 653c d6c9 1fbc
00000010: 6158 54bc a1c6 9fbc 7b40 16bd 3268 adbc
00000020: 7644 ef3b 7bd9 0ebc 784e b33c 0671 c03b
00000030: 7caa 0dbc 600a 84bb f6c5 553c 003f b1bb
00000040: 835b ff3b 4856 97bb 231d b5bc 9cc6 eb3c
00000050: 0fdb 9eba 8695 d0bc e02a ae3b e011 ebbc
00000060: 03e7 ecbc fff0 a3bb 252b ee3b 570a b2bb
00000070: 0676 52bc 9b65 d23b 2245 bbbc 19ec 183d
00000080: c575 c6bb d790 34bc 1cc7 78bc 98ec 5c3c
00000090: c29d 15bd bf9b aebc e964 983c c82d cebb
000000a0: 0ccc e3bb 2b55 e0bb e9cd fa3a d984 7a3c
000000b0: f721 db3c 6bed aa3c 343d 853c e439 74bc
000000c0: 6fac 2cbd 8e69 4f3c aea5 f7bc f9ed 8fbb
000000d0: d3b7 6c3c fb46 063d dffb 3abc 217c 31bc
000000e0: 674c 87bc 6f71 293b 3937 c13a e9b5 2b3c
000000f0: 1111 2fbc b76e 293b 3594 b1bc 5530 9bbc
00000100: b796 36bd 09ea 97bc 5681 223c c850 893c
00000110: d681 8ebc 2ce5 ab3c 8e63 ddbc a6e1 07bc
00000120: 2f3d 7abb 47c7 143c e1b5 8dbb 0afe 3f3c
00000130: 5636 07ba 4484 093c f77b 01bc 462d 7f3c
00000140: 6439 683d 6193 c3bb f0f3 923b 47d6 933c
00000150: b643 6dbc 5fe5 093b 01df a93b 19bc 423c
00000160: a50a dabc 42b1 273b 6a4a 05bc a1b1 b6bc
00000170: 89a8 003c b2f3 2ebc af46 e7bc 43f3 37bc
00000180: 719f 8d3c fa57 76bc 1e62 3d3c 27ad 9bbc
00000190: bb78 883c 23f5 593c 1b67 183c e2ce 00bd
000001a0: b209 7abc 96fc 54bc cfda 673c 59c9 9fbc
000001b0: cae0 a63c 1209 0bbd eb95 e2ba fa41 7fbd
000001c0: 78c4 0ebd f6e2 23bb 3bf2 043c 6fe3 40bc
000001d0: 0c1a 073d 496f b93c 4459 73bc ae5d 5abc
000001e0: 44f1 10bb 7536 913b 07c3 ed3c 14cf d2bc
000001f0: 8cb5 053c d6d2 a7bc 20d3 a03c 433d d33b
0.01298332 -0.015056584 0.014013165 -0.009752711 -0.012960524 -0.019503893 -0.036682587 -0.021167848
0.0073018624 -0.008718844 0.021888003 0.0058728484 -0.008646604 -0.004029557 0.013047686 -0.0054091215
0.0077928915 -0.00461844 -0.02210862 0.028781228 -0.0012119728 -0.025461923 0.0053151697 -0.028695047
-0.028918749 -0.005003094 0.007268327 -0.0054333615 -0.012845522 0.0064208037 -0.022860114 0.037334535
-0.0060565197 -0.011020861 -0.01518419 0.013484143 -0.036527403 -0.0213145 0.018602805 -0.0062920786
-0.0069518145 -0.0068460903 0.0019134852 0.015290462 0.026749594 0.020865163 0.016264535 -0.01490638
-0.042156633 0.012659444 -0.03023037 -0.004392382 0.014448124 0.032782536 -0.01141259 -0.010832817
-0.016515924 0.0025854965 0.0014741189 0.0104803825 -0.010685221 0.0025853345 -0.021677116 -0.018943945
-0.044577327 -0.018544214 0.009918531 0.016762152 -0.017395895 0.020983301 -0.02702501 -0.008293545
-0.003818344 0.009080715 -0.00432466 0.0117182825 -0.0005157938 0.008393351 -0.007903091 0.015574759
0.056695357 -0.0059684967 0.004484646 0.018046511 -0.014481476 0.0021041257 0.005184055 0.011885666
-0.026616404 0.0025587832 -0.0081354175 -0.022301497 0.007852682 -0.010678219 -0.028231947 -0.011227432
0.017287942 -0.015035624 0.0115590375 -0.019003464 0.016659131 0.013303074 0.009301926 -0.0314473
-0.015261101 -0.012999674 0.014151289 -0.01950519 0.02037086 -0.033944197 -0.0017287111 -0.06231878
-0.034855336 -0.0025007105 0.008114393 -0.011772974 0.032983825 0.022636073 -0.014852826 -0.013327999
-0.0022116462 0.0044315406 0.02902366 -0.025733508 0.00816096 -0.020486277 0.019631922 0.006446512

exp_avg f4 [128, 5]
00000000: 5f8b f3b6 6871 9bb5 1805 5c38 3992 24b8
00000010: 0000 0000 954b 4db7 d4c8 26ba daae a03a
00000020: 20e4 0cb9 0000 0000 53e1 8db7 370c b7ba
00000030: 3443 493a ec3b afb8 0000 0000 ec94 22b6
00000040: 082b 0d35 0886 1db7 dc2c e236 0000 0000
00000050: c0ca 2fb7 ee37 c63b 4d92 a3ba 94bb 8d39
00000060: 0000 0000 19cf 1cb8 507c 42b9 5179 253a
00000070: 834e 24b9 0000 0000 be59 a335 ce14 ee38
00000080: 8664 3bb7 f017 8e36 0000 0000 e098 1eb6
00000090: 8e93 86ba 3059 453a d15a 11b9 0000 0000
000000a0: 9efd 5937 933e 6dba e375 3d39 2ff4 8ab8
000000b0: 0000 0000 8ee1 16b7 aefc a4b7 b09b 6d39
000000c0: 9b6a edb7 0000 0000 ef17 05b8 e89b a4ba
000000d0: b37d 813a 9b82 4fb9 0000 0000 abd3 8335
000000e0: aade 2f36 f4c2 96b6 5a38 8736 0000 0000
000000f0: 5da8 0e38 c155 ef3a 880f e1ba 081c 7639
00000100: 0000 0000 136b d337 31ee 663b d18f bbba
00000110: a600 9539 0000 0000 c9be 1f36 880e 8cb5
00000120: 094a 84b8 a024 5137 0000 0000 f832 97b7
00000130: c078 6f3a daef 143a 7061 09b8 0000 0000
00000140: 080b ca38 2a0d 2cbb 78c7 35bb 8237 8339
00000150: 0000 0000 7b89 b436 2544 5c38 1e72 e7b8
00000160: 4054 0138 0000 0000 d5f3 aa37 4be1 713b
00000170: cfbe a5ba 86fa 9239 0000 0000 7ed1 6337
00000180: 8000 f7b7 4e9b 6dba 3d30 a338 0000 0000
00000190: 5c5b 9cb7 bafb 3539 ac56 a037 e0eb 49b8
000001a0: 0000 0000 ac2c 7638 a575 ac3a 6dca c6ba
000001b0: 9486 b839 0000 0000 c2dc 8238 c365 03bb
000001c0: 32ff afba f85b 0d39 0000 0000 ead6 dbb5
000001d0: 5735 5bb9 36d1 ac38 77d7 43b7 0000 0000
000001e0: b28a 9236 804b 2d36 e2f4 cbb8 ff06 7837
000001f0: 0000 0000 3738 d335 94e2 5539 1082 f5b7
00000200: 6065 2cb8 0000 0000 9432 0a35 6ca2 8db7
00000210: c0ba 2eb7 ace3 33b5 0000 0000 13e3 f7b8
00000220: 5878 50b7 5871 a43a f334 feb9 0000 0000
00000230: 8d06 a1b7 4ec6 bc37 427b a838 03b7 0bb9
00000240: 0000 0000 21b9 0836 208d 9c36 fa04 8134
00000250: c03e 1035 0000 0000 b8a1 b2b7 da9c 93b9
00000260: f321 df39 9bfd 84b8 0000 0000 686f bd36
00000270: 1215 593a f8a1 44b8 ccbe 29b7 0000 0000
00000280: e011 2436 e8a7 3c3a 34e4 cd39 dcf4 3bb8
00000290: 0000 0000 0e56 4238 c265 7837 c449 fbb9
000002a0: 9c18 4939 0000 0000 0e23 8938 77ac 523a
000002b0: 279e b5ba 208d 3c39 0000 0000 370d 1bb4
000002c0: c99d 16b6 0d01 20b5 0c7d 3bb5 0000 0000
000002d0: 35bc 50b5 48d9 1d37 54cf 3737 5e25 3cb6
000002e0: 0000 0000 9857 8a35 3c78 28bb 9787 d039
000002f0: 1d6e 10b9 0000 0000 2794 74b5 c45e 6fb7
00000300: 7f46 5fb7 cce9 87b6 0000 0000 355f 2e38
00000310: 1b57 12bb 8058 b5b9 5ce8 3bb9 0000 0000
00000320: 2633 db37 b0b2 db3a 9810 3eba aad8 4439
00000330: 0000 0000 b46c adb3 f83b 8d36 e1ea 4137
00000340: 6fb1 01b6 0000 0000 c987 6935 68a1 5436
00000350: 1180 73b7 57b4 ad36 0000 0000 400e d2b7
00000360: 57a0 b2ba 9339 3d3a f99e 1fb9 0000 0000
00000370: d0ac cd35 f451 9fb9 3f36 bfb9 b189 a338
00000380: 0000 0000 16b7 9637 faec 24bb 263d b439
00000390: 4001 53b6 0000 0000 9527 0eb4 3a17 aab4
000003a0: 34d1 84b4 ad05 fcb4 0000 0000 5e25 4837
000003b0: f468 d23a c1e7 77ba d2e3 1a39 0000 0000
000003c0: 9622 45b4 b88b e8b7 1e63 c7b7 9972 89b6
000003d0: 0000 0000 6c30 1936 92b4 85b7 4c81 1036
000003e0: 9ce2 8cb6 0000 0000 8cbf 2ab7 59b2 a5ba
000003f0: 085a de39 fabd 88b8 0000 0000 121c ccb7
-7.2581893e-06 -1.1581405e-06 5.245683e-05 -3.9236827e-05 0.0 -1.223655e-05 -0.0006362323 0.0012259141
-0.00013436424 0.0 -1.6913435e-05 -0.0013965432 0.00076775555 -8.3558116e-05 0.0 -2.4226565e-06
5.258921e-07 -9.389136e-06 6.740547e-06 0.0 -1.0478019e-05 0.006049148 -0.0012479514 0.00027033372
0.0 -3.7386173e-05 -0.00018547592 0.0006312328 -0.00015669507 0.0 1.2170565e-06 0.000113525995
-1.11694735e-05 4.2347165e-06 0.0 -2.363282e-06 -0.0010267363 0.00075282436 -0.0001386211 0.0
1.2993258e-05 -0.0009050157 0.00018068361 -6.6258355e-05 0.0 -8.993213e-06 -1.9667987e-05 0.0002266008
-2.8302244e-05 0.0 -3.173196e-05 -0.0012558671 0.000987938 -0.00019789713 0.0 9.821864e-07
2.620664e-06 -4.493044e-06 4.0298737e-06 0.0 3.401224e-05 0.001825981 -0.0017170766 0.0002347083
0.0 2.520302e-05 0.0035237188 -0.0014309828 0.00028419978 0.0 2.3803898e-06 -1.0435042e-06
-6.3080406e-05 1.2465898e-05 0.0 -1.8024337e-05 0.00091351196 0.00056814926 -3.275409e-05 0.0
9.634165e-05 -0.0026252964 -0.00277373 0.00025027624 0.0 5.380423e-06 5.2515552e-05 -0.00011036194
3.083446e-05 0.0 2.0379122e-05 0.0036907967 -0.0012645366 0.00028033945 0.0 1.3579031e-05
-2.9444927e-05 -0.0009063975 7.781431e-05 0.0 -1.8639192e-05 0.0001735528 1.9113846e-05 -4.814181e-05
0.0 5.8692574e-05 0.0013157619 -0.0015166529 0.00035195483 0.0 6.2400024e-05 -0.0020049668
-0.0013427495 0.00013481069 0.0 -1.637932e-06 -0.00020905338 8.240568e-05 -1.1673073e-05 0.0
4.3672853e-06 2.5822956e-06 -9.725407e-05 1.4783581e-05 0.0 1.5737086e-06 0.0002039767 -2.9266841e-05
-4.110241e-05 0.0 5.1482607e-07 -1.6884143e-05 -1.0414689e-05 -6.7014e-07 0.0 -0.00011820174
-1.2425786e-05 0.0012545986 -0.00048486106 0.0 -1.9195746e-05 2.250369e-05 8.033823e-05 -0.0001332425
0.0 2.0373338e-06 4.6655914e-06 2.4031743e-07 5.3735494e-07 0.0 -2.129456e-05 -0.00028154888
0.0004255917 -6.341488e-05 0.0 5.6456083e-06 0.0008281033 -4.6880887e-05 -1.0117608e-05 0.0
2.444831e-06 0.0007196651 0.00039270672 -4.4812317e-05 0.0 4.633335e-05 1.4805644e-05 -0.0004792941
0.00019178021 0.0 6.5391985e-05 0.00080365635 -0.0013856337 0.0001798165 0.0 -1.4440307e-07
-2.2443585e-06 -5.9606174e-07 -6.9844896e-07 0.0 -7.7759915e-07 9.408519e-06 1.0955922e-05 -2.8035934e-06
0.0 1.0307294e-06 -0.002570643 0.00039773874 -0.0001377393 0.0 -9.1112673e-07 -1.4267574e-05
-1.3308249e-05 -4.050531e-06 0.0 4.15735e-05 -0.002232975 -0.00034588948 -0.0001792027 0.0
2.6130652e-05 0.0016761627 -0.00072503975 0.0001877273 0.0 -8.075713e-08 4.2091087e-06 1.1558383e-05
-1.9325778e-06 0.0 8.699686e-07 3.1684413e-06 -1.45137465e-05 5.176796e-06 0.0 -2.5040586e-05
-0.0013628107 0.0007218357 -0.00015222644 0.0 1.5323985e-06 -0.00030387903 -0.00036470775 7.798093e-05
0.0 1.796665e-05 -0.0025165663 0.00034377835 -3.1442178e-06 0.0 -1.323918e-07 -3.1681867e-07
-2.473913e-07 -4.6942787e-07 0.0 1.1929629e-05 0.0016053007 -0.0009456836 0.00014771454 0.0
-1.8359637e-07 -2.7721617e-05 -2.3768804e-05 -4.096259e-06 0.0 2.2826962e-06 -1.593892e-05 2.1532933e-06
-4.198706e-06 0.0 -1.0177388e-05 -0.0012641653 0.00042410218 -6.520371e-05 0.0 -2.4331766e-05

exp_avg_sq f4 [128, 5]
00000000: 6e92 5331 8f3f ac32 503c 1a36 f787 2e33
00000010: 0000 0000 51b5 bc30 87eb c636 f70f e937
00000020: c5ce 1835 0000 0000 c791 1132 4507 b237
00000030: 999c a736 91a2 b433 0000 0000 3b09 0e2f
00000040: e4d5 0d35 c30b 9133 c472 1f30 0000 0000
00000050: a907 8334 3a77 6a3a 9254 1939 01e5 2236
00000060: 0000 0000 57ce 2a32 d424 4d36 3341 3037
00000070: 2ae6 8134 0000 0000 56ba 952e 7df0 9134
00000080: f67f b82f 2df5 1d30 0000 0000 4744 6f32
00000090: 5a53 1238 ae28 f136 691a f233 0000 0000
000000a0: ecdb 9931 7d8a 0a37 79a8 ab36 b699 da33
000000b0: 0000 0000 7fd1 802f d723 a031 c1ee b634
000000c0: 8bc6 9631 0000 0000 1437 c331 ac0a a236
000000d0: a2e1 aa36 5709 cb33 0000 0000 0442 022e
000000e0: 5c28 1230 4421 ca32 dc54 fc2f 0000 0000
000000f0: 2327 d232 3763 0e38 a0c1 ce37 f48e bb34
00000100: 0000 0000 5231 da33 0e2b c739 37b2 5c38
00000110: 45ea 5935 0000 0000 01f5 b52e bea2 2732
00000120: cd2f a033 c14f 6531 0000 0000 f549 f033
00000130: 0292 a439 d991 8e38 226c 8c35 0000 0000
00000140: e530 1935 8a60 c43a 60c1 003a a97d 0f37
00000150: 0000 0000 29cb 3730 9150 fe33 3231 9a35
00000160: 7a75 c232 0000 0000 624a 8533 f63f 6939
00000170: 0a39 0538 3141 1535 0000 0000 9e43 4133
00000180: 043e 2f39 d71e 5838 0f5e 6b35 0000 0000
00000190: 584d b331 34be 8537 8a6b 9c36 3b45 bf33
000001a0: 0000 0000 f908 f232 b701 dc36 fa6e f937
000001b0: a38c 2535 0000 0000 2616 6c34 0eb4 143a
000001c0: 72ab 4139 808b 5636 0000 0000 fea8 8831
000001d0: 6f09 7837 0190 1636 02ab fa32 0000 0000
000001e0: d82a d72e b822 2b33 13fe 1934 cfb7 9431
000001f0: 0000 0000 a07c d631 c8ee b637 1aa2 8536
00000200: b383 8a33 0000 0000 f7e2 f02c f6b9 6e31
00000210: 35aa b631 f59c 4230 0000 0000 4aa9 f933
00000220: 4beb ae35 b962 b838 ad72 0436 0000 0000
00000230: a0e9 9a32 955e cd33 6bb9 3e37 353f 6e34
00000240: 0000 0000 a15f b72d 05a5 1e2f 65ef c22f
00000250: c87b 7d2f 0000 0000 5bd6 a631 0805 8836
00000260: 97d1 bc36 d2e2 1534 0000 0000 6531 bd32
00000270: 9461 c638 84e0 3437 308c 3734 0000 0000
00000280: ad7f dc33 2880 ab39 6a80 8738 edda 8435
00000290: 0000 0000 663e fc32 b38d 4935 fc3f f837
000002a0: 280b 2535 0000 0000 4509 0633 2fe4 fd37
000002b0: f27c 2038 454d 4735 0000 0000 e2bc d42b
000002c0: 7aed d22d 9dc3 622f 189a c82d 0000 0000
000002d0: 39c6 202d a46e fb30 b889 b930 ab97 8c2f
000002e0: 0000 0000 47a0 c532 b749 bc38 be05 c737
000002f0: ea42 ef34 0000 0000 6abc 9f2d d574 f730
00000300: 7d0e fb30 b346 c52f 0000 0000 4a10 fb33
00000310: 333c 9d39 d907 c038 303e ea35 0000 0000
00000320: 17cc 4733 26ba 2239 55ff cf37 9870 d534
00000330: 0000 0000 b84d 3d2e f742 1c30 1eea 8430
00000340: 5b83 a630 0000 0000 853c ae2d 9ab8 602f
00000350: 48b5 6332 ba84 912f 0000 0000 509a 5932
00000360: 7b63 7b37 74ea 1237 5f56 fc33 0000 0000
00000370: 9970 cf32 6e23 8338 36ee 9437 325f 8534
00000380: 0000 0000 f575 c133 3e0f a439 c1ef 5a38
00000390: 1611 6f35 0000 0000 33a6 812a 88e2 f12c
000003a0: 75c3 1e2d 0ba7 a62c 0000 0000 0a5b f431
000003b0: 4068 2737 b98c 1937 51e9 1034 0000 0000
000003c0: 7ad3 fe2d 1366 fb31 c73e ac31 063b 6130
000003d0: 0000 0000 1ee9 4931 65fe 6a34 212b c536
000003e0: 1b53 0934 0000 0000 ca63 2b32 6101 3538
000003f0: 24ef 9a36 650c 9733 0000 0000 5321 4832
3.0787777e-09 2.0052338e-08 2.2982895e-06 4.063619e-08 0.0 1.3730334e-09 5.928279e-06 2.7783199e-05
5.69253e-07 0.0 8.473257e-09 2.1222639e-05 4.995218e-06 8.411474e-08 0.0 1.2918104e-10
5.2837845e-07 6.754228e-08 5.8006955e-10 0.0 2.4406225e-07 0.0008944158 0.00014622722 2.427318e-06
0.0 9.942219e-09 3.0568817e-06 1.0505598e-05 2.419559e-07 0.0 6.8088354e-11 2.7183333e-07
3.3560327e-10 5.7464683e-10 0.0 1.3927155e-08 3.488674e-05 7.1870954e-06 1.1273807e-07 0.0
4.4778883e-09 8.257685e-06 5.11581e-06 1.0179376e-07 0.0 2.343192e-10 4.6606874e-09 3.4073858e-07
4.3881463e-09 0.0 5.6815086e-09 4.8292186e-06 5.092662e-06 9.454623e-08 0.0 2.961721e-11
5.3171845e-10 2.3531022e-08 4.589883e-10 0.0 2.4465015e-08 3.394784e-05 2.4647277e-05 3.4935476e-07
0.0 1.01603874e-07 0.00037988316 5.2618063e-05 8.1179707e-07 0.0 8.2744485e-11 9.757683e-09
7.4592755e-08 3.336922e-09 0.0 1.11893236e-07 0.00031389302 6.798254e-05 1.0462284e-06 0.0
5.706809e-07 0.0014982384 0.00049116276 8.552722e-06 0.0 6.686372e-10 1.18424516e-07 1.1488212e-06
2.2637995e-08 0.0 6.206825e-08 0.00022244439 3.1762793e-05 5.560169e-07 0.0 4.499781e-08
0.00016712403 5.1527135e-05 8.7681195e-07 0.0 5.2183786e-09 1.5943406e-05 4.6616815e-06 8.9067235e-08
0.0 2.8176588e-08 6.5567106e-06 2.973479e-05 6.1671943e-07 0.0 2.198727e-07 0.0005672582
0.00018469783 3.1969685e-06 0.0 3.977333e-09 1.4784148e-05 2.2435563e-06 2.9181596e-08 0.0
9.7846786e-11 3.9845617e-08 1.4341667e-07 4.3282635e-09 0.0 6.242388e-09 2.1807282e-05 3.98258e-06
6.450082e-08 0.0 6.8464084e-12 3.4739265e-09 5.3162474e-09 7.079984e-10 0.0 1.16257596e-07
1.303249e-06 8.792192e-05 1.9736283e-06 0.0 1.80342e-08 9.563261e-08 1.13680535e-05 2.2188472e-07
0.0 2.0847159e-11 1.4428643e-10 3.5458494e-10 2.3054192e-10 0.0 4.8556053e-09 4.0537016e-06
5.627236e-06 1.3959223e-07 0.0 2.2024958e-08 9.459551e-05 1.078111e-05 1.7094203e-07 0.0
1.02677724e-07 0.00032711145 6.4612206e-05 9.898482e-07 0.0 2.9365037e-08 7.5084535e-07 2.9593699e-05
6.1483524e-07 0.0 3.1207737e-08 3.0266207e-05 3.8263337e-05 7.424572e-07 0.0 1.5115932e-12
2.3979697e-11 2.0624076e-10 2.2805799e-11 0.0 9.138961e-12 1.82941e-09 1.3499664e-09 2.5573618e-10
0.0 2.3006704e-08 8.978269e-05 2.3725323e-05 4.4565905e-07 0.0 1.815988e-11 1.8004821e-09
1.8266771e-09 3.5884326e-10 0.0 1.1691061e-07 0.00029990225 9.156735e-05 1.7452458e-06 0.0
4.6518917e-08 0.0001551887 2.4795221e-05 3.9756264e-07 0.0 4.3042653e-11 5.684763e-10 9.670804e-10
1.2115423e-09 0.0 1.9808386e-11 2.0438265e-10 1.3254358e-08 2.6469654e-10 0.0 1.2666149e-08
1.4983928e-05 8.756866e-06 1.1750375e-07 0.0 2.4149175e-08 6.253166e-05 1.77539e-05 2.4842444e-07
0.0 9.008719e-08 0.00031291874 5.219854e-05 8.90593e-07 0.0 2.3030327e-13 6.874782e-12
9.02466e-12 4.7365493e-12 0.0 7.1116846e-09 9.978248e-06 9.152275e-06 1.3495925e-07 0.0
2.8970371e-11 7.316666e-09 5.012996e-09 8.19384e-10 0.0 2.9381861e-09 2.1885496e-07 5.8760784e-06
1.2789353e-07 0.0 9.976199e-09 4.3155047e-05 4.6173973e-06 7.03374e-08 0.0 1.1649109e-08

exp_avg f4 [128]
00000000: 506b 4a34 bf3d 85b8 2eca 02b8 af64 6935
00000010: deb8 8c38 f28d 06b8 069e f335 4696 e8b7
00000020: 7612 47b7 aeaf 33b7 6052 48b8 e47c 6134
00000030: 1e96 ae38 4c67 9a38 d4ac 5936 2402 86b7
00000040: e6a3 f238 af43 a536 b4bf 8f38 0044 4138
00000050: 0032 a433 00d9 9538 124e 7f38 57b8 38b6
00000060: c8a8 8936 64fa 8f35 c041 3b35 4d65 73b8
00000070: a6fb 0db6 0610 b935 584d 95b7 9648 cb36
00000080: 266f 9cb7 42b8 b737 852c 8a38 6ca9 11b5
00000090: d50c 4f33 4baf 95b7 61d7 adb5 60c1 dd36
000000a0: 6bf9 2238 608b c7b2 5991 f534 b952 12b8
000000b0: 7402 aa37 63b0 ccb7 a8f3 28b4 c603 5038
000000c0: 2410 73b5 21c9 9e35 2d69 b5b7 f6dd ceb7
000000d0: defa 59b7 af19 c8b8 8bd6 31b8 1269 08b9
000000e0: a0be 82b7 f44b d137 3ec5 ccb7 3061 c0b7
000000f0: 25dc b434 5675 cc37 c832 78b8 4a21 00b8
00000100: 2a21 68b6 3d8e 1638 7022 f4b5 ca1b 3837
00000110: 5032 a0b3 7ade adb4 ca7e db35 d947 2bb8
00000120: 2048 18b5 7819 bfb7 59c8 86b5 bc4c 6d38
00000130: de54 14b9 8290 dfb3 ff0b 3db8 2058 f637
00000140: 8d09 d6b3 27d9 97b8 16e5 0739 cac4 7638
00000150: b4af 19b9 0111 2db5 b4f0 1e39 f0e6 e237
00000160: cb08 5d39 e47e fd37 929b 38b8 a0a5 6e36
00000170: 0f9a 20b5 7afb fab7 021d a0b7 a059 02b8
00000180: 4a4b bbb6 6889 6eb5 849b 05b8 af8c 96b8
00000190: 9649 6139 ca6b 4538 e57d 4a38 4017 98b8
000001a0: 87c4 05b7 f60d 7eb8 8243 8735 53e6 14b5
000001b0: 9aec 1338 8ab8 a238 3e01 a8b8 e59e aeb8
000001c0: bfae 87b8 f49a bc37 3973 cd38 000a 0d37
000001d0: 88cf 2d36 3fb2 26b6 dba0 beb7 9d66 8635
000001e0: 2af9 62b8 15c9 da37 21ca 6238 b822 fa36
000001f0: a29d c238 a962 a538 c81d 4bb5 2d07 cbb6
1.8851756e-07 -6.353435e-05 -3.118271e-05 8.694578e-07 6.7101544e-05 -3.2080286e-05 1.8150902e-06 -2.7726532e-05
-1.1865623e-05 -1.0710135e-05 -4.7760434e-05 2.1000193e-07 8.324928e-05 7.362533e-05 3.243612e-06 -1.5975042e-05
0.00011569988 4.9252626e-06 6.854479e-05 4.6078116e-05 7.64594e-08 7.145293e-05 6.0869446e-05 -2.7525437e-06
4.102567e-06 1.0727204e-06 6.975861e-07 -5.803006e-05 -2.1157116e-06 1.3788238e-06 -1.77982e-05 6.0583216e-06
-1.8648407e-05 2.1901102e-05 6.588645e-05 -5.426325e-07 4.8207614e-08 -1.7843811e-05 -1.2952188e-06 6.608825e-06
3.88561e-05 -2.323003e-08 4.574056e-07 -3.4886154e-05 2.0266722e-05 -2.4400832e-05 -1.5734861e-07 4.959458e-05
-9.054804e-07 1.1830454e-06 -2.1625858e-05 -2.4660472e-05 -1.29926175e-05 -9.541527e-05 -4.2399897e-05 -0.00013009112
-1.5585974e-05 2.495011e-05 -2.4410543e-05 -2.293344e-05 3.368779e-07 2.4373334e-05 -5.91751e-05 -3.054858e-05
-3.4589998e-06 3.5895257e-05 -1.8189439e-06 1.0973725e-05 -7.4597324e-08 -3.2385634e-07 1.6353672e-06 -4.083649e-05
-5.672937e-07 -2.2780834e-05 -1.0042087e-06 5.6576668e-05 -0.00014145995 -1.04105325e-07 -4.5072284e-05 2.9366522e-05
-9.966889e-08 -7.240689e-05 0.00012959944 5.8834245e-05 -0.00014656672 -6.4472266e-07 0.00015157723 2.7048838e-05
0.00021079478 3.0219038e-05 -4.4013905e-05 3.556117e-06 -5.982883e-07 -2.9919425e-05 -1.9086994e-05 -3.1077885e-05
-5.581799e-06 -8.886186e-07 -3.1854506e-05 -7.178762e-05 0.00021485085 4.7068846e-05 4.82778e-05 -7.2522555e-05
-7.973175e-06 -6.057132e-05 1.0077931e-06 -5.546946e-07 3.5267884e-05 7.759135e-05 -8.0110956e-05 -8.326563e-05
-6.4698506e-05 2.2483502e-05 9.7966236e-05 8.406583e-06 2.5899808e-06 -2.483968e-06 -2.272467e-05 1.0013642e-06
-5.411465e-05 2.6081261e-05 5.4070846e-05 7.4546224e-06 9.280002e-05 7.88619e-05 -7.566673e-07 -6.050707e-06

exp_avg_sq f4 [128]
00000000: dc8a 9531 62ac 6033 b911 2d32 0279 242f
00000010: 0c93 a234 9906 a632 66bc c12e 56a8 8432
00000020: c83d 3332 f717 3230 dd69 2a32 1a3a 6d2e
00000030: 8d22 4733 4deb eb33 27ff 772f 961b 1534
00000040: 9c37 8235 98b8 1831 9797 9633 c627 d933
00000050: e7f9 1732 2bf4 7133 1a73 c234 ac15 8f31
00000060: 9de6 b72f 3b60 0532 f16b 5b2e aec9 3334
00000070: 4993 b832 79a1 cf2d 9003 2c32 3174 c632
00000080: 083f 0b34 cc14 6e33 16a6 9c33 0aa9 382c
00000090: f382 a32d 7357 4c33 b422 1e2e 34e2 4134
000000a0: 4013 5b33 33d7 b82e a407 ed2d 0eb2 9032
000000b0: 3367 1133 8e80 e933 7002 0c2b 4403 9432
000000c0: 9e0a b62e 6b45 4532 e05a 3832 2807 4833
000000d0: e705 5330 6675 1c34 ceca 3f33 deb6 9934
000000e0: f64a be2f 0693 6633 315d 8b32 04a7 7232
000000f0: c5bc fb2d cce9 5f31 2dbd f032 f470 e233
00000100: 9861 7a2f 0030 c433 d28e 9e31 bc4b 9431
00000110: 2928 712c ddc5 cc2d d14e a62f c245 dd32
00000120: a5c6 962f 9cbb 5c34 5bfc de2b d4d8 8c34
00000130: 0c6f 3c35 8812 cb2d df93 1034 a9ac 0c35
00000140: 6043 302e 80ad 0334 9380 9334 ed7a 3533
00000150: 8d65 b734 5dd3 ae2b 8cde 8634 8f66 fa33
00000160: 2a1e 2135 cfe9 6d34 34a4 8633 baaf c232
00000170: fa38 6d2c 9e95 4233 4291 f033 94d9 f932
00000180: 91a6 722e b9cb 432d d6fa de34 69e0 1734
00000190: bf98 f834 1df0 0634 6d1c d633 439d b433
000001a0: 97fd a532 a681 2833 94f9 5d2f d3ba 2b2c
000001b0: cc7d aa32 fbfb 0334 38e1 4733 738e 1f33
000001c0: c274 cf33 73b1 cf31 6a6b 9c33 b6b7 fb30
000001d0: c8ed ba2f 9151 312d 85a7 0433 1e16 fd2d
000001e0: 9d7c aa33 87f4 a232 a115 d933 162f d430
000001f0: 20db f633 3687 0d34 27e2 5631 5c6f b130
4.352257e-09 5.2310845e-08 1.0073955e-08 1.4958704e-10 3.0281842e-07 1.9327944e-08 8.81009e-11 1.5443373e-08
1.0433219e-08 6.479008e-10 9.919373e-09 5.3939166e-11 4.6364722e-08 1.0985841e-07 2.2555167e-10 1.3886742e-07
9.701939e-07 2.222384e-09 7.012493e-08 1.0112085e-07 8.846178e-09 5.6334255e-08 3.6219063e-07 4.1643116e-09
3.3451367e-10 7.763499e-09 4.9890706e-11 1.6744045e-07 2.1487397e-08 2.3604884e-11 1.0012528e-08 2.3103071e-08
1.2968314e-07 5.5432608e-08 7.294527e-08 2.6241808e-12 1.8589108e-11 4.7576986e-08 3.5955863e-11 1.8056818e-07
5.100742e-08 8.405578e-11 2.6947174e-11 1.6844776e-08 3.3854302e-08 1.0873292e-07 4.9741374e-13 1.7230953e-08
8.278288e-11 1.1482693e-08 1.0730872e-08 4.6572637e-08 7.676974e-10 1.4571341e-07 4.4655103e-08 2.8631524e-07
3.4614062e-10 5.3684765e-08 1.6224108e-08 1.4124229e-08 2.8619227e-11 3.258367e-09 2.8025704e-08 1.0544491e-07
2.277204e-10 9.1356924e-08 4.614642e-09 4.315977e-09 3.4270453e-12 2.3279984e-11 3.0251227e-10 2.5759508e-08
2.7425986e-10 2.0557349e-07 1.5844091e-12 2.6234795e-07 7.019705e-07 2.3086658e-11 1.346484e-07 5.240532e-07
4.0077608e-11 1.2263445e-07 2.7474434e-07 4.2254147e-08 3.4160294e-07 1.2422109e-12 2.512137e-07 1.16601875e-07
6.002107e-07 2.2157404e-07 6.2697296e-08 2.2664484e-08 3.3711354e-12 4.530522e-08 1.1202293e-07 2.9086358e-08
5.517237e-11 1.1129702e-11 4.153323e-07 1.4144611e-07 4.6304737e-07 1.2567075e-07 9.970322e-08 8.410509e-08
1.9323847e-08 3.9233463e-08 2.0188501e-10 2.440427e-12 1.984781e-08 1.2291996e-07 4.6538133e-08 3.714963e-08
9.660427e-08 6.0446665e-09 7.2838546e-08 1.8314867e-09 3.4002157e-10 1.00793965e-11 3.0886003e-08 2.8772592e-11
7.938909e-08 1.897048e-08 1.0108784e-07 1.5438413e-09 1.1495126e-07 1.3180838e-07 3.1269651e-09 1.2910095e-09

exp_avg f4 [128, 128]
00000000: cadc 12b8 90c6 6b39 1e89 5ab8 909a f9b6
00000010: ee93 cc3a f7aa 223a bff2 89b4 3f6d 85b7
00000020: 548e d039 7819 08b7 7e04 c739 30ec dab4
00000030: ae85 0fb6 7a48 cc39 4e2d aab6 d649 9f3a
00000040: 6a6e 913a 18fa 4639 3c44 313a 386c b739
00000050: 3d9d d53a 4aa9 f83a d6fd c439 1001 43b7
00000060: e476 09b7 b251 623a 7ad8 22b5 5294 a338
00000070: 6c17 83b7 1f39 85b5 f084 443a cae0 71b7
00000080: d1f5 bdb5 623a 8b37 3285 3f3a 70cd fbb4
00000090: ecc3 0cb6 bf5d 683a bcce b7b3 c708 78b7
000000a0: ec89 e83a 599e 79b5 ca17 73b5 7290 3b39
000000b0: dd50 5b3a 5913 a43a fe0b 2db4 b421 5538
000000c0: 3f7a a6b4 65a8 9139 c6a9 1fb7 dfd9 1339
000000d0: 0e3f 61b7 5253 a939 d9db 7b3a c43a 7f3a
000000e0: 6d2e 2db6 179f ff39 adf0 cf3a dc64 5db6
000000f0: 2c8e 92b4 f7e7 b9b7 701b b8b4 4a60 61b8
00000100: d445 a935 e62f 6638 7602 50b6 c8f3 9533
00000110: ad5d 20b5 2908 13b5 3ebe f5b5 d725 0a38
00000120: 8d16 86b4 0668 15b8 8a7c 7fb4 762b 2338
00000130: d095 a23a 08dc 23b6 a5fd a03a 92fb c939
00000140: aa81 2c33 1c8c 97b5 6433 763a bbc2 7c3a
00000150: e035 643a e6e8 3db4 bb28 ed38 92db a53a
00000160: dfb1 2b39 887e 413a d083 e63a e695 abb7
00000170: 7957 5134 ab00 4ab8 645e be36 ff01 aa3a
00000180: 55e4 1734 5bcf 7cb6 9292 c739 765c 613a
00000190: 8f0f ed39 edb7 393a 0526 c7b6 496b 2439
000001a0: b1b4 f039 66a3 6939 bf4e 5eb6 c296 abb4
000001b0: 8b49 67b8 6bea 003a 3ea8 2a3a ae8e 8c3a
000001c0: a9e1 da39 0812 f8b7 bd56 cf3a da64 61b7
000001d0: f99e 11b7 b00b 9a34 26a7 a839 ba78 c8b5
000001e0: d02b a239 e552 00b7 182e 8bb7 0bac 81b7
000001f0: ba3a ea39 cb96 9a3a cbb5 97b7 a1a1 edb7
00000200: caa2 8134 83d4 5235 f661 b1b5 678d 8f34
00000210: 16ab 38b5 64cd 8d35 8aad 8034 c41b 49b4
00000220: ff9f 8fb5 b290 5634 8c54 3935 850c 8b34
00000230: d91e a6b3 7862 2834 c8d0 44b2 201d a4b2
00000240: ec5f 8334 8393 2935 8017 8333 805b 42b2
00000250: 94cf 08b5 7097 b8b5 d224 5b34 bc16 70b4
00000260: 505f 5434 08d0 07b5 d7dd be34 206c c534
00000270: e20e 9b34 402e 3db5 1d71 8335 52e8 6134
00000280: 3484 ec34 8076 f734 fe28 92b3 cd0d 9934
00000290: 90cd 83b1 02f4 84b5 008d 1eb4 312b d734
000002a0: 609a b2b3 46a1 9db4 8e1c 8b34 bc96 b934
000002b0: e5e5 9934 b12d 1ab5 7bcd 8e34 9b83 8d34
000002c0: 286e 3cb3 319b 1c35 9508 ae34 187a 43b3
000002d0: de7f deb4 a63e 9b35 1018 05b4 54fb 34b5
000002e0: 6ad2 cf34 7fd8 e934 f4e7 aab4 a931 9534
000002f0: c1f3 7c34 cdfd 1535 784a 1c35 ae99 a333
00000300: 8ac8 4eb4 f3fd af34 d8e9 5435 30b0 8435
00000310: 68b8 8a34 1b14 9434 0586 9834 f844 1134
00000320: f39a 9434 1be3 adb4 0d29 7c34 b65a b134
00000330: 1789 e6b5 ac22 dd33 5885 afb5 5c36 eeb4
00000340: bfcc 9b34 9221 5c35 028d 82b5 97cc bab4
00000350: 4a7f b1b4 3b9c 8c34 7177 4c34 c088 d7b3
00000360: 3182 fc34 1a71 9fb5 3a6d 5435 c3b8 9134
00000370: 5eb1 88b3 8a97 fc35 5c01 e034 447e 43b4
00000380: 7c9f 1534 814a 9034 102e 92b4 c6aa aa34
00000390: b908 abb4 00a4 14b4 7436 da34 f760 4235
000003a0: b028 8335 c7ca 9134 3114 9734 c687 5034
000003b0: 0f3d 8134 7ca9 8ab4 a00e ed33 08a2 5535
000003c0: d0b6 3cb5 7e93 1935 c4aa 2f35 020a 8b34
000003d0: 97af 2d34 357f 0234 e0db dab5 6484 9434
000003e0: 584d 8335 3cee 3334 1a74 e333 0963 7a34
000003f0: 882b 7535 cf94 cab4 b0cc 38b5 161d 9934
-3.501474e-05 0.00022485317 -5.210295e-05 -7.4387717e-06 0.0015608051 0.00062052853 -2.569486e-07 -1.5905707e-05
0.00039778894 -8.112162e-06 0.00037959585 -4.0777513e-07 -2.1386472e-06 0.0003896391 -5.071669e-06 0.0012152742
0.0011095528 0.00018975919 0.0006762182 0.0003498511 0.0016297471 0.001897135 0.00037573156 -1.1623153e-05
-8.193518e-06 0.00086333894 -6.066472e-07 7.8000725e-05 -1.5627324e-05 -9.925897e-07 0.0007496616 -1.4417057e-05
-1.4153139e-06 1.6597278e-05 0.00073059194 -4.690187e-07 -2.0975667e-06 0.0008864067 -8.559206e-08 -1.47839955e-05
0.0017741299 -9.2990155e-07 -9.055917e-07 0.0001788752 0.00083662366 0.0012517973 -1.6116243e-07 5.0814546e-05
-3.1008855e-07 0.0002778202 -9.516667e-06 0.00014100176 -1.3425726e-05 0.0003229627 0.000960765 0.0009736235
-2.5806032e-06 0.0004875592 0.0015864574 -3.2990274e-06 -2.7298063e-07 -2.2161736e-05 -3.4292634e-07 -5.3733856e-05
1.2611804e-06 5.4880882e-05 -3.0995848e-06 6.982697e-08 -5.974096e-07 -5.477364e-07 -1.830929e-06 3.2937005e-05
-2.4975853e-07 -3.5621248e-05 -2.3794033e-07 3.8902705e-05 0.0012404267 -2.4416968e-06 0.0012282623 0.00038525142
4.01648e-08 -1.1291154e-06 0.0009391813 0.0009642054 0.0008705538 -1.7686725e-07 0.00011308627 0.0012653938
0.00016374093 0.00073812203 0.0017586891 -2.045459e-05 1.9496464e-07 -4.8161175e-05 5.6734298e-06 0.0012970566
1.4146038e-07 -3.7671623e-06 0.0003806544 0.00085968466 0.00045215755 0.0007084597 -5.935088e-06 0.00015680226
0.00045910993 0.00022281482 -3.3126414e-06 -3.1960923e-07 -5.5143184e-05 0.00049177435 0.00065100554 0.0010723674
0.0004174833 -2.95723e-05 0.0015818697 -1.3434526e-05 -8.679687e-06 2.869324e-07 0.00032167992 -1.4936297e-06
0.0003093169 -7.648695e-06 -1.6591555e-05 -1.5458112e-05 0.00044675713 0.0011794207 -1.8085257e-05 -2.8327866e-05
2.4146567e-07 7.854034e-07 -1.3216038e-06 2.673871e-07 -6.8794304e-07 1.0565095e-06 2.3968124e-07 -1.8729685e-07
-1.0700895e-06 1.9982943e-07 6.90409e-07 2.5899877e-07 -7.7355885e-08 1.5682042e-07 -1.1456173e-08 -1.9105357e-08
2.4470444e-07 6.3172064e-07 6.1044375e-08 -1.1313091e-08 -5.0966014e-07 -1.3753142e-06 2.040936e-07 -2.2360013e-07
1.9778713e-07 -5.0594144e-07 3.5551668e-07 3.677278e-07 2.8881828e-07 -7.047529e-07 9.793181e-07 2.1039276e-07
4.4054616e-07 4.6093555e-07 -6.806111e-08 2.8508512e-07 -3.8359715e-09 -9.905782e-07 -1.4766192e-07 4.0078297e-07
-8.3168516e-08 -2.936087e-07 2.5911544e-07 3.456861e-07 2.866574e-07 -5.743596e-07 2.6599068e-07 2.6359052e-07
-4.3872348e-08 5.834036e-07 3.241627e-07 -4.551302e-08 -4.1443758e-07 1.1566633e-06 -1.2395344e-07 -6.7420956e-07
3.870985e-07 4.3557154e-07 -3.1833736e-07 2.7789545e-07 2.3558006e-07 5.5876154e-07 5.8222895e-07 7.618233e-08
-1.9258201e-07 3.2781062e-07 7.931644e-07 9.886044e-07 2.5838676e-07 2.7581777e-07 2.8409718e-07 1.3529268e-07
2.767989e-07 -3.2389002e-07 2.3484263e-07 3.303482e-07 -1.7176234e-06 1.0297421e-07 -1.3077324e-06 -4.4370506e-07
2.9019972e-07 8.200524e-07 -9.726793e-07 -3.4794058e-07 -3.3061434e-07 2.6190705e-07 1.9042433e-07 -1.00365924e-07
4.7033384e-07 -1.187934e-06 7.91351e-07 2.7142787e-07 -6.3652564e-08 1.8819567e-06 4.172424e-07 -1.8206725e-07
1.3934726e-07 2.68763e-07 -2.7228134e-07 3.1789222e-07 -3.185758e-07 -1.3843237e-07 4.0645284e-07 7.2411734e-07
9.772102e-07 2.7155895e-07 2.8140633e-07 1.9420904e-07 2.4072548e-07 -2.582782e-07 1.1038833e-07 7.958447e-07
-7.0301485e-07 5.721157e-07 6.5441077e-07 2.589805e-07 1.617576e-07 1.2153471e-07 -1.6306258e-06 2.7663475e-07
9.782771e-07 1.6757343e-07 1.059163e-07 2.3319093e-07 9.133296e-07 -3.7733705e-07 -6.88432e-07 2.8519634e-07
