results/test2/EndLessRunnerBehaviour/EndLessRunnerBehaviour-44164.onnx (onnx, 74029 bytes, 5 tensors)

network_body._body_endoder.seq_layers.0.weight f4 [128, 5]
00000000: 2ba9 3f3e 34c6 bf3e a6c2 083e 9e34 8f3f
00000010: ec9d 213e c45c e5be 29ca 54bf bd3d 99be
00000020: 291d 99be 77d8 b8bd 3532 4c3f 7793 89bd
00000030: a4dc 8c3d 2912 943e c15e 23bf 45af 4c3e
00000040: 3841 28be 4efc f1be e45c 023f 3525 db3d
00000050: 2afb febe bc77 983e 869e 163e e799 de3e
00000060: 19e9 8c3f 7114 883d 4b2b aabe 1f7e 2cbf
00000070: e572 81be 5e62 9ebe b96b c7be 9fc5 b6be
00000080: e54c 89bf e016 78be 0daf a63e 88d4 0f3f
00000090: 4674 7ebf c2ea a53e f042 bf3e 3622 e4ba
000000a0: 8340 04bf 174b a53d 5a37 293d 90c4 843f
000000b0: 81c5 efbd 4956 483d 7f29 22be 9372 8b3d
000000c0: b894 e03e 4346 853f 453e bfbe 8571 3b3e
000000d0: 7eb2 8fbe 092f 2bbe 27e3 093f 1270 553e
000000e0: d9d7 fbbe 212f b23e 4be7 d7bd e04b 44bf
000000f0: 2d8e 0ebd 8a87 29be faae fdbe b276 fc3c
00000100: e15b 14bf d930 ccbe c600 193e 1afd 073f
00000110: ba30 94bc ec92 78bc 0f78 ee3e 0c7a 58be
00000120: abf7 9b3d 32c8 09bf 9aca 853e c7e5 fcbd
00000130: fd40 a93d ad27 043f 0cd1 bc3e a94c 54bd
00000140: b8d6 983d 998a 083f acae e4be fafd 3d3e
00000150: ece5 01bf 6d32 53bd b76d 57bd 4c8e 1f3f
00000160: c5e8 c43e c6cc 0fbf 9e69 4fbe 29b7 433e
00000170: 3c49 b1be 75dc 543f 92a4 26bf 7d35 8e3f
00000180: b762 7dbd 546e 933e 9845 17be 41b3 98bd
00000190: 0125 16bf 1b89 3abe 9ce2 f33e 37f2 a53e
000001a0: 3480 8ebd ca3e cbbe 3fca 48bf d8b0 163f
000001b0: 8370 15bf 2518 1c3f dc2f 07bf ab1e d8bd
000001c0: c001 e6be 1701 4bbc 09fd dd3d 6fa0 c6be
000001d0: e552 fbbe c048 07bf 9cc0 40bf 4398 f03e
000001e0: 1977 393d 3f1d a03e 62cc 91bd e287 cc3e
000001f0: 5fd7 bb3e d987 79be 729e bd3e ec7d bb3d
00000200: 1572 dd3e 7725 febd 7d05 06bf f00a 34bf
00000210: 4fd1 dcbe 70d8 80bd 3f59 06bf 2026 173f
00000220: 581b 593e 1267 44bc e48f e7ba 92cf 1bbf
00000230: b17a 05bf 4a9c e23c 056f bfbe a115 92be
00000240: a96e e23e c3a9 233f 2324 8d3c c8e4 a13e
00000250: 8b7c 17bf 9af9 47be 4491 e9be d8f8 67be
00000260: 28f8 cbbe 2cf3 5e3e 4b37 d63d 8134 9d3c
00000270: 0c07 683d 9286 c4be f783 11bf c129 14bf
00000280: a25a 86be b930 10bf 08d5 023e 668f dabe
00000290: 4a8e 013f a1eb d1be f0a6 4dbe fd2f 153f
000002a0: 212f 133f f58c 26be ba8e 933e e8ed 1a3f
000002b0: f582 51bd 09ee 4e3f 18ef dd3e 40d1 3f3d
000002c0: 6e34 60bf de0b eb3e ce6b 79be 9e82 273f
000002d0: 67b0 e4be a086 c0bd 7b31 9e3e da00 8d3d
000002e0: 82a4 f33e 2bbb ef3d 7241 35bf 392d 79be
000002f0: 8fe6 aebd aa6d da3d d984 41bd ecb7 5b3f
00000300: ac5a 5abe 60bf 1bbf 3147 83bc d0c9 103f
00000310: 7ee8 b8be 4d8d 88bf 6b1c 91bf 09bc 793f
00000320: 0c3c 5abe b903 f1be fba2 6c3e ba65 09bf
00000330: 0f67 47be 8d53 a63e 0147 5cbf 568e f5be
00000340: 3853 ddbe ec8d e63e 808d f5bd 751e ddbb
00000350: acd9 ed3d 7012 cc3e 84fc debe 030c a5be
00000360: b4d3 92be 9da2 a83e 2a3a 18bf 13a1 103e
00000370: 3945 87be 0f14 01bf a7b1 b0be 8842 a23d
00000380: 2de2 613e a299 e1be 481b c2bd 3552 723f
00000390: 9d78 a0be 680e 70be e026 003c b47d d7be
000003a0: ba35 2fba b550 663f 0572 fd3d f5cf 973d
000003b0: f224 a13e 5681 19bf 2b61 593e 7f1c a3bd
000003c0: c5b7 7cbe bdfa c23e da7f b8be 6419 c03d
000003d0: 8d5d f73e 1d5e 3fbe 3302 0c3e 4301 38bf
000003e0: b06c 42bf d760 ef3e 9da2 113f 90ca 58be
000003f0: 59ad f9be 6fe9 ae3e 4e3f 5f3d 8c8d 313e
0.18716876 0.37455904 0.13355502 1.1187932 0.15782899 -0.44797337 -0.8312097 -0.29929915
-0.2990506 -0.090256624 0.7976411 -0.0671758 0.06878021 0.28920105 -0.6381646 0.19988735
-0.16431129 -0.47262806 0.5092299 0.10700456 -0.49800998 0.2977885 0.1470891 0.43476793
1.1008636 0.06644524 -0.33236155 -0.67379946 -0.2528297 -0.30934423 -0.38949373 -0.35697648
-1.0726591 -0.24227476 0.32555428 0.5618367 -0.9939617 0.32405668 0.37355757 -0.0017405215
-0.5166094 0.08070963 0.041312553 1.0372486 -0.11707593 0.048910413 -0.15836142 0.06808963
0.43863463 1.0412067 -0.37352195 0.18305023 -0.28065866 -0.16717161 0.5386223 0.20843533
-0.49188116 0.34801582 -0.105421625 -0.76678276 -0.03480356 -0.1655561 -0.4954756 0.030818317
-0.57952696 -0.39881018 0.14941701 0.5312058 -0.01808964 -0.015171748 0.46575972 -0.21140307
0.07615598 -0.538211 0.26131135 -0.12348514 0.08264349 0.5162304 0.3687824 -0.05183092
0.07462829 0.53336483 -0.44664514 0.18553916 -0.5074146 -0.05156176 -0.052594867 0.623265
0.3845884 -0.56171834 -0.20255134 0.19112839 -0.34626186 0.8314889 -0.65094864 1.1110073
-0.06186172 0.2879511 -0.14772642 -0.07456065 -0.58650213 -0.18216364 0.47633827 0.32411358
-0.069580466 -0.39696342 -0.78433603 0.5886359 -0.58374804 0.6097434 -0.528074 -0.105527245
-0.4492321 -0.012390397 0.10839278 -0.38794276 -0.4908668 -0.5284538 -0.752939 0.46991166
0.045279596 0.31272313 -0.07119061 0.3994742 0.36687753 -0.24368228 0.37034947 0.09154877
0.432511 -0.124094896 -0.52352124 -0.7032919 -0.4312844 -0.06291282 -0.5247993 0.5904255
0.21201837 -0.0119874645 -0.0017666784 -0.608636 -0.5214034 0.027662415 -0.3738939 -0.28532127
0.44225052 0.6393091 0.017229145 0.3161986 -0.5917441 -0.19528809 -0.4561864 -0.2265352
-0.39837766 0.2177245 0.10459765 0.019190075 0.056647345 -0.3838392 -0.5684199 -0.5787621
-0.26241022 -0.56324345 0.12776577 -0.4268753 0.5060774 -0.41000083 -0.20083213 0.5827635
0.5749379 -0.16264708 0.2881983 0.60519266 -0.05115028 0.8083196 0.43346477 0.046830416
-0.8758 0.4590749 -0.2435753 0.6543368 -0.44665834 -0.09400678 0.30897126 0.06884928
0.47586447 0.11705621 -0.70802987 -0.24333657 -0.08540069 0.10665448 -0.047245834 0.8582752
-0.21323651 -0.6083889 -0.016025158 0.5655794 -0.36114877 -1.0668122 -1.1336797 0.97552544
-0.21311969 -0.47073153 0.23109047 -0.5367085 -0.19472907 0.3248562 -0.86045843 -0.47960156
-0.43227553 0.45030153 -0.119898796 -0.0067480155 0.11613783 0.39857817 -0.4355203 -0.32235727
-0.28677142 0.32936564 -0.5946375 0.14123945 -0.2642 -0.5042123 -0.34510538 0.07922846
0.22058935 -0.44062525 -0.0947786 0.9465669 -0.3134202 -0.23442996 0.0078217685 -0.4208809
-0.0006683726 0.899669 0.12375263 0.074127115 0.314735 -0.59962976 0.21228473 -0.079644196
-0.24679478 0.38081923 -0.36035043 0.09379843 0.4831356 -0.18688245 0.13672714 -0.71876925
-0.75947094 0.4675357 0.56888753 -0.21171021 -0.48765066 0.3416247 0.05450373 0.17339152

network_body._body_endoder.seq_layers.0.bias f4 [128]
00000000: 7369 feb9 1a68 b5b9 1c7e 083b ee42 73ba
00000010: fbbd 7eb8 b21d 10bb db19 1339 d33f e63b
00000020: 692d 4f38 8699 58bb 324b c1b9 db35 a6ba
00000030: d0a1 44ba 324b 9cb9 8fd9 50b9 c2fb 10ba
00000040: 25fc 3739 8e4a f83b ff52 c7b8 31a6 f9bb
00000050: 2a19 0dbc bab5 a43a a13d deb9 8a19 84ba
00000060: 7fee 3cba d5a4 9bba 9764 ed3a 109a 2739
00000070: a3b3 3d39 f275 82bb f2e7 b6ba 9887 78b9
00000080: 0a4f 963a 59cb 0b3c ed82 25bb 3651 c13b
00000090: 4abe 913b 05e6 8c3a d2e4 cbb8 25c2 083a
000000a0: cb16 fa3a 6cf9 243a e6a9 63bb a70d b4bb
000000b0: 52c0 99b9 3b43 153c e918 0fbb 6937 10ba
000000c0: 1f7b 96b9 e65e 57b9 7968 343a 1a1b 8cb9
000000d0: 8bfe 1e3c 9976 deba e029 2336 3ff9 74b7
000000e0: c9f2 80b8 2aa6 9bb7 36d2 07bb e537 01bb
000000f0: 8953 e4b9 1a10 653a 3685 1839 4eec 7cbb
00000100: 462c e638 5e7f 8bba 5c79 9e3b af8f aab9
00000110: a347 4cbb e975 8ebb bd49 063c b7ab b839
00000120: 67f3 9e3a 927f 00b8 2a9a 02ba 4ebf 9bb8
00000130: 275d 23ba 71d6 4aba 624f abba 1cb2 f4ba
00000140: cf8f c3b8 732d 40b8 225c f938 cc5e 83ba
00000150: 20c5 85b9 ac33 b739 5bdc 92b9 28f6 96b9
00000160: 8699 8abb 61d2 c939 67f9 6ab9 034b f1b8
00000170: ca5d b7bb 5438 96b9 5832 bebb 1159 2139
00000180: f106 4db9 5300 c3ba ca96 10b9 9ed2 9339
00000190: b00a 8b39 4c57 8bb9 8e4b 83ba e774 773b
000001a0: 2df1 b13b 6b9d cf39 73c6 59ba 663a e738
000001b0: 0181 31ba 346c 76bb 867f e538 5ba1 9239
000001c0: b97e b039 6dff b339 8134 ca38 f352 edba
000001d0: bec3 1b3b 9c2d 893b 6c61 d539 d765 77b8
000001e0: 696d fa3b 0bbe 57ba 7dbc 6439 afe9 183c
000001f0: 838d 7639 9467 36b9 6659 663b e9f8 6db9
-0.0004852522 -0.00034600572 0.002082712 -0.00092796877 -6.0735252e-05 -0.0021990356 0.00014028644 0.0070266514
4.9394937e-05 -0.0033050491 -0.00036867853 -0.0012680845 -0.00075009186 -0.00029810664 -0.00019917473 -0.0005530679
0.00017546171 0.007577247 -9.504519e-05 -0.0076186885 -0.008611957 0.0012566366 -0.00042389057 -0.0010078412
-0.00072071695 -0.0011874685 0.0018111643 0.00015983754 0.00018091364 -0.0039813453 -0.0013954623 -0.00023701636
0.0011467647 0.008532369 -0.002525504 0.0058995737 0.004447733 0.0010749704 -9.7224154e-05 0.0005216918
0.0019080279 0.000629327 -0.0034738719 -0.0054947915 -0.00029325724 0.009110267 -0.0021834916 -0.0005501421
-0.00028701962 -0.0002053935 0.0006882023 -0.00026723073 0.009704242 -0.0016972601 2.4313267e-06 -1.4601565e-05
-6.148738e-05 -1.8554816e-05 -0.002072466 -0.0019717154 -0.00043549787 0.0008738056 0.00014545475 -0.0038592997
0.00010975501 -0.0010642817 0.0048362445 -0.0003253198 -0.0031170628 -0.004347552 0.0081962915 0.00035223152
0.0012126983 -3.0636387e-05 -0.00049820787 -7.426609e-05 -0.00062318373 -0.0007737643 -0.0013069923 -0.0018668803
-9.325111e-05 -4.5818695e-05 0.00011890406 -0.0010022759 -0.00025514606 0.00034942979 -0.00028011468 -0.0002879363
-0.004229727 0.00038494452 -0.00022408889 -0.000115057475 -0.0055958973 -0.00028652197 -0.0058043413 0.00015387336
-0.0001955291 -0.0014877416 -0.00013789083 0.00028194947 0.0002652011 -0.00026577187 -0.0010017024 0.0037758888
0.0054303617 0.00039599402 -0.00083074643 0.00011025816 -0.0006771237 -0.0037601115 0.00010943324 0.0002796751
0.00033663752 0.00034331848 9.64189e-05 -0.0018106386 0.0023767794 0.0041863453 0.0004069911 -5.8984235e-05
0.0076424372 -0.0008229918 0.00021813992 0.009333058 0.00023513105 -0.00017395458 0.00351485 -0.00022694808

network_body._body_endoder.seq_layers.2.weight f4 [128, 128]
00000000: c365 903c b898 80bd a032 f3bd 2931 b3bc
00000010: 3278 b1bc 1c81 553d 2648 aebd b6c7 11be
00000020: e4e5 8c3d 7297 18bd c950 61bb 2a64 9abd
00000030: 6d08 a9bd 82b8 20be 001e febc d066 fe3b
00000040: 7c38 9c3d 13f7 a5bd 3d2b 0abd 6c77 a73c
00000050: d911 9cbb ca2b df3a 1cea 22bc 3b71 d7bd
00000060: e5bf 323d 55fc 9bbd a88d 593d 626c 923d
00000070: c974 09ba 2914 a73d 3cd8 123e 4333 753d
00000080: 9c67 073e 7203 523c 3b20 2a3d ef13 e7bc
00000090: 7b17 eebd 8e5b 103d e8ca a4b9 9491 ccbd
000000a0: b414 b63c f78e c0bc 8d6d 5cbd 8ed7 253d
000000b0: ed70 5f39 2190 a9bd adb0 1e3d b260 b0bd
000000c0: 46af b5bd 3c2d 453d 90af 5a3e 5923 d53c
000000d0: dd86 113d 841f 55bd 60d2 37bc d1cc ecbd
000000e0: 78a1 303d 30e6 76bd 7dfc 663d 843c 2cbe
000000f0: 201d 243e f014 0dbd 26fb 233e 48a2 9cbd
00000100: 0920 2dbd 46d7 8e3d df0d ab3d 8dfa 01be
00000110: 2488 6c3c fb0f 82bc 8b10 53be 2ce5 aabc
00000120: ed50 343c 6675 cd3d 3920 c63d 1442 ff3d
00000130: 33a6 733c 5c67 8d3d 6af8 ebbc d863 973d
00000140: a16a cf3c e18f 053e 29e2 27be f033 58bc
00000150: d71f 23bc d598 50bc 8784 b9bd 3b26 ae3c
00000160: de68 d43d 888c 6cbc 42c1 063d 5fa6 e8bc
00000170: 6f42 843d 9e38 943c 1182 41be 5c04 0cbc
00000180: 9759 a8bd 9800 a4bd 8bb4 07bd 96c6 ecbd
00000190: 8c65 313d d7a8 6b3b 8531 d5bd 42f2 56bd
000001a0: 046e cd3d 9de4 203d 0e07 a93d a52b 64bd
000001b0: 3796 87bd 3a0f e9bd 5ae4 19be d401 cfbb
000001c0: 8fc2 9ebd ab0c 34be 5412 abbc f16b f93c
000001d0: 575f 483d f04b f73d 6c02 4b3c 5ed2 26bc
000001e0: 4328 93bc 86f2 95bd d3dc b23d 82d5 89bd
000001f0: 5c7e 123d e822 823d bccb b3bd c8c6 bb3c
00000200: dce8 5ebb 8fcb 1e3d 00ef c63d 4fde 323c
00000210: 4a87 8abd c345 a1bd 6ebc d73d b611 d2bd
00000220: cd76 833c 5728 e13d eb4b e23c f61d a4bd
00000230: a55a d63c 39d2 cb3c fa81 1abd 4176 2f3d
00000240: 048b dcbd 5b98 553e 96e8 193d 9009 4e3e
00000250: 8d00 b5bd 8058 4d36 2238 d3bc bfbc 7dbd
00000260: d420 94bc 925f d9bd 4024 2d3e 3dab 6fbd
00000270: 2039 3fbd 69ee 1a3c 87f8 c6bd 872b e8bc
00000280: 0ee4 1ebb bc7e 213d 583b 80bb 5a42 e6bc
00000290: 2a62 fcbc 9f1c eabd c6fc cfbc dbee 373e
000002a0: 3111 523e 11fc e0bd bf38 91bc cde2 a8bc
000002b0: 8459 d03d d65a 55ba d173 b43d 75bf 843d
000002c0: a098 51bd 9cea 533d e71b c33b e654 f3bd
000002d0: d976 923d 38b6 283c 866a eabc 0cfc 853d
000002e0: 9718 3b3e 7693 d7bd af9e 073e 98b3 01bd
000002f0: 62a4 08bd ee54 28bd 93a4 26bc b8cc ad3d
00000300: ac71 313d deaf 4f3d 998d 0abe b358 58bc
00000310: eb65 0d3e 0abd 853d 0a54 af3d 47fd 663d
00000320: 6d9a 45bc 2db7 cb3d 90a0 05be e874 11bd
00000330: 5977 f5bd 5864 4c3d a2e8 14bb 3756 d53d
00000340: aa2d 4b3e ca44 973d 0dd3 f6bb 7a64 773d
00000350: f8f5 a83d 30bc 23bd 40a3 3b3c caff 40bd
00000360: 296b 99bd ad31 803d 8aed 1c3e fdc9 143d
00000370: 725b c83a b37c c83d 3e1f 85bb ba80 87bd
00000380: 496b aa3b 7259 9d3d e15a 3bbe 0156 1fbc
00000390: 4691 243d a843 82bc 5a2b a53d bcf5 8fbd
000003a0: 8520 28be dfab aa3c f564 fbbc cd65 55bd
000003b0: 0d02 36be ba21 a13d 6b73 8f3d c084 13bd
000003c0: c2b0 6f3d cc02 2d3e 94b2 90bd 5eac 663c
000003d0: 8fbe 163d 4079 32bd 2520 0dbd 74d6 823d
000003e0: 8e10 b83d a44d 633d c456 0c3e 5068 ff3c
000003f0: b16d 0abc 0c18 dcbd 5b24 273e c431 39bd
0.017626649 -0.06279129 -0.1187489 -0.021874027 -0.021663759 0.05212508 -0.08509855 -0.1423634
0.06879786 -0.037253805 -0.0034380427 -0.07538636 -0.0825356 -0.15695384 -0.031020164 0.007763721
0.07627961 -0.08103766 -0.03373264 0.020442687 -0.00476287 0.00170266 -0.009943511 -0.10519644
0.043640036 -0.07616488 0.05311361 0.07149579 -0.00052435376 0.08158142 0.143403 0.05986334
0.13223118 0.012818204 0.041534644 -0.028207747 -0.11625572 0.035243563 -0.00031431695 -0.09988704
0.022226669 -0.023505671 -0.053815413 0.040488772 0.00021309005 -0.082794435 0.03874271 -0.08612193
-0.088713214 0.048138842 0.21356034 0.026017832 0.035529006 -0.05203201 -0.011219591 -0.11562503
0.04312274 -0.060278118 0.056393135 -0.1681996 0.16026735 -0.034443796 0.16013774 -0.0764814
-0.04226688 0.06974654 0.08352255 -0.12693234 0.014436755 -0.01587676 -0.2061178 -0.02086123
0.011005622 0.100321576 0.09674115 0.12463775 0.014871168 0.0690448 -0.028804976 0.073920906
0.0253194 0.13043167 -0.16394867 -0.013195977 -0.009956322 -0.0127317505 -0.09058481 0.021258464
0.10371564 -0.014437802 0.03289915 -0.028399644 0.06457984 0.018093403 -0.18897273 -0.008545961
-0.08220213 -0.08007926 -0.033131164 -0.11561315 0.043309733 0.003595879 -0.10409836 -0.05247713
0.100307494 0.039280523 0.08253299 -0.055705685 -0.06620448 -0.11379857 -0.15028515 -0.0063173566
-0.07751953 -0.17582957 -0.020882763 0.030446978 0.04891905 0.12075031 0.012390714 -0.010181991
-0.017963534 -0.07321648 0.08733525 -0.067301765 0.035765037 0.06354314 -0.087790936 0.022921935
-0.0034013307 0.038768347 0.097135544 0.01091726 -0.067640856 -0.07874634 0.10533987 -0.10257284
0.01604786 0.10994022 0.027624091 -0.08013527 0.02616627 0.024880515 -0.03772161 0.042837385
-0.107687026 0.208589 0.037575327 0.20120835 -0.08837996 3.0598894e-06 -0.025783602 -0.06194758
-0.01808206 -0.10613932 0.1690836 -0.058512915 -0.046685338 0.0094562555 -0.097153716 -0.028341068
-0.0024244818 0.039427504 -0.0039133243 -0.02810781 -0.030808527 -0.1143124 -0.025389086 0.1796221
0.2051437 -0.10985578 -0.017727254 -0.02061596 0.10173324 -0.0008138841 0.08811153 0.0648183
-0.051170945 0.051737413 0.005954254 -0.118814275 0.07151575 0.010297351 -0.028615247 0.06542215
0.18271099 -0.10526173 0.13244127 -0.031665415 -0.033359893 -0.04109662 -0.0101710735 0.08486313
0.043321297 0.05070483 -0.13530578 -0.013204741 0.1380841 0.06530197 0.08560951 0.056393888
-0.012060744 0.099470474 -0.13049531 -0.03551188 -0.119856544 0.049900383 -0.0022721668 0.10416835
0.19841638 0.07386167 -0.0075324834 0.060398556 0.0825004 -0.03997439 0.011452496 -0.04711894
-0.07491142 0.06259475 0.15324989 0.036325444 0.0015286042 0.097894095 -0.0040625622 -0.066163495
0.0052007777 0.07683076 -0.18296386 -0.009725095 0.040177606 -0.015901402 0.08064909 -0.07029292
-0.16418655 0.020833908 -0.030687789 -0.052099038 -0.1777422 0.07867761 0.07004436 -0.036015272
0.05851818 0.16895598 -0.07065311 0.0140791815 0.036802825 -0.043572664 -0.034454484 0.0638856
0.089875326 0.055493966 0.13704973 0.03117767 -0.008449004 -0.10746774 0.16322462 -0.045213476

network_body._body_endoder.seq_layers.2.bias f4 [128]
00000000: f92b 9fbb 3615 0db9 5baa fbba be1b 00bb
00000010: 2f25 49bb c461 2f39 1ef7 273c df13 78b9
00000020: 4776 47b9 f6d9 4f3c d24a 9cb8 53ae deb9
00000030: fa9e 32b9 a4d0 2738 be6a 8b39 539a 323c
00000040: 1016 87b9 4417 95ba 198c 483b f312 c1b9
00000050: 9e15 bb37 81c5 87ba f715 8b3b d7ec 5b3a
00000060: 49a5 52b9 74f1 1dbb 4e92 b538 23ff b639
00000070: 3962 f939 4125 853b 823b 24b9 3a52 f038
00000080: 79ab 7db9 8666 98ba 1265 92b8 7827 c33b
00000090: 1fe3 3bb9 d679 bcb9 802e 1bb9 f1c5 b33b
000000a0: 0a2f b5ba 84b5 4338 89cb 993b 757c 8bb9
000000b0: 9fc8 fcba 6094 31ba c3b5 96b9 911c f4b9
000000c0: 90eb 17b9 78e0 1bb8 8680 c2b9 528d 24b8
000000d0: 5ae6 b6bb 08a7 bfba 6c8b 64b8 dc16 baba
000000e0: 7687 cbb9 2324 4cbb 52c1 84ba a1cc 58ba
000000f0: 8d70 18ba 2842 3038 f68c 45b9 b9d1 08bb
00000100: c05e 3ab8 636d 36b9 fe69 cc38 caec c139
00000110: 3779 2538 2e21 b1b9 b19d 56b9 f209 933b
00000120: 74de b938 01b6 a33a 460a 0ebb 90d4 b737
00000130: 9210 0e3c 00e8 89b9 d838 39ba e6e5 41ba
00000140: f884 ee38 be46 f5ba 7393 81b9 c5a1 a6bb
00000150: 6438 a738 a680 243b d40a b438 16ae 1cba
00000160: 4a8d abb9 8b9a 1b3c c330 643b 2be7 d9b9
00000170: 751b c1ba 0a33 c739 91ce da38 7313 5f3b
00000180: 592f 123b d2cb 0aba fd59 5bb9 1fdb 94b8
00000190: 0a70 b73b 3fb7 583c 4184 0fb9 f9a4 6338
000001a0: 2ea2 95bb 2a0d 2236 3109 e7b9 e64c 29bb
000001b0: 56c6 1bba 6427 68bb c317 76ba e272 8d37
000001c0: c458 e3b8 ceb5 6539 3829 91ba eacc 3dba
000001d0: 11f4 07b9 4f77 fab8 bb5f ddb9 0000 8f38
000001e0: a0d9 cf3a 1b47 233c 32d9 5439 6c6c 9038
000001f0: f96c b338 64d4 35ba 6eee dbb8 2d13 773a
-0.004857537 -0.0001345471 -0.001920055 -0.0019547786 -0.003069233 0.00016725721 0.010251788 -0.00023658526
-0.0001902218 0.012686243 -7.452596e-05 -0.0004247302 -0.00017034626 4.0010214e-05 0.00026591675 0.010901052
-0.00025765644 -0.0011374732 0.0030601083 -0.00036825947 2.2302203e-05 -0.0010358543 0.004244562 0.0008389479
-0.00020088734 -0.0024100216 8.658004e-05 0.00034903837 0.00047566163 0.004063279 -0.00015662427 0.00011459408
-0.00024191839 -0.0011627234 -6.980648e-05 0.005955633 -0.00017918319 -0.0003594893 -0.00014799275 0.005486243
-0.0013823223 4.6660673e-05 0.0046934527 -0.00026604874 -0.0019285864 -0.0006774124 -0.00028745653 -0.0004656059
-0.00014488236 -3.7163933e-05 -0.0003709832 -3.923226e-05 -0.0055816593 -0.0014621923 -5.4489283e-05 -0.0014197486
-0.00038820104 -0.003114947 -0.0010128415 -0.0008270238 -0.0005815111 4.2023283e-05 -0.00018839896 -0.0020876958
-4.44341e-05 -0.00017397622 9.7472206e-05 0.0003698825 3.9451956e-05 -0.00033784792 -0.00020467375 0.0044872696
8.8629226e-05 0.0012490154 -0.0021673604 2.1914282e-05 0.008670943 -0.0002630353 -0.00070656603 -0.0007396623
0.00011373492 -0.0018713099 -0.00024714656 -0.0050852024 7.973684e-05 0.0025101095 8.585086e-05 -0.00059768686
-0.0003272093 0.009497295 0.0034819103 -0.000415617 -0.0014732914 0.00037994265 0.00010433526 0.0034038692
0.0022306053 -0.0005294654 -0.00020918991 -7.0980044e-05 0.005598073 0.013227283 -0.00013686811 5.427466e-05
-0.0045664525 2.4147544e-06 -0.00044066602 -0.0025833189 -0.0005942335 -0.003542387 -0.0009387696 1.6862006e-05
-0.000108407374 0.0002190687 -0.0011074906 -0.00072403124 -0.00012965525 -0.00011943152 -0.0004222373 6.818771e-05
0.0015857704 0.009965683 0.00020298807 6.88665e-05 8.555683e-05 -0.0006936251 -0.00010487145 0.00094251597

action_model._continuous_distribution.mu.weight f4 [1, 128]
00000000: abe2 fab9 f9f0 4abc 883f ddbb efd2 8a3c
00000010: c898 273b f103 573d 89c3 59bc 924d ebbc
00000020: 5892 15bc 476c a6bc a2e4 b73b ee84 55bb
00000030: 01c7 4ebc 696c a43b 4843 84bc e664 a93b
00000040: 5906 36bc 3ee4 693b ba33 84bc 6787 df3a
00000050: 3301 813c a255 71ba 6aa9 d5bb 9589 0c3d
00000060: 0945 02bc b6f5 91bb acad d63c dcb8 97bc
00000070: 7659 d8bb 1339 b33c 13d7 a1bc 0e5e 873c
00000080: 7459 79bb a949 8e3b 4b33 9d3c 8d8e b8bc
00000090: 4fab 4e3b a0be 10bd b2e9 b1bc e851 f93c
000000a0: 13be 293c 840d 6a3c a9e8 b6ba 4656 bdbb
000000b0: 67a3 b0bb 18d8 1dbd 98e0 90bb 7a81 42bb
000000c0: 5085 84bc bd57 ebbc 45f0 c4bb d457 193d
000000d0: 5c9b 9b3b 86ee 913b ee50 20bc 6180 5a3b
000000e0: 951e 9dbc d800 803b 901c bebc 0a5a 9d3b
000000f0: aaa1 76bc f7d0 2e3c 07e0 28bc 0edd d938
00000100: 2842 efbc 74e0 d8bc 7463 513c 0854 15bd
00000110: b69d 703c d5c9 bfbc 1719 053b 2a22 fb3c
00000120: 3e05 d63c 2c0c 023c c03f 923b 388e 133c
00000130: f840 bebc a8be 9abb 3296 c03b 571a 03bc
00000140: c52b b23c a333 b23c 87a9 96bb e073 cc3a
00000150: c5f2 933c e23f 923c ba42 1c3c d553 d5ba
00000160: f745 9a3c 58bf 10bc 2621 a33c 1e6b 0b3c
00000170: ee89 4f3c 8598 8fbc db8e 393d 26f9 2b3c
00000180: 4872 38bc 2e5f f63b 47e3 09bc caa0 893b
00000190: 57ec fa3c abb2 87bc 98de 25bd 0920 fb3b
000001a0: 4688 b03b 7570 0f3c f58e cabb 22a1 073a
000001b0: 0612 eabc 19d4 ccbb 12c6 91bb 3d2f 423c
000001c0: 158b 46bc e2fe 183c ec71 0e3b 7d64 d63b
000001d0: ca1e c4bc da57 593b 2c6d 93bb af72 043c
000001e0: 9be7 7f3b cf27 35bc 9d9d 4d3c 928c e03c
000001f0: 0ec5 a93c 4f9f ca3c 06e7 ca3c a7c3 f63c
-0.00047852597 -0.012386554 -0.0067519583 0.016946284 0.0025573242 0.052493993 -0.013291248 -0.028723512
-0.009129129 -0.020315303 0.005611972 -0.0032580453 -0.012620688 0.0050178063 -0.016145363 0.0051694987
-0.011109912 0.0035689021 -0.016137946 0.0017053903 0.015747642 -0.00092061807 -0.00652044 0.034310896
-0.00795103 -0.00445434 0.02620586 -0.018520765 -0.0066024614 0.021877801 -0.019755876 0.016524341
-0.0038047703 0.004342277 0.019189497 -0.022528911 0.0031535213 -0.035338044 -0.02171788 0.030434564
0.010360259 0.014285449 -0.0013954836 -0.005778107 -0.005390573 -0.03853616 -0.004421305 -0.0029679225
-0.01617685 -0.02872836 -0.0060100877 0.037437275 0.004748745 0.004453483 -0.00978492 0.003334068
-0.019179622 0.0039063506 -0.023206979 0.0048019933 -0.015053192 0.010669938 -0.0103073185 0.00010388541
-0.02920635 -0.026474215 0.012780059 -0.03645709 0.014686039 -0.02341167 0.0020309144 0.03065594
0.026125547 0.007937472 0.004463166 0.009006076 -0.023224339 -0.004722435 0.0058772797 -0.008001885
0.021749387 0.021753138 -0.004597846 0.0015598498 0.018060097 0.017852727 0.009537393 -0.0016275594
0.01883219 -0.008834682 0.019913267 0.008509425 0.012667162 -0.017528782 0.045302253 0.010496413
-0.0112577155 0.0075186705 -0.008416004 0.0042000758 0.030630274 -0.016564688 -0.040495485 0.007663731
0.005387339 0.008754839 -0.0061815926 0.0005173852 -0.028573047 -0.00625087 -0.0044486606 0.011852083
-0.012118121 0.009338113 0.0021735383 0.006542741 -0.023940463 0.0033163936 -0.0044990983 0.008083983
0.003904796 -0.011056854 0.012549785 0.02741078 0.020723846 0.024734167 0.024768364 0.030122591
