results/test2/EndLessRunnerBehaviour/EndLessRunnerBehaviour-3000011.pt (torch, 437679 bytes, 30 tensors)

network_body._body_endoder.seq_layers.0.weight f4 [128, 5]
0	0x3f9d2c34	1.2279115
1	0xbe9b37c7	-0.30315992
2	0xbf4209b0	-0.7579603
3	0xbddf7bf3	-0.10912313
4	0xbf205bda	-0.62640154
5	0xbd934b92	-0.07192148
6	0xbf3f3546	-0.74690664
7	0xbedfef52	-0.43737274
8	0x3ecb483e	0.39703554
9	0xbe08e1a2	-0.13367322
10	0x3ca2cf5d	0.01987427
11	0xbf620a1e	-0.8829669
12	0xbef6ef53	-0.48229465
13	0xbf1d288d	-0.6139
14	0x3f85e85f	1.0461539
15	0xbf2ba1c2	-0.670437
16	0x3f5a7e18	0.85348654
17	0xbf35b298	-0.7097564
18	0xbf11680e	-0.567994
19	0xbe6422db	-0.22278921
20	0x3d999e36	0.075008795
21	0x3f187b8f	0.59563535
22	0x3e4458d8	0.19174516
23	0xbe22f32b	-0.15913074
24	0xbe943b67	-0.2895157
25	0x3dd971bc	0.10617396
26	0xbe77a8cd	-0.24185486
27	0x3ebe882d	0.3721327
28	0xbe5cf8c1	-0.21579267
29	0xbdf2a4a0	-0.11847806
30	0x3eb96c26	0.36215323
31	0x3e74d78f	0.23910354
32	0x3d622fd1	0.055221383
33	0xbf46d726	-0.7767204
34	0xbe86364c	-0.262133
35	0xbe457bab	-0.19285457
36	0xbe0716c5	-0.1319228
37	0xbf4a1b95	-0.78948337
38	0xbefb0c51	-0.49032834
39	0xbfb763fe	-1.432739
40	0x3e23f9aa	0.16013208
41	0x3eabc32c	0.33547342
42	0xbf17cdf9	-0.59298664
43	0xbed2121c	-0.4102944
44	0xbead67b7	-0.3386819
45	0xbe1bcc00	-0.15214539
46	0xbe94226e	-0.28932518
47	0xbdc8a7ca	-0.09797628
48	0x3f37abe3	0.71746653
49	0x3ebdb2db	0.37050518
50	0x3eb518fb	0.3537062
51	0xbe948fdc	-0.29016006
52	0x3eec5a02	0.4616242
53	0x3f3a554c	0.727864
54	0xbef36660	-0.47539043
55	0xbf143878	-0.57898664
56	0x3ef2cfb7	0.474241
57	0x3f211adf	0.6293163
58	0xbec28c3b	-0.37997612
59	0x3e9bcbf2	0.30429035
60	0x3eaa11a7	0.33216593
61	0x3de1d37a	0.11026664
62	0xbf119531	-0.56868273
63	0x3ea47517	0.32120582
64	0x3e526b7b	0.20548813
65	0xbf61381e	-0.87976253
66	0x3f6b0317	0.9180159
67	0xbc43054d	-0.011903119
68	0x3e6dbf96	0.23217615
69	0xbeadc8e5	-0.33942333
70	0x3dff7d3c	0.124750584
71	0x3dc0c8fb	0.09413334
72	0xbe35c198	-0.17749631
73	0x3f12d285	0.5735248
74	0x3ecab561	0.39591506
75	0xbe914252	-0.2837091
76	0xbefa2960	-0.48859692
77	0x3e1263b4	0.14295846
78	0x3db1bd9e	0.08678745
79	0x3cb3d30d	0.021951223
80	0x3f305214	0.6887524
81	0xbe73fe00	-0.23827362
82	0x3d300d36	0.04298135
83	0x3f25e212	0.6479808
84	0xbe750e8d	-0.23931332
85	0x3f366076	0.7124094
86	0xbd5bea48	-0.053690225
87	0x3f50f258	0.8161979
88	0x3e535477	0.2063769
89	0xbf5f4c3a	-0.8722569
90	0xbeb34a4b	-0.3501762
91	0xbf010995	-0.50405246
92	0xbd95f253	-0.0732161
93	0x3f5edf25	0.8705924
94	0xbe871b93	-0.26388225
95	0x3ee8014c	0.4531349
96	0xbe99b3dc	-0.30020034
97	0x3ea50940	0.3223362
98	0xbd090b90	-0.033458292
99	0xbe5027f8	-0.20327747
100	0xbdc93428	-0.09824401
101	0x3da50bab	0.08058866
102	0xbee04218	-0.43800426
103	0x3cd6c423	0.026216572
104	0xbeb70ee0	-0.35753536
105	0x3e55554c	0.2083332
106	0xbde1852c	-0.11011729
107	0xbeb2dca3	-0.34933957
108	0xbee4fa04	-0.44721997
109	0xbda5a14b	-0.08087405
110	0xbf47fa08	-0.7811589
111	0xbf357118	-0.7087569
112	0xbcf33db1	-0.029692503
113	0xbeb22ef2	-0.3480144
114	0xbd57beec	-0.05267231
115	0x3e190c63	0.14946131
116	0xbe30eefe	-0.17278668
117	0x3efaad3b	0.4896029
118	0x3d9417d6	0.07231109
119	0x3e57a61c	0.2105946
120	0xbe567fa9	-0.20947136
121	0x3d2cd654	0.042196587
122	0xbf1132be	-0.5671805
123	0x3df6c3a9	0.12049038
124	0xbf487db7	-0.78316826
125	0xbde0ee2d	-0.109829284
126	0x3e873395	0.2640654
127	0xbe4a067c	-0.19729036
128	0x3e414bc0	0.18876553
129	0xbee7c3fb	-0.4526671
130	0x3cdc7ab3	0.026913976
131	0xbf5efa85	-0.8710101
132	0xbea4d2f9	-0.3219221
133	0xbec35e6b	-0.38157973
134	0xbdad44bd	-0.084603764
135	0x3e0bc291	0.1364844
136	0x3e6af156	0.22943625
137	0x3e1e8c16	0.15483126
138	0x3e622e12	0.22087887
139	0xbf140033	-0.57812804
140	0x3e2667d7	0.1625055
141	0xbece39da	-0.40278512
142	0x3c750f0c	0.014957201
143	0xbf153671	-0.58286196
144	0x3f0b3a3d	0.5438574
145	0xbf4d8d06	-0.8029331
146	0x3e2d5770	0.16927886
147	0xbe50b943	-0.20383172
148	0x3d9c716d	0.07638822
149	0x3e4ff71b	0.20309107
150	0x3ead5b51	0.3385873
151	0x3e9acd2c	0.3023466
152	0x3ebeeca8	0.3728993
153	0xbe1b66bc	-0.15175909
154	0xbebe3947	-0.37153074
155	0xbf74fa30	-0.95694256
156	0x3e830e08	0.25596642
157	0x3f61205e	0.87940013
158	0xbf56b257	-0.83865875
159	0xbfae772c	-1.3630118
160	0xbf0d7e82	-0.5527116
161	0x3d45fe8a	0.04833845
162	0xbc76c87f	-0.01506245
163	0xbec0b1af	-0.37635562
164	0x3dfe0371	0.12403
165	0x3f3fe1ad	0.7495373
166	0xbe964a51	-0.29353574
167	0x3eedbf8c	0.464352
168	0x3ec8032e	0.39064926
169	0x3d6654f2	0.056233354
170	0xbd833106	-0.06405835
171	0xbe2df8df	-0.16989468
172	0xbd25f581	-0.040517334
173	0xbbbdf118	-0.005796563
174	0x3d873a24	0.06602886
175	0x3e1384b2	0.14406088
176	0x3dcca4d9	0.0999238
177	0x3cff437a	0.031160105
178	0x3f34de24	0.7065146
179	0xbcab6732	-0.02092323
180	0x3f673260	0.9031124
181	0x3eceaa03	0.40364084
182	0xbeffb272	-0.4994083
183	0x3e957801	0.29193118
184	0xbde21791	-0.11039651
185	0xbdde0f05	-0.108427085
186	0xbdd5077d	-0.10401819
187	0x3dda8ff0	0.10671985
188	0xbebd9eb5	-0.37035146
189	0xbeb484d1	-0.3525758
190	0x3f0a4b29	0.54020935
191	0xbeaf09d8	-0.34187198
192	0xbf291a66	-0.66055906
193	0x3ef0cc43	0.4703084
194	0xbebf66d5	-0.37383142
195	0xbca96828	-0.020679548
196	0x3e571fe7	0.21008264
197	0xbda3db22	-0.08000781
198	0x3e1381b3	0.14404945
199	0x3e7cd692	0.24691227
200	0xbd33659d	-0.043798078
201	0x3f5d14c3	0.86359805
202	0xbf4ad382	-0.79228985
203	0x3dd6d2bd	0.10489414
204	0xbf0b5d4d	-0.5443924
205	0xbe2c4fae	-0.1682727
206	0x3d9b4af9	0.07582659
207	0xbe43df46	-0.19128141
208	0xbebe41e7	-0.37159654
209	0x3f3d87a0	0.7403507
210	0xbf4a04b7	-0.78913444
211	0x3e5fe06e	0.21862957
212	0x3e984ccf	0.297461
213	0xbddea971	-0.10872162
214	0x3e47b5e2	0.19502977
215	0x3cc2ecf8	0.023794636
216	0xbece2095	-0.40259233
217	0xbe2ea41a	-0.17054787
218	0xbed27874	-0.41107523
219	0xbea7d80f	-0.32782027
220	0xbe7f8357	-0.24952446
221	0x3dbfdbcd	0.093680955
222	0x3e4fcd59	0.20293178
223	0x3e927d08	0.28611016
224	0x3e29c661	0.16579582
225	0xbe673e93	-0.22582464
226	0x3e18a6c8	0.14907372
227	0xbe73132b	-0.23737781
228	0x3f2fe00c	0.68701243
229	0x3edd95fa	0.43278486
230	0x3f2ec35b	0.6826684
231	0xbe44f399	-0.1923355
232	0x3f2d9fb5	0.6782182
233	0xbdac7208	-0.08420187
234	0x3e956f69	0.29186562
235	0x3f114a84	0.56754327
236	0x3ea88c6e	0.3291964
237	0x3f0f5427	0.5598778
238	0xbd100ec3	-0.035170328
239	0x3eec8343	0.46193895
240	0x3e08319a	0.13300171
241	0xbf08e150	-0.534688
242	0x3e82159c	0.25407112
243	0x3f11be39	0.5693088
244	0xbf863c5c	-1.048717
245	0xbe268c2a	-0.16264406
246	0x3f05be79	0.52243763
247	0xbf497dfc	-0.7870786
248	0x3d463216	0.04838761
249	0x3edd58ff	0.4323196
250	0xbeffdfc0	-0.49975395
251	0xbd3d7caa	-0.046261467
252	0xbe7b4dda	-0.24541417
253	0xbec56d23	-0.38559827
254	0x3e10f5bf	0.14156245
255	0x3eb35e9c	0.3503312

network_body._body_endoder.seq_layers.0.bias f4 [128]
0	0x3c9e8628	0.01935108
1	0xbcb5f4f0	-0.022211522
2	0x3c570437	0.0131235635
3	0x3c0585e9	0.008149602
4	0x3a82861c	0.0009958181
5	0x3b81e23b	0.0039637364
6	0x3bd854a2	0.006601886
7	0x3ca63c70	0.02029249
8	0x3b74524c	0.0037280498
9	0xbbba0c95	-0.0056777694
10	0x3d02273e	0.031775706
11	0x3c79ef70	0.01525484
12	0x3bb36e28	0.005475778
13	0xbc4ba094	-0.0124284215
14	0xbc0605e6	-0.008180117
15	0x3bb530c0	0.005529493
16	0x3ce5d7eb	0.02805706
17	0x3d96c57f	0.07361888
18	0xbbe31187	-0.0069295797
19	0xbbe66c3e	-0.0070319464
20	0xbcba7f63	-0.02276582
21	0x3c67f5a3	0.014157685
22	0xbc9569b7	-0.018238885
23	0x3bc41476	0.0059838844
24	0xbaa70eeb	-0.0012745535
25	0xbbff30b0	-0.0077877864
26	0x3bcf912f	0.006334446
27	0x3b9195af	0.0044428925
28	0xbad21017	-0.0016026524
29	0xbc6082a5	-0.013703023
30	0xbac7a842	-0.001523264
31	0x3c3337cf	0.010938599
32	0x3c933e14	0.017973937
33	0x3d950b65	0.07277564
34	0x3c263417	0.010144255
35	0xb9d5a49e	-0.00040749175
36	0xbb7e857d	-0.003883689
37	0x3d4626ac	0.048376724
38	0xbab63c06	-0.0013903386
39	0xbc883cf3	-0.016630625
40	0x3b684790	0.0035443045
41	0x3c28c818	0.010301612
42	0xbc878e23	-0.016547268
43	0x3c054713	0.008134621
44	0xbbaf117f	-0.005342662
45	0xbc59b2f7	-0.013287297
46	0xbc759fae	-0.014991684
47	0xbb3abcf9	-0.0028493984
48	0x3d12b328	0.035815388
49	0x393c7169	0.00017971326
50	0x3b97feec	0.0046385434
51	0x3c39d6e5	0.011342739
52	0xbc252a8c	-0.010080945
53	0x3d69e264	0.05710067
54	0x3981cd60	0.00024757814
55	0x3b97e58d	0.004635519
56	0xbc4e1325	-0.012577807
57	0xbb6b1304	-0.0035869488
58	0x3c270302	0.010193588
59	0xbbfd5171	-0.007730656
60	0x3cc48cee	0.023992982
61	0xbc277849	-0.010221549
62	0xbc00fce3	-0.007872793
63	0x3d665787	0.056235816
64	0x398de291	0.0002706242
65	0x3c3bca7e	0.011461852
66	0x3d0abbf4	0.033870652
67	0x3d816d93	0.06319728
68	0x3bbb935b	0.0057243533
69	0xbc076137	-0.008262924
70	0xbc53cc9f	-0.012927203
71	0xbc57e61e	-0.013177423
72	0x3aab0714	0.0013048374
73	0xbb729cd9	-0.0037019758
74	0x3d62d0e6	0.055375002
75	0xbc1c1c95	-0.009528299
76	0xbc46bc22	-0.012129815
77	0x3997e48f	0.00028971254
78	0xbb2d5205	-0.0026446593
79	0xbc721555	-0.014775594
80	0xbc3394ff	-0.010960816
81	0xbc987b1f	-0.018613396
82	0xbad4b886	-0.0016229309
83	0xbbb8bf52	-0.0056380415
84	0x3d29ffce	0.04150372
85	0x3af2dc58	0.0018528802
86	0x3d1496c4	0.036276594
87	0x3c78b188	0.0151790455
88	0x3c1c1289	0.0095259035
89	0xbc3a11fb	-0.011356826
90	0x3c895f19	0.016768979
91	0xbc41a2b7	-0.011818579
92	0xbb19812a	-0.0023422935
93	0xbc10c34f	-0.008835628
94	0x3da79b8d	0.08183966
95	0x3c31737d	0.010830757
96	0x3c851e6c	0.016249858
97	0x3b371e00	0.0027941465
98	0xbbc16fb8	-0.0059032105
99	0x3c177c11	0.009245888
100	0xbc3c03d8	-0.011475526
101	0x3d6fdf2f	0.058562454
102	0x3bc93c1b	0.0061411983
103	0x3c3e1641	0.011601985
104	0xbc2e4568	-0.010636665
105	0x3d2e6696	0.042578302
106	0x3cdf5bee	0.027265515
107	0x3c1d2c37	0.009593061
108	0x3d3c98db	0.04604421
109	0x3a559a1f	0.0008148271
110	0xbc6e6315	-0.01454999
111	0x3c5c7168	0.0134547725
112	0x3d4e483d	0.05036186
113	0xbc8074d2	-0.015680704
114	0x3b9314e8	0.004488576
115	0xbb8786a2	-0.0041359225
116	0x3c6211d0	0.013798192
117	0x38894c98	6.546936e-05
118	0xbb40ba50	-0.0029407926
119	0x3bb0107b	0.0053730584
120	0x3d179479	0.03700683
121	0x3b7c2577	0.003847448
122	0xbc1f2ec0	-0.009715736
123	0x3b688aff	0.0035483239
124	0x3c8551e9	0.01627441
125	0xbbe986be	-0.007126658
126	0xbc24498e	-0.010027302
127	0x3ccdb122	0.025108878

network_body._body_endoder.seq_layers.2.weight f4 [128, 128]
0	0xbd82a50b	-0.06379136
1	0x3d0c2d6e	0.034223013
2	0x3dd1d988	0.10246569
3	0x3c9edf3a	0.019393552
4	0x3c7dfab2	0.015501665
5	0xbca27286	-0.01983
6	0x3ddb8dc7	0.10720401
7	0xbd156efd	-0.0364828
8	0x3e15b4fe	0.14619824
9	0x3da174e0	0.0788362
10	0xbda5396e	-0.080675945
11	0xbcbda370	-0.023149222
12	0xbe86a7c5	-0.26299873
13	0xbd1a9725	-0.0377418
14	0x3bf1f46f	0.007383875
15	0xbd810643	-0.063000225
16	0x3e11e912	0.14249066
17	0xbe073270	-0.13202834
18	0x3d30b77b	0.04314373
19	0xbe37a229	-0.17932953
20	0x3cd0279c	0.025409512
21	0x3d93cc90	0.072167516
22	0x3e3a5370	0.18195891
23	0x3bacce0e	0.005273587
24	0xbd6efa11	-0.05834395
25	0xbc869bc0	-0.01643169
26	0x3d52a52c	0.05142705
27	0x3d5f22fb	0.05447672
28	0xbcdbe2c8	-0.026841536
29	0xbcb1e527	-0.021715714
30	0x3dd7370c	0.10508546
31	0x3d79f8ed	0.06102841
32	0xbe4ae9f1	-0.19815804
33	0xbd56146c	-0.05226557
34	0x3d3532dc	0.044237956
35	0x3dc78a71	0.097432025
36	0x3dabd68e	0.083905324
37	0xbbc776f2	-0.0060871774
38	0xbd3ba55a	-0.04581199
39	0x3d66d527	0.05635562
40	0x3d8636bf	0.06553411
41	0x3d311091	0.04322869
42	0x3cda4632	0.0266448
43	0xbe2b51e3	-0.16730456
44	0xbdff25c4	-0.12458375
45	0xbb2c5e1f	-0.0026301218
46	0x3daf11d6	0.08548324
47	0x3dfc73ba	0.123267606
48	0xbbc73542	-0.006079347
49	0xbe812849	-0.25226048
50	0xbdd2e147	-0.102968745
51	0x3d4942a6	0.049135827
52	0x3cd35161	0.02579564
53	0x3df9c97f	0.121966355
54	0x3d017fc5	0.03161599
55	0x3d0ab246	0.03386142
56	0x3e1b2da6	0.15154132
57	0x3d4fcab6	0.05073043
58	0x3d899310	0.06717503
59	0x3c810da5	0.015753577
60	0xbdb5d094	-0.08877674
61	0xbdadf97e	-0.084948525
62	0x3dfa3d1d	0.12218688
63	0x3dbf547f	0.09342288
64	0xbc9e1df4	-0.019301392
65	0xbd8e2b1b	-0.069418155
66	0xbcd89d39	-0.026442157
67	0x3db84432	0.08997382
68	0x3cbcf133	0.023064232
69	0x3dcd8103	0.10034373
70	0xbc5a357d	-0.013318417
71	0x3d46ac55	0.048504192
72	0xbd784c03	-0.060619365
73	0xbd837533	-0.06418838
74	0x3d512a4f	0.05106574
75	0xbbd80980	-0.0065929294
76	0x3dc934e9	0.09824545
77	0xbcb4294f	-0.021992354
78	0x3d99059c	0.07471773
79	0x3db0a7de	0.08625768
80	0xbdf4e9f9	-0.11958689
81	0xbd27bdce	-0.040952496
82	0xbda2ac5b	-0.079430304
83	0x3db934b1	0.09043253
84	0x3d48e699	0.04904804
85	0x3deedf70	0.11663711
86	0x3e4fbeda	0.20287648
87	0xbc9337b7	-0.017970903
88	0xbd99adc2	-0.07503845
89	0xbdc6efe1	-0.09713722
90	0xbd15309c	-0.03642331
91	0xbd18cbef	-0.03730386
92	0x3de1997d	0.11015604
93	0xbd93b630	-0.07212484
94	0xbd5f738a	-0.054553546
95	0xbdc6e936	-0.0971245
96	0x3d58c559	0.05292258
97	0xbc1dcfdc	-0.009632077
98	0xbc4d4a08	-0.012529857
99	0xbdc7fe90	-0.09765351
100	0x3b626968	0.003454769
101	0xbd2a876f	-0.041633066
102	0xbd998490	-0.074959874
103	0xbcd6416b	-0.02615424
104	0x3e00420a	0.12525192
105	0x3d7e8604	0.062139526
106	0x3dfb4f4f	0.12270986
107	0xbb8c1690	-0.0042751506
108	0xbc5ba001	-0.013404847
109	0xbce2bc9a	-0.027677823
110	0x3dcedf8a	0.101012304
111	0x3c6eed37	0.014582924
112	0xbe1c4fda	-0.15264836
113	0xbc5157ac	-0.01277725
114	0xbdc1b5b1	-0.09458483
115	0x3e0ef4ba	0.13960543
116	0xbdc308cb	-0.095231615
117	0x3cda6925	0.026661465
118	0xbd52945e	-0.051411025
119	0xbd984385	-0.07434753
120	0x3d89c20f	0.06726467
121	0x3ddc74ca	0.10764463
122	0x3d359711	0.04433352
123	0x3d8a7ac4	0.06761697
124	0x3be119bb	0.0068695224
125	0x3dc596fb	0.09647938
126	0x3bb7f476	0.005613859
127	0x3d281ca9	0.041042957
128	0xbdbeb6f1	-0.09312237
129	0x3dc3f9fd	0.09569166
130	0x3db71433	0.089393996
131	0xbd6ca87a	-0.05777786
132	0x3e18b5a6	0.14913043
133	0xbe122630	-0.1427238
134	0x3e07435f	0.13209294
135	0xbd62fc33	-0.055416297
136	0xbd1bc321	-0.038027886
137	0xbd14b22b	-0.036302727
138	0x3c51337a	0.012768621
139	0x3e105d84	0.14098173
140	0xbdb58b11	-0.088644154
141	0xbd85ecbf	-0.06539296
142	0xbe258f83	-0.16168027
143	0x3d85adcf	0.06527292
144	0x3d266d82	0.04063178
145	0x3d901881	0.07035924
146	0x3e67a093	0.22619848
147	0x3d3e943b	0.046528082
148	0x3bef831f	0.007309332
149	0x3d893108	0.06698805
150	0x3ca38f93	0.019965922
151	0x3cc81e91	0.024428638
152	0xbd92dece	-0.07171403
153	0xbceec6aa	-0.029147465
154	0xbdce58c6	-0.10075526
155	0x3de1b202	0.110202804
156	0x3dc331c9	0.0953098
157	0x3dab1133	0.0835289
158	0xbd44a5d5	-0.048009712
159	0xbd8a7e9c	-0.0676243
160	0xbd1ec080	-0.0387578
161	0xbe2f994d	-0.17148323
162	0x3d94864f	0.0725218
163	0x3da30a92	0.079610005
164	0x3d031380	0.03200102
165	0xbd5fb707	-0.054617908
166	0xbc3c1392	-0.011479275
167	0x3bbc4198	0.005745124
168	0xbda8c9cc	-0.08241615
169	0x3dcad167	0.099032216
170	0xbcc7dc13	-0.024396932
171	0x3df19ed0	0.11797869
172	0xbd5c4977	-0.053781
173	0xbd5442c4	-0.051821485
174	0x3d996025	0.07489041
175	0x3b054dbb	0.002034052
176	0x3ddd2fcb	0.108001314
177	0x3dff9c6d	0.12481008
178	0x3e01a570	0.12660766
179	0xbd7d8210	-0.061891615
180	0x3dfbb09d	0.12289546
181	0xbdb4a642	-0.08820774
182	0x3e39f1a8	0.18158591
183	0x3cceba1d	0.02523523
184	0xbb472e4c	-0.0030392585
185	0x3bf4a665	0.007466125
186	0x3bf5f755	0.007506291
187	0xbdfd0738	-0.123548925
188	0x3d083b3d	0.03325962
189	0x3e029501	0.12752153
190	0x3db5b8b1	0.08873118
191	0xbd220859	-0.039558742
192	0xbd671ca4	-0.0564238
193	0x3ba94626	0.005165833
194	0x3defee8f	0.11715423
195	0x3ce2439b	0.027620127
196	0x3dca0aa1	0.098653086
197	0x39e91ab7	0.00044461127
198	0x3cce4005	0.025177011
199	0x3ccb27d0	0.024799258
200	0x3ddfcbc4	0.10927537
201	0xbda9d601	-0.08292771
202	0x3e01feb2	0.12694815
203	0x3ba436b9	0.0050114063
204	0x3cb4dc26	0.022077631
205	0xbde70c41	-0.11281634
206	0xbd30f79d	-0.043204892
207	0xbda5775b	-0.08079406
208	0x3db97e34	0.090572745
209	0xbdb38028	-0.08764678
210	0xbb234222	-0.0024911244
211	0x3e000838	0.12503135
212	0xbd728cbe	-0.059216253
213	0xbc070139	-0.008240038
214	0x3c04de91	0.008109705
215	0xbe2f86fb	-0.17141335
216	0xbc21e8b9	-0.009882146
217	0x3ddbf305	0.10739712
218	0xbd5e1bf1	-0.054225866
219	0x3cf20ec0	0.029548049
220	0x3dbea110	0.09308064
221	0xbd891d03	-0.06694987
222	0xbdf91ce9	-0.12163717
223	0xbdc872fa	-0.09787555
224	0xbc7c5399	-0.015400791
225	0xbdc7f339	-0.09763188
226	0xbe2fce92	-0.17168644
227	0x3e111cde	0.14171168
228	0x3ddb5c0f	0.10710918
229	0x3c6284e6	0.013825631
230	0xbe8c560e	-0.27409405
231	0xbdb8cbd9	-0.09023256
232	0x3d5b1317	0.053485002
233	0xbe442d33	-0.19157867
234	0x3e26c566	0.16286239
235	0xbba8c380	-0.0051502585
236	0x3d9b2711	0.07575811
237	0xbc84d1d2	-0.016213331
238	0x3b7593c8	0.0037472118
239	0x3dab21b0	0.08356035
240	0xbd9645fc	-0.07337567
241	0x3d72178f	0.0591045
242	0xbde34fc6	-0.110992
243	0x3d085286	0.033281825
244	0xbd30d247	-0.043169286
245	0x3dcd17e2	0.10014321
246	0xbcf5557f	-0.029947994
247	0xbd66ff62	-0.056395896
248	0x3be48653	0.0069740205
249	0x3def8a39	0.11696286
250	0xbd8dc17a	-0.06921668
251	0x3d0f4ac3	0.034983408
252	0xbd227089	-0.039658103
253	0x3b6cc4ec	0.0036128117
254	0x3d73ae8b	0.05949263
255	0xbe213174	-0.15741521

network_body._body_endoder.seq_layers.2.bias f4 [128]
0	0xbc0a67c9	-0.008447596
1	0x3aa13185	0.0012298083
2	0x3c23ff6e	0.01000963
3	0x3ad9ca22	0.0016616026
4	0xb9d9d7a9	-0.00041550145
5	0xbc2a2c5e	-0.0103865545
6	0x3b29adfa	0.0025891052
7	0x3c48972e	0.012243075
8	0x3b9c8a6e	0.0047772443
9	0x3c2bbb9e	0.010481743
10	0x3b403904	0.002933086
11	0x3b002651	0.0019554088
12	0x3b769937	0.0037627944
13	0xbc8e13b5	-0.017343381
14	0xbc2eb1bd	-0.010662493
15	0xbca8fead	-0.020629251
16	0xbc62f7d9	-0.013853037
17	0xbc4578f6	-0.012052765
18	0x3d1bb695	0.03801592
19	0xbb87dd16	-0.0041462285
20	0xba5325ce	-0.00080546446
21	0x3aefba7c	0.001828983
22	0xbc1eb2e2	-0.009686204
23	0xbc386c80	-0.011256337
24	0x3cd98edf	0.026557384
25	0x3c41dabb	0.011831935
26	0xbc106d5f	-0.008815139
27	0x3c318ae6	0.010836339
28	0x3c40e08b	0.011772285
29	0xbc4545b1	-0.0120405415
30	0x3c4612fc	0.012089487
31	0xbc3afab8	-0.011412315
32	0x3cb1390e	0.021633651
33	0x3b339182	0.0027399962
34	0xbbd8263d	-0.0065963552
35	0xbbfcf801	-0.007719994
36	0xbbaae008	-0.005214695
37	0x3ba19b78	0.0049318634
38	0x3ae6a3a2	0.0017596374
39	0x3c04b657	0.008100114
40	0x3c738282	0.014862658
41	0xbca7f19d	-0.020500952
42	0x3be4d8e0	0.0069838613
43	0x3c0a64b2	0.008446859
44	0x3b559f13	0.0032596036
45	0xbb97d521	-0.0046335612
46	0xbb81ff90	-0.003967233
47	0x3c38b1a2	0.01127282
48	0xbc29f4f3	-0.010373342
49	0x3c81ab51	0.01582876
50	0x3cc4cb48	0.024022713
51	0xbb27b34b	-0.0025589045
52	0x3bc6a7c1	0.0060624783
53	0xbc10529f	-0.008808761
54	0x3c89be32	0.016814325
55	0x3c082eaf	0.0083119115
56	0x3c11c30d	0.008896601
57	0x3c2a5a72	0.01039754
58	0xbbfe0914	-0.007752547
59	0x3c4365c4	0.011926118
60	0x3b0f1ff2	0.002183911
61	0x3cce727e	0.025201079
62	0x3a9ba2e9	0.0011874113
63	0x3c2af2cb	0.010433863
64	0x3c39035d	0.011292306
65	0x3ca9c349	0.020723002
66	0x3c9394d7	0.018015308
67	0xbb8b930d	-0.004259473
68	0x3c9ff45f	0.019525705
69	0x3c73ed69	0.014888146
70	0xb95320fc	-0.00020134816
71	0x3c216f30	0.009853169
72	0xbbc7a6df	-0.0060928906
73	0x3c1a7d03	0.009429219
74	0xbc330407	-0.010926253
75	0xbc3ba5b3	-0.01145308
76	0xbc273215	-0.010204812
77	0xbc3de102	-0.011589291
78	0xbb4db59f	-0.0031388772
79	0x3c114d0c	0.008868467
80	0xbc0b5daa	-0.008506218
81	0x3cb0de18	0.021590278
82	0xbc00ca6c	-0.007860761
83	0xbc88daaa	-0.01670583
84	0xbcabba1d	-0.02096277
85	0x3c4f4280	0.012650132
86	0xbbe8e46a	-0.007107307
87	0x3bf5ec5c	0.007504983
88	0x3bb90d54	0.005647341
89	0xbc26166b	-0.010137181
90	0x3c803377	0.01564954
91	0xbbb183eb	-0.005417337
92	0xbc298c52	-0.010348396
93	0x3c807914	0.015682735
94	0xbc773b45	-0.015089815
95	0x3a84eb0d	0.0010140851
96	0x3bd08541	0.0063635414
97	0x3bbf9fd6	0.0058479114
98	0x3c145d66	0.009055471
99	0x3c7bc059	0.0153656835
100	0x3cb4a434	0.022050954
101	0xbbff25e5	-0.0077865
102	0x3c9ac2f2	0.018891785
103	0xbc0242f0	-0.007950529
104	0x3c08199b	0.008306886
105	0x3ce46b55	0.027883211
106	0xbc27796f	-0.010221823
107	0xbc35078d	-0.0110491635
108	0x3c05a9ff	0.008158206
109	0x3c840244	0.016114362
110	0x3c7da8b9	0.015482121
111	0x3c103010	0.0088005215
112	0xbc035f49	-0.008018323
113	0x3c97eb12	0.018544707
114	0x3c6e0d19	0.01452949
115	0x3cf01968	0.02930899
116	0x3caa0f58	0.02075927
117	0x3ba65d59	0.005077046
118	0xbc537207	-0.012905604
119	0x3c86d1d5	0.016457478
120	0x3c1007e9	0.008790948
121	0x3cb9b5b6	0.022669654
122	0x3cbf34fc	0.023340695
123	0xbba7cffa	-0.0051212283
124	0x3cc47ee7	0.023986293
125	0x3c881982	0.016613726
126	0x3cf1ee00	0.029532433
127	0x3c2db23e	0.010601578

action_model._continuous_distribution.mu.weight f4 [1, 128]
0	0xbb3e3e5d	-0.002902887
1	0xbd03ef3f	-0.032210585
2	0x3cc60fd2	0.024177466
3	0xbccfa3e4	-0.025346704
4	0xbd8384db	-0.064218245
5	0xbca5619c	-0.020188145
6	0xbd743be7	-0.05962744
7	0x3c9a195a	0.018810917
8	0x3ca691d2	0.020333204
9	0x3c13bf0e	0.009017719
10	0xbd160fb1	-0.03663606
11	0xbd017321	-0.031603936
12	0xbd0bbc5b	-0.034115177
13	0xbac619ba	-0.0015113868
14	0xbc22845f	-0.009919255
15	0xbcd08980	-0.02545619
16	0xbc55be22	-0.0130458195
17	0xbd74fc0c	-0.059810683
18	0x3d181385	0.03712799
19	0xbd23b488	-0.03996709
20	0xbd301938	-0.0429928
21	0xbd6d3df8	-0.057920426
22	0xbc460f88	-0.012088664
23	0xbce2250a	-0.027605552
24	0x3cb233d8	0.021753237
25	0xbd37ad0a	-0.044842757
26	0xbcae52ea	-0.02127977
27	0x3cde6197	0.027146144
28	0x3cbbd7bd	0.02293002
29	0xbb382abd	-0.0028101646
30	0x3d271254	0.040788963
31	0xbd1e0f79	-0.038588975
32	0x3cb743e1	0.022371234
33	0x3c5056bb	0.012715991
34	0x3b7e12c7	0.0038768516
35	0xbd1a5200	-0.037675858
36	0xbc2fb28c	-0.010723721
37	0xbc49a00f	-0.012306227
38	0x3b8ae9bd	0.0042392896
39	0x3c89ed11	0.016836675
40	0x3cf68da0	0.030096829
41	0xbb0065e3	-0.001959198
42	0xbc5e3a20	-0.013563663
43	0x3c747bca	0.014922092
44	0x3d252ff8	0.04032895
45	0xbc870e95	-0.016486445
46	0xbbc90fa0	-0.006135896
47	0xbd20bc25	-0.03924193
48	0xbcfd750e	-0.030939605
49	0x3cde57d8	0.027141497
50	0x3ce3cd9a	0.027808
51	0x3a9c7855	0.0011937717
52	0xbcecc247	-0.028901232
53	0xbd2c519d	-0.04207002
54	0x3cdf91fe	0.027291294
55	0x3c50b1f8	0.012737744
56	0x3cc6617a	0.024216402
57	0x3ce60e6b	0.028083047
58	0xbcbab993	-0.022793567
59	0xbcf40e57	-0.029791994
60	0xbdc61489	-0.096718855
61	0x3d239ae6	0.039942645
62	0xbce74203	-0.028229719
63	0x3cb11e3f	0.021620868
64	0x3c165575	0.009175648
65	0x3d9861ac	0.074405044
66	0x3d27f1f2	0.04100222
67	0xbd834c97	-0.06411093
68	0xbdaafe5c	-0.083492965
69	0x3d49f9a0	0.049310327
70	0xbce2ff32	-0.027709577
71	0xbd0a3ccf	-0.033749398
72	0xbd1273e0	-0.03575504
73	0x3cafae26	0.021445345
74	0xbd023688	-0.031790286
75	0xbc940ff8	-0.01807402
76	0xbc7c105f	-0.015384763
77	0xbc2c8ae0	-0.010531157
78	0x3c587928	0.01321248
79	0x3cb01494	0.021494187
80	0xbc8a4761	-0.01687974
81	0x3d39a18e	0.045320086
82	0xbd25b78d	-0.04045825
83	0xbbe96957	-0.007123153
84	0xbca4a44e	-0.020097878
85	0x3c70f3a2	0.014706524
86	0xbd0f0c34	-0.034923747
87	0x3d265686	0.04060986
88	0x3c632dfa	0.013865942
89	0xbcc1d0c1	-0.023659112
90	0x3d3b7899	0.045769308
91	0xbc926539	-0.017870532
92	0xbb847164	-0.0040418375
93	0xbd1735a6	-0.036916398
94	0xbbb9e718	-0.0056733005
95	0x3d72a8e9	0.059243117
96	0x3cf79804	0.030223854
97	0xbdc63d73	-0.09679689
98	0xba1c41a5	-0.00059607095
99	0x3d3612ee	0.044451647
100	0xbd93143c	-0.07181594
101	0xbce509f2	-0.027958844
102	0x3d1c2218	0.03811845
103	0xbc8d0b07	-0.017217172
104	0x3c2dcf12	0.010608451
105	0x3d67fba7	0.05663648
106	0xbc6ddbe9	-0.014517763
107	0xbcc5e716	-0.024158042
108	0x3bc9115e	0.0061361035
109	0x3cffd056	0.031227272
110	0x3d1397cb	0.036033433
111	0x3c8658d8	0.016399786
112	0xbd536a21	-0.051614884
113	0x3d323095	0.043503363
114	0x3ca4beb7	0.020110471
115	0x3d598076	0.053101026
116	0x3d00c272	0.031435438
117	0x3bca58bc	0.0061751287
118	0xbbbdffda	-0.005798322
119	0x3d2a9231	0.041643325
120	0x3cce9a7a	0.025220145
121	0x3d1068a8	0.035256058
122	0x3c689bb7	0.014197282
123	0x3bb64363	0.0055622323
124	0x3cf108dd	0.029423172
125	0x3d1ee041	0.038788084
126	0x3d1450e0	0.03620994
127	0xbd19f04a	-0.037582673

exp_avg f4 [128, 5]
0	0x3a3e6011	0.000726224
1	0xb9b44358	-0.0003438245
2	0xbc6a3a02	-0.014296057
3	0x3b38c4bf	0.0028193442
4	0x00000000	0.0
5	0xb917e8f6	-0.00014487267
6	0xb9938648	-0.00028138072
7	0x3b3a781e	0.0028452943
8	0xba225ad3	-0.00061933434
9	0x00000000	0.0
10	0x3a623c7e	0.000863023
11	0x3adf7dbb	0.001705102
12	0xbcac92e4	-0.021066137
13	0x3b74b319	0.0037338196
14	0x00000000	0.0
15	0x3a276a28	0.0006386363
16	0xbcbe2bcb	-0.023214241
17	0xbc1e8840	-0.009676039
18	0x3b1ad8a3	0.002362766
19	0x00000000	0.0
20	0x384591ce	4.710425e-05
21	0x3b213b4d	0.0024601996
22	0xbaa96f2a	-0.0012926806
23	0x39508f86	0.00019889892
24	0x00000000	0.0
25	0x34525970	1.9590311e-07
26	0x36979060	4.516958e-06
27	0x35f54f74	1.8277046e-06
28	0xb4cda620	-3.8305097e-07
29	0x00000000	0.0
30	0xb94a21c4	-0.000192768
31	0xbd1f55c7	-0.038900163
32	0x3c4e7e9c	0.012603428
33	0xbab441b2	-0.0013752489
34	0x00000000	0.0
35	0x392bc391	0.00016380685
36	0xbb3474a4	-0.0027535344
37	0xbb6b3485	-0.0035889458
38	0x3a2ed71b	0.00066696265
39	0x00000000	0.0
40	0x3984a9be	0.0002530347
41	0xbc6a0e92	-0.0142857
42	0xbb11fa01	-0.0022274258
43	0x3a57b5b6	0.0008228676
44	0x00000000	0.0
45	0xba03f667	-0.000503397
46	0xba660320	-0.00087742694
47	0x3c3e7fff	0.011627196
48	0xbb0c874a	-0.0021442943
49	0x00000000	0.0
50	0xb70b0a1f	-8.287402e-06
51	0xb7b8991a	-2.2005803e-05
52	0x38ad9482	8.2769446e-05
53	0xb81a208f	-3.6746784e-05
54	0x00000000	0.0
55	0x380edbea	3.406025e-05
56	0x3b17cbfd	0.0023162358
57	0xba240bbd	-0.00062578527
58	0x38a699e4	7.944161e-05
59	0x00000000	0.0
60	0x398e43b8	0.00027134805
61	0xbba73f34	-0.00510397
62	0xbb9a9618	-0.0047175996
63	0x3a84aac2	0.001012169
64	0x00000000	0.0
65	0xb9ccfd02	-0.00039098418
66	0x3b2360dc	0.002492956
67	0x3c0a6bca	0.0084485505
68	0xbacd3436	-0.0015655819
69	0x00000000	0.0
70	0xb9b4d797	-0.00034492902
71	0x3c89275a	0.016742397
72	0x3baa13e0	0.0051903576
73	0xbaae30f6	-0.0013289738
74	0x00000000	0.0
75	0xb7ae5df0	-2.078616e-05
76	0xb8183bd4	-3.6295343e-05
77	0x39ee02bb	0.00045396932
78	0xb8b236bd	-8.497897e-05
79	0x00000000	0.0
80	0xbb22d642	-0.0024846946
81	0xbb8c1f04	-0.0042761583
82	0x3d80cbd9	0.06288881
83	0xbc2d9fa2	-0.010597141
84	0x00000000	0.0
85	0xb725770f	-9.862487e-06
86	0x37d0a6b8	2.4873167e-05
87	0xb6e0f2c0	-6.70398e-06
88	0xb77a9c40	-1.4937541e-05
89	0x00000000	0.0
90	0xbaaa9ebe	-0.001301728
91	0xbb0d5fbc	-0.0021571955
92	0x3cebbd9a	0.028776933
93	0xbbb637fb	-0.0055608726
94	0x00000000	0.0
95	0x360ff717	2.1452486e-06
96	0x37132826	8.771231e-06
97	0xb79fe8f1	-1.9062749e-05
98	0x36d10b83	6.2300255e-06
99	0x00000000	0.0
100	0xb8b42566	-8.590035e-05
101	0x396c7cbe	0.00022553184
102	0x3b0f54d0	0.002187062
103	0xb9bd9e83	-0.0003616699
104	0x00000000	0.0
105	0x3a4bc7c0	0.00077736005
106	0xbbc9fbd9	-0.006164056
107	0xbc5be16a	-0.013420442
108	0x3b36c65f	0.0027889234
109	0x00000000	0.0
110	0x38a7802c	7.9870544e-05
111	0x3956d90f	0.00020489491
112	0xbb278f86	-0.0025567724
113	0x39c302a7	0.00037195274
114	0x00000000	0.0
115	0xb528c06a	-6.2864876e-07
116	0x34e22625	4.2123534e-07
117	0x34f9d61f	4.6535658e-07
118	0xb501158e	-4.808761e-07
119	0x00000000	0.0
120	0xb923ff93	-0.000156401
121	0x3a5aca67	0.00083462003
122	0x3b54a0a9	0.0032444394
123	0xba26f8a0	-0.00063694455
124	0x00000000	0.0
125	0xb9598c31	-0.00020746958
126	0x3c791062	0.01520166
127	0x3ae8b118	0.0017752973
128	0xba380a60	-0.0007020589
129	0x00000000	0.0
130	0x39244db7	0.0001566921
131	0x39f51d47	0.00046751855
132	0xbb8d254d	-0.004307425
133	0x3a3c3f28	0.0007181042
134	0x00000000	0.0
135	0xb8b84af0	-8.787762e-05
136	0xbc2bb614	-0.0104804225
137	0x3b840d71	0.0040299227
138	0xba0222de	-0.0004964302
139	0x00000000	0.0
140	0x38ac57ee	8.217977e-05
141	0x39201be3	0.00015269178
142	0xbaf37d23	-0.0018576722
143	0x39adefd3	0.00033175814
144	0x00000000	0.0
145	0x38d8674a	0.00010318922
146	0x3aac41c4	0.0013142158
147	0xbb1a248a	-0.0023520314
148	0x39d54022	0.0004067431
149	0x00000000	0.0
150	0x385ca151	5.2602325e-05
151	0x3baa5b16	0.0051988466
152	0xbaf59b1f	-0.0018738246
153	0x3968d32d	0.00022203913
154	0x00000000	0.0
155	0xb6d70a12	-6.4086717e-06
156	0xb9bcee00	-0.00036035478
157	0x389fab70	7.6136435e-05
158	0xb77345ee	-1.450021e-05
159	0x00000000	0.0
160	0xb920ab08	-0.00015322503
161	0xbc8dd9a6	-0.017315697
162	0x3bca0003	0.006164552
163	0xba4c1754	-0.00077854586
164	0x00000000	0.0
165	0xb70b9001	-8.318574e-06
166	0xb7d4b415	-2.5356227e-05
167	0x380ad7c8	3.3102726e-05
168	0xb7ce29e4	-2.457662e-05
169	0x00000000	0.0
170	0xb6e024bb	-6.679996e-06
171	0xb7b8e56a	-2.2041339e-05
172	0x38b667ee	8.697795e-05
173	0xb8152b71	-3.5564826e-05
174	0x00000000	0.0
175	0xba7f65c7	-0.0009742644
176	0x3ce2b864	0.027675815
177	0x3c9e5dc0	0.019331813
178	0xbb80d265	-0.003931331
179	0x00000000	0.0
180	0x3919b69f	0.00014659249
181	0xbb8a538b	-0.004221385
182	0xbae6d873	-0.0017612114
183	0x3a09ab59	0.0005251668
184	0x00000000	0.0
185	0x3894f11b	7.102099e-05
186	0x38cfe683	9.913465e-05
187	0xbabfa055	-0.0014619926
188	0x3996aa7a	0.00028737244
189	0x00000000	0.0
190	0x375d57c6	1.3193063e-05
191	0x36df8ac0	6.6620705e-06
192	0xba9fcfb2	-0.0012192635
193	0x394d432b	0.00019575346
194	0x00000000	0.0
195	0xb9f6cce9	-0.00047073446
196	0x3be79be1	0.0070681428
197	0x3c1e7a9d	0.009672788
198	0xbafcff05	-0.0019302076
199	0x00000000	0.0
200	0x38f3734e	0.0001160862
201	0xbcccd940	-0.025005937
202	0x3b2248b4	0.0024762573
203	0x394f8d30	0.00019793655
204	0x00000000	0.0
205	0x39d0ba72	0.00039811764
206	0xbc6fa314	-0.014626283
207	0xbbc9fbde	-0.006164058
208	0x3ac3f21c	0.0014949474
209	0x00000000	0.0
210	0x395f630e	0.00021303838
211	0x3cad5ade	0.021161493
212	0xbc00d775	-0.007863869
213	0x3a82a541	0.0009967462
214	0x00000000	0.0
215	0x3a1335b9	0.000561561
216	0x3a8e90a5	0.0010876848
217	0xbc5516c8	-0.01300592
218	0x3b1aeb07	0.0023638622
219	0x00000000	0.0
220	0xb938cb5e	-0.00017623368
221	0xbc6e99ff	-0.014563083
222	0x3bb4f926	0.005522865
223	0xba475a45	-0.0007604699
224	0x00000000	0.0
225	0xb99b36ff	-0.0002960488
226	0x3cb4b016	0.02205662
227	0x3adacefe	0.0016693769
228	0xba659a73	-0.00087586715
229	0x00000000	0.0
230	0x356ec884	8.89537e-07
231	0x36be0fb2	5.6642684e-06
232	0xb4bd2a1f	-3.523464e-07
233	0x35be6a00	1.4186953e-06
234	0x00000000	0.0
235	0xb69d1de2	-4.6824434e-06
236	0xb74c3660	-1.2172008e-05
237	0x3774bf58	1.4588084e-05
238	0xb79f940d	-1.9023219e-05
239	0x00000000	0.0
240	0xb855df5e	-5.0991184e-05
241	0xb8dde05a	-0.0001057989
242	0x3a9f159a	0.0012137175
243	0xb9738c64	-0.00023226585
244	0x00000000	0.0
245	0xba29d57b	-0.00064786494
246	0xbca5a7d5	-0.02022163
247	0x3c961100	0.018318653
248	0xbb3d9308	-0.0028926749
249	0x00000000	0.0
250	0x3a51cbaa	0.00080030656
251	0xbc6777cf	-0.014127686
252	0xbc784a08	-0.015154369
253	0x3b500d77	0.0031746307
254	0x00000000	0.0
255	0x3a2b5ea6	0.0006537236

exp_avg_sq f4 [128, 5]
0	0x3539ab77	6.9167385e-07
1	0x3968cd87	0.00022201809
2	0x3a292472	0.0006452269
3	0x373977e0	1.105477e-05
4	0x00000000	0.0
5	0x33129adf	3.413413e-08
6	0x351c8262	5.830426e-07
7	0x381bfefa	3.7192345e-05
8	0x351677be	5.60536e-07
9	0x00000000	0.0
10	0x3587faf7	1.0131324e-06
11	0x376c31bc	1.4078276e-05
12	0x3a67a8fb	0.0008837131
13	0x378088fd	1.532258e-05
14	0x00000000	0.0
15	0x35ade549	1.2956235e-06
16	0x3afaa7e1	0.0019123518
17	0x3a9a2ade	0.0011762043
18	0x37b21876	2.1230644e-05
19	0x00000000	0.0
20	0x32011c28	7.51519e-09
21	0x38479c4d	4.7590864e-05
22	0x36e98762	6.9597018e-06
23	0x33df4a2f	1.03977406e-07
24	0x00000000	0.0
25	0x2dcba830	2.3153118e-11
26	0x2f2066b7	1.4588407e-10
27	0x2ee0a8cd	1.0216326e-10
28	0x2edf9c24	1.0168602e-10
29	0x00000000	0.0
30	0x3570475b	8.9510803e-07
31	0x3b86a6db	0.004109246
32	0x3a70d5e0	0.00091871433
33	0x378f00d5	1.7047316e-05
34	0x00000000	0.0
35	0x3354d591	4.9554334e-08
36	0x389816b7	7.252156e-05
37	0x382d9589	4.138568e-05
38	0x3543709f	7.2807046e-07
39	0x00000000	0.0
40	0x34ab2445	3.1877622e-07
41	0x3a5f7282	0.0008523838
42	0x39a3feea	0.00031279708
43	0x36b6996a	5.4418824e-06
44	0x00000000	0.0
45	0x34b3b064	3.346969e-07
46	0x368abc0b	4.1346116e-06
47	0x3995204a	0.00028443552
48	0x36a8e7f6	5.033794e-06
49	0x00000000	0.0
50	0x308b73ae	1.0146459e-09
51	0x328f95ea	1.6715564e-08
52	0x3215bc76	8.7157925e-09
53	0x32886b77	1.5881353e-08
54	0x00000000	0.0
55	0x32334b71	1.0436325e-08
56	0x38a9210d	8.064704e-05
57	0x374e2df9	1.2289261e-05
58	0x34490bbf	1.8723857e-07
59	0x00000000	0.0
60	0x343836fe	1.7156341e-07
61	0x398f459e	0.00027326954
62	0x3921a8fa	0.00015417105
63	0x36308069	2.6300788e-06
64	0x00000000	0.0
65	0x3499e81f	2.866736e-07
66	0x395801eb	0.0002060008
67	0x399063cc	0.00027540175
68	0x3691473d	4.32963e-06
69	0x00000000	0.0
70	0x34e9895a	4.3499568e-07
71	0x39fafd84	0.000478726
72	0x39d40345	0.00040438227
73	0x36ec8239	7.048508e-06
74	0x00000000	0.0
75	0x302ec9c3	6.358755e-10
76	0x31334cfd	2.609169e-09
77	0x34db9bac	4.0905195e-07
78	0x320f3e7f	8.3379055e-09
79	0x00000000	0.0
80	0x36f5b565	7.322686e-06
81	0x37c76305	2.3768758e-05
82	0x3b939665	0.0045040124
83	0x38d28039	0.00010037464
84	0x00000000	0.0
85	0x30e4cb1c	1.664691e-09
86	0x3375b5df	5.720892e-08
87	0x3083a948	9.579617e-10
88	0x328d5098	1.645121e-08
89	0x00000000	0.0
90	0x36181aef	2.2665442e-06
91	0x379fe7f9	1.9062298e-05
92	0x3aebff6a	0.0018005196
93	0x380ac12f	3.308168e-05
94	0x00000000	0.0
95	0x2ef38fc1	1.10758964e-10
96	0x2fcb19c2	3.6943787e-10
97	0x2ff82677	4.5138268e-10
98	0x300e9c80	5.18817e-10
99	0x00000000	0.0
100	0x326bab94	1.3717813e-08
101	0x3726b828	9.937248e-06
102	0x371f9471	9.5117e-06
103	0x344e7370	1.9227241e-07
104	0x00000000	0.0
105	0x3588806a	1.0170163e-06
106	0x3a896f00	0.0010485351
107	0x3a80c132	0.0009823202
108	0x378b620e	1.6615752e-05
109	0x00000000	0.0
110	0x32028edb	7.5994775e-09
111	0x33778192	5.7627012e-08
112	0x36b9d6fe	5.538458e-06
113	0x33e13cbf	1.04884286e-07
114	0x00000000	0.0
115	0x2c65937b	3.2624725e-12
116	0x2e111792	3.2990118e-11
117	0x2ea915b0	7.689083e-11
118	0x2e09a448	3.1296105e-11
119	0x00000000	0.0
120	0x33521394	4.891224e-08
121	0x38adb0e7	8.2822335e-05
122	0x38169511	3.5901616e-05
123	0x352cb340	6.4335836e-07
124	0x00000000	0.0
125	0x34917e26	2.710014e-07
126	0x3a141b57	0.0005649826
127	0x3986bd41	0.00025699477
128	0x369e0c41	4.7101935e-06
129	0x00000000	0.0
130	0x332cf1c9	4.0266773e-08
131	0x35aeb510	1.3016706e-06
132	0x385810ee	5.151418e-05
133	0x3538610a	6.868655e-07
134	0x00000000	0.0
135	0x335c9cdc	5.1365404e-08
136	0x39957d3c	0.00028512802
137	0x385cc94f	5.263957e-05
138	0x35837c32	9.796406e-07
139	0x00000000	0.0
140	0x320f0baf	8.326352e-09
141	0x337d0a08	5.8915276e-08
142	0x36d1eb75	6.256096e-06
143	0x33ed63e9	1.1054346e-07
144	0x00000000	0.0
145	0x32ca8d71	2.3580215e-08
146	0x38b95eed	8.839169e-05
147	0x378e68bc	1.697649e-05
148	0x349c9c38	2.9170928e-07
149	0x00000000	0.0
150	0x322d8fc9	1.0102618e-08
151	0x38641fef	5.4389177e-05
152	0x371c9a6c	9.334279e-06
153	0x3431954f	1.6538728e-07
154	0x00000000	0.0
155	0x2f708531	2.1875192e-10
156	0x3657d1ac	3.2159542e-06
157	0x3427cf47	1.5628494e-07
158	0x318f6200	4.172989e-09
159	0x00000000	0.0
160	0x339b4832	7.230882e-08
161	0x3a199eb3	0.0005860135
162	0x38bf5157	9.1227404e-05
163	0x35b953a2	1.3807914e-06
164	0x00000000	0.0
165	0x3117779b	2.204138e-09
166	0x325cc10c	1.2849579e-08
167	0x31c86150	5.8318292e-09
168	0x32b5eb3c	2.1178145e-08
169	0x00000000	0.0
170	0x30e65473	1.6758704e-09
171	0x3403d7d6	1.2278846e-07
172	0x3667cee8	3.4542118e-06
173	0x32ff9b4c	2.9756528e-08
174	0x00000000	0.0
175	0x360f34a9	2.1339313e-06
176	0x3af35615	0.0018565083
177	0x3ae9987e	0.0017821935
178	0x380c8d6b	3.3510307e-05
179	0x00000000	0.0
180	0x33691c71	5.4275407e-08
181	0x38fa9323	0.00011948335
182	0x38879372	6.4647655e-05
183	0x35836e5c	9.792379e-07
184	0x00000000	0.0
185	0x320e5523	8.284846e-09
186	0x34273231	1.5571347e-07
187	0x37042b90	7.877956e-06
188	0x33ea857d	1.09207555e-07
189	0x00000000	0.0
190	0x3305ab44	3.112224e-08
191	0x382e1f18	4.151379e-05
192	0x380c09d2	3.3387747e-05
193	0x350eef74	5.324757e-07
194	0x00000000	0.0
195	0x34e6b60a	4.297329e-07
196	0x3988681a	0.00026017503
197	0x39b807ec	0.00035101117
198	0x36d6fdd8	6.4072483e-06
199	0x00000000	0.0
200	0x34ee9b66	4.4444022e-07
201	0x3af67ff4	0.0018806444
202	0x39ddaa85	0.00042279452
203	0x3700950b	7.664096e-06
204	0x00000000	0.0
205	0x35082d3c	5.072977e-07
206	0x3a5fe634	0.0008541078
207	0x3a05da42	0.00051060703
208	0x371025ca	8.591867e-06
209	0x00000000	0.0
210	0x33dd4562	1.0303735e-07
211	0x3a802d35	0.0009779098
212	0x3904fda2	0.00012682987
213	0x360b96a3	2.0800296e-06
214	0x00000000	0.0
215	0x34ef5773	4.4580847e-07
216	0x367636b2	3.6688693e-06
217	0x39b62354	0.00034740067
218	0x36d01ca1	6.202216e-06
219	0x00000000	0.0
220	0x33785946	5.7823193e-08
221	0x39f0b3da	0.00045910367
222	0x38653059	5.4642882e-05
223	0x3589d7bc	1.0270082e-06
224	0x00000000	0.0
225	0x351eaa6f	5.91076e-07
226	0x3ac6db64	0.0015171585
227	0x3a165e1d	0.000573607
228	0x372e8526	1.0402209e-05
229	0x00000000	0.0
230	0x2cb9a37c	5.2761667e-12
231	0x2eee1d8b	1.0828235e-10
232	0x2d129da6	8.334144e-12
233	0x2dfa49a0	2.8454405e-11
234	0x00000000	0.0
235	0x30e09d5c	1.6342869e-09
236	0x3715b09d	8.922213e-06
237	0x356f19bd	8.907189e-07
238	0x32b95165	2.1573848e-08
239	0x00000000	0.0
240	0x315564dd	3.1052914e-09
241	0x323801b0	1.0710593e-08
242	0x35cb5946	1.5150661e-06
243	0x333b9567	4.367521e-08
244	0x00000000	0.0
245	0x350c5d5b	5.2289914e-07
246	0x3aa0b5ad	0.0012261175
247	0x39f3c72b	0.00046496963
248	0x3702c0cd	7.793494e-06
249	0x00000000	0.0
250	0x359e9f9c	1.181837e-06
251	0x3a14d42a	0.0005677367
252	0x3a8256d5	0.0009944091
253	0x379617fa	1.7892558e-05
254	0x00000000	0.0
255	0x3551dce3	7.818e-07

exp_avg f4 [128]
0	0x3a22d5c4	0.0006211663
1	0xb906e149	-0.00012863161
2	0x3a75092d	0.00093473756
3	0x39d74495	0.00041059093
4	0x387098a7	5.7362628e-05
5	0x3590152b	1.0734997e-06
6	0xba18a223	-0.00058225
7	0x39212642	0.00015368409
8	0x38c10208	9.2033355e-05
9	0xba06770f	-0.00051294354
10	0xb7075569	-8.066513e-06
11	0x37ea77ee	2.795082e-05
12	0x3958e4fc	0.00020684669
13	0xb9c34535	-0.00037244862
14	0xb95be189	-0.00020969486
15	0xb7b0eeaa	-2.1091972e-05
16	0xbb31774d	-0.0027079165
17	0xb599de80	-1.1464144e-06
18	0xbaa6a968	-0.0012715282
19	0x3645e586	2.9488888e-06
20	0xb8cab0c6	-9.665037e-05
21	0x3a18112f	0.00058009004
22	0x38ecfe93	0.00011300775
23	0xb324ac18	-3.8340744e-08
24	0xb90cdbad	-0.00013433276
25	0xb888966a	-6.513002e-05
26	0x394dca3d	0.00019625663
27	0xb94298c4	-0.00018558191
28	0x38b13b85	8.451104e-05
29	0x38d78cc7	0.00010278221
30	0x38b89ef2	8.8034096e-05
31	0xb6e03173	-6.681477e-06
32	0xb9930f4e	-0.00028049428
33	0xb702152d	-7.753534e-06
34	0xb5ec6890	-1.7613802e-06
35	0xba585e06	-0.00082537567
36	0x38ac46f2	8.214814e-05
37	0x388d8ad7	6.749265e-05
38	0x3880ff7e	6.151105e-05
39	0xb9da4b92	-0.00041636504
40	0xb90486f1	-0.0001263877
41	0x39896666	0.0002620697
42	0x39bbcc85	0.00035819798
43	0x3a1685e0	0.0005741995
44	0xb982786c	-0.00024885254
45	0xb87a26e0	-5.964085e-05
46	0x35b06484	1.3142276e-06
47	0xb6957414	-4.4540593e-06
48	0xb87ce2fb	-6.0292874e-05
49	0xba55375e	-0.00081335555
50	0x3a2cc696	0.0006590871
51	0x39fcdd80	0.00048230216
52	0x38d7b233	0.00010285191
53	0xb775e744	-1.4656984e-05
54	0x388c3565	6.685666e-05
55	0x373efd6b	1.1383886e-05
56	0xb87b521a	-5.9919526e-05
57	0xb931b7ce	-0.00016948508
58	0x39b56eb6	0.00034605496
59	0x38bbc2a8	8.9531124e-05
60	0xb8af89f5	-8.370347e-05
61	0xb99d2b73	-0.00029977746
62	0x38245742	3.9181912e-05
63	0xb6ed1232	-7.0652686e-06
64	0x38c9d572	9.624184e-05
65	0xb3199862	-3.576168e-08
66	0xb932a06f	-0.00017035169
67	0x36d2337b	6.264481e-06
68	0xba0c922e	-0.00053623586
69	0xb907a2a3	-0.0001293519
70	0xb9debcce	-0.0004248381
71	0xb9a5e99a	-0.000316453
72	0x3a9aeaae	0.0011819208
73	0x350c7e40	5.233778e-07
74	0xb7d629f5	-2.5530326e-05
75	0x3920ce44	0.00015335629
76	0xb9023381	-0.00012416953
77	0x39ccc8e0	0.00039059576
78	0x33f681d4	1.1478883e-07
79	0xb7557314	-1.2722583e-05
80	0xb9cd46c4	-0.00039153371
81	0x37bcf28a	2.2524287e-05
82	0x39299692	0.00016173188
83	0xb884ad7f	-6.326567e-05
84	0x35cd8733	1.5313038e-06
85	0x39565a59	0.00020442287
86	0x38bcb471	8.9981484e-05
87	0x3907507f	0.0001290459
88	0x3a0dc40e	0.00054079376
89	0xb9b612dc	-0.00034727796
90	0xb684e0de	-3.9600845e-06
91	0x3990ee31	0.00027643287
92	0x395afe18	0.00020884757
93	0x3a338943	0.00068487617
94	0xb9042322	-0.00012601589
95	0x39156ebd	0.00014251
96	0x35055d7b	4.9682393e-07
97	0x39c4e1b9	0.0003755221
98	0x391c7642	0.00014921374
99	0x3980b5ee	0.0002454961
100	0xb9b7bd84	-0.0003504568
101	0x385f0804	5.317481e-05
102	0x3718b0f8	9.10111e-06
103	0xbaa0cb32	-0.0012267588
104	0xba28662a	-0.0006423915
105	0xb7302f08	-1.0501368e-05
106	0xb6fd21dd	-7.5439298e-06
107	0x3922af02	0.0001551472
108	0xba60c809	-0.00085747294
109	0xb97d6388	-0.00024165038
110	0xba386712	-0.00070344016
111	0xbac99581	-0.0015379639
112	0xb7a72c99	-1.9928719e-05
113	0x38e00c07	0.000106833926
114	0xb962a7fb	-0.00021615617
115	0xb9f16541	-0.00046042542
116	0xb8b76e8e	-8.7467124e-05
117	0x381bc669	3.7139664e-05
118	0x38e2b781	0.000108107
119	0x3983bcb7	0.0002512687
120	0x354b70ee	7.578773e-07
121	0xb852cd03	-5.0258834e-05
122	0xb956e9d3	-0.00020495737
123	0x36084e4f	2.031116e-06
124	0x3a14b46d	0.00056726375
125	0x396692e4	0.0002198923
126	0xb982b846	-0.00024932827
127	0x356a6d28	8.7330636e-07

exp_avg_sq f4 [128]
0	0x359e4e28	1.1794664e-06
1	0x33916616	6.770658e-08
2	0x35daa690	1.6290742e-06
3	0x36122e35	2.1782591e-06
4	0x327aa105	1.4588527e-08
5	0x2e062e03	3.050894e-11
6	0x35e6fcf0	1.720995e-06
7	0x33a83d3f	7.83425e-08
8	0x351ccf9d	5.8416646e-07
9	0x350ca7e3	5.239837e-07
10	0x30f7ca18	1.8029054e-09
11	0x32e0aa77	2.615455e-08
12	0x349a94f0	2.8793102e-07
13	0x3507a697	5.053384e-07
14	0x35493c70	7.4966283e-07
15	0x305f9b5b	8.13477e-10
16	0x37086d3c	8.131665e-06
17	0x3126a9b8	2.4252653e-09
18	0x365edb1d	3.3208119e-06
19	0x2f07412d	1.2301334e-10
20	0x3298d5ff	1.7792443e-08
21	0x35f29c72	1.8075937e-06
22	0x322dc718	1.0115194e-08
23	0x2ca0b7e3	4.567889e-12
24	0x339661ad	7.0026864e-08
25	0x34feb748	4.7444541e-07
26	0x33c82f3f	9.32182e-08
27	0x33d9f603	1.0149599e-07
28	0x32491d6c	1.170643e-08
29	0x33112cf7	3.380134e-08
30	0x329c10ed	1.8168487e-08
31	0x3049b086	7.337423e-10
32	0x343acea6	1.7397778e-07
33	0x313e271c	2.767087e-09
34	0x31dc5a12	6.4130825e-09
35	0x365cb7f8	3.2889639e-06
36	0x3402d22e	1.2183656e-07
37	0x32871103	1.5723804e-08
38	0x3385ac2a	6.2246116e-08
39	0x352e508c	6.493726e-07
40	0x35590c76	8.085693e-07
41	0x357e143c	9.465182e-07
42	0x3488ad89	2.5458237e-07
43	0x3529c8a1	6.324936e-07
44	0x33e87c19	1.0825915e-07
45	0x358ead16	1.0630199e-06
46	0x2d1332c4	8.367255e-12
47	0x3136f2b2	2.6622442e-09
48	0x3178b4fb	3.6191625e-09
49	0x35681cf2	8.6468856e-07
50	0x35f6384a	1.834481e-06
51	0x35c47718	1.4637799e-06
52	0x32bd0900	2.2006589e-08
53	0x3116914a	2.191046e-09
54	0x325434b0	1.2352004e-08
55	0x3222d216	9.477409e-09
56	0x35e5eade	1.7130185e-06
57	0x3345f698	4.6091913e-08
58	0x36973b75	4.5070724e-06
59	0x3366ac97	5.3708018e-08
60	0x3226f690	9.7185335e-09
61	0x35df370f	1.6630819e-06
62	0x33cd59ce	9.562392e-08
63	0x318b803a	4.06001e-09
64	0x3492eb5e	2.736587e-07
65	0x2c8e9788	4.052706e-12
66	0x344dbd31	1.916094e-07
67	0x31e5c427	6.687077e-09
68	0x350e3142	5.29708e-07
69	0x33086f14	3.1765993e-08
70	0x34d750d4	4.010568e-07
71	0x35d99a29	1.6212626e-06
72	0x36322fd8	2.6551916e-06
73	0x2ec39ab7	8.895056e-11
74	0x31c4d487	5.7285123e-09
75	0x3570de70	8.9730656e-07
76	0x3543130b	7.267087e-07
77	0x34c45b07	3.6574076e-07
78	0x2d505e79	1.1844408e-11
79	0x3551465e	7.7960965e-07
80	0x361c8952	2.3325742e-06
81	0x337fc2b8	5.954891e-08
82	0x33a4c034	7.671807e-08
83	0x3242ef6f	1.1346727e-08
84	0x2e6d8857	5.4008655e-11
85	0x3470d66e	2.2429751e-07
86	0x33db4e0d	1.02121795e-07
87	0x3380a078	5.9896536e-08
88	0x368a108b	4.1146463e-06
89	0x36387b92	2.7490064e-06
90	0x2ef2e057	1.10447367e-10
91	0x3493cbb7	2.7529106e-07
92	0x341dd306	1.4698534e-07
93	0x3504be70	4.9450955e-07
94	0x3321f0f3	3.7704876e-08
95	0x343b1e52	1.7426763e-07
96	0x2cd78e0c	6.126438e-12
97	0x348f2562	2.6663025e-07
98	0x33b4d977	8.42146e-08
99	0x33d4d7c3	9.911266e-08
100	0x34a2870b	3.0273108e-07
101	0x31e9130c	6.783358e-09
102	0x340292a9	1.2160548e-07
103	0x3649618a	3.000811e-06
104	0x360dbb73	2.1119747e-06
105	0x2fe4cba5	4.1617657e-10
106	0x30f0b4b9	1.7513663e-09
107	0x352df916	6.480999e-07
108	0x35407741	7.169911e-07
109	0x34850a0e	2.4780496e-07
110	0x358aaf9f	1.0332914e-06
111	0x36919746	4.3389473e-06
112	0x313a480e	2.710752e-09
113	0x3407c3b3	1.264405e-07
114	0x353f240e	7.120551e-07
115	0x34b692ce	3.4006956e-07
116	0x32241086	9.549813e-09
117	0x317c00e7	3.667134e-09
118	0x331e558f	3.6865057e-08
119	0x33e97a29	1.0872129e-07
120	0x2dd345ef	2.401898e-11
121	0x3260dccd	1.308872e-08
122	0x3580a6e7	9.585318e-07
123	0x2deec45b	2.7144667e-11
124	0x3547747f	7.43028e-07
125	0x34478a63	1.8583664e-07
126	0x35a0017a	1.1921359e-06
127	0x30954241	1.0860007e-09
