results/test2/EndLessRunnerBehaviour/EndLessRunnerBehaviour-2000006.onnx (onnx, 74029 bytes, 5 tensors)

network_body._body_endoder.seq_layers.0.weight f4 [128, 5]
1.2164226 -0.30538723 -0.75785834 -0.09547312 -0.62640154 -0.05859465 -0.7447945 -0.44065836
0.39138347 -0.13367322 0.0099701295 -0.8836057 -0.4813515 -0.6055673 1.0461539 -0.68144506
0.8538403 -0.71060294 -0.55115443 -0.22278921 0.06346682 0.5946758 0.1937858 -0.15402162
-0.2895157 0.091129296 -0.24817945 0.3759163 -0.222385 -0.11847806 0.35494453 0.23970681
0.053214487 -0.7579242 -0.262133 -0.20734397 -0.13439602 -0.7873962 -0.47945967 -1.432739
0.1464022 0.33491102 -0.5932737 -0.39175266 -0.3386819 -0.14019442 -0.2878185 -0.09944611
0.70804113 0.37050518 0.36469814 -0.29180595 0.46619916 0.72971165 -0.47539043 -0.5840664
0.4682432 0.6403742 -0.3975526 0.30429035 0.31894904 0.10887691 -0.56765294 0.3329164
0.20548813 -0.8662256 0.91967344 -0.012951878 0.22166598 -0.33942333 0.13486418 0.09070348
-0.17788176 0.56010497 0.39591506 -0.27331808 -0.48447284 0.13888717 0.08259671 0.021951223
0.69201386 -0.24016887 0.046658684 0.6360137 -0.23931332 0.72336304 -0.051195074 0.8158905
0.20979634 -0.8722569 -0.33821374 -0.50432175 -0.07448544 0.8615576 -0.26388225 0.4343887
-0.31251222 0.34628764 -0.042883646 -0.20327747 -0.08799966 0.08397102 -0.43905926 0.018334351
-0.35753536 0.19363672 -0.118419684 -0.34733936 -0.4310764 -0.08087405 -0.78593767 -0.7090464
-0.029972207 -0.33796158 -0.05267231 0.15349425 -0.1791576 0.5045186 0.0675598 0.2105946
-0.21498066 0.040708214 -0.5664281 0.117988214 -0.78316826 -0.099562764 0.26388788 -0.1957212
0.16809009 -0.4526671 0.012846361 -0.86987466 -0.3207676 -0.37292957 -0.084603764 0.12952162
0.23004137 0.1538631 0.23475306 -0.57812804 0.15292796 -0.4048755 0.013736874 -0.5712618
0.5438574 -0.7936722 0.17081334 -0.2069383 0.077764034 0.20309107 0.3503706 0.30653808
0.37159696 -0.1708861 -0.37153074 -0.9667807 0.24251111 0.9019859 -0.84412444 -1.3630118
-0.56850845 0.046396304 -0.0112568205 -0.36823857 0.12403 0.761828 -0.29058817 0.46072897
0.39585412 0.056233354 -0.085473575 -0.1815369 -0.033475462 -0.008195659 0.06602886 0.15399475
0.10030548 0.03372058 0.68946266 -0.02092323 0.88985044 0.40244168 -0.49961126 0.3073582
-0.11039651 -0.14268403 -0.12680924 0.12433086 -0.3759653 -0.3525758 0.53316593 -0.33231196
-0.65938747 0.468043 -0.37383142 -0.007217478 0.2117231 -0.08157131 0.1317443 0.24691227
-0.054391704 0.86354494 -0.7930707 0.12097371 -0.5443924 -0.18194361 0.075272225 -0.19068642
-0.3563802 0.7403507 -0.7728929 0.21966588 0.29381585 -0.11337455 0.19502977 0.014520138
-0.40366653 -0.16969645 -0.40278518 -0.32782027 -0.24926387 0.097087726 0.19905394 0.2960903
0.16579582 -0.21462016 0.14941609 -0.23591667 0.66604453 0.43278486 0.67300534 -0.19108279
0.6822252 -0.08651521 0.29186562 0.57619435 0.33510384 0.5539033 -0.028165966 0.46193895
0.14267978 -0.5326399 0.25381505 0.56495714 -1.048717 -0.16706885 0.52152324 -0.78701115
0.05329905 0.4323196 -0.5115428 -0.048231572 -0.24479946 -0.37201422 0.14156245 0.33600274
00000000: bcb3 9b3f b75b 9cbe 0103 42bf 6987 c3bd
00000010: da5b 20bf f200 70bd daaa 3ebf f99d e1be
00000020: 6a63 c83e a2e1 08be c159 233c fc33 62bf
00000030: b473 f6be 7506 1bbf 5fe8 853f 2f73 2ebf
00000040: 4795 5a3f 13ea 35bf 7518 0dbf db22 64be
00000050: e4fa 813d ac3c 183f c96f 463e d8b7 1dbe
00000060: 673b 94be ffa1 ba3d c122 7ebe 1a78 c03e
00000070: e5b8 63be a0a4 f2bd 4abb b53e b475 753e
00000080: 6ff7 593d 5207 42bf 4c36 86be fa51 54be
00000090: 1c9f 09be cc92 49bf bd7b f5be fe63 b7bf
000000a0: 75ea 153e 7579 ab3e c9e0 17bf ce93 c8be
000000b0: b767 adbe 208f 0fbe f25c 93be 67aa cbbd
000000c0: 2f42 353f dbb2 bd3e b7b9 ba3e 9767 95be
000000d0: a8b1 ee3e 62ce 3a3f 6066 f3be 6085 15bf
000000e0: 93bd ef3e 90ef 233f 048c cbbe f2cb 9b3e
000000f0: 4a4d a33e dbfa de3d b451 11bf 0574 aa3e
00000100: 7b6b 523e f6c0 5dbf b86f 6b3f 1d34 54bc
00000110: 68fc 623e e5c8 adbe d619 0a3e bfc2 b93d
00000120: a326 36be 0a63 0f3f 61b5 ca3e 59f0 8bbe
00000130: d30c f8be 7038 0e3e 7728 a93d 0dd3 b33c
00000140: d227 313f d4ee 75be 2d1d 3f3d cbd1 223f
00000150: 8d0e 75be 522e 393f edb1 51bd 33de 503f
00000160: dad4 563e 3a4c 5fbf 5a2a adbe 3b1b 01bf
00000170: d38b 98bd 0a8f 5c3f 931b 87be 3268 de3e
00000180: 9a01 a0be 9d4c b13e c3a6 2fbd f827 50be
00000190: 2a39 b4bd 00f9 ab3d 60cc e0be ec31 963c
000001a0: e00e b7be b448 463e 0586 f2bd 77d6 b1be
000001b0: 0cb6 dcbe 4ba1 a5bd 3633 49bf 1184 35bf
000001c0: 4688 f5bc 4d09 adbe ecbe 57bd 992d 1d3e
000001d0: 1775 37be 2228 013f cb5c 8a3d 1ca6 573e
000001e0: e423 5cbe a8bd 263d 6f01 11bf cea3 f13d
000001f0: b77d 48bf 90e7 cbbd 501c 873e 236b 48be
00000200: cf1f 2c3e fbc3 e7be 8b79 523c 1bb0 5ebf
00000210: a73b a4be a0f0 bebe bd44 adbd 51a1 043e
00000220: f78f 6b3e 4a8e 1d3e 1b63 703e 3300 14bf
00000230: 2699 1c3e d74b cfbe a010 613c 373e 12bf
00000240: 3d3a 0b3f 1a2e 4bbf b1e9 2e3e a2e7 53be
00000250: c042 9f3d 1bf7 4f3e c663 b33e 8ff2 9c3e
00000260: f541 be3e c4fc 2ebe 4739 bebe f17e 77bf
00000270: d554 783e 8ce8 663f 8a18 58bf 2c77 aebf
00000280: c589 11bf 0d0a 3e3d 876e 38bc c489 bcbe
00000290: 7103 fe3d 2907 433f f9c7 94be abe4 eb3e
000002a0: 64ad ca3e f254 663d c50c afbd cfe4 39be
000002b0: 911d 09bd 1647 06bc 243a 873d cdb0 1d3e
000002c0: f66c cd3d 971e 0a3d a080 303f 3267 abbc
000002d0: 3dcd 633f d60c ce3e 0ccd ffbe 0e5e 9d3e
000002e0: 9117 e2bd c31b 12be 48da 01be 2ea1 fe3d
000002f0: 867e c0be d184 b4be 907d 083f cb24 aabe
00000300: 9ecd 28bf 55a3 ef3e d566 bfbe 9880 ecbb
00000310: f1cd 583e dc0e a7bd fae7 063e 92d6 7c3e
00000320: d6c9 5ebd 4811 5d3f ae06 4bbf 11c1 f73d
00000330: 4d5d 0bbf 6d4f 3abe 5328 9a3d 4d43 43be
00000340: 7777 b6be a087 3d3f 4fdc 45bf 18f0 603e
00000350: 086f 963e eb30 e8bd e2b5 473e dfe5 6d3c
00000360: 61ad cebe e8c4 2dbe dc39 cebe 0fd8 a7be
00000370: 073f 7fbe eed5 c63d ccd4 4b3e 2699 973e
00000380: 61c6 293e 63c5 5bbe 8800 193e 2494 71be
00000390: e581 2a3f fa95 dd3e 144a 2c3f 35ab 43be
000003a0: 50a6 2e3f e32e b1bd 696f 953e 7981 133f
000003b0: bb92 ab3e 9bcc 0d3f 50bc e6bc 4383 ec3e
000003c0: a61a 123e 175b 08bf 0cf4 813e 08a1 103f
000003d0: 5c3c 86bf 1914 2bbe 8c82 053f 9079 49bf
000003e0: 1b50 5a3d ff58 dd3e 78f4 02bf 788e 45bd
000003f0: b6ac 7abe a678 bebe bff5 103e 8d08 ac3e

network_body._body_endoder.seq_layers.0.bias f4 [128]
0.01507586 -0.01640476 0.009283538 0.004071706 -0.0037478562 -0.0060298187 0.0032265973 0.014314476
-0.0013284354 -0.0010297737 0.03483636 0.007393854 7.107113e-05 -0.0072630905 -0.003707517 0.011437449
0.027410526 0.07682938 -0.0025185442 -0.022480529 -0.018339962 0.0069522955 -0.021000208 0.0030366573
-0.0023759198 -0.003848659 0.0025983958 0.0017660746 -0.005245798 -0.009396294 0.004481961 0.0037687416
0.011063235 0.08048087 -0.000102280195 0.0020374884 -0.007506956 0.028187681 -0.0024494403 -0.010877336
-0.0005351445 0.004905145 -0.009201139 0.0039834757 -0.0038811076 -0.008943414 -0.012855624 0.0023625852
0.04053077 -0.0015029882 -0.00034125996 0.004306226 -0.005585845 0.06528694 0.00041675923 0.001798339
-0.0073529636 -0.007217434 0.005106035 -0.006850226 0.01007722 -0.0052335924 -0.002003455 0.061416786
-0.0025589692 0.016640402 0.01530126 0.03766579 0.004471671 -0.004445273 -0.010220103 -0.00904567
-0.0022370056 -0.0010846324 0.06177909 -0.0050559496 -0.0069942595 -0.000572978 -0.0079907635 -0.009760129
-0.0058806012 -0.024811177 0.0017683904 -0.002442202 0.03171575 -0.004433879 0.020775743 0.0067326147
0.004299048 -0.0056341747 0.0073088896 -0.008012521 -0.005974006 -0.004872648 0.053846467 0.008078454
0.015267591 -0.0016993377 -0.0024391476 0.004974079 -0.007274265 0.024001628 0.0032488618 0.0027699852
-0.0056325765 0.045452487 0.034500275 0.0039854473 0.046028934 9.2542265e-05 -0.0111119 0.015244203
0.056221303 -0.010077864 0.0029867906 -0.0009030429 0.015733778 -0.012558288 -0.00092455605 -2.145429e-05
0.019153818 -0.00024387983 -0.004841737 0.007053928 0.008782077 -0.0042863986 -0.0053634616 0.02414894
00000000: bd00 773c 4663 86bc fb19 183c f26b 853b
00000010: 989e 75bb c995 c5bb 5275 533b 4487 6a3c
00000020: e51e aeba 79f9 86ba 92b0 0e3d 2548 f23b
00000030: 060c 9538 38ff edbb d0f9 72bb 2364 3b3c
00000040: 0a8c e03c b958 9d3d 290e 25bb 1629 b8bc
00000050: b03d 96bc 15d0 e33b a108 acbc a802 473b
00000060: 52b5 1bbb c939 7cbb d949 2a3b a17b e73a
00000070: f1e4 abbb eaf2 19bc 6add 923b fefc 763b
00000080: 9242 353c 28d3 a43d 437f d6b8 6287 053b
00000090: e9fc f5bb dae9 e63c ca86 20bb db36 32bc
000000a0: f148 0cba 57bb a03b 60c0 16bc d187 823b
000000b0: 2e5a 7ebb 6687 12bc 65a0 52bc 9ad5 1a3b
000000c0: 9803 263d eaff c4ba 23eb b2b9 3e1b 8d3b
000000d0: 7709 b7bb 29b5 853d 7a80 da39 3eb6 eb3a
000000e0: 21f1 f0bb 3980 ecbb 8750 a73b dc77 e0bb
000000f0: ed1a 253c 8e7e abbb 664c 03bb 2b90 7b3d
00000100: 61b4 27bb 7451 883c 23b2 7a3c 7247 1a3d
00000110: 1887 923b a7a9 91bb 3872 27bc 4a34 14bc
00000120: ba9a 12bb 392a 8eba 120c 7d3d 61ac a5bb
00000130: 1a30 e5bb e733 16ba b1eb 02bc f3e8 1fbc
00000140: 0fb2 c0bb cf40 cbbc 56c9 e73a 5a0d 20bb
00000150: 60e8 013d 134a 91bb e431 aa3c 449d dc3b
00000160: 07df 8c3b e29e b8bb 697f ef3b f346 03bc
00000170: 98c1 c3bb bcaa 9fbb 1d8e 5c3d 7e5b 043c
00000180: eb24 7a3c 50bc deba 1bda 1fbb 99fd a23b
00000190: f55c eebb 109f c43c dbea 543b a488 353b
000001a0: 7a91 b8bb 632c 3a3d 2950 0d3d 5b98 823b
000001b0: d688 3c3d 4013 c238 b00e 36bc d2c2 793c
000001c0: 4f48 663d a01d 25bc 08be 433b 2fba 6cba
000001d0: 20e4 803c 47c1 4dbc e85d 72ba bdf8 b3b7
000001e0: 78e8 9c3c feb9 7fb9 6fa7 9ebb a324 e73b
000001f0: b3e2 0f3c eb74 8cbb fabf afbb ffd3 c53c

network_body._body_endoder.seq_layers.2.weight f4 [128, 128]
-0.06322381 0.027439093 0.09915649 0.021410177 0.017178902 -0.018859945 0.110191315 -0.034124456
0.14847042 0.0675003 -0.08331316 -0.024202608 -0.261859 -0.036244575 0.00720907 -0.06397601
0.12605086 -0.14368339 0.029146375 -0.18211755 0.026880402 0.074785836 0.17956161 0.004862801
-0.057319738 -0.015046804 0.048328396 0.055346016 -0.03827095 -0.020827614 0.10536176 0.06119769
-0.19595397 -0.059209257 0.034554493 0.095585786 0.08561427 -0.021624751 -0.04911197 0.05777358
0.067241326 0.046486326 0.02449048 -0.16644455 -0.131013 -0.0027415657 0.078398965 0.12224533
-0.00120744 -0.25060135 -0.09927029 0.049692214 0.027656863 0.113822 0.020946322 0.022226939
0.15268198 0.042931136 0.07008372 0.017807053 -0.09517672 -0.08328756 0.12423064 0.08601459
-0.017974133 -0.06691694 -0.025993474 0.062191524 0.011943537 0.093296975 -0.012423654 0.0479182
-0.061249387 -0.06635249 0.050651845 -0.0052206903 0.10027267 -0.01817661 0.0798273 0.08776907
-0.11787864 -0.040388063 -0.08241181 0.08459438 0.054266136 0.11879775 0.17496283 -0.018507501
-0.07201165 -0.10037032 -0.035925522 -0.03597283 0.10523106 -0.071041524 -0.07221984 -0.09495491
0.050379045 -0.013996706 -0.017347317 -0.09572071 0.0039702053 -0.06194986 -0.07298906 -0.036146436
0.12578101 0.062114567 0.11005416 -0.0027375962 -0.038290538 -0.026183302 0.091331705 0.0012215525
-0.1558578 -0.011328125 -0.0932063 0.13192363 -0.08995633 0.016026044 -0.04904317 -0.07367908
0.06698334 0.103240244 0.046053693 0.06525604 0.0027223118 0.09805443 0.006623757 0.049984224
-0.09448365 0.09208625 0.08989439 -0.056910492 0.15169512 -0.14182116 0.12951143 -0.05649305
-0.03756134 -0.04599345 0.010001506 0.14526427 -0.09010479 -0.06439424 -0.16469026 0.058602672
0.023517447 0.0674112 0.21240115 0.038544253 0.0061597554 0.06706187 0.012752689 0.027068587
-0.07333616 -0.029768668 -0.10022607 0.11368129 0.07738656 0.0815873 -0.04618269 -0.06482488
-0.04219818 -0.17847465 0.06775947 0.071225256 0.031765215 -0.07512596 -0.014080722 0.005215406
-0.08239883 0.10072802 -0.01992033 0.122966334 -0.047381613 -0.0548797 0.07101019 0.007415674
0.109047584 0.12437751 0.12604038 -0.06293712 0.124474876 -0.09776957 0.17225428 0.022684993
-0.004220651 0.0024935869 0.008188171 -0.12199164 0.027729081 0.12693079 0.088909544 -0.038626578
-0.057896484 0.010080455 0.11266384 0.011104331 0.093456924 -0.003886796 0.023447901 0.019251179
0.11260985 -0.08387898 0.12351765 0.0043771546 0.025046924 -0.11304274 -0.03710046 -0.08166433
0.09079622 -0.089228414 0.004728378 0.12274134 -0.051371906 -0.0070458404 -0.005411327 -0.17262384
-0.008603676 0.10370447 -0.061160155 0.02799748 0.09149894 -0.06839157 -0.12060948 -0.09427841
-0.013115356 -0.09755909 -0.16445152 0.14311928 0.105005346 -0.019503307 -0.27212426 -0.09616519
0.05047358 -0.18848497 0.15577535 -0.0060258713 0.061233677 -0.01754868 -0.0038096237 0.07092585
-0.078082904 0.062113434 -0.107742086 0.028581863 -0.037726857 0.09627497 -0.028964125 -0.051415827
-0.00089323 0.116224304 -0.06921397 0.034273565 -0.03651155 0.0025584465 0.05789695 -0.14928107
00000000: 7c7b 81bd f3c7 e03c 8f12 cb3d 6564 af3c
00000010: c5ba 8c3c 2c80 9abc fcab e13d 16c6 0bbd
00000020: a108 183e 993d 8a3d 17a0 aabd 8c44 c6bc
00000030: 6212 86be 3175 14bd 103a ec3b db05 83bd
00000040: 7a13 013e bd21 13be 61c4 ee3c 067d 3abe
00000050: 4a34 dc3c 5129 993d 00df 373e 2258 9f3b
00000060: 1ac8 6abd df86 76bc fff3 453d 81b2 623d
00000070: 00c2 1cbd ac9e aabc e8c7 d73d 6eaa 7a3d
00000080: 28a8 48be 6885 72bd 0389 0d3d 7bc2 c33d
00000090: 8956 af3d 6426 b1bc a229 49bd fda3 6c3d
000000a0: d2b5 893d 7268 3e3d 42a0 c83c 7170 2abe
000000b0: 4628 06be d7ab 33bb a38f a03d c25b fa3d
000000c0: f742 9eba d24e 80be 394e cbbd 108a 4b3d
000000d0: a590 e23c 821b e93d 9f97 ab3c 4515 b63c
000000e0: aa58 1c3e 8fd8 2f3d 0e88 8f3d 19e0 913c
000000f0: 03ec c2bd ab92 aabd a26c fe3d 6b28 b03d
00000100: 7d3e 93bc c00b 89bd 44f0 d4bc 8abc 7e3d
00000110: d3ae 433c 7c12 bf3d 958c 4bbc e045 443d
00000120: a3e0 7abd d0e3 87bd 4f78 4f3d 5312 abbb
00000130: c25b cd3d 1de7 94bc 7f7c a33d 45c0 b33d
00000140: 5b6a f1bd f46d 25bd 86c7 a8bd d13f ad3d
00000150: 2b46 5e3d 3c4c f33d 7529 333e 0b9d 97bc
00000160: d87a 93bd f48e cdbd a426 13bd 3f58 13bd
00000170: 6283 d73d 387e 91bd ffe7 93bd b877 c2bd
00000180: 425a 4e3d 7152 65bc f61b 8ebc 3809 c4bd
00000190: 7f18 823b 23bf 7dbd 4a7b 95bd 490e 14bd
000001a0: bdcc 003e d86b 7e3d 1364 e13d 3e69 33bb
000001b0: 8ad6 1cbd 5d7e d6bc 1e0c bb3d 801c a03a
000001c0: 3099 1fbe 9a99 39bc f2e2 bebd fd16 073e
000001d0: 063b b8bd 0d49 833c 7ee1 48bd 0fe5 96bd
000001e0: 902e 893d 9f6f d33d cca2 3c3d f5a4 853d
000001f0: d068 323b c3d0 c83d 1a0c d93b 42bc 4c3d
00000200: a580 c1bd b797 bc3d 8d1a b83d fa1a 69bd
00000210: f755 1b3e 9139 11be a59e 043e 4265 67bd
00000220: ebd9 19bd a163 3cbd 5bdd 233c 28c0 143e
00000230: dc88 b8bd 21e1 83bd 90a4 28be 5b09 703d
00000240: a9a7 c03c e20e 8a3d b07f 593e 94e0 1d3d
00000250: c6d7 c93b bc57 893d a8f0 503c f1be dd3c
00000260: 4531 96bd 6cdd f3bc 5343 cdbd bcd1 e83d
00000270: d87c 9e3d 3e17 a73d 0f2a 3dbd e8c2 84bd
00000280: 00d8 2cbd 0fc2 36be 7ac5 8a3d 8cde 913d
00000290: 3e1c 023d a4db 99bd d4b2 66bc ffe5 aa3b
000002a0: b8c0 a8bd 7e4a ce3d f62f a3bc c6d5 fb3d
000002b0: 3913 42bd 89c9 60bd ca6d 913d 2fff f23b
000002c0: 5754 df3d a3b9 fe3d bb10 013e 2de5 80bd
000002d0: afec fe3d 6a3b c8bd 6d63 303e e1d5 b93c
000002e0: 634d 8abb 726b 233b ae27 063c c1d6 f9bd
000002f0: 1928 e33c 25fa 013e 3516 b63d e736 1ebd
00000300: dd24 6dbd 7e28 253c 4dbc e63d f1ee 353c
00000310: 5866 bf3d 9eb9 7ebb d015 c03c a6b4 9d3c
00000320: fe9f e63d bec8 abbd d2f6 fc3d 3c6e 8f3b
00000330: 352f cd3c f482 e7bd a7f6 17bd a13f a7bd
00000340: 5ef3 b93d 63bd b6bd 82f0 9a3b d05f fb3d
00000350: 596b 52bd cbe0 e6bb 8051 b1bb 4ec4 30be
00000360: 6ff6 0cbc 0263 d43d 1283 7abd f95a e53c
00000370: cc63 bb3d e110 8cbd 1a02 f7bd 0a15 c1bd
00000380: cae1 56bc 0fcd c7bd fb65 28be dc8d 123e
00000390: 0b0d d73d 66c5 9fbc df53 8bbe 41f2 c4bd
000003a0: 62bd 4e3d 3402 41be 9383 1f3e ac74 c5bb
000003b0: 2ad0 7a3d 40c2 8fbc e1aa 79bb 9241 913d
000003c0: eee9 9fbd a86a 7e3d e2a7 dcbd 8324 ea3c
000003d0: 7a87 1abd d02b c53d 2c46 edbc 6799 52bd
000003e0: a727 6aba 0207 ee3d 0ec0 8dbd 7062 0c3d
000003f0: 238d 15bd 9cab 273b 5a25 6d3d 23dd 18be

network_body._body_endoder.seq_layers.2.bias f4 [128]
-0.0028337373 0.0034560729 0.0049632275 0.007006037 -0.0051642344 -0.0082643945 -0.00019508069 0.008540162
0.009202039 0.0006750773 0.005428099 -0.0038281765 -0.00012156323 -0.017476743 -0.00698371 -0.016263057
-0.008512987 -0.013798686 0.04282699 -0.0016800486 0.0007950924 0.0040566 -0.0051572802 -0.0058636004
0.029802447 0.004303822 -0.009359862 0.0048931325 0.0061046868 -0.007277452 0.0075054546 -0.009141932
0.028132493 -0.0003950137 -0.005808309 -0.0030647626 -0.0035692765 0.0023842715 -0.0009974834 0.0030367833
0.019138006 -0.013355143 -0.0010103807 0.0038538473 -0.0011972205 -0.0027786656 -0.008114342 0.0041706953
-0.0052825473 0.010468428 0.02733014 -0.0048253178 0.008457061 -0.0048322617 0.01162807 0.002812745
0.0038978036 0.0052703135 -0.004892163 0.004474764 -0.0015355258 0.029894441 -0.006912302 0.006232112
0.01025431 0.02338284 0.012615649 0.00019215865 0.01580389 0.01887897 -0.0119765345 0.00497912
-0.0039425204 0.004466256 -0.005499057 -0.0071667754 -0.0053369966 -0.0060379133 -0.0048433384 0.0046129357
-0.004025246 0.022450244 -0.004182996 -0.013707183 -0.0069457213 0.007364568 -0.005803757 0.010559207
0.0012570595 -0.005198326 0.01184273 -0.000843202 -0.00573745 0.01005582 -0.008729181 0.003000752
0.0013904729 0.0026960664 0.0034446644 0.011309307 0.01687061 -0.0054234858 0.014872519 -0.0041590915
0.0033782783 0.031152885 -0.00559358 -0.005601946 0.0033928435 0.009378396 0.022507645 0.0039286343
-0.0034454174 0.019864904 0.008411162 0.032057956 0.0144373905 -0.0015075348 -0.007676921 0.012106717
0.0037849846 0.024182195 0.02173943 -0.009622902 0.02813967 0.0123289125 0.030963318 0.0053304345
00000000: 39b6 39bb 487f 623b 92a2 a23b e692 e53b
00000010: bd38 a9bb 6267 07bc 938e 4cb9 09ec 0b3c
00000020: 26c4 163c acf7 303a 32de b13b 25e2 7abb
00000030: c3ef feb8 632b 8fbc 9bd7 e4bb 1a3a 85bc
00000040: 0e7a 0bbc e213 62bc 5b6b 2f3d 1435 dcba
00000050: bf6d 503a 3aed 843b 67fe a8bb 7223 c0bb
00000060: 4324 f43c 1307 8d3b 1b5a 19bc 9256 a03b
00000070: d309 c83b b177 eebb 51f0 f53b 0bc8 15bc
00000080: 1d76 e63c d719 cfb9 a153 bebb 2fda 48bb
00000090: 86ea 69bb 7041 1c3b fdbd 82ba c504 473b
000000a0: 4fc7 9c3c 88cf 5abc c06e 84ba d490 7c3b
000000b0: 0eec 9cba 461a 36bb 04f2 04bc 54aa 883b
000000c0: 3819 adbb c583 2b3c 75e3 df3c b31d 9ebb
000000d0: 7c8f 0a3c f357 9ebb a983 3e3c 0856 383b
000000e0: 4b72 7f3b 98b2 ac3b 704e a0bb 0ba1 923b
000000f0: b243 c9ba 30e5 f43c 9880 e2bb bf36 cc3b
00000100: b201 283c 5f8d bf3c deb1 4e3c 327e 4939
00000110: 2977 813c 12a8 9a3c 3a39 44bc e327 a33b
00000120: 4230 81bb ac59 923b 6f31 b4bb 45d7 eabb
00000130: f9e1 aebb b0d9 c5bb deb4 9ebb 1c28 973b
00000140: 36e6 83bb 93e9 b73c 8411 89bb 1894 60bc
00000150: ef98 e3bb 7952 f13b 712d bebb 8600 2d3c
00000160: ebc3 a43a b856 aabb 0308 423c 540a 5dba
00000170: 3801 bcbb 2bc1 243c d704 0fbc 44a8 443b
00000180: 8740 b63a 7db0 303b e1bf 613b ac4a 393c
00000190: 3c34 8a3c 7fb7 b1bb deab 733c fd48 88bb
000001a0: 1b66 5d3b 5634 ff3c 5a4a b7bb 8790 b7bb
000001b0: 785a 5e3b d8a7 193c f461 b83c c6bb 803b
000001c0: 83cc 61bb b9bb a23c f8ce 093c 344f 033d
000001d0: ce8a 6c3c 7998 c5ba ae8e fbbb 405b 463c
000001e0: 810d 783b bd19 c63c e416 b23c 60a9 1dbc
000001f0: 2a85 e63c 35ff 493c c9a6 fd3c edaa ae3b

action_model._continuous_distribution.mu.weight f4 [1, 128]
-0.0025174792 -0.01981056 0.022141434 -0.024465377 -0.04617018 -0.01080358 -0.04045052 0.016562128
0.02191283 0.001514684 -0.025564585 -0.017439516 -0.023445847 0.0006432863 -0.009202972 -0.027645858
-0.0047109155 -0.05946313 0.04335368 -0.030918552 -0.030911053 -0.04515394 -0.0064083547 -0.027020225
0.026655084 -0.02450579 -0.011859984 0.021559747 0.022737004 -0.003229818 0.031387534 -0.022901254
0.028338067 0.01180314 0.004496768 -0.03276612 -0.0090190405 -0.0076116137 0.00412906 0.014631121
0.03423291 -0.0012841099 -0.0031247996 0.01705814 0.03412157 -0.0079447795 -0.00088560494 -0.016649978
-0.030950213 0.023902947 0.031429023 0.0011159859 -0.01910169 -0.04228534 0.024567064 0.01022351
0.022192053 0.027013348 -0.019131606 -0.01638514 -0.074270085 0.04512847 -0.02724172 0.019851353
0.009068451 0.078909755 0.03567379 -0.048663206 -0.062650226 0.05573859 -0.030784005 -0.015807664
-0.028017025 0.020103281 -0.03228628 -0.018971078 -0.01681214 -0.009521389 0.0099876085 0.02054006
-0.015297979 0.04392172 -0.039756194 -0.0029005727 -0.026451977 0.013039471 -0.029700363 0.043538198
0.013538788 -0.024566377 0.04075703 -0.015488873 -0.0062597287 -0.020030094 -0.004217578 0.05859048
0.029716121 -0.078444116 0.0011628488 0.037227537 -0.052524947 -0.015595634 0.02895203 -0.014580776
0.009947601 0.05979625 -0.010582922 -0.023122488 0.0066677774 0.01852853 0.036907528 0.01591367
-0.049662888 0.04649124 0.01467363 0.054451726 0.021130295 0.0015100061 -0.0058228765 0.03376473
0.022652505 0.037034582 0.012407446 0.001339975 0.033869453 0.029710237 0.03824548 -0.018690785
00000000: 4bfc 24bb c149 a2bc f461 b53c 9d6b c8bc
00000010: f11c 3dbd 8001 31bc 72af 25bd 4dad 873c
00000020: 8982 b33c 5c88 c63a d26c d1bc 51dd 8ebc
00000030: 8111 c0bc 36a2 283a 10c8 16bc 9179 e2bc
00000040: 065e 9abb 9c8f 73bd a193 313d e748 fdbc
00000050: 2d39 fdbc 56f3 38bd 2dfd d1bb 8559 ddbc
00000060: c35b da3c 5ec0 c8bc 6150 42bc 119e b03c
00000070: f442 ba3c 5bab 53bb 3790 003d 699b bbbc
00000080: 3c25 e83c f561 413c a059 933b c435 06bd
00000090: 99c4 13bc d86a f9bb 114d 873b 5fb7 6f3c
000000a0: cf37 0c3d 944f a8ba 70c9 4cbb 83bd 8b3c
000000b0: 0fc3 0b3d d22a 02bc f127 68ba 8965 88bc
000000c0: 4d8b fdbc 1dd0 c33c b8bb 003d 4646 923a
000000d0: 267b 9cbc 6533 2dbd de40 c93c 8280 273c
000000e0: 1ccc b53c 194b dd3c e3b9 9cbc 213a 86bc
000000f0: ea1a 98bd a1d8 383d 072a dfbc 4e9f a23c
00000100: d793 143c 709b a13d ae1e 123d 1253 47bd
00000110: c34e 80bd 264e 643d bd2e fcbc 137f 81bc
00000120: f683 e5bc a3af a43c 9e3e 04bd 3c69 9bbc
00000130: 9db9 89bc 9aff 1bbc 11a3 233c a143 a83c
00000140: 60a4 7abc 43e7 333d 64d7 22bd 8917 3ebb
00000150: d1b1 d8bc 81a3 553c 2d4e f3bc 1c55 323d
00000160: cbd1 5d3c 6d3f c9bc d8f0 263d 0bc5 7dbc
00000170: 691e cdbb 2716 a4bc 9c33 8abb 92fc 6f3d
00000180: 396f f33c 4fa7 a0bd bb6a 983a e77b 183d
00000190: 6624 57bd d484 7fbc cf2c ed3c 35e4 6ebc
000001a0: 43fb 223c eaec 743d fe63 2dbc 5f6b bdbc
000001b0: 5f7d da3b 25c9 973c 592c 173d 635d 823c
000001c0: 506b 4bbd 996d 3e3d aa69 703c c608 5f3d
000001d0: 7119 ad3c 66eb c53a d4cd bebb e34c 0a3d
000001e0: bf91 b93c 93b1 173d 9a48 4b3c 1aa2 af3a
000001f0: b2ba 0a3d e262 f33c 4ba7 1c3d 6b1d 99bc
