results/test2/EndLessRunnerBehaviour/EndLessRunnerBehaviour-2499968.onnx (onnx, 74029 bytes, 5 tensors)

network_body._body_endoder.seq_layers.0.weight f4 [128, 5]
1.226943 -0.3005761 -0.7583548 -0.105989404 -0.62640154 -0.06941077 -0.7455982 -0.43836656
0.39665055 -0.13367322 0.018362595 -0.88470286 -0.48153305 -0.6130939 1.0461539 -0.67253536
0.8535287 -0.7099197 -0.5633941 -0.22278921 0.0734018 0.5951407 0.19193749 -0.15935175
-0.2895157 0.10312161 -0.24138884 0.369235 -0.21664408 -0.11847806 0.3605897 0.23938712
0.0538687 -0.7697676 -0.262133 -0.19448644 -0.1327588 -0.78915656 -0.48783275 -1.432739
0.1580767 0.33532143 -0.59333235 -0.405221 -0.3386819 -0.15033421 -0.28698397 -0.09885514
0.7166859 0.37050518 0.35688674 -0.28803027 0.4612449 0.73053044 -0.47539043 -0.58580047
0.47137234 0.63445014 -0.38747123 0.30429035 0.33007017 0.10981196 -0.5684705 0.32431257
0.20548813 -0.87811595 0.9183968 -0.011961235 0.22985627 -0.33942333 0.12773734 0.09452173
-0.17800777 0.5697871 0.39591506 -0.28118905 -0.4864231 0.14162466 0.08627701 0.021951223
0.68899226 -0.23667997 0.04341475 0.6456799 -0.23931332 0.71546376 -0.05274269 0.8132942
0.20970765 -0.8722569 -0.3481672 -0.50219357 -0.07418189 0.8697235 -0.26388225 0.44850954
-0.30216542 0.32787862 -0.037148494 -0.20327747 -0.09779463 0.08115072 -0.43676335 0.0228059
-0.35753536 0.20586345 -0.1115864 -0.3490425 -0.44335267 -0.08087405 -0.7816276 -0.7100042
-0.02911757 -0.34656584 -0.05267231 0.15259811 -0.17376257 0.49061415 0.07415253 0.2105946
-0.20833719 0.041694216 -0.5676341 0.11868481 -0.78316826 -0.10696292 0.26410416 -0.19725692
0.1834487 -0.4526671 0.025393259 -0.8713721 -0.32162264 -0.38093254 -0.084603764 0.13450603
0.22955103 0.15415743 0.22689179 -0.57812804 0.16099806 -0.40419698 0.015271673 -0.58136606
0.5438574 -0.8029985 0.16930826 -0.20397016 0.077202104 0.20309107 0.34217638 0.3030748
0.3722442 -0.15639421 -0.37153074 -0.9638735 0.24824238 0.88880736 -0.8449033 -1.3630118
-0.5572854 0.047112737 -0.013649491 -0.37264118 0.12403 0.7530915 -0.29083592 0.46199355
0.39399073 0.056233354 -0.070005685 -0.172874 -0.03789163 -0.009804418 0.06602886 0.14574087
0.10017182 0.031233331 0.70251906 -0.02092323 0.9011772 0.40301067 -0.4994403 0.29550123
-0.11039651 -0.11508515 -0.11067975 0.11081673 -0.3725933 -0.3525758 0.5401095 -0.34077296
-0.65967214 0.46712053 -0.37383142 -0.018658312 0.21049273 -0.08037882 0.14123748 0.24691227
-0.045915958 0.863561 -0.79266477 0.11031838 -0.5443924 -0.17066653 0.07567654 -0.19123559
-0.36728564 0.7403507 -0.78537613 0.2192937 0.2964499 -0.1113259 0.19502977 0.022198735
-0.40357256 -0.17014886 -0.4098236 -0.32782027 -0.25019962 0.094239846 0.20209345 0.29101658
0.16579582 -0.22352181 0.14899464 -0.2368165 0.680863 0.43278486 0.6811353 -0.19333197
0.6807276 -0.085420504 0.29186562 0.5692353 0.32993785 0.5588832 -0.03362965 0.46193895
0.13536574 -0.5329212 0.25377083 0.5689004 -1.048717 -0.16307694 0.52220154 -0.7874775
0.05053115 0.4323196 -0.5023078 -0.047753785 -0.2448204 -0.38271663 0.14156245 0.34871843
00000000: 780c 9d3f 1ce5 99be 8a23 42bf f910 d9bd
00000010: da5b 20bf 3c27 8ebd 86df 3ebf 9571 e0be
00000020: c815 cb3e a2e1 08be 276d 963c e37b 62bf
00000030: 808b f6be b9f3 1cbf 5fe8 853f 472b 2cbf
00000040: db80 5a3f 4cbd 35bf 993a 10bf db22 64be
00000050: af53 963d 245b 183f 438b 443e 1b2d 23be
00000060: 673b 94be 6c31 d33d a32e 77be 5f0c bd3e
00000070: f2d7 5dbe a0a4 f2bd 379f b83e e621 753e
00000080: 6da5 5c3d 7d0f 45bf 4c36 86be 7427 47be
00000090: ecf1 07be 2a06 4abf 37c5 f9be fe63 b7bf
000000a0: dcde 213e 40af ab3e a1e4 17bf 2079 cfbe
000000b0: b767 adbe 36f1 19be 90ef 92be 9074 cabd
000000c0: ba78 373f dbb2 bd3e dcb9 b63e b478 93be
000000d0: 4b28 ec3e 0b04 3b3f 6066 f3be 05f7 15bf
000000e0: b757 f13e 536b 223f a162 c6be f2cb 9b3e
000000f0: f5fe a83e 18e5 e03d 4887 11bf 4c0c a63e
00000100: 7b6b 523e 35cc 60bf 0d1c 6b3f 0ef9 43bc
00000110: 715f 6b3e e5c8 adbe 94cd 023e 9c94 c13d
00000120: ab47 36be 91dd 113f 61b5 ca3e 03f8 8fbe
00000130: 730c f9be 0e06 113e 00b2 b03d 0dd3 b33c
00000140: cc61 303f 3c5c 72be aad3 313d 474b 253f
00000150: 8d0e 75be a228 373f b808 58bd 0c34 503f
00000160: 9abd 563e 3a4c 5fbf f942 b2be c28f 00bf
00000170: adec 97bd 33a6 5e3f 931b 87be 0ba3 e53e
00000180: 6db5 9abe b5df a73e 0529 18bd f827 50be
00000190: 8d48 c8bd 5932 a63d 729f dfbe 70d3 ba3c
000001a0: e00e b7be decd 523e 6987 e4bd b3b5 b2be
000001b0: 1fff e2be 4ba1 a5bd bf18 48bf d6c2 35bf
000001c0: f887 eebc 1471 b1be ecbe 57bd ae42 1c3e
000001d0: d1ee 31be c731 fb3e 48dd 973d 1ca6 573e
000001e0: 5856 55be 8ec7 2a3d 7850 11bf 0611 f33d
000001f0: b77d 48bf 600f dbbd a938 873e b8fd 49be
00000200: fad9 3b3e fbc3 e7be 8605 d03c 3e12 5fbf
00000210: b9ab a4be 9709 c3be bd44 adbd f3bb 093e
00000220: 6d0f 6b3e 72db 1d3e 5256 683e 3300 14bf
00000230: addc 243e e8f2 cebe 0a36 7a3c 68d4 14bf
00000240: 3d3a 0b3f 4f91 4dbf 255f 2d3e 8edd 50be
00000250: 231c 9e3d 1bf7 4f3e be31 af3e 9f2c 9b3e
00000260: cb96 be3e ce25 20be 4739 bebe 6ac0 76bf
00000270: 4033 7e3e e188 633f 954b 58bf 2c77 aebf
00000280: 42aa 0ebf 49f9 403d 1da2 5fbc d3ca bebe
00000290: 7103 fe3d 9bca 403f 72e8 94be 6b8a ec3e
000002a0: 27b9 c93e f254 663d 245f 8fbd e205 31be
000002b0: 4134 1bbd b6a2 20bc 243a 873d 183d 153e
000002c0: e226 cd3d 0bdd ff3c 4ad8 333f 3267 abbc
000002d0: 8db3 663f 6a57 ce3e a4b6 ffbe f04b 973e
000002e0: 9117 e2bd c3b1 ebbd 11ac e2bd e2f3 e23d
000002f0: 8dc4 bebe d184 b4be 9e44 0a3f cb79 aebe
00000300: 46e0 28bf 6c2a ef3e d566 bfbe 51d9 98bc
00000310: 688b 573e a79d a4bd 8fa0 103e 92d6 7c3e
00000320: 5f12 3cbd 5512 5d3f 14ec 4abf 9aee e13d
00000330: 4d5d 0bbf 35c3 2ebe 4dfc 9a3d 43d3 43be
00000340: dd0c bcbe a087 3d3f 690e 49bf 878e 603e
00000350: 48c8 973e d5fe e3bd e2b5 473e 1fda b53c
00000360: 10a1 cebe 813b 2ebe 66d4 d1be 0fd8 a7be
00000370: 2a1a 80be d200 c13d 96f1 4e3e 2000 953e
00000380: 61c6 293e e7e2 64be 0d92 183e 0680 72be
00000390: 0a4d 2e3f fa95 dd3e e25e 2e3f d1f8 45be
000003a0: 2a44 2e3f f2f0 aebd 696f 953e 68b9 113f
000003b0: 9ded a83e f812 0f3f 3ebf 09bd 4383 ec3e
000003c0: 519d 0a3e 866d 08bf 40ee 813e 75a3 113f
000003d0: 5c3c 86bf a4fd 26be 00af 053f 2098 49bf
000003e0: c0f9 4e3d ff58 dd3e 3e97 00bf 7999 43bd
000003f0: 33b2 7abe 6ff3 c3be bff5 103e 398b b23e

network_body._body_endoder.seq_layers.0.bias f4 [128]
0.01850384 -0.02046981 0.011478387 0.0069089127 0.00022302706 0.0023504607 0.006652256 0.019201685
0.0027992497 -0.0038677736 0.03478653 0.009963957 0.004190853 -0.011457612 -0.00595813 0.0074580126
0.028439531 0.0772009 -0.005059612 -0.011003572 -0.023107553 0.012308125 -0.019766703 0.0071922746
1.7112628e-05 -0.0061291805 0.0052961153 0.0042341766 -0.0029504378 -0.013934016 0.00031031293 0.0041424213
0.015695965 0.07629797 0.006517108 0.0008420285 -0.0049162726 0.04332038 -0.0019368951 -0.015262762
0.00275551 0.00888077 -0.014950775 0.0068166885 -0.0048202127 -0.012259184 -0.016193269 -0.0011472306
0.0376188 0.0005682699 0.002711324 0.010213964 -0.009711015 0.06090516 0.00016894638 0.005134003
-0.011653347 -0.0028751858 0.0088995285 -0.008264105 0.017134702 -0.009102333 -0.006524189 0.05979523
-0.0011679091 0.012597759 0.029095901 0.057064608 0.006432951 -0.006553043 -0.011384297 -0.012108938
-8.312105e-05 -0.0034413317 0.058976386 -0.008510973 -0.01128804 -0.0013563022 -0.0031810936 -0.013725201
-0.009605688 -0.019671252 -0.0006104482 -0.0049056886 0.044314843 0.0002153672 0.03329 0.014523591
0.008090102 -0.009848883 0.016889278 -0.011763704 -0.0035382323 -0.008793954 0.07101642 0.008761041
0.01741832 0.0016580665 -0.0044960855 0.006760099 -0.01027725 0.05226398 0.006694336 0.010100656
-0.009126346 0.04231885 0.030494852 0.008370274 0.046627235 0.0018785113 -0.0127735 0.014895673
0.05338742 -0.01506001 0.004160308 -0.0030553215 0.016021244 -0.002616854 -0.002830136 0.0028143504
0.033881634 0.0024826818 -0.008017961 0.004691486 0.01412253 -0.007304753 -0.00881021 0.028329637
00000000: 5d95 973c 4eb0 a7bc d80f 3c3c 2964 e23b
00000010: 5fdc 6939 300a 1a3b 2bfb d93b da4c 9d3c
00000020: 9e73 373b 797a 7dbb 527c 0e3d dd3f 233c
00000030: 6c53 893b b5b8 3bbc 6b3c c3bb 5862 f43b
00000040: 05fa e83c 811b 9e3d 1acb a5bb 5348 34bc
00000050: 0d4c bdbc 05a8 493c c8ed a1bc 2cad eb3b
00000060: 178d 8f37 4bd7 c8bb 098b ad3b d9be 8a3b
00000070: 225c 41bb 804b 64bc 7fb1 a239 26bd 873b
00000080: d394 803c 1c42 9c3d 778d d53b 93bb 5c3a
00000090: af18 a1bb b670 313d 6adf fdba aa10 7abc
000000a0: c995 343b a680 113c 18f4 74bc 875e df3b
000000b0: e0f2 9dbb bfda 48bc bfa7 84bc ac5e 96ba
000000c0: 2c16 1a3d f3f7 143a 78b0 313b 7858 273c
000000d0: f31a 1fbc b077 793d 3327 3139 233b a83b
000000e0: aeed 3ebc 9d6d 3cbb 54cf 113c 2b66 07bc
000000f0: 135e 8c3c f421 15bc ddc8 d5bb d8eb 743d
00000100: 8714 99ba d566 4e3c 875a ee3c 94bc 693d
00000110: 81cb d23b e9ba d6bb 3485 3abc 9164 46bc
00000120: 4651 aeb8 f787 61bb 3991 713d 9c71 0bbc
00000130: 79f1 38bc f3c5 b1ba e579 50bb aadf 60bc
00000140: 2d61 1dbc 9b25 a1bc 7c06 20ba e6bf a0bb
00000150: 7b83 353d 31d4 6139 185b 083d 5bf4 6d3c
00000160: 598c 043c 365d 21bc 625b 8a3c 8dbc 40bc
00000170: b0e1 67bb 8414 10bc 0f71 913d 788a 0f3c
00000180: ddb0 8e3c 7b53 d93a e653 93bb d283 dd3b
00000190: e961 28bc c112 563d 295c db3b 397d 253c
000001a0: ab86 15bc 8856 2d3d 57d0 f93c 7923 093c
000001b0: 33fc 3e3d 6138 f63a f147 51bc fb0c 743c
000001c0: c4ac 5a3d 43be 76bc 3153 883b ca3b 48bb
000001d0: fc3e 833c 867f 2bbb ce79 39bb f770 383b
000001e0: 78c7 0a3d 7db4 223b c45d 03bc 09bb 993b
000001f0: 2f62 673c b65c efbb b358 10bc 8e13 e83c

network_body._body_endoder.seq_layers.2.weight f4 [128, 128]
-0.06412684 0.033030715 0.10181366 0.020065412 0.016165612 -0.017966935 0.10832493 -0.036079984
0.14686301 0.07677133 -0.0836761 -0.022564478 -0.26276582 -0.037145223 0.0072893505 -0.063607514
0.13878635 -0.13452509 0.040418964 -0.17946357 0.025768133 0.072218135 0.1812509 0.0061199386
-0.058121134 -0.01596713 0.05062848 0.054920007 -0.029207842 -0.021307973 0.1056713 0.059823748
-0.19604126 -0.055205137 0.04224381 0.09691747 0.08437531 -0.009578158 -0.04646187 0.056844134
0.06608122 0.04424666 0.027036028 -0.16746193 -0.12563846 -0.0026466306 0.08639426 0.123751216
-0.006123301 -0.25175372 -0.10216591 0.04879142 0.026601316 0.11858148 0.029881014 0.03221892
0.15190192 0.049284626 0.0679179 0.0163965 -0.09126647 -0.08444829 0.12280278 0.089980744
-0.019058114 -0.06676366 -0.02511769 0.08656646 0.021565909 0.0988827 -0.013139371 0.048726384
-0.060967036 -0.06480545 0.048739165 -0.0061357953 0.09897063 -0.021189885 0.07740004 0.08657779
-0.11905746 -0.04136186 -0.07969175 0.08945369 0.050401673 0.11733753 0.19814897 -0.018255202
-0.07415009 -0.09825828 -0.03637729 -0.037142303 0.10863809 -0.071739174 -0.060966086 -0.09636268
0.053890932 -0.010275788 -0.013283447 -0.09696852 0.0035381312 -0.0456331 -0.07419446 -0.027603114
0.12549956 0.0615796 0.12163233 -0.0038330161 -0.017796157 -0.027420193 0.09926417 0.011873908
-0.15546896 -0.012215552 -0.09399646 0.13818246 -0.095305726 0.02542388 -0.050524645 -0.074382916
0.067901865 0.106884636 0.044714894 0.069405094 0.0067071673 0.09681118 0.0057999208 0.039548118
-0.09309719 0.09523601 0.089489475 -0.05720295 0.14993794 -0.14100614 0.13112079 -0.055311784
-0.037631504 -0.037725065 0.009035147 0.14172485 -0.08856529 -0.0643601 -0.161808 0.063393235
0.036979057 0.06714074 0.22396201 0.044469085 0.00743553 0.06723469 0.018119674 0.025246859
-0.07165268 -0.028844412 -0.10078786 0.11112218 0.09177288 0.08366424 -0.04786244 -0.06618416
-0.04064856 -0.17592224 0.07147507 0.07848696 0.032285992 -0.05904842 -0.011637176 0.0061019617
-0.082024485 0.09960303 -0.023468578 0.118545674 -0.0525042 -0.05192606 0.076203786 0.003148227
0.107210875 0.12509187 0.12681846 -0.061806265 0.12326666 -0.09265645 0.18010736 0.024214506
-0.0028565084 0.0067542647 0.0078735715 -0.12285434 0.032137282 0.12776907 0.08909876 -0.043376453
-0.056358736 0.008337724 0.11482823 0.023609722 0.098006316 -0.0003119834 0.025221623 0.024739252
0.10966967 -0.084264666 0.123617195 0.0053119515 0.023449747 -0.112606205 -0.039363105 -0.08064765
0.09099402 -0.08760266 -0.0006672111 0.124806255 -0.05774924 -0.0076282737 0.0055628167 -0.17134586
-0.009382407 0.107144274 -0.057925206 0.029590324 0.09238067 -0.06678542 -0.11832012 -0.096367836
-0.012609198 -0.09747728 -0.16996397 0.14254594 0.10710739 0.007813528 -0.27349588 -0.09087056
0.05343983 -0.19292492 0.16071768 -0.0049557663 0.07164951 -0.016140936 0.0026628743 0.08136274
-0.07710621 0.0603074 -0.10991246 0.032621834 -0.043656703 0.09839795 -0.029650655 -0.055708073
0.0056972406 0.11693157 -0.06903717 0.03805233 -0.039011065 0.003736574 0.059548467 -0.15940537
00000000: ef54 83bd 374b 073d ae83 d03d 3860 a43c
00000010: bf6d 843c 652f 93bc 76d9 dd3d 9bc8 13bd
00000020: 4263 163e 493a 9d3d 605e abbd 24d9 b8bc
00000030: 3e89 86be 9725 18bd 81db ee3b a844 82bd
00000040: 021e 0e3e f2c0 09be 5b8e 253d 4cc5 37be
00000050: b117 d33c 1ae7 933d d699 393e c489 c83b
00000060: 6d10 6ebd 80cd 82bc cf5f 4f3d cdf3 603d
00000070: 4945 efbc 0f8e aebc 326a d83d bf09 753d
00000080: 0abf 48be c81e 62bd d807 2d3d ab7c c63d
00000090: f6cc ac3d b5ed 1cbc cd4e 3ebd 65d5 683d
000000a0: 9755 873d fc3b 353d a97a dd3c 247b 2bbe
000000b0: 5ea7 00be 1873 2dbb 79ef b03d 4771 fd3d
000000c0: f9a5 c8bb dde5 80be 5c3c d1bd 83d9 473d
000000d0: 01eb d93c d9da f23d 07c9 f43c fcf7 033d
000000e0: 2d8c 1b3e adde 493d 8a18 8b3d f451 863c
000000f0: eae9 babd 3af3 acbd 0680 fb3d d347 b83d
00000100: c31f 9cbc 63bb 88bd 9dc3 cdbc c249 b13d
00000110: fdaa b03c 0383 ca3d 8446 57bc 5195 473d
00000120: 92b8 79bd b8b8 84bd b8a2 473d c80e c9bb
00000130: 1db1 ca3d 6996 adbc ea83 9e3d b24f b13d
00000140: 66d4 f3bd 0e6b 29bd 6e35 a3bd 7f33 b73d
00000150: fc71 4e3d a94e f03d 90e7 4a3e ef8b 95bc
00000160: 01dc 97bd a33b c9bd 5a00 15bd 8722 18bd
00000170: a67d de3d fdeb 92bd 93b7 79bd cc59 c5bd
00000180: bdbc 5c3d c75b 28bc d1a2 59bc 6e97 c6bd
00000190: fedf 673b c6e9 3abd 44f3 97bd ed1f e2bc
000001a0: f582 003e e43a 7c3d 5f1a f93d 5733 7bbb
000001b0: 3fc9 91bc 50a0 e0bc 034b cb3d c88a 423c
000001c0: 4133 1fbe bd23 48bc 3781 c0bd b47f 0d3e
000001d0: a62f c3bd be45 d03c eef2 4ebd 1256 98bd
000001e0: 2210 8b3d 55e6 da3d f726 373d 4224 8e3d
000001f0: ccc7 db3b f144 c63d 430d be3b 35fd 213d
00000200: bda9 bebd 190b c33d 4246 b73d a44d 6abd
00000210: 5589 193e ea63 10be 8744 063e 9c8e 62bd
00000220: 7e23 1abd 9985 1abd 2708 143c 5220 113e
00000230: b861 b5bd 3acf 83bd ffb0 25be 50d4 813d
00000240: 5a77 173d 1681 893d 4c56 653e 3725 363d
00000250: bfa5 f33b 57b2 893d b66f 943c 80d2 ce3c
00000260: a4be 92bd 1e4b ecbc de69 cebd 0794 e33d
00000270: 6bf3 bb3d 2858 ab3d 680b 44bd 908b 87bd
00000280: 1b7f 26bd f624 34be 8661 923d c5bd a03d
00000290: 513e 043d c2dc 71bd dba9 3ebc f7f2 c73b
000002a0: 74fc a7bd acfc cb3d 2d41 c0bc 13c8 f23d
000002b0: a50e 57bd 6cb0 54bd bb10 9c3d 7c52 4e3b
000002c0: 6091 db3d 1518 003e b3dc 013e 9128 7dbd
000002d0: 3b73 fc3d aac2 bdbd 106e 383e 805d c63c
000002e0: 4234 3bbb e152 dd3b 2700 013c 0e9b fbbd
000002f0: 62a2 033d e5d5 023e 6979 b63d 82ab 31bd
00000300: 6bd8 66bd f39a 083c 102b eb3d 2d69 c13c
00000310: 89b7 c83d b491 a3b9 949d ce3c f9a9 ca3c
00000320: 7e9a e03d f492 acbd 032b fd3d e10f ae3b
00000330: af19 c03c 159e e6bd 353b 21bd 982a a5bd
00000340: 135b ba3d 0669 b3bd c7e7 2eba 6c9a ff3d
00000350: 788a 6cbd 99f6 f9bb 4a48 b63b 4a75 2fbe
00000360: abb8 19bc 756e db3d fb42 6dbd 6867 f23c
00000370: 1432 bd3d cbc6 88bd d251 f2bd 805c c5bd
00000380: cf96 4ebc 2ba2 c7bd 090b 2ebe 90f7 113e
00000390: 1f5b db3d 5004 003c a707 8cbe 581a babd
000003a0: b9e3 5a3d 1c8e 45be 2d93 243e fb63 a2bb
000003b0: fabc 923d ff39 84bc 9e83 2e3b 82a1 a63d
000003c0: dce9 9dbd e404 773d c919 e1bd 799e 053d
000003d0: 5fd1 32bd dd84 c93d eee5 f2bc 262e 64bd
000003e0: ebaf ba3b d279 ef3d 5c63 8dbd c3dc 1b3d
000003f0: 11ca 1fbd 4fe1 743b 18e9 733d 293b 23be

network_body._body_endoder.seq_layers.2.bias f4 [128]
-0.0075414693 0.0020981985 0.008853998 0.001881202 -0.002182765 -0.0097598275 0.00037976552 0.011248606
0.00768321 0.0070407595 0.004086805 0.00070484256 0.0017946437 -0.019258916 -0.010016274 -0.018946324
-0.012480744 -0.012796939 0.041185264 -0.002684895 -0.000108809196 0.0031129257 -0.008601985 -0.010052355
0.029290024 0.0099004 -0.009097052 0.009323306 0.01051384 -0.011157123 0.010284657 -0.010695342
0.024351537 0.0010308664 -0.0061656674 -0.006633268 -0.004493931 0.0036479302 0.0011807911 0.006937249
0.018174166 -0.019420085 0.0052395347 0.007451837 0.0013183551 -0.0036830334 -0.00581468 0.009906542
-0.009248397 0.014636355 0.027036685 -0.0032162825 0.0069443523 -0.008728665 0.0156323 0.0072821397
0.007786826 0.009259629 -0.0065254425 0.009919649 0.00050945143 0.028314818 0.00029796068 0.010281271
0.014224024 0.023747843 0.016883487 -0.0027749406 0.01786527 0.017895225 -0.002548589 0.007986161
-0.0048740357 0.008346923 -0.009721549 -0.010892644 -0.0091402335 -0.010224586 -0.00032088114 0.0085251145
-0.007738417 0.023794023 -0.0072123813 -0.015644072 -0.021816276 0.011470267 -0.005863525 0.010325034
0.004537337 -0.009062418 0.014344779 -0.004294889 -0.009410547 0.013974935 -0.013648595 0.0030083295
0.005492022 0.0040431847 0.009560261 0.013968873 0.020451304 -0.0065955287 0.017811377 -0.0064683813
0.0071901693 0.03121876 -0.009166726 -0.00980878 0.0070223426 0.014668832 0.017748853 0.0077322014
-0.0071664173 0.021054396 0.012828807 0.032623935 0.019396441 0.0029117742 -0.011820066 0.015241446
0.007657331 0.024026738 0.024401292 -0.0072663957 0.026824374 0.015435158 0.032958355 0.008540219
00000000: 6e1e f7bb ee81 093b 5c10 113c aa92 f63a
00000010: b80c 0fbb afe7 1fbc 441b c739 134c 383c
00000020: 70c3 fb3b 2cb6 e63b 9bea 853b 2fc5 383a
00000030: 403a eb3a e0c4 9dbc 4c1b 24bc 5235 9bbc
00000040: 097c 4cbc 41aa 51bc e1b1 283d 10f5 2fbb
00000050: 7e30 e4b8 3a02 4c3b 57ef 0cbc a2b2 24bc
00000060: a2f1 ef3c 4a35 223c cd0b 15bc c8c0 183c
00000070: 3e42 2c3c 5ecc 36bc fa80 283c 843b 2fbc
00000080: e07c c73c 231e 873a 5e09 cabb e35b d9bb
00000090: d341 93bb 1d12 6f3b c6c4 9a3a dd51 e33b
000000a0: fde1 943c df16 9fbc 67b0 ab3b 8a2e f43b
000000b0: a8cc ac3a 0c5f 71bb 1289 bebb 0c4f 223c
000000c0: 9786 17bc 53cd 6f3c 0a7c dd3c 44c8 52bb
000000d0: 738d e33b ad02 0fbc 4f0f 803c 049f ee3b
000000e0: a228 ff3b b3b5 173c 61d3 d5bb 0686 223c
000000f0: b58c 053a 7af4 e73c 9b37 9c39 c772 283c
00000100: e10b 693c d68a c23c 3d4f 8a3c c7db 35bb
00000110: 305a 923c 0299 923c 3a06 27bb 63d8 023c
00000120: 60b6 9fbb 88c1 083c 2247 1fbc 0f77 32bc
00000130: ebc0 15bc 0685 27bc f03b a8b9 ecac 0b3c
00000140: 8c92 fdbb afeb c23c d755 ecbb ff27 80bc
00000150: 0cb8 b2bc c9ed 3b3c d022 c0bb 552a 293c
00000160: f1ad 943b 897a 14bc 5d06 6b3c 24bc 8cbb
00000170: b22e 1abc 20f7 643c 5b9e 5fbc 6527 453b
00000180: 6bf6 b33b b17c 843b a4a2 1c3c b3dd 643c
00000190: 7e89 a73c 4e1f d8bb 2ae9 913c b7f4 d3bb
000001a0: 839b eb3b 7cbe ff3c 0930 16bc 01b5 20bc
000001b0: ae1b e63b 8a55 703c 0b66 913c 685e fd3b
000001c0: 44d4 eabb 457a ac3c eb2f 523c ada0 053d
000001d0: 49e5 9e3c 77d3 3e3b f3a8 41bc 42b7 793c
000001e0: 59ea fa3b b9d3 c43c 38e5 c73c f21a eebb
000001f0: cabe db3c bfe3 7c3c 57ff 063d 46ec 0b3c

action_model._continuous_distribution.mu.weight f4 [1, 128]
-0.002453659 -0.029797312 0.023543458 -0.024339082 -0.058965486 -0.017899843 -0.05500503 0.018426836
0.02194771 0.005330542 -0.033581182 -0.02790089 -0.030899795 2.4153056e-05 -0.009623859 -0.027866675
-0.0097845625 -0.06218733 0.0398294 -0.03836399 -0.040621847 -0.055233963 -0.00971766 -0.027198553
0.024345996 -0.038513873 -0.016868958 0.0256766 0.02279093 -0.0028510282 0.038720366 -0.035348665
0.025021726 0.0120348 0.003919986 -0.036131114 -0.010518505 -0.01072798 0.004182699 0.016361583
0.032649912 -0.0015916213 -0.010535665 0.015652863 0.03742733 -0.013487987 -0.0045462684 -0.034305688
-0.030814018 0.026301712 0.030036941 0.0011226541 -0.026330607 -0.042141385 0.026437536 0.011500106
0.023594635 0.027579524 -0.021928428 -0.026954006 -0.09164238 0.042463113 -0.030799719 0.02068773
0.011572984 0.07754087 0.039267343 -0.058838665 -0.07576563 0.052751064 -0.029842801 -0.028156364
-0.03420275 0.02120572 -0.031856988 -0.01819056 -0.015670935 -0.009597983 0.013524095 0.020722557
-0.017205302 0.044520985 -0.04036133 -0.0061094267 -0.021206604 0.014058903 -0.03340491 0.042344585
0.014122475 -0.02371253 0.044937033 -0.016884249 -0.0045974003 -0.032787517 -0.0051541235 0.060638465
0.030057115 -0.09256003 0.0010239196 0.043019295 -0.06659963 -0.0255151 0.036583453 -0.016822735
0.0105055785 0.0580783 -0.012829824 -0.02361382 0.0061481935 0.02857874 0.035761483 0.016354175
-0.05138496 0.04638081 0.018609386 0.054664746 0.029663613 0.00426134 -0.005677849 0.04041207
0.024641452 0.036808964 0.012296293 0.0034683577 0.032103464 0.037416376 0.037788242 -0.03131047
00000000: 91cd 20bb 7e19 f4bc 36de c03c c162 c7bc
00000010: cb85 71bd b1a2 92bc f44c 61bd e0f3 963c
00000020: afcb b33c d4ab ae3b 6c8c 09bd 6890 e4bc
00000030: 9121 fdbc 4b9c ca37 64ad 1dbc a748 e4bc
00000040: 6e4f 20bc 24b8 7ebd 2724 233d 8f23 1dbd
00000050: 1863 26bd 023d 62bd d236 1fbc 80cf debc
00000060: 4171 c73c b9c0 1dbd c530 8abc bc57 d23c
00000070: 0bb4 ba3c 51d8 3abb 3f99 1e3d c3c9 10bd
00000080: 5dfa cc3c 9c2d 453c 3a73 803b 38fe 13bd
00000090: cf55 2cbc 69c4 2fbc 060f 893b ba08 863c
000000a0: eabb 053d f39d d0ba c89d 2cbc 6f3a 803c
000000b0: 664d 193d b8fc 5cbc ddf8 94bb 1f84 0cbd
000000c0: ae6d fcbc b076 d73c 0810 f63c 0526 933a
000000d0: 49b3 d7bc 729c 2cbd 8893 d83c f16a 3c3c
000000e0: 8949 c13c 74ee e13c 3fa3 b3bc a6ce dcbc
000000f0: 00af bbbd cded 2d3d b14f fcbc 5079 a93c
00000100: 9d9c 3d3c bfcd 9e3d cbd6 203d d000 71bd
00000110: 032b 9bbd 8011 583d e478 f4bc 2da8 e6bc
00000120: 2f18 0cbd 9eb7 ad3c 797c 02bd 5f04 95bc
00000130: 5560 80bc dc40 1dbc 2a94 5d3c 5ac2 a93c
00000140: 22f2 8cbc a35b 363d ec51 25bd 9631 c8bb
00000150: 79b9 adbc 5057 663c 96d3 08bd 8471 2d3d
00000160: f461 673c c840 c2bc e50f 383d d650 8abc
00000170: caa5 96bb 344c 06bd ece3 a8bb 0a60 783d
00000180: 573a f63c 1d90 bdbd 0a35 863a 0035 303d
00000190: 6365 88bd 0b05 d1bc 88d8 153d d5cf 89bc
000001a0: 971f 2c3c 83e3 6d3d 2f34 52bc c571 c1bc
000001b0: c976 c93b f61d ea3c a27a 123d 31f9 853c
000001c0: 0979 52bd cef9 3d3d b672 983c 24e8 5f3d
000001d0: 1b01 f33c b6a2 8b3b 400d babb 2087 253d
000001e0: dfdc c93c ffc4 163d 6476 493c 634d 633b
000001f0: ec7e 033d ea41 193d d8c7 1a3d 683f 00bd
