results/test2/EndLessRunnerBehaviour/EndLessRunnerBehaviour-0.pt (torch, 152991 bytes, 10 tensors)

network_body._body_endoder.seq_layers.0.weight f4 [128, 10]
0	0x3d61c4a4	0.05511917
1	0x3e57edfe	0.2108688
2	0x3e13e640	0.14443302
3	0xbe628969	-0.2212273
4	0x3dd9ea02	0.106403366
5	0xbdea1ee0	-0.1143167
6	0x3ddddc16	0.10832994
7	0xbde89407	-0.11356359
8	0x3c2fc342	0.010727705
9	0x3e520a29	0.20511688
10	0x3d6b6fad	0.05747955
11	0xbd967d76	-0.073481485
12	0x3e9e5a41	0.30928233
13	0x3f3dc153	0.74123114
14	0x3daaaee0	0.08334136
15	0x3e82eb79	0.25570276
16	0xbe9a80fc	-0.30176532
17	0xbea29052	-0.31750733
18	0xbf57a202	-0.8423158
19	0xbe90f1ba	-0.28309423
20	0x3dab6fcb	0.08370932
21	0x3da6b275	0.08139507
22	0xbe05f17e	-0.13080403
23	0xbe8b90e1	-0.2725897
24	0xbe6cd6da	-0.23128834
25	0xbeccf65e	-0.40031713
26	0x3d55fe6c	0.05224459
27	0x3eb14910	0.34626055
28	0x3e481495	0.19539101
29	0xbeff3b21	-0.498498
30	0x3ee22c5c	0.4417447
31	0x3e9e05c4	0.30863774
32	0xbe7425dc	-0.23842567
33	0xbd2ddb4c	-0.042445466
34	0xbd74b86d	-0.059746195
35	0x3df44f28	0.1192916
36	0xbf0dd662	-0.5540525
37	0x3e40f4f7	0.18843447
38	0xbce29af6	-0.027661782
39	0x3edd85a0	0.4326601
40	0xbe2be15d	-0.16785188
41	0x3be4b27e	0.0069792857
42	0xbe1c57a4	-0.15267807
43	0x3e4f2f47	0.20232879
44	0xbe9dc89f	-0.30817124
45	0x3e48bc6b	0.19603126
46	0x3d97092c	0.07374796
47	0x3e40d2da	0.18830433
48	0x3eccbb29	0.39986542
49	0xbeb9ab23	-0.3626338
50	0xbe38930a	-0.18024841
51	0xbe1842a4	-0.14869171
52	0x3ebe9744	0.37224782
53	0xbe00d5a6	-0.125815
54	0xbebe7273	-0.37196693
55	0x3cea46cf	0.028598217
56	0xbee7ac06	-0.4524843
57	0xbe57d330	-0.21076655
58	0xbe13e87a	-0.14444152
59	0xbeb13f87	-0.3461878
60	0xbe093675	-0.1339968
61	0x3f1a624a	0.6030623
62	0xbd925662	-0.071453825
63	0x3e95ab8d	0.29232445
64	0xbe8e9f76	-0.27856034
65	0x3c914007	0.017730726
66	0x3ee3d79d	0.44500437
67	0xbeb1fee6	-0.34764785
68	0x3dc02114	0.09381309
69	0x3e7fa4f1	0.24965264
70	0xbe5d3aa7	-0.21604405
71	0xbf5f842b	-0.8731105
72	0xbe54cd9f	-0.20781563
73	0xbd174395	-0.036929686
74	0xbe859fbb	-0.26098427
75	0x3e2c5742	0.16830161
76	0x3eae5105	0.34046188
77	0xbdad945f	-0.08475565
78	0x3f0060db	0.5014779
79	0x3e393f19	0.18090476
80	0x3d17c80d	0.037056018
81	0x3f112561	0.5669766
82	0x3e5658b9	0.20932283
83	0x3e12763e	0.14302918
84	0xbe0c9b15	-0.13731034
85	0x3d8a15eb	0.06742462
86	0x3ec1f62b	0.37883124
87	0x3ee3f340	0.44521523
88	0xbe83ca93	-0.2574049
89	0xbda8b628	-0.082378685
90	0x3ee977e3	0.4559928
91	0x3f34aff4	0.70580983
92	0xbbc3596e	-0.0059615886
93	0x3e5bdfaa	0.2147204
94	0xbe1b949d	-0.1519341
95	0xba95ea96	-0.001143771
96	0xbe0f6b3b	-0.14005749
97	0xbeb5aa13	-0.3548132
98	0xbcf492e0	-0.029855192
99	0xbea32999	-0.31867674
100	0xbe155ba3	-0.14585738
101	0xbe533b9f	-0.20628212
102	0xbf4f63a2	-0.810114
103	0x3dea32cb	0.11435469
104	0x3d82cd18	0.06386775
105	0xbc374fa8	-0.011188425
106	0xbd7392d9	-0.059466217
107	0xbe075ac6	-0.13218221
108	0xbec6cdb4	-0.38828814
109	0xbe6e120f	-0.23249076
110	0x3da9b974	0.082873255
111	0x3ecf2eb7	0.40465328
112	0x3ee1d479	0.44107416
113	0xbf468845	-0.7755168
114	0xbeaa68a0	-0.33282948
115	0x3e3c4124	0.18384224
116	0xbe8eacc9	-0.278662
117	0xbea6032f	-0.32424304
118	0xbdc4b74e	-0.09605275
119	0x3d954a32	0.07289542
120	0x3f5ea01e	0.8696307
121	0xbe389d89	-0.18028845
122	0xbf1042a3	-0.5635168
123	0xbf1f2031	-0.62158495
124	0xbe819553	-0.25309238
125	0x3d2c7a78	0.042108983
126	0xbcfdd707	-0.030986322
127	0x3eb00b2c	0.34383523
128	0xbe052ee4	-0.13006169
129	0xbeec10dd	-0.46106616
130	0x3bd1bfdb	0.006401045
131	0xbedd617f	-0.43238446
132	0x3eda8c94	0.42685378
133	0xbe4d47c1	-0.20046903
134	0x3d8ffe9c	0.07030985
135	0x3e031b4c	0.12803382
136	0xbed9a47f	-0.42508313
137	0xbda024fa	-0.07819553
138	0x3e74f92e	0.2392318
139	0xbec671f5	-0.38758817
140	0x3d5ad758	0.053428024
141	0x3e2b281c	0.1671452
142	0x3dfa5fd6	0.122253105
143	0xbf2b79f6	-0.6698297
144	0xbea99fcc	-0.33129728
145	0x3f06db28	0.52678156
146	0xbe3bdcbc	-0.18345922
147	0xbe49c21c	-0.19702953
148	0x3ee37388	0.4442408
149	0x3e141a44	0.14463145
150	0x3da6a985	0.08137802
151	0x3d9f4634	0.07777062
152	0xbe733b85	-0.23753174
153	0xbcfe0154	-0.031006493
154	0x3d2b452b	0.04181401
155	0xbd8bb458	-0.06821507
156	0xbf7051ae	-0.93874633
157	0x3ec1f374	0.37881052
158	0xbd0f624c	-0.035005853
159	0x3e9a1325	0.3009273
160	0xbe96ed82	-0.2947808
161	0x3eef41a7	0.46729776
162	0xbe33a994	-0.17545158
163	0xbe1711c3	-0.1475287
164	0xbdb75f19	-0.08953685
165	0xbf40ee36	-0.7536348
166	0x3d9d30ce	0.076753244
167	0x3e21b774	0.15792638
168	0xbdd6b805	-0.10484318
169	0x3dc9b836	0.098495886
170	0x3e6f226a	0.23352972
171	0xbeb74d4d	-0.35801163
172	0x3d30f7d0	0.043205082
173	0x3e30bf03	0.17260365
174	0xbcdb7a99	-0.026791858
175	0x3d754a5d	0.05988537
176	0x3e2fc859	0.1716627
177	0xbe3c7728	-0.1840483
178	0xbc7f5485	-0.015584116
179	0x3e2c74fe	0.16841504
180	0x3e9f3f21	0.3110285
181	0xbf371195	-0.71511203
182	0x3dcc94ec	0.09989342
183	0x3e78a8e3	0.24283175
184	0xbc55cbc7	-0.013049073
185	0x3e1beff8	0.1522826
186	0xbdf5d790	-0.12004006
187	0xbeb63661	-0.35588363
188	0xbd3a75f4	-0.045522645
189	0x3d47c848	0.048774987
190	0xbf1e9b70	-0.6195593
191	0x3e9ab7e4	0.30218422
192	0x3e2f85d7	0.171409
193	0xbe21cacf	-0.15800022
194	0x3ebe0ac3	0.37117586
195	0xbd8ef808	-0.06980902
196	0xbd940970	-0.072283626
197	0x3ee3de4c	0.44505537
198	0x3e4b69bf	0.19864558
199	0xbeb5c596	-0.3550231
200	0x3e953865	0.29144588
201	0x3ee4817d	0.44630042
202	0xbdae48f1	-0.08510006
203	0xbf20df46	-0.6284069
204	0xbe5e0a9f	-0.21683739
205	0x3b28f113	0.0025778457
206	0x3f2404e9	0.6406999
207	0x3eacfa88	0.3378489
208	0xbf05eb22	-0.5231191
209	0x3df91fec	0.12164292
210	0x3df7abcc	0.120933145
211	0x3ec318e6	0.38104934
212	0x3edba32a	0.42897922
213	0x3e8d5db0	0.2761054
214	0xbcea83ab	-0.028627237
215	0x3e0300a3	0.12793212
216	0xbedb8c93	-0.42880687
217	0xbed03a2b	-0.4066938
218	0xbd44e590	-0.04807049
219	0x3df11b16	0.11772744
220	0x3d9e2797	0.07722395
221	0x3e274e8a	0.16338554
222	0x3d692123	0.056916367
223	0x3ec374e7	0.38175127
224	0xbe7253eb	-0.23664825
225	0xbe9d2128	-0.3068936
226	0xbeb9eb0f	-0.36312148
227	0x3f3dcf95	0.7414487
228	0x3e3dddb9	0.18541612
229	0x3f23266d	0.6373051
230	0xbb9dfa22	-0.004821078
231	0xbb9dde31	-0.004817747
232	0x3ed6ba55	0.41939035
233	0xbe5a7c41	-0.21336462
234	0xbe53b43e	-0.20674226
235	0xbe04a54a	-0.12953678
236	0x3e932e6b	0.28746352
237	0x3dbbbd3c	0.09166953
238	0x3e9ec9a7	0.31013224
239	0x3e2f4f58	0.17120111
240	0xbe196b7c	-0.14982408
241	0x3e069963	0.1314445
242	0xbea7bdda	-0.32762033
243	0x3e2230fe	0.15839002
244	0x3ed1f0e5	0.410041
245	0xbe569dac	-0.20958585
246	0x3d15d3a9	0.036578808
247	0xbd3b1759	-0.045676563
248	0x3e0aad00	0.13542557
249	0x3e623636	0.22090992
250	0x3c111125	0.008854185
251	0xbe93a104	-0.28833783
252	0xbdc5eee5	-0.09664706
253	0xbea0227d	-0.31276312
254	0xbe723e6f	-0.23656629
255	0x3e12a3a4	0.14320236

network_body._body_endoder.seq_layers.0.bias f4 [128]
0	0x00000000	0.0
1	0x00000000	0.0
2	0x00000000	0.0
3	0x00000000	0.0
4	0x00000000	0.0
5	0x00000000	0.0
6	0x00000000	0.0
7	0x00000000	0.0
8	0x00000000	0.0
9	0x00000000	0.0
10	0x00000000	0.0
11	0x00000000	0.0
12	0x00000000	0.0
13	0x00000000	0.0
14	0x00000000	0.0
15	0x00000000	0.0
16	0x00000000	0.0
17	0x00000000	0.0
18	0x00000000	0.0
19	0x00000000	0.0
20	0x00000000	0.0
21	0x00000000	0.0
22	0x00000000	0.0
23	0x00000000	0.0
24	0x00000000	0.0
25	0x00000000	0.0
26	0x00000000	0.0
27	0x00000000	0.0
28	0x00000000	0.0
29	0x00000000	0.0
30	0x00000000	0.0
31	0x00000000	0.0
32	0x00000000	0.0
33	0x00000000	0.0
34	0x00000000	0.0
35	0x00000000	0.0
36	0x00000000	0.0
37	0x00000000	0.0
38	0x00000000	0.0
39	0x00000000	0.0
40	0x00000000	0.0
41	0x00000000	0.0
42	0x00000000	0.0
43	0x00000000	0.0
44	0x00000000	0.0
45	0x00000000	0.0
46	0x00000000	0.0
47	0x00000000	0.0
48	0x00000000	0.0
49	0x00000000	0.0
50	0x00000000	0.0
51	0x00000000	0.0
52	0x00000000	0.0
53	0x00000000	0.0
54	0x00000000	0.0
55	0x00000000	0.0
56	0x00000000	0.0
57	0x00000000	0.0
58	0x00000000	0.0
59	0x00000000	0.0
60	0x00000000	0.0
61	0x00000000	0.0
62	0x00000000	0.0
63	0x00000000	0.0
64	0x00000000	0.0
65	0x00000000	0.0
66	0x00000000	0.0
67	0x00000000	0.0
68	0x00000000	0.0
69	0x00000000	0.0
70	0x00000000	0.0
71	0x00000000	0.0
72	0x00000000	0.0
73	0x00000000	0.0
74	0x00000000	0.0
75	0x00000000	0.0
76	0x00000000	0.0
77	0x00000000	0.0
78	0x00000000	0.0
79	0x00000000	0.0
80	0x00000000	0.0
81	0x00000000	0.0
82	0x00000000	0.0
83	0x00000000	0.0
84	0x00000000	0.0
85	0x00000000	0.0
86	0x00000000	0.0
87	0x00000000	0.0
88	0x00000000	0.0
89	0x00000000	0.0
90	0x00000000	0.0
91	0x00000000	0.0
92	0x00000000	0.0
93	0x00000000	0.0
94	0x00000000	0.0
95	0x00000000	0.0
96	0x00000000	0.0
97	0x00000000	0.0
98	0x00000000	0.0
99	0x00000000	0.0
100	0x00000000	0.0
101	0x00000000	0.0
102	0x00000000	0.0
103	0x00000000	0.0
104	0x00000000	0.0
105	0x00000000	0.0
106	0x00000000	0.0
107	0x00000000	0.0
108	0x00000000	0.0
109	0x00000000	0.0
110	0x00000000	0.0
111	0x00000000	0.0
112	0x00000000	0.0
113	0x00000000	0.0
114	0x00000000	0.0
115	0x00000000	0.0
116	0x00000000	0.0
117	0x00000000	0.0
118	0x00000000	0.0
119	0x00000000	0.0
120	0x00000000	0.0
121	0x00000000	0.0
122	0x00000000	0.0
123	0x00000000	0.0
124	0x00000000	0.0
125	0x00000000	0.0
126	0x00000000	0.0
127	0x00000000	0.0

network_body._body_endoder.seq_layers.2.weight f4 [128, 128]
0	0x3e908adb	0.28230938
1	0x3cedfa19	0.02904992
2	0xbd2d1100	-0.04225254
3	0xbd8f5488	-0.06998545
4	0xbdbb121c	-0.091343135
5	0xbe73eb0a	-0.23820129
6	0x3d43b5fa	0.04778097
7	0xbdde6e26	-0.10860853
8	0x3d9ce409	0.07660682
9	0x3d6524ad	0.05594318
10	0x3d725833	0.059166145
11	0xbe469f38	-0.19396675
12	0x3d6a7310	0.05723864
13	0x3d3b770e	0.045767836
14	0xbd81df8a	-0.06341465
15	0x3d568d1b	0.052380662
16	0xbd5cc5bf	-0.053899523
17	0x3d503c33	0.05083866
18	0xbd274598	-0.040837854
19	0x3da763d5	0.08173338
20	0xbd213938	-0.03936121
21	0xbd1f8039	-0.038940642
22	0x3d24de73	0.040251207
23	0xbdf96ce3	-0.121789716
24	0x3ea97df5	0.3310391
25	0x3c898ef9	0.016791807
26	0x3d4cbae0	0.049982905
27	0x3d12ebe6	0.0358695
28	0x3d9443d2	0.07239498
29	0x3d1e1d00	0.038601875
30	0x3b8cc588	0.0042960085
31	0x3e25f5e2	0.16207078
32	0xbdb48d2d	-0.0881599
33	0xbcdd1235	-0.02698622
34	0x3d8ba522	0.06818606
35	0xbcb36481	-0.02189851
36	0x3e3e3985	0.1857663
37	0x3cc193fb	0.023630133
38	0x3e02abc6	0.12760839
39	0xbd6677a1	-0.05626643
40	0x3e0cce3e	0.1375055
41	0x3e34a30b	0.17640321
42	0x3d9f7157	0.0778529
43	0xbe16e143	-0.14734368
44	0x3d94a357	0.07257717
45	0x3e176f56	0.14788565
46	0xbd4d7fac	-0.050170586
47	0xbac168ea	-0.0014755998
48	0xbd463ac1	-0.048395876
49	0xbd2f827f	-0.04284906
50	0xbbc1c62e	-0.0059135174
51	0xbdd3a6bf	-0.10334539
52	0xbdad6304	-0.08466151
53	0x3d06f179	0.03294513
54	0xbde486b6	-0.111585066
55	0xbdaef51f	-0.08542847
56	0x3c84006e	0.016113486
57	0x3e03ba5d	0.1286406
58	0x3d840074	0.06445399
59	0x3d5d9a8d	0.05410247
60	0x3e102e20	0.14080095
61	0x3dd91fe2	0.10601784
62	0xbdcd4374	-0.10022631
63	0x3d4da1a5	0.050202984
64	0xbdb2e3dd	-0.08734868
65	0xbda1cac5	-0.07900003
66	0x3d09df8e	0.033660464
67	0x3d3cb267	0.046068575
68	0xbd8732b8	-0.06601471
69	0x3cc18ea8	0.023627594
70	0xbe172afe	-0.14762494
71	0xbe05a01f	-0.13049363
72	0x3d8d294f	0.068926446
73	0x3cd1036f	0.025514333
74	0x3d77dfb6	0.06051608
75	0xbd84bc11	-0.06481183
76	0xbb2c48d7	-0.0026288533
77	0xbcd9b9aa	-0.02657779
78	0xbd970539	-0.07374043
79	0xbd90a634	-0.07062951
80	0x3e33d2ae	0.17560837
81	0x3e0bf9ed	0.13669558
82	0xbcfa4d33	-0.03055439
83	0xbe4b4e6b	-0.19854133
84	0x3dad6935	0.08467332
85	0xbe33b954	-0.17551166
86	0x3cda8832	0.026676271
87	0x3d830f6a	0.063994244
88	0xbe243569	-0.16036
89	0xbd028a13	-0.03186996
90	0x3d4c162d	0.049825836
91	0x3dde5108	0.10855299
92	0x3dc02b07	0.09383207
93	0x3d45b654	0.048269585
94	0x3d380d2c	0.044934437
95	0x3a1e7d77	0.00060459174
96	0xbe24fe35	-0.16112597
97	0x3dabd6d3	0.08390584
98	0x3e0ba177	0.13635813
99	0x3d910ab7	0.07082122
100	0xbe1dc10c	-0.15405673
101	0x3aed5fa1	0.0018110165
102	0x3dee7565	0.11643485
103	0x3d370eef	0.044691976
104	0xbce99493	-0.028513229
105	0x3b83df02	0.0040243873
106	0x3bb3b146	0.005483779
107	0x3bf4edc0	0.007474631
108	0x3ca5be7a	0.020232428
109	0x3cc7d549	0.024393694
110	0xbdfffe1c	-0.124996394
111	0xbd9f2ac5	-0.077718295
112	0xbd029800	-0.03188324
113	0xbdbbe30e	-0.091741666
114	0x3d2cd728	0.042197376
115	0x3cdba8ba	0.026813854
116	0xbd7bbe01	-0.0614605
117	0xbdb95868	-0.09050065
118	0x3cb4e11d	0.022079999
119	0x3d3afc88	0.04565099
120	0x3c5d9f80	0.013526797
121	0x3d891bc7	0.06694751
122	0x3e00748e	0.12544462
123	0x3ceb4967	0.028721524
124	0xbe113b43	-0.14182763
125	0x3e04c8b4	0.12967187
126	0xbdd4222a	-0.10358079
127	0xbd80e8fb	-0.062944375
128	0x3dab00a7	0.08349734
129	0xba959367	-0.0011411727
130	0x3e0df5ef	0.13863347
131	0xbd0dd9cd	-0.03463154
132	0x3e0ea2ad	0.13929243
133	0x3e0c0b31	0.13676144
134	0xbdb80619	-0.08985538
135	0xbe0bb52a	-0.13643327
136	0x3e21ef28	0.15813887
137	0x3d8837f9	0.06651301
138	0x3d909e6a	0.07061465
139	0x3c9071bf	0.017632363
140	0x3e2eb430	0.17060924
141	0xbcb025f0	-0.021502465
142	0x3cf2ee07	0.029654516
143	0x3c003bc4	0.007826749
144	0x3d9e447f	0.07727908
145	0xbd5576c6	-0.052115224
146	0x3d548196	0.051881395
147	0xbe1f78d6	-0.15573439
148	0x3b905c45	0.0044055306
149	0xbdd3c0d8	-0.103395164
150	0xbcc7216c	-0.024307929
151	0xbc83afaf	-0.016074983
152	0x3d963bb5	0.07335607
153	0xbc288272	-0.010285007
154	0x3e25a38b	0.16175668
155	0xbe690dcb	-0.22759168
156	0xbe1f5f58	-0.15563715
157	0x3d92aeb3	0.071622275
158	0x3c062453	0.008187371
159	0xbe54e1d7	-0.20789276
160	0x3deec830	0.116592765
161	0x3c6f6aa8	0.014612831
162	0x3d58ed69	0.052960787
163	0x3d0a6019	0.033783052
164	0x3e3077df	0.17233227
165	0x3d71e20b	0.059053462
166	0x3d114dbf	0.035474535
167	0xbc3b14c1	-0.011418522
168	0xbd8a43a6	-0.06751184
169	0x3cb28896	0.021793645
170	0x3dd6fc41	0.10497332
171	0x3d6498e8	0.055809885
172	0xbbf659c1	-0.0075180237
173	0xbbbaf739	-0.005705741
174	0xbdb80916	-0.08986108
175	0xbcbab93c	-0.022793405
176	0xbe5c9d0a	-0.2154428
177	0x3c66c504	0.014085058
178	0x3d05a585	0.032628555
179	0x3c47cd35	0.012194921
180	0x3d62b2d5	0.05534633
181	0x3d19bbb1	0.037532512
182	0xbdf90ef3	-0.121610545
183	0x3dd1abfd	0.10237882
184	0x3d29f565	0.041493792
185	0x3d85218b	0.065005384
186	0xbd0f6c6b	-0.035015505
187	0x3dc7b274	0.09750834
188	0x3bcab279	0.0061858264
189	0x3d313a5b	0.043268543
190	0xbd5f61d7	-0.054536667
191	0x3dc94564	0.09827688
192	0xbca1a880	-0.019733667
193	0x3b58b157	0.0033064687
194	0x3d915010	0.07095349
195	0xbe37d53b	-0.17952435
196	0xbe001d96	-0.12511286
197	0x3e12aa1c	0.14322704
198	0xbcdc0fbb	-0.02686297
199	0x3d510578	0.051030606
200	0x3ceec8c3	0.029148465
201	0x3e081635	0.13289721
202	0xbd9bdc30	-0.07610357
203	0x3bd8b8be	0.00661382
204	0x3d590724	0.052985325
205	0x3c9e56b9	0.019328462
206	0x3e074a76	0.13211998
207	0x3d579f40	0.052642107
208	0x3d90520c	0.07046899
209	0x3c56838d	0.013092888
210	0xbe220efd	-0.1582603
211	0x3d85b032	0.06527747
212	0x3d50b88c	0.050957248
213	0x3d61948b	0.055073302
214	0xbd75e5dd	-0.060033668
215	0xbd760b79	-0.060069535
216	0x3d7f1afc	0.062281594
217	0xbe436402	-0.19081119
218	0xbd7b9e4d	-0.061430264
219	0x3d80e0ef	0.06292903
220	0x3dc57b62	0.09642674
221	0x3de72b5b	0.11287566
222	0x3c79ff42	0.015258612
223	0xba11de91	-0.0005564476
224	0xbda7374d	-0.08164845
225	0xbd270504	-0.040776268
226	0xbcfda8b4	-0.030964233
227	0x3c1a5142	0.009418787
228	0x3e04614d	0.12927742
229	0xbd2af035	-0.041732986
230	0x3e1c74df	0.15278958
231	0xbddef77d	-0.108870484
232	0x3ba55562	0.005045579
233	0xbcdfd74c	-0.027324341
234	0x3dd69fe4	0.104797155
235	0x3db34620	0.0875361
236	0x3e37d3ec	0.17951936
237	0xbdd56bda	-0.10420962
238	0xbd9b1d11	-0.07573903
239	0xbdfc8a30	-0.12331045
240	0xbd7df10f	-0.06199747
241	0xbe69cb65	-0.22831495
242	0x3dcc403f	0.099731915
243	0x39c53330	0.00037612906
244	0xbda797ed	-0.081832744
245	0xbdc62a96	-0.096760914
246	0xbcdc144d	-0.026865149
247	0xbdba7937	-0.09105151
248	0xbd87f79b	-0.06639024
249	0x3d901371	0.07034958
250	0xbd8da716	-0.06916635
251	0x3d34727c	0.044054493
252	0x3d68e3a3	0.056857716
253	0x3db469c4	0.08809236
254	0xbd8e3664	-0.06943968
255	0xbd9088f0	-0.07057369

network_body._body_endoder.seq_layers.2.bias f4 [128]
0	0x00000000	0.0
1	0x00000000	0.0
2	0x00000000	0.0
3	0x00000000	0.0
4	0x00000000	0.0
5	0x00000000	0.0
6	0x00000000	0.0
7	0x00000000	0.0
8	0x00000000	0.0
9	0x00000000	0.0
10	0x00000000	0.0
11	0x00000000	0.0
12	0x00000000	0.0
13	0x00000000	0.0
14	0x00000000	0.0
15	0x00000000	0.0
16	0x00000000	0.0
17	0x00000000	0.0
18	0x00000000	0.0
19	0x00000000	0.0
20	0x00000000	0.0
21	0x00000000	0.0
22	0x00000000	0.0
23	0x00000000	0.0
24	0x00000000	0.0
25	0x00000000	0.0
26	0x00000000	0.0
27	0x00000000	0.0
28	0x00000000	0.0
29	0x00000000	0.0
30	0x00000000	0.0
31	0x00000000	0.0
32	0x00000000	0.0
33	0x00000000	0.0
34	0x00000000	0.0
35	0x00000000	0.0
36	0x00000000	0.0
37	0x00000000	0.0
38	0x00000000	0.0
39	0x00000000	0.0
40	0x00000000	0.0
41	0x00000000	0.0
42	0x00000000	0.0
43	0x00000000	0.0
44	0x00000000	0.0
45	0x00000000	0.0
46	0x00000000	0.0
47	0x00000000	0.0
48	0x00000000	0.0
49	0x00000000	0.0
50	0x00000000	0.0
51	0x00000000	0.0
52	0x00000000	0.0
53	0x00000000	0.0
54	0x00000000	0.0
55	0x00000000	0.0
56	0x00000000	0.0
57	0x00000000	0.0
58	0x00000000	0.0
59	0x00000000	0.0
60	0x00000000	0.0
61	0x00000000	0.0
62	0x00000000	0.0
63	0x00000000	0.0
64	0x00000000	0.0
65	0x00000000	0.0
66	0x00000000	0.0
67	0x00000000	0.0
68	0x00000000	0.0
69	0x00000000	0.0
70	0x00000000	0.0
71	0x00000000	0.0
72	0x00000000	0.0
73	0x00000000	0.0
74	0x00000000	0.0
75	0x00000000	0.0
76	0x00000000	0.0
77	0x00000000	0.0
78	0x00000000	0.0
79	0x00000000	0.0
80	0x00000000	0.0
81	0x00000000	0.0
82	0x00000000	0.0
83	0x00000000	0.0
84	0x00000000	0.0
85	0x00000000	0.0
86	0x00000000	0.0
87	0x00000000	0.0
88	0x00000000	0.0
89	0x00000000	0.0
90	0x00000000	0.0
91	0x00000000	0.0
92	0x00000000	0.0
93	0x00000000	0.0
94	0x00000000	0.0
95	0x00000000	0.0
96	0x00000000	0.0
97	0x00000000	0.0
98	0x00000000	0.0
99	0x00000000	0.0
100	0x00000000	0.0
101	0x00000000	0.0
102	0x00000000	0.0
103	0x00000000	0.0
104	0x00000000	0.0
105	0x00000000	0.0
106	0x00000000	0.0
107	0x00000000	0.0
108	0x00000000	0.0
109	0x00000000	0.0
110	0x00000000	0.0
111	0x00000000	0.0
112	0x00000000	0.0
113	0x00000000	0.0
114	0x00000000	0.0
115	0x00000000	0.0
116	0x00000000	0.0
117	0x00000000	0.0
118	0x00000000	0.0
119	0x00000000	0.0
120	0x00000000	0.0
121	0x00000000	0.0
122	0x00000000	0.0
123	0x00000000	0.0
124	0x00000000	0.0
125	0x00000000	0.0
126	0x00000000	0.0
127	0x00000000	0.0

action_model._continuous_distribution.mu.weight f4 [1, 128]
0	0xbbf70a40	-0.0075390637
1	0xbb945672	-0.0045269066
2	0x3d16874b	0.03675012
3	0x3bb90158	0.005645912
4	0xbb2ea6c8	-0.0026649702
5	0xbce5ce4f	-0.028052477
6	0xbc99a01b	-0.018753102
7	0xbb66634a	-0.0035154396
8	0x3c11f870	0.00890933
9	0xbb941376	-0.0045189215
10	0xbc3b9843	-0.011449876
11	0xbc4cbd55	-0.012496312
12	0xbb54e93f	-0.0032487658
13	0xbcb7722b	-0.022393307
14	0x3caee58f	0.021349696
15	0x3b906cb2	0.0044074887
16	0x3cabbf6b	0.020965299
17	0xbc8ffeec	-0.01757761
18	0xbc34614b	-0.011009525
19	0xbc671428	-0.014103927
20	0xbbf575fa	-0.0074908705
21	0xbd23142f	-0.03981417
22	0xbb64737b	-0.003485887
23	0x3c2b1795	0.010442634
24	0x3c036bf3	0.008021343
25	0x3c58cf63	0.013233039
26	0x39213496	0.00015373746
27	0xbc5ea6c5	-0.013589566
28	0x3cf54225	0.029938767
29	0xbc9ddb51	-0.019269617
30	0x3ca8f348	0.020623818
31	0xbc63caea	-0.013903359
32	0xbbb521c3	-0.0055277064
33	0xbc1dd65d	-0.009633628
34	0x3c3e586b	0.01161776
35	0xbc82c08e	-0.015960958
36	0x3cf0c18d	0.029389167
37	0x3c2ad40b	0.010426532
38	0xbb9fd0bc	-0.004877178
39	0x3d00bfcf	0.031432923
40	0xbcf473e3	-0.029840415
41	0xbc526e95	-0.012843748
42	0x3c368de5	0.011142229
43	0xbc7d19a3	-0.015448007
44	0x3af18e7d	0.0018429306
45	0x3cd1aa85	0.025594005
46	0xbb9b06e8	-0.004731048
47	0xbb2f4a85	-0.0026747298
48	0xbc528702	-0.012849571
49	0xbd23c7e6	-0.03998556
50	0xbaca3867	-0.0015428186
51	0x3bfd282d	0.0077257366
52	0x3c16b11f	0.009197502
53	0xbbb368d1	-0.0054751416
54	0x3be5ac7f	0.0070090885
55	0x3b5d9062	0.0033807983
56	0xbbfdc5c3	-0.0077445223
57	0x3b0d25f3	0.0021537512
58	0xbb222167	-0.0024739148
59	0xbd102d5c	-0.035199508
60	0xbc38a5a4	-0.011269961
61	0x3cebc565	0.028780648
62	0xbaadf29e	-0.0013271158
63	0xbc2fe243	-0.010735097
64	0xbd09ff13	-0.033690523
65	0x39e471b0	0.00043572253
66	0xb8fb4ee3	-0.000119833065
67	0xbc121759	-0.008916699
68	0x3bca4d80	0.0061737895
69	0xbbcbfecb	-0.006225442
70	0x3c23cf9f	0.009998231
71	0xbc70f31a	-0.014706397
72	0x3ac4d87b	0.001501813
73	0xbc040fbb	-0.008060391
74	0xbb116ef4	-0.0022191377
75	0x3b511e13	0.0031908795
76	0xbbb9908c	-0.0056629833
77	0xbaa02b5e	-0.0012219956
78	0x3c40f6b7	0.011777571
79	0x3cf0ccf0	0.029394597
80	0xbc43d902	-0.011953594
81	0x3d0173e4	0.031604663
82	0x3c66f4aa	0.014096418
83	0xbc4b42bd	-0.012406048
84	0xbc54eaba	-0.012995416
85	0xbbb9a4f1	-0.0056654145
86	0x3c90b87b	0.017666092
87	0xbbe068c5	-0.006848427
88	0x3ce5d472	0.028055403
89	0x3cc00c85	0.02344347
90	0x3bad836d	0.005295208
91	0x3b9f64bd	0.004864304
92	0xbab96603	-0.0014144782
93	0x3c886ca0	0.016653359
94	0xba906157	-0.0011015338
95	0xbc07ae69	-0.008281329
96	0xbba1de57	-0.004939835
97	0xbc86ae26	-0.016440462
98	0xb7be5bcc	-2.2692511e-05
99	0x3c478c08	0.012179382
100	0xbc9503cf	-0.018190293
101	0xbc09528f	-0.0083815
102	0xbc9d62a2	-0.01921207
103	0x3c2a27c3	0.0103854565
104	0x3c5fc73a	0.013658339
105	0x3b351c95	0.0027635444
106	0xbc648562	-0.013947817
107	0x3c93778a	0.018001337
108	0xbcdd3870	-0.02700445
109	0x3bbe4025	0.0058059865
110	0xbc9a1095	-0.018806735
111	0x3c1a2523	0.009408268
112	0x3c90571e	0.017619666
113	0x3cfcc232	0.030854318
114	0x3cfe7e2f	0.031066028
115	0x3cc8b3b7	0.024499757
116	0x3b75f12d	0.0037527785
117	0xbd1675af	-0.036733326
118	0x3ce65c3d	0.028120155
119	0x3c951eff	0.018203257
120	0x3cd421e7	0.025895072
121	0xbc8890ac	-0.016670547
122	0xbb3bef42	-0.0028676544
123	0xbb88b2f7	-0.004171725
124	0xbcbe0eb7	-0.023200376
125	0xbbb1d644	-0.005427154
126	0xbc3fb443	-0.011700693
127	0x3d0c208e	0.034210734

network_body._body_endoder.seq_layers.0.weight f4 [128, 10]
0	0xbc11e199	-0.008903884
1	0xbecddb04	-0.40206158
2	0xbcfad034	-0.030616857
3	0x3ea93ad1	0.33052686
4	0x3dad76b9	0.0846991
5	0xbeaca41b	-0.33718953
6	0x3f12ba41	0.5731545
7	0xbee8d326	-0.45473593
8	0xbe0137ec	-0.12618989
9	0xbe62e261	-0.22156669
10	0xbeeb06ec	-0.45903718
11	0xbe895368	-0.26821446
12	0x3f34d4f5	0.70637447
13	0xbf1752a5	-0.5911048
14	0xbe2d5d60	-0.16930151
15	0x3f2b276f	0.66857046
16	0xbd22984b	-0.03969602
17	0x3e3bf367	0.1835457
18	0xbe00d7c0	-0.12582302
19	0xbe0472ff	-0.12934493
20	0xbe41aca4	-0.18913513
21	0xbe8e3c35	-0.2778031
22	0x3f066f32	0.5251342
23	0xbea91448	-0.33023286
24	0x3d595c6d	0.05306666
25	0xbe07c6d3	-0.13259439
26	0xbe94cb2c	-0.29061258
27	0x3daa921f	0.08328652
28	0x3dbcb3b7	0.092139654
29	0xbd66c2be	-0.056338064
30	0xbe8e71c1	-0.27821162
31	0x3e6a08ad	0.22854872
32	0xbe0ebaa7	-0.1393839
33	0xbf0e6d2d	-0.5563534
34	0x3d3276cc	0.043570325
35	0xbe947a25	-0.2899944
36	0xbeccbf73	-0.39989814
37	0xbea057e5	-0.31317058
38	0x3c86d27b	0.016457787
39	0xbeafa04e	-0.3430199
40	0x3de0bc39	0.109734006
41	0x3e1f3fc3	0.15551667
42	0x3d702bdf	0.05863559
43	0xbe1703f8	-0.14747608
44	0xbe5095e6	-0.20369682
45	0x3d1ec7e9	0.038764868
46	0xbe0739a8	-0.13205588
47	0x3f0465cc	0.5171783
48	0xbeaf07e1	-0.341857
49	0xbeca438b	-0.39504656
50	0xbe83fce9	-0.25778893
51	0xbdd926ad	-0.1060308
52	0xbef6a349	-0.48171452
53	0x3dcdaf86	0.10043244
54	0x3e95993d	0.29218474
55	0x3eaea601	0.34111026
56	0x3e70a67b	0.23501007
57	0x3d74d7db	0.05977617
58	0xbe2406e2	-0.1601825
59	0xbf3ac5ba	-0.72957957
60	0x3d84359b	0.06455537
61	0xbe1cf6f9	-0.15328588
62	0x3ee69e2c	0.4504255
63	0x3d335ad2	0.043787785
64	0xbe41923c	-0.1890344
65	0x3de9065a	0.113781646
66	0xbe76ff07	-0.24120723
67	0xbec3b179	-0.38221338
68	0x3ebc9629	0.36833313
69	0xbe2ef8f4	-0.17087156
70	0xbf17938d	-0.5920952
71	0x3dd659b4	0.10466328
72	0xbda41884	-0.080124885
73	0x3e8f10b6	0.27942437
74	0xbe1a5ba3	-0.15074019
75	0xbf04dc27	-0.51898426
76	0x3ee48318	0.44631267
77	0xbdbca807	-0.09211736
78	0xbd6c019e	-0.05761873
79	0x3e970b48	0.29500794
80	0x3e9c1f5f	0.30492684
81	0xbe313c15	-0.17308076
82	0xbe0fca71	-0.14042069
83	0x3b46a375	0.003030983
84	0x3da75675	0.08170787
85	0xbe908ae1	-0.28230956
86	0xbeebb5c9	-0.4603713
87	0xbebd8dc2	-0.37022215
88	0xbe010cb6	-0.12602505
89	0xbe3fd5f1	-0.18733956
90	0x3f34fda2	0.7069951
91	0xbe16d693	-0.14730291
92	0x3de25d21	0.11052919
93	0xbc924374	-0.01785443
94	0x3f1a04b5	0.6016343
95	0x3e13cd68	0.14433825
96	0x3e54c271	0.20777299
97	0x3e94a65b	0.2903317
98	0xbdc112f6	-0.09427445
99	0xbf3f0ff6	-0.7463373
100	0xbf8625d7	-1.0480298
101	0xbe16fae6	-0.14744148
102	0xbe983246	-0.29725856
103	0xbd77b5aa	-0.060475983
104	0xbeb2b5da	-0.34904367
105	0xbdea3a25	-0.114368714
106	0xbcb1e008	-0.021713272
107	0xbe7ad944	-0.24496943
108	0xbe829466	-0.25503844
109	0xbf3f63f7	-0.7476191
110	0xbebc00e7	-0.36719438
111	0x3d93acc1	0.072106846
112	0xbdb4e6c0	-0.088330746
113	0xbdb103ca	-0.08643301
114	0x3ef23f02	0.47313696
115	0x3e3242b1	0.17408253
116	0xbf170ed0	-0.5900698
117	0x3e8003c7	0.25002882
118	0x3e29b3b0	0.16572452
119	0x3eb37490	0.35049868
120	0x3e2ddb11	0.16978098
121	0xbe502de8	-0.20330012
122	0xbe032070	-0.12805343
123	0x3eea0c30	0.45712423
124	0xbe4d5087	-0.2005025
125	0xbe5a04f6	-0.21290955
126	0x3e93c901	0.2886429
127	0xbe6ca6ec	-0.2311055
128	0xbedc1456	-0.42984265
129	0x3e835188	0.2564814
130	0xbe6c9088	-0.2310201
131	0x3f11c733	0.5694458
132	0xbe1ddcfe	-0.15416333
133	0x3d8fccce	0.07021485
134	0x3f495f48	0.7866101
135	0x3ccacabe	0.024754878
136	0x3e0361a6	0.12830219
137	0x3e1b8b68	0.15189898
138	0x3d2baf27	0.041915085
139	0x3ebea27a	0.37233335
140	0x3e2de8a8	0.16983283
141	0xbeba88cc	-0.36432493
142	0xbe09daa1	-0.13462307
143	0xbe06a19e	-0.1314759
144	0x3bd838b3	0.006598556
145	0xbeb6abbd	-0.356779
146	0xbe96ed6e	-0.2947802
147	0x3db60cee	0.08889185
148	0x3eb95173	0.36194953
149	0x3f1874e5	0.59553367
150	0x3f04f311	0.5193339
151	0xbf1c2802	-0.6099855
152	0xbe1184be	-0.14210793
153	0xbdd9eea7	-0.106412224
154	0x3e7c5698	0.24642408
155	0xbe5cf5ae	-0.21578094
156	0xbec3a803	-0.3821412
157	0x3efe6370	0.4968524
158	0x3c9fb786	0.01949669
159	0xbcdd7453	-0.027033007
160	0x3dd1ef27	0.10250693
161	0x3ed36471	0.41287568
162	0x3daaff1c	0.083494395
163	0x3dea1c87	0.114312224
164	0xbd473b47	-0.048640516
165	0xbf089b7c	-0.5336225
166	0x3c0a3bcd	0.008437109
167	0x3efe65e3	0.49687108
168	0x3f0e2f83	0.5554125
169	0xbddc486c	-0.10756001
170	0xbe039a9c	-0.12851948
171	0xbca14229	-0.019684868
172	0x3e413b20	0.1887021
173	0xbe389122	-0.18024114
174	0xbea3342c	-0.3187574
175	0xbeab6b54	-0.33480322
176	0x3f0e0571	0.5547705
177	0xbf09902b	-0.5373561
178	0x3e34da3d	0.17661376
179	0xbe661acb	-0.22471158
180	0xbec0a30a	-0.3762439
181	0x3e72b6f9	0.23702611
182	0xbf0b3958	-0.54384375
183	0xbeb70619	-0.3574684
184	0x3de2ccc5	0.11074213
185	0x3dd8aa51	0.1057936
186	0xbcb8a4a9	-0.022539454
187	0xbea1afe5	-0.3157951
188	0xbe972e4a	-0.29527503
189	0xbe3751c8	-0.17902291
190	0x3d10b8f5	0.03533264
191	0x3e4a386f	0.1974809
192	0x3e02836a	0.12745443
193	0x3f04169a	0.5159699
194	0x3e0e6a8e	0.13907835
195	0xbd895190	-0.0670501
196	0x3e84a57e	0.2590751
197	0xbf590ed7	-0.8478827
198	0x3e6c37c7	0.23068152
199	0x3e2dae39	0.16960992
200	0xbd294b25	-0.04133143
201	0xbe345c12	-0.17613247
202	0xbddeb0e6	-0.108735844
203	0xbf0fd6c2	-0.5618707
204	0x3e56d8fe	0.20981213
205	0xbe42a736	-0.19009098
206	0xbeb9b0f9	-0.36267832
207	0x3e91a43e	0.2844562
208	0x3c877e95	0.016539851
209	0xbdbad280	-0.09122181
210	0xbf233127	-0.63746876
211	0xbc211599	-0.009831809
212	0xbf07f6b7	-0.5311083
213	0xbe704e4d	-0.2346737
214	0x3e419329	0.18903793
215	0xbe65b6fc	-0.22433084
216	0x3e54e664	0.20791012
217	0xbca7fb61	-0.020505609
218	0xbf17debf	-0.5932426
219	0xbebe03bc	-0.37112224
220	0xbedb5fd9	-0.42846563
221	0xbd649941	-0.055810217
222	0xbd507860	-0.05089605
223	0x3c4be0ff	0.01244378
224	0xbf175452	-0.5911304
225	0xbe9ceb43	-0.3064824
226	0xbefa7812	-0.4891973
227	0x3deb8b5a	0.115011886
228	0x3ec86f44	0.3914739
229	0x3ea80f57	0.32824203
230	0x3e969f3d	0.29418364
231	0x3e36d5ce	0.17854998
232	0xbdd1f8df	-0.102525465
233	0xbd80f773	-0.06297197
234	0xbeae9d56	-0.34104413
235	0x3da46a6e	0.08028112
236	0xbeac711d	-0.3368005
237	0x3e9fa00e	0.311768
238	0xbe9091e3	-0.28236303
239	0xbdc30fdd	-0.0952451
240	0x3ea739de	0.32661337
241	0xbf2d6fd0	-0.6774874
242	0xbd5e3d09	-0.054257426
243	0x3eb009e3	0.34382543
244	0x3ed07452	0.40713745
245	0xbd66a53f	-0.056309935
246	0x3e95cb4f	0.29256675
247	0xbc89dc1d	-0.016828591
248	0xbea4172b	-0.32048926
249	0xbea0d919	-0.31415632
250	0x3e40bb3d	0.18821426
251	0xbf252fa0	-0.64525795
252	0xbe83dccd	-0.25754395
253	0xbebda978	-0.37043357
254	0xbe7983ce	-0.24366686
255	0xbd9eed58	-0.077601135

network_body._body_endoder.seq_layers.0.bias f4 [128]
0	0x00000000	0.0
1	0x00000000	0.0
2	0x00000000	0.0
3	0x00000000	0.0
4	0x00000000	0.0
5	0x00000000	0.0
6	0x00000000	0.0
7	0x00000000	0.0
8	0x00000000	0.0
9	0x00000000	0.0
10	0x00000000	0.0
11	0x00000000	0.0
12	0x00000000	0.0
13	0x00000000	0.0
14	0x00000000	0.0
15	0x00000000	0.0
16	0x00000000	0.0
17	0x00000000	0.0
18	0x00000000	0.0
19	0x00000000	0.0
20	0x00000000	0.0
21	0x00000000	0.0
22	0x00000000	0.0
23	0x00000000	0.0
24	0x00000000	0.0
25	0x00000000	0.0
26	0x00000000	0.0
27	0x00000000	0.0
28	0x00000000	0.0
29	0x00000000	0.0
30	0x00000000	0.0
31	0x00000000	0.0
32	0x00000000	0.0
33	0x00000000	0.0
34	0x00000000	0.0
35	0x00000000	0.0
36	0x00000000	0.0
37	0x00000000	0.0
38	0x00000000	0.0
39	0x00000000	0.0
40	0x00000000	0.0
41	0x00000000	0.0
42	0x00000000	0.0
43	0x00000000	0.0
44	0x00000000	0.0
45	0x00000000	0.0
46	0x00000000	0.0
47	0x00000000	0.0
48	0x00000000	0.0
49	0x00000000	0.0
50	0x00000000	0.0
51	0x00000000	0.0
52	0x00000000	0.0
53	0x00000000	0.0
54	0x00000000	0.0
55	0x00000000	0.0
56	0x00000000	0.0
57	0x00000000	0.0
58	0x00000000	0.0
59	0x00000000	0.0
60	0x00000000	0.0
61	0x00000000	0.0
62	0x00000000	0.0
63	0x00000000	0.0
64	0x00000000	0.0
65	0x00000000	0.0
66	0x00000000	0.0
67	0x00000000	0.0
68	0x00000000	0.0
69	0x00000000	0.0
70	0x00000000	0.0
71	0x00000000	0.0
72	0x00000000	0.0
73	0x00000000	0.0
74	0x00000000	0.0
75	0x00000000	0.0
76	0x00000000	0.0
77	0x00000000	0.0
78	0x00000000	0.0
79	0x00000000	0.0
80	0x00000000	0.0
81	0x00000000	0.0
82	0x00000000	0.0
83	0x00000000	0.0
84	0x00000000	0.0
85	0x00000000	0.0
86	0x00000000	0.0
87	0x00000000	0.0
88	0x00000000	0.0
89	0x00000000	0.0
90	0x00000000	0.0
91	0x00000000	0.0
92	0x00000000	0.0
93	0x00000000	0.0
94	0x00000000	0.0
95	0x00000000	0.0
96	0x00000000	0.0
97	0x00000000	0.0
98	0x00000000	0.0
99	0x00000000	0.0
100	0x00000000	0.0
101	0x00000000	0.0
102	0x00000000	0.0
103	0x00000000	0.0
104	0x00000000	0.0
105	0x00000000	0.0
106	0x00000000	0.0
107	0x00000000	0.0
108	0x00000000	0.0
109	0x00000000	0.0
110	0x00000000	0.0
111	0x00000000	0.0
112	0x00000000	0.0
113	0x00000000	0.0
114	0x00000000	0.0
115	0x00000000	0.0
116	0x00000000	0.0
117	0x00000000	0.0
118	0x00000000	0.0
119	0x00000000	0.0
120	0x00000000	0.0
121	0x00000000	0.0
122	0x00000000	0.0
123	0x00000000	0.0
124	0x00000000	0.0
125	0x00000000	0.0
126	0x00000000	0.0
127	0x00000000	0.0

network_body._body_endoder.seq_layers.2.weight f4 [128, 128]
0	0xbc02a2a6	-0.007973349
1	0x3d98a8ab	0.07454046
2	0x3c651e00	0.013984203
3	0x3d0ece34	0.03486462
4	0x3d4fbc92	0.050716944
5	0x3bd88351	0.006607451
6	0xbde40a6a	-0.11134799
7	0x3dbe020f	0.092777364
8	0x3d031d16	0.03201016
9	0xbcc25705	-0.023723135
10	0x3ce58412	0.028017078
11	0x3a8116ac	0.0009848676
12	0x3bbc4408	0.0057454146
13	0x3df0b306	0.11752896
14	0xbe05482c	-0.13015813
15	0xbe49461a	-0.19655648
16	0xbe1c4229	-0.15259613
17	0x3d865ae1	0.065603025
18	0x3d40dc8c	0.04708533
19	0x3c450e2c	0.012027305
20	0x3e08f8a2	0.13376096
21	0xbdc1debe	-0.09466313
22	0x3c0f4006	0.008743292
23	0x3d703ac3	0.05864979
24	0xbe1626bd	-0.14663215
25	0x3d7943a0	0.060855508
26	0xbdb056af	-0.086102836
27	0x3de330d3	0.11093297
28	0xbdb83697	-0.08994787
29	0x3d1138b3	0.035454463
30	0xbd60f4b4	-0.054920867
31	0x3e41740c	0.18891925
32	0xbd515d2f	-0.051114257
33	0xbca301e4	-0.019898362
34	0x3a595f55	0.00082920986
35	0x3db88b7e	0.09010981
36	0x3dff2961	0.12459064
37	0xbe0360cf	-0.12829898
38	0x3e2e5564	0.17024761
39	0x3e07cc43	0.13261513
40	0xbdab3fdd	-0.0836179
41	0xbe33829d	-0.17530294
42	0x3c92527f	0.017861603
43	0xbcd0f9f9	-0.025509821
44	0xbcd00dce	-0.025397208
45	0xbdc37133	-0.095430754
46	0xbdad3197	-0.08456724
47	0xbc840f14	-0.016120471
48	0x3cbcb64b	0.023036143
49	0x3d1f2d3b	0.038861495
50	0x3cad10fb	0.021126261
51	0xbdc47b58	-0.095938385
52	0xbbf2ac82	-0.0074058184
53	0x3e0fe16d	0.14050837
54	0xbe2a3f95	-0.16625817
55	0xbcd3cc0d	-0.025854135
56	0xbd8a3aa8	-0.06749469
57	0xbddb8c18	-0.1072008
58	0xbbbd5fc8	-0.0057792403
59	0x3d841d43	0.06450894
60	0xbe008162	-0.12549356
61	0x3cb29a9e	0.021802243
62	0xbda6e76c	-0.08149609
63	0xbc0eb3d1	-0.008709864
64	0x3d5db377	0.05412623
65	0x3d32dc98	0.043667406
66	0xbe3c02dc	-0.18360466
67	0xbd5c3b4c	-0.053767487
68	0xbd8589c5	-0.06520418
69	0x3cd1a928	0.025593355
70	0xbe815ab7	-0.25264522
71	0xbbb91643	-0.0056484058
72	0xb9621a84	-0.00021562917
73	0xbe1b1057	-0.15142952
74	0x3df73d2d	0.12072215
75	0x3d051bc5	0.032497186
76	0x3c976d99	0.018484877
77	0xbc7ce20d	-0.015434754
78	0x3cf0fa7f	0.02941632
79	0x3e1e0b6e	0.15434048
80	0xbdb99d7e	-0.090632424
81	0xbcae802b	-0.02130135
82	0xbd97692b	-0.07393106
83	0xbe1392a7	-0.14411412
84	0x3d6e0d46	0.058118127
85	0xbbad7b86	-0.005294266
86	0x3ca47619	0.020075845
87	0xbdb59d3d	-0.088678814
88	0x3d97bdef	0.07409274
89	0xbdb33fd1	-0.087524064
90	0x3e6399aa	0.22226587
91	0x3daf722c	0.085666984
92	0x3d6d0fb3	0.0578763
93	0xbde8ad36	-0.11361162
94	0x3dca9f53	0.0989367
95	0x3ce0e8b0	0.027454704
96	0x3dbc61ff	0.09198379
97	0xbe02db4c	-0.12778968
98	0x3d3ab961	0.045586947
99	0xbd52eb5c	-0.051493987
100	0xbda1e29f	-0.07904553
101	0x3ddbfd8d	0.1074172
102	0x3e0b8c9d	0.13627858
103	0x3dd5d51d	0.10441039
104	0xbc86465f	-0.016390977
105	0x3b95090c	0.0045481976
106	0x3d66bf56	0.056334816
107	0xbd5a36c6	-0.053274892
108	0x3da608e5	0.08107165
109	0xbdbed06d	-0.09317098
110	0x3db6038d	0.08887396
111	0x3d0619e2	0.032739528
112	0x3df7d71f	0.12101578
113	0xbd9d6cea	-0.07686789
114	0xbdd6bf44	-0.104857
115	0x3dd29c5f	0.10283732
116	0xbe145448	-0.14485276
117	0x3dde53a7	0.10855799
118	0x3e489b33	0.19590454
119	0xbdc1db76	-0.09465687
120	0x3d5b65a4	0.05356373
121	0xbdbe69bb	-0.0929751
122	0x3da0e22d	0.078556396
123	0x3d009dfe	0.031400673
124	0x3e2b9471	0.16755845
125	0xbdb1bf70	-0.08679092
126	0x3d857678	0.06516737
127	0xbc7e745f	-0.015530675
128	0x3ded1d5d	0.11577866
129	0xbc9dd33c	-0.019265763
130	0x3d568861	0.052376155
131	0xbc7db109	-0.015484103
132	0xbe88b4e0	-0.26700497
133	0x3d8af9d7	0.067859344
134	0xbd66e7de	-0.05637347
135	0xbb844972	-0.0040370757
136	0xbc42f919	-0.01190021
137	0xbcd39f57	-0.025832815
138	0xbe014d0f	-0.12627052
139	0x3d2f70c2	0.042832144
140	0xbdf1ba29	-0.11803085
141	0xbdbcd136	-0.09219591
142	0xbd96375a	-0.07334776
143	0x3db5b565	0.08872489
144	0x3c49870f	0.012300267
145	0xbdd157bc	-0.10221812
146	0x3be6e5d3	0.00704644
147	0x3e7284e4	0.23683506
148	0xbd3bbf6c	-0.04583685
149	0x3d11235f	0.035434123
150	0x3d8eabe9	0.06966383
151	0xbdd197e6	-0.102340505
152	0x3dbed035	0.09317056
153	0xbd960165	-0.07324485
154	0xbce4874f	-0.027896551
155	0x3d02563a	0.031820513
156	0x3dba3762	0.09092595
157	0xbd1107dc	-0.035407886
158	0x3d214b41	0.03937841
159	0xbd421915	-0.0473872
160	0xbb8d9678	-0.004320916
161	0x3d1d42df	0.03839385
162	0x3c97088a	0.018436689
163	0xbd049aaa	-0.03237406
164	0x3dedfa2c	0.11619982
165	0x3d97220c	0.07379541
166	0x3d8205e3	0.06348779
167	0xbcd9ffe3	-0.026611274
168	0x3db26727	0.08711081
169	0xbdc8ce47	-0.09804969
170	0xbe304b28	-0.1721617
171	0x3d0d2b51	0.034465138
172	0x3d601ba8	0.054713875
173	0x3e0e5b40	0.13901997
174	0xbd43baa0	-0.0477854
175	0xbe0f26c1	-0.13979627
176	0x3e2715d7	0.16316925
177	0x3b4c5d36	0.0031183488
178	0x3e2b8996	0.16751704
179	0xbe1e6e54	-0.15471774
180	0xbde4c58f	-0.11170494
181	0xbaa3bd9f	-0.0012492425
182	0xbd632b7e	-0.0554614
183	0xbdd012c0	-0.10159826
184	0x3eaa0aad	0.3321127
185	0x3ccf85f4	0.025332429
186	0xbdb42fbd	-0.08798168
187	0xbdf2a116	-0.11847131
188	0x3e0aa21d	0.13538404
189	0x3e336064	0.17517239
190	0xbc7332aa	-0.014843622
191	0x3d82d06b	0.06387409
192	0xbe54f523	-0.20796637
193	0xbdc91df1	-0.09820164
194	0xbe16c5d0	-0.14723897
195	0x3da64808	0.081192076
196	0xbd2b5f04	-0.04183866
197	0xbbf388aa	-0.007432063
198	0x3e88d1d2	0.2672258
199	0x3e032014	0.12805206
200	0x3e025d17	0.12730823
201	0xbd5ff28b	-0.054674666
202	0x3da8545f	0.082192175
203	0xbdc016d0	-0.09379351
204	0xbdaf9777	-0.085738115
205	0xbde380d5	-0.11108557
206	0xbe11a95f	-0.14224766
207	0xbc84fac8	-0.016232863
208	0x3d278ad8	0.040903896
209	0x3dd40d9c	0.10354158
210	0xbda8bb30	-0.08238828
211	0x3e1d4cda	0.15361348
212	0x3ccb3a50	0.024808079
213	0x3e0703e5	0.1318508
214	0xbd5c39b6	-0.053765975
215	0xbc134d9f	-0.008990674
216	0x3e4138ea	0.18869367
217	0x3db42cc7	0.08797603
218	0xbd01b305	-0.031664867
219	0x3aceb4ff	0.0015770494
220	0x3d0e24b4	0.03470297
221	0x3cc60d8a	0.024176378
222	0xbda39fcc	-0.07989463
223	0x3c944e33	0.018103695
224	0x3c308fbe	0.010776458
225	0x3c7c5984	0.015402202
226	0xbd438193	-0.047730993
227	0x3caeb6c7	0.02132739
228	0x3cfff319	0.031243848
229	0x3dc2283a	0.09480329
230	0xbdfa4fa9	-0.12222225
231	0x3cbba5ae	0.02290615
232	0x3d990b3d	0.07472847
233	0x3dc7e0f7	0.097597055
234	0xbc5ec8a4	-0.013597641
235	0xbca3d449	-0.019998686
236	0x3c9abcee	0.018888917
237	0x3dbfadec	0.09359345
238	0xbd5662ca	-0.052340306
239	0x3c8571da	0.01628964
240	0xbccee256	-0.02525441
241	0xbd8b201b	-0.06793233
242	0x3e1bc10f	0.15210365
243	0xbe2daade	-0.16959712
244	0x3dec0bfc	0.11525723
245	0xbe172959	-0.14761867
246	0x3d730bd8	0.059337467
247	0x3dcce9a8	0.10005504
248	0xbe2a0219	-0.16602363
249	0x3d537b6a	0.05163137
250	0x3dad7528	0.084696114
251	0x3d8f628b	0.070012175
252	0x3c446197	0.011986158
253	0xbd103bb4	-0.035213187
254	0xbd254fa0	-0.04035914
255	0x3d3e89b0	0.046518028

network_body._body_endoder.seq_layers.2.bias f4 [128]
0	0x00000000	0.0
1	0x00000000	0.0
2	0x00000000	0.0
3	0x00000000	0.0
4	0x00000000	0.0
5	0x00000000	0.0
6	0x00000000	0.0
7	0x00000000	0.0
8	0x00000000	0.0
9	0x00000000	0.0
10	0x00000000	0.0
11	0x00000000	0.0
12	0x00000000	0.0
13	0x00000000	0.0
14	0x00000000	0.0
15	0x00000000	0.0
16	0x00000000	0.0
17	0x00000000	0.0
18	0x00000000	0.0
19	0x00000000	0.0
20	0x00000000	0.0
21	0x00000000	0.0
22	0x00000000	0.0
23	0x00000000	0.0
24	0x00000000	0.0
25	0x00000000	0.0
26	0x00000000	0.0
27	0x00000000	0.0
28	0x00000000	0.0
29	0x00000000	0.0
30	0x00000000	0.0
31	0x00000000	0.0
32	0x00000000	0.0
33	0x00000000	0.0
34	0x00000000	0.0
35	0x00000000	0.0
36	0x00000000	0.0
37	0x00000000	0.0
38	0x00000000	0.0
39	0x00000000	0.0
40	0x00000000	0.0
41	0x00000000	0.0
42	0x00000000	0.0
43	0x00000000	0.0
44	0x00000000	0.0
45	0x00000000	0.0
46	0x00000000	0.0
47	0x00000000	0.0
48	0x00000000	0.0
49	0x00000000	0.0
50	0x00000000	0.0
51	0x00000000	0.0
52	0x00000000	0.0
53	0x00000000	0.0
54	0x00000000	0.0
55	0x00000000	0.0
56	0x00000000	0.0
57	0x00000000	0.0
58	0x00000000	0.0
59	0x00000000	0.0
60	0x00000000	0.0
61	0x00000000	0.0
62	0x00000000	0.0
63	0x00000000	0.0
64	0x00000000	0.0
65	0x00000000	0.0
66	0x00000000	0.0
67	0x00000000	0.0
68	0x00000000	0.0
69	0x00000000	0.0
70	0x00000000	0.0
71	0x00000000	0.0
72	0x00000000	0.0
73	0x00000000	0.0
74	0x00000000	0.0
75	0x00000000	0.0
76	0x00000000	0.0
77	0x00000000	0.0
78	0x00000000	0.0
79	0x00000000	0.0
80	0x00000000	0.0
81	0x00000000	0.0
82	0x00000000	0.0
83	0x00000000	0.0
84	0x00000000	0.0
85	0x00000000	0.0
86	0x00000000	0.0
87	0x00000000	0.0
88	0x00000000	0.0
89	0x00000000	0.0
90	0x00000000	0.0
91	0x00000000	0.0
92	0x00000000	0.0
93	0x00000000	0.0
94	0x00000000	0.0
95	0x00000000	0.0
96	0x00000000	0.0
97	0x00000000	0.0
98	0x00000000	0.0
99	0x00000000	0.0
100	0x00000000	0.0
101	0x00000000	0.0
102	0x00000000	0.0
103	0x00000000	0.0
104	0x00000000	0.0
105	0x00000000	0.0
106	0x00000000	0.0
107	0x00000000	0.0
108	0x00000000	0.0
109	0x00000000	0.0
110	0x00000000	0.0
111	0x00000000	0.0
112	0x00000000	0.0
113	0x00000000	0.0
114	0x00000000	0.0
115	0x00000000	0.0
116	0x00000000	0.0
117	0x00000000	0.0
118	0x00000000	0.0
119	0x00000000	0.0
120	0x00000000	0.0
121	0x00000000	0.0
122	0x00000000	0.0
123	0x00000000	0.0
124	0x00000000	0.0
125	0x00000000	0.0
126	0x00000000	0.0
127	0x00000000	0.0

value_heads.value_heads.extrinsic.weight f4 [1, 128]
0	0x3e565faa	0.2093493
1	0x3df8fd14	0.12157646
2	0xbd44c964	-0.048043624
3	0xbd666470	-0.05624813
4	0xbd9ed004	-0.077545196
5	0xbe1dc93a	-0.15408793
6	0xbde6ea13	-0.11275115
7	0xbe477dfb	-0.19481651
8	0x3bc905a0	0.0061347038
9	0xbc7f65a0	-0.015588194
10	0xbe3eb1da	-0.18622532
11	0x3d495138	0.04914972
12	0xbe2832e2	-0.1642566
13	0xbdce42b4	-0.10071316
14	0xbe47119d	-0.19440313
15	0xbe57911d	-0.2105145
16	0x3d253988	0.04033807
17	0x3d4f1860	0.050560355
18	0xbe1430a8	-0.14471686
19	0x3e5a41c0	0.21314144
20	0xbd8b954a	-0.06815584
21	0x3d98b48c	0.074563116
22	0x3e4551f8	0.1926955
23	0xbe0408c8	-0.12893975
24	0xbd956d62	-0.07296254
25	0x3e4bb1ce	0.19892046
26	0x3e1f7190	0.15570664
27	0xbd5a3c7c	-0.05328034
28	0x3d8a14d0	0.06742251
29	0x3e1bd6e0	0.15218687
30	0xbd772f6c	-0.06034796
31	0x3d03578c	0.032065913
32	0xbc09c7e0	-0.00840947
33	0xbd51bdcc	-0.051206395
34	0xbe437d71	-0.19090821
35	0x3e2a63e0	0.16639662
36	0xbd5b8ea4	-0.05360283
37	0x3deb95a0	0.11503148
38	0x3c67f080	0.014156461
39	0x3e4683cc	0.19386214
40	0x3d6b4b38	0.05744478
41	0x3e31516e	0.17316219
42	0x3d77d9d8	0.060510486
43	0x3d388fa0	0.045058846
44	0xbe0cba26	-0.13742885
45	0x3c368430	0.011139914
46	0x3e544472	0.20729235
47	0xbe54ec3c	-0.20793241
48	0x3bce86e0	0.0063026994
49	0xbde3219e	-0.11090396
50	0x3d886ff0	0.066619754
51	0x3e4ea22c	0.20179051
52	0x3e425ffe	0.1898193
53	0xbe062912	-0.13101605
54	0xbd66676c	-0.056250975
55	0x3db616f0	0.08891094
56	0xbe0497e2	-0.12948564
57	0x3d9aa148	0.07550293
58	0x3e01be7c	0.1267032
59	0x3dd8b390	0.10581124
60	0x3e142fa4	0.14471298
61	0x3c2b4b30	0.010454938
62	0x3df2ce64	0.11855772
63	0x3e2e8b2e	0.1704528
64	0xbe10103d	-0.14068694
65	0xbdbe4a21	-0.09291483
66	0xbc158740	-0.009126484
67	0x3c7e8df0	0.01553677
68	0x3e446b46	0.19181547
69	0xbdc5128c	-0.09622678
70	0xbe21bc78	-0.15794551
71	0xbe0daba9	-0.13835014
72	0x3db0456c	0.08606991
73	0x3d60ed50	0.05491382
74	0x3d33b4a8	0.04387346
75	0x3e49ed5a	0.19719449
76	0xbe3c63c5	-0.18397434
77	0x3dd101ec	0.10205445
78	0xbdf9e745	-0.12202314
79	0x3e21175e	0.1573157
80	0x3dc67b8c	0.096915334
81	0xbe37755e	-0.17915866
82	0xbd38fc10	-0.04516226
83	0x3e3c9298	0.18415296
84	0xbdbe6f55	-0.09298579
85	0x3d8f4710	0.06995976
86	0xbe1d7ade	-0.15378901
87	0xbe0e1466	-0.13874969
88	0x3d0f6948	0.035012513
89	0xbb12f540	-0.0022424012
90	0xbce7d8a8	-0.028301552
91	0xbe4d38d8	-0.20041215
92	0xbe0b51f8	-0.13605487
93	0x3e589bda	0.21153203
94	0xbe29751e	-0.16548583
95	0x3d933e7c	0.07189652
96	0xbe568d91	-0.20952441
97	0xbd6dc4c4	-0.05804898
98	0x3d262940	0.040566683
99	0x3e5cb30a	0.21552673
100	0x3dace464	0.084419996
101	0xbce00d88	-0.027350202
102	0x3d2cf0a8	0.042221695
103	0x3e0be862	0.13662866
104	0x3dfc9388	0.12332827
105	0xbb92cf60	-0.0044802874
106	0x3e303e0e	0.17211172
107	0xbd977be4	-0.07396677
108	0xbd41a924	-0.047280446
109	0x3cedde08	0.029036537
110	0x3e0ab554	0.13545734
111	0xbdf07da4	-0.11742714
112	0xbbfa67a0	-0.0076417476
113	0x3e48405a	0.19555798
114	0x3d24b2e8	0.04020968
115	0xbda1f61c	-0.0790827
116	0x3c249850	0.01004608
117	0xbdec747e	-0.115456566
118	0x3e592a8c	0.21207637
119	0xbe25266d	-0.1612794
120	0xbe24392b	-0.16037433
121	0xbc9dd0c8	-0.019264594
122	0xbd6a1bd8	-0.05715546
123	0xbe121134	-0.14264375
124	0xbe4c2755	-0.19936879
125	0x3d633900	0.05547428
126	0x3df63d34	0.12023392
127	0x3dea67d0	0.11445582
