results/Test/MoveToGoal/MoveToGoal-499986.pt (torch, 441366 bytes, 36 tensors)

network_body._body_endoder.seq_layers.0.weight f4 [128, 6]
-0.3411991 -1.1324345 -0.23222364 0.42873925 0.7180489 -0.27960086 0.62256694 -0.39565074
0.09120136 0.45486248 0.50167423 0.23334527 -0.18021439 0.6429761 0.06251481 0.74317914
0.3836494 0.32227772 -0.3406161 0.471974 0.5127084 -0.14694822 0.48673084 0.25267854
-0.48561254 -0.13379787 0.468792 0.36839682 -0.42795604 0.6055419 0.526969 0.59629166
0.007948474 0.24200718 -0.42992863 0.37968093 0.31868994 0.19093288 0.7483774 0.29116994
-0.04792696 0.22081038 -0.028900916 0.4477708 0.10776073 0.10184272 0.5365629 0.050909124
0.8779807 -0.18775974 0.5397225 0.48691162 0.54025435 0.48276967 0.3509447 -0.50628805
0.044042464 0.17398477 -0.5830747 0.60726357 -0.32984403 -0.2845764 0.49338666 0.36345884
0.6869988 0.0018571626 0.152226 0.031191561 -0.25583982 -0.66171056 -0.086709306 -0.52746964
-0.27890247 -0.592871 0.27001795 0.75266784 -0.19602789 0.8894355 0.038387574 -0.29833484
0.37977794 -0.1234661 0.13982049 -0.10205957 -0.6863245 -0.19111258 0.61110824 -0.017646842
0.06728839 0.0043315585 -0.14914523 0.13050872 0.73816127 0.40540642 0.91531897 -0.18873018
-0.040707108 -0.06477798 -0.089487866 0.96595705 -0.36612865 -0.65975064 0.5704384 0.30990797
-0.49771795 0.32448688 -0.1312583 -0.29534584 -0.15698193 -0.3520762 -0.07176748 0.17045847
-0.5126502 0.51436764 -0.19394088 0.16048485 0.1667822 -0.20488438 0.16952196 -0.24330696
0.5842479 -0.8162633 0.72413605 -0.10224926 0.32291287 0.03713925 0.8321104 0.49786875
-0.5540841 0.11201684 -0.16926867 0.19962028 -0.11694115 0.49732634 0.068584464 -0.08364694
0.5316385 0.066539764 0.21545438 0.0023381924 0.069102876 0.16965395 0.5555461 0.26864362
0.35296434 0.7044687 -0.13989979 -0.6691702 -0.4938545 -0.084272146 -0.49745047 0.12734203
-0.42867312 -0.37331474 -0.09360775 -0.28596807 -0.49417594 0.5999805 -0.63404834 -0.08272815
-0.09489449 -0.14388227 0.51517385 -0.29072562 0.25517458 -0.08384959 0.6630458 -0.2706321
-0.34933954 -0.23955025 -0.053293947 0.52757686 -0.26561478 0.06481535 -0.31412232 0.4647148
-0.52217704 0.94150484 0.15332429 -0.15176204 -1.0305951 -1.0626117 -0.25115395 0.7473995
-0.9274364 0.39420605 -0.0054550776 0.94934076 -0.12670337 -0.44417316 -0.12174417 -0.1542893
0.15626925 -0.4785305 0.25957626 -0.115196235 0.44495934 -0.80985415 -0.19203798 0.10477002
-0.14178036 0.057077613 0.29607126 -0.2201188 -0.35238776 0.023704164 -0.43079957 -0.07680124
0.023809709 -0.11446061 -0.08433242 0.57843363 0.5811476 -0.2964067 0.11506482 -0.1664331
0.71378696 0.52387404 -0.25273272 -0.5045206 0.42410824 -0.19125833 0.62868094 0.44758525
-0.34446695 0.4471176 -0.51485556 0.32530764 -0.65398526 -0.3010483 0.0886047 -0.14008926
-0.00984305 -0.08724344 -0.06434501 0.107619874 -0.1696626 -0.37334377 -0.04418694 -0.029852757
0.032524027 0.49558663 0.13196455 0.032253906 -0.22350647 0.2985562 0.93470997 0.051077686
0.42361906 0.12097235 -0.46978807 0.56751466 0.33082926 -0.10892949 -0.24534316 -0.59075034
00000000: a6b1 aebe 9df3 90bf 09cc 6dbe b683 db3e
00000010: 0dd2 373f d827 8fbe 8c60 1f3f bc92 cabe
00000020: c7c7 ba3d bce3 e83e b96d 003f 10f2 6e3e
00000030: 1f8a 38be 159a 243f c407 803d fd40 3e3f
00000040: b26d c43e 9601 a53e 3c65 aebe 93a6 f13e
00000050: dc40 033f 9879 16be c934 f93e 155f 813e
00000060: 35a2 f8be 4f02 09be 8105 f03e 829e bc3e
00000070: 0e1d dbbe cb04 1b3f 71e7 063f 92a6 183f
00000080: 513a 023c bbd0 773e 9b1f dcbe 8a65 c23e
00000090: 542b a33e e983 433e a995 3f3f 3a14 953e
000000a0: 0f4f 44bd 1e1c 623e 9dc1 ecbc 3742 e53e
000000b0: a8b1 dc3d ea92 d03d 305c 093f 1686 503d
000000c0: 58c3 603f 1744 40be 412b 0a3f 7b4c f93e
000000d0: 1c4e 0a3f 962d f73e 06af b33e 189c 01bf
000000e0: df65 343d 1029 323e 6244 15bf a075 1b3f
000000f0: 51e1 a8be ffb3 91be 2d9d fc3e 4717 ba3e
00000100: 27df 2f3f 096c f33a 22e1 1b3e 7285 ff3c
00000110: 70fd 82be dd65 29bf a694 b1bd 4008 07bf
00000120: 4ecc 8ebe 65c6 17bf cb3f 8a3e d7ae 403f
00000130: 89bb 48be 0cb2 633f 4a3c 1d3d 58bf 98be
00000140: 4172 c23e cbdb fcbd 1a2d 0f3e 9c04 d1bd
00000150: f6b2 2fbf 04b3 43be 9771 1c3f 1c90 90bc
00000160: 7fce 893d bfef 8d3b 87b9 18be 14a4 053e
00000170: 23f8 3c3f 6e91 cf3e 5852 6a3f 7c42 41be
00000180: 7fbc 26bd 51aa 84bd 6a45 b7bd f648 773f
00000190: 3775 bbbe 6be5 28bf 4008 123f 42ac 9e3e
000001a0: e3d4 febe 2523 a63e 9368 06be 9237 97be
000001b0: dfbf 20be 5543 b4be d4fa 92bd aa8c 2e3e
000001c0: 0b3d 03bf 99ad 033f 7098 46be 2456 243e
000001d0: f4c8 2a3e 36cd 51be 2a97 2d3e 7625 79be
000001e0: 4591 153f a2f6 50bf fb60 393f 0f68 d1bd
000001f0: d654 a53e 541f 183d 3005 553f a7e8 fe3e
00000200: 75d8 0dbf 1669 e53d c454 2dbe 4269 4c3e
00000210: d77e efbd 8fa1 fe3e 0376 8c3d 164f abbd
00000220: 7619 083f 0046 883d 13a0 5c3e 5c3c 193b
00000230: cf85 8d3d c4b9 2d3e 4538 0e3f a88b 893e
00000240: beb7 b43e 1058 343f e441 0fbe bd4e 2bbf
00000250: 7fda fcbe e096 acbd d4b1 febe f365 023e
00000260: 0b7b dbbe 1c23 bfbe 6cb5 bfbd 686a 92be
00000270: a104 fdbe 5298 193f fe50 22bf 606d a9bd
00000280: 0b58 c2bd e055 13be 6fe2 033f fdd9 94be
00000290: 3ea6 823e 55b9 abbd 5fbd 293f 4a90 8abe
000002a0: a2dc b2be a94c 75be c14a 5abd 470f 073f
000002b0: a9fe 87be e9bd 843d a4d4 a0be 19ef ed3e
000002c0: 65ad 05bf 7606 713f 0b01 1d3e 8267 1bbe
000002d0: 8aea 83bf a903 88bf 4097 80be 9355 3f3f
000002e0: 796c 6dbf 60d5 c93e 82c0 b2bb ff07 733f
000002f0: 87be 01be aa6a e3be 0255 f9bd 04fe 1dbe
00000300: 0c05 203e f301 f5be 2ee7 843e 01ec ebbd
00000310: b6d1 e33e 9a52 4fbf 9ba5 44be aa91 d63d
00000320: df2e 11be 37ca 693d a796 973e d366 61be
00000330: 2b6c b4be 3c2f c23c c391 dcbe f849 9dbd
00000340: 940c c33c 536a eabd 7ab6 acbd 3a14 143f
00000350: 17c6 143f 9ec2 97be 1ba7 eb3d 706d 2abe
00000360: beba 363f 9c1c 063f 2f66 81be 4328 01bf
00000370: b724 d93e 39d9 43be 3cf1 203f e529 e53e
00000380: f95d b0be 99ec e43e 93cd 03bf b98e a63e
00000390: 946b 27bf 0123 9abe 6276 b53d 8f73 0fbe
000003a0: be44 21bc b0ac b2bd 51c7 83bd cf67 dc3d
000003b0: 08bc 2dbe ea26 bfbe 5dfd 34bd c58d f4bc
000003c0: ea37 053d 88bd fd3e b721 073e ac1c 043d
000003d0: e1de 64be 5cdc 983e 2749 6f3f d636 513d
000003e0: 99e4 d83e 5ac0 f73d 1088 f0be a448 113f
000003f0: 7462 a93e 6d16 dfbd 3d3b 7bbe 6a3b 17bf

network_body._body_endoder.seq_layers.0.bias f4 [128]
1.6603643e-05 -0.0011627632 -0.0021806357 -0.011181965 0.0026779347 -0.0034675049 -0.012316661 0.0058369283
0.0020478119 -0.00991731 0.0065106917 -0.0100167515 -0.001438321 -0.0021572453 0.0055790367 0.007496134
0.016423063 0.0076384065 -0.005971774 0.0023416418 -0.012363782 -0.0037731691 0.0043510636 0.00074166735
-0.002903656 -0.00021202835 -0.0027698881 0.00073584105 0.004292217 0.0018699752 -0.0047795367 0.013782051
0.008976202 0.0026618668 0.001914291 0.006151548 -0.007575136 0.0034775545 -0.007593633 0.0019894424
0.0031349766 -0.0103533035 0.0011797934 0.0051253075 0.001542343 0.0025143665 -0.00058364496 -0.0052396655
-0.0027143627 -0.004876891 0.0041566975 -0.0065479027 -0.014724059 0.0077485885 -0.005731083 -0.0060625924
-0.0049227397 0.015382623 0.0024870043 0.0011199472 0.0027094295 0.0030313134 0.0008572755 -0.0051072645
0.0018549057 -0.012974883 -0.0027564252 0.008827111 -0.0018187272 0.0007747879 -0.0052333847 -0.0058298483
-0.0030955407 4.5107983e-05 -0.011983554 -0.012982325 -0.006241209 -0.010067359 -0.012033121 0.009639856
-0.005519805 -0.0035032984 -0.008332844 -0.010210728 -0.0034574475 0.007440636 -0.0045760684 -0.0048239864
-0.010148151 0.014051478 0.0067416327 -0.0009833572 -0.011293797 -0.0064513846 -0.012908432 0.008971012
-0.0032361331 0.0060383505 0.0024286057 0.013945932 -0.005773897 0.007946038 -0.00044079332 -0.0071753175
0.004759724 0.00396206 -0.0024582748 -0.0050535565 0.0083227875 -0.018256202 -0.008144968 -0.00085678
-0.005517268 0.0026834372 -0.009148551 0.009345275 0.0060983677 0.007706387 -0.010206672 -0.0023189539
-0.0055892305 0.014971354 -0.0016438686 -0.019259056 -0.009797686 -0.0033476201 -0.004353369 0.007886519
00000000: 0d48 8b37 dc67 98ba ffe8 0ebb 8f34 37bc
00000010: 4a80 2f3b 143f 63bb d2cb 49bc b443 bf3b
00000020: 9534 063b 377c 22bc a457 d53b 4d1d 24bc
00000030: 0b86 bcba 9260 0dbb 5ad0 b63b 21a2 f53b
00000040: a989 863c 994b fa3b dfae c3bb 3b76 193b
00000050: 7691 4abc 4647 77bb 5e93 8e3b 746c 423a
00000060: 444b 3ebb ed53 5eb9 0387 35bb 75e5 403a
00000070: baa5 8c3b f519 f53a a99d 9cbb 1dce 613c
00000080: ec10 133c b772 2e3b f2e8 fa3a ed92 c93b
00000090: d938 f8bb afe7 633b 03d4 f8bb 4e61 023b
000000a0: 2e74 4d3b e7a0 29bc 4ca3 9a3a 32f2 a73b
000000b0: 7128 ca3a 12c8 243b c0ff 18ba 80b1 abbb
000000c0: 73e3 31bb 54ce 9fbb e834 883b ca8f d6bb
000000d0: 2e3d 71bc dfe7 fd3b cfcb bbbb b6a8 c6bb
000000e0: ef4e a1bb 6607 7c3c 02fd 223b 31cb 923a
000000f0: af90 313b 00a9 463b c9ba 603a d75a a7bb
00000100: 4f20 f33a 9b94 54bc 24a5 34bb 969f 103c
00000110: 5c62 eeba 231b 4b3a d07c abbb 5008 bfbb
00000120: 8ede 4abb 5432 3d38 ab56 44bc d1b3 54bc
00000130: 0e83 ccbb 90f1 24bc 9126 45bc 7df0 1d3c
00000140: 7bdf b4bb 9897 65bb 7b86 08bc e64a 27bc
00000150: 5896 62bb 94d0 f33b d8f2 95bb 8812 9ebb
00000160: 6e44 26bc 2c38 663c eae8 dc3b fee3 80ba
00000170: 9e09 39bc 2366 d3bb e37d 53bc 27fb 123c
00000180: 4e15 54bb 5bdd c53b 3e29 1f3b 7a7d 643c
00000190: f532 bdbb 1930 023c 471a e7b9 ed1e ebbb
000001a0: 75f7 9b3b 2bd4 813b 021b 21bb 4e98 a5bb
000001b0: 4d5c 083c 088e 95bc 7972 05bc 8899 60ba
000001c0: 33ca b4bb 9bdc 2f3b cee3 15bc ed1c 193c
000001d0: d1d4 c73b dc85 fc3b e339 27bc 97f9 17bb
000001e0: dd25 b7bb 694a 753c 1477 d7ba 2bc5 9dbc
000001f0: 7986 20bc bf63 5bbb b5a6 8ebb 7536 013c

network_body._body_endoder.seq_layers.2.weight f4 [128, 128]
-0.0009885838 -0.15290259 0.15704957 -0.12506087 -0.008292355 -0.20078917 -0.047963466 -0.07465517
-0.012473148 -0.021058979 0.025411904 -0.0054503507 0.049227517 -0.038365845 -0.035488605 0.00978911
0.130315 -0.03730775 -0.08984386 -0.12035586 0.05225979 0.046958674 0.04580903 -0.078224525
0.023188736 0.1806952 -0.025087975 0.17688522 0.043136254 0.04491929 -0.033708602 -0.07109951
-0.16223182 0.06360727 0.048971232 -0.15096864 -0.08817039 0.07578335 0.17501135 0.040448666
0.082476646 -0.06474838 -0.08098256 0.018308515 -0.01739837 0.06634774 0.007059027 0.010025196
-0.020184293 0.17211422 -0.18385404 0.020628817 0.08494942 0.06282592 0.13573122 0.007537177
-0.107498 -0.015185768 -0.041248925 0.046298373 0.08167357 0.023216624 -0.120330825 0.0914901
0.082015954 -0.030108025 0.032698322 0.020592174 0.09984495 -0.038735334 -0.16734296 0.016311917
-0.13467383 0.029080352 0.06609207 -0.12789758 -0.14575066 -0.08699526 0.034243852 -0.010416765
0.25997856 0.11324616 -0.027167201 0.10405066 0.024383215 -0.06504563 0.04710989 -0.015578486
-0.21912491 0.09820257 -0.10049593 0.054276567 -0.08667034 -0.027649606 0.045670405 -0.13743992
0.016147723 -0.011158433 -0.026415229 -0.065148085 -0.10600675 -0.041468926 -0.036244806 -0.069094196
0.066349626 0.036150306 -0.04085257 0.011035266 -0.039528508 0.09555694 0.09477459 0.034158643
-0.027017271 -0.03339832 0.14002676 -0.089001775 -0.046047036 -0.035617772 -0.1245503 -0.037096407
0.039001442 0.06759778 0.14300363 0.014820674 -0.073036924 -0.019057445 -0.05638447 0.15083417
-0.05577026 0.3102224 0.001440795 0.29424575 -0.034574803 0.071468845 0.024030961 -0.0018742937
-0.032400534 -0.21031924 -0.06541816 -0.15843497 0.09301407 -0.087095305 -0.11187112 -0.15342195
0.050389275 0.05338191 -0.087516166 0.04693076 -0.059717827 -0.013145392 -0.16505937 -0.054797575
0.029465003 -0.052628275 0.030494267 0.06457563 -0.1881151 0.13825245 0.091357924 -0.07622447
0.013161778 -0.108397424 -0.08165805 0.12803671 0.061656095 0.0730118 -0.08626322 -0.018132389
-0.14276125 0.03998853 0.03516233 -0.09269267 0.07701951 -0.090072885 -0.0051395856 -0.11797006
0.030752124 0.007791974 -0.05070903 -0.060360987 0.08118743 -0.023792347 0.048439246 -0.012121117
-0.008939899 -0.06814213 -0.1159911 -0.09584592 -0.037592202 0.00045080262 0.013415578 -0.012220042
0.06608572 0.057503153 0.047434617 0.08505061 0.038145464 0.107963935 0.0879202 0.036051553
0.0041770535 -0.04135723 0.20067964 -0.0821662 -0.06281664 0.00075160415 0.016203279 0.093003556
-0.09920888 0.1720324 0.052480645 -0.06795549 -0.0378263 -0.07727963 -0.008511688 -0.00490111
-0.0024405518 0.07440261 -0.06307917 -0.15966544 -0.11872648 0.030284911 0.009219488 0.17857157
0.11058924 -0.14379287 0.114916414 0.079628244 -0.1489771 0.06274898 -0.08262077 0.0023929633
-0.06069958 0.003838863 0.012371413 -0.054116268 0.06893856 -0.09577653 -0.09791502 0.1488525
0.05079294 -0.24065743 -0.025779052 0.10391495 0.020169895 0.14873156 -0.10415978 0.059234984
0.11712176 0.0068864604 -0.004978348 -0.06079499 0.018383203 0.01300517 0.03835862 -0.045386657
00000000: 5e93 81ba 7f92 1cbe 9ad1 203e f50f 00be
00000010: a8dc 07bc ad9b 4dbe 5775 44bd cfe4 98bd
00000020: 2d5c 4cbc e183 acbc a02c d03c db98 b2bb
00000030: cba2 493d 8125 1dbd 805c 11bd 8162 203c
00000040: 4c71 053e 03d0 18bd 0f00 b8bd 227d f6bd
00000050: 5d0e 563d bd57 403d 40a2 3b3d 2e34 a0bd
00000060: 4ef6 bd3c 2a08 393e 4c85 cdbc 6621 353e
00000070: a4af 303d 4afd 373d 0812 0abd 9f9c 91bd
00000080: 1920 26be 8744 823d 0f96 483d 8697 1abe
00000090: ad92 b4bd 4d34 9b3d 2d36 333e 80ad 253d
000000a0: 84e9 a83d cc9a 84bd 2fda a5bd bdfb 953c
000000b0: 0787 8ebc 53e1 873d 694f e73b b840 243c
000000c0: 8859 a5bc b63e 303e 3c44 3cbe c4fd a83c
000000d0: f6f9 ad3d e0aa 803d 20fd 0a3e 6cfa f63b
000000e0: e927 dcbd bacd 78bc a2f4 28bd 5da3 3d3d
000000f0: 7944 a73d ca30 be3c 0270 f6bd 295f bb3d
00000100: fbf7 a73d 1ba5 f6bc adee 053d ebb0 a83c
00000110: 827b cc3d f1a8 1ebd f45b 2bbe 92a0 853c
00000120: f0e7 09be eb39 ee3c 475b 873d 95f7 02be
00000130: a93f 15be 922a b2bd 4843 0c3d 14ab 2abc
00000140: e91b 853e 9aed e73d c08d debc 8318 d53d
00000150: 4fbf c73c a536 85bd 4df6 403d e83c 7fbc
00000160: 4862 60be 6e1e c93d cfd0 cdbd 1b51 5e3d
00000170: 3880 b1bd 6d81 e2bc e410 3b3d 0dbd 0cbe
00000180: 3b48 843c dcd1 36bc c064 d8bc 5c6c 85bd
00000190: 111a d9bd 52db 29bd 6f75 14bd 4281 8dbd
000001a0: 50e2 873d 5812 143d 0655 27bd 43cd 343c
000001b0: a5e8 21bd 5bb3 c33d 2e19 c23d efe9 0b3d
000001c0: 5353 ddbc adcc 08bd 2d63 0f3e 9046 b6bd
000001d0: d19b 3cbd f1e3 11bd 3a14 ffbd 67f2 17bd
000001e0: fabf 1f3d b470 8a3d 8b6f 123e 6ad2 723c
000001f0: 6294 95bd 5c1e 9cbc 67f3 66bd 4674 1a3e
00000200: 5b6f 64bd 78d5 9e3e 0fd9 bc3a 61a7 963e
00000210: 4f9e 0dbd 425e 923d 94dc c43c dcaa f5ba
00000220: 6cb6 04bd ed5d 57be f5f9 85bd c73c 22be
00000230: 297e be3d 065f b2bd b01c e5bd a51a 1dbe
00000240: fc64 4e3d fda6 5a3d ad3b b3bd 783a 403d
00000250: ae9a 74bd c55f 57bc 5305 29be 6c73 60bd
00000260: 9760 f13c bf90 57bd 1dcf f93c 3a40 843d
00000270: 3fa1 40be 0d92 0d3e dd19 bb3d 931b 9cbd
00000280: 80a4 573c 78ff ddbd 563c a7bd 0e1c 033e
00000290: 1a8b 7c3d 3687 953d c5aa b0bd 608a 94bc
000002a0: 0130 12be 03cb 233d 6006 103d a8d5 bdbd
000002b0: 68bc 9d3d 2278 b8bd f869 a8bb 499a f1bd
000002c0: e1eb fb3c d153 ff3b 46b4 4fbd 153d 77bd
000002d0: 9845 a63d 2be8 c2bc 3b68 463d a697 46bc
000002e0: a778 12bc 1a8e 8bbd be8c edbd de4a c4bd
000002f0: 48fa 19bd b459 ec39 03cd 5b3c 9236 48bc
00000300: f357 873d 6d88 6b3d cd4a 423d 042f ae3d
00000310: 6b3e 1c3d 321c dd3d 810f b43d cbaa 133d
00000320: aadf 883b 3366 29bd f77e 4d3e c146 a8bd
00000330: 03a6 80bd 4d07 453a bdbc 843c a678 be3d
00000340: 062e cbbd 4329 303e f2f5 563d 3f2c 8bbd
00000350: c0ef 1abd c844 9ebd 9b74 0bbc 7e99 a0bb
00000360: aaf1 1fbb 6560 983d a72f 81bd 567f 23be
00000370: de26 f3bd 1018 f83c 560d 173c 77db 363e
00000380: 9d7c e23d 703e 13be 4c59 eb3d 2214 a33d
00000390: 748d 18be 8a82 803d 1435 a9bd 43d3 1c3b
000003a0: 1fa0 78bd 6f95 7b3b 78b1 4a3c 05a9 5dbd
000003b0: a92f 8d3d 7c26 c4bd ac87 c8bd ca6c 183e
000003c0: 420c 503d e76e 76be 972e d3bc 5cd1 d43d
000003d0: 563b a53c 164d 183e b951 d5bd 62a0 723d
000003e0: 89dd ef3d d1a7 e13b 6921 a3bb 2b04 79bd
000003f0: 5f98 963c a313 553c ee1d 1d3d 5ce7 39bd

network_body._body_endoder.seq_layers.2.bias f4 [128]
-0.0020615563 -0.0077980747 4.6338468e-05 0.0031514443 -0.0059581613 -0.003045546 -0.0016227762 -0.004019327
0.0020605992 0.0016641454 -0.0025391323 -0.005630324 -0.000528348 0.010444201 -0.0011105819 -0.006838725
0.007436268 0.007510305 0.0053999056 -0.004493015 0.0053337314 -0.00022754558 0.0068573197 -0.008869487
-0.005006259 0.00026479617 0.008969011 0.008700989 -0.0051184557 -0.009852527 -0.0047921124 0.007284811
0.006292252 0.0329311 -0.0019737422 0.010292252 -0.002142894 0.00044611146 0.00025137502 -0.0005094687
0.0024808953 0.0045940788 -0.0019262101 0.0015192974 0.0042670527 -0.0039878143 0.003265148 0.00921349
0.0012842969 -0.006073276 0.006503898 -0.008499089 0.0063683633 0.005763966 2.275198e-05 -0.013828584
0.00015905882 -0.004966031 -0.008753072 -0.009990388 0.00601991 -0.0035901933 -0.0097116595 -0.0022914056
0.0013613313 -0.0065580676 -0.004701113 -0.0049372646 -0.0013214896 -0.00015057316 -0.007845913 -0.0020529737
0.012695107 0.002520507 -0.009083617 0.007444097 0.002074153 0.0016959884 -0.001363462 0.0113016255
-0.0028672998 0.0017115455 -0.0029780346 0.004532044 0.0012991902 0.0067235944 -0.004090394 -0.0053929035
-0.0010329158 0.011546286 0.00038572052 -0.0040807966 -0.00035820663 -0.0036531596 0.00204955 -0.002924717
0.004336706 -0.010136098 0.0043489947 -0.0053911656 -0.0066701244 -0.005945441 0.0006331377 0.006201513
0.0013939966 -0.0041713947 0.0022070382 0.0026618307 -0.0047171446 0.0089242095 0.0022106962 -0.013323635
0.005135668 0.005727387 -0.007465336 1.4419659e-05 0.0022562342 -0.0015336592 -0.0055272896 0.0017610857
-0.0014361939 0.0025212127 -0.00059886527 0.006183336 0.00073899183 0.009579854 -0.0006180517 -0.002292916
00000000: 2d1b 07bb fe86 ffbb 8d5b 4238 7688 4e3b
00000010: ae3c c3bb c897 47bb 55b3 d4ba 8fb4 83bb
00000020: 1e0b 073b 741f da3a 9267 26bb 957e b8bb
00000030: d680 0aba 271e 2b3c f290 91ba 6217 e0bb
00000040: f0ab f33b 0119 f63b b1f1 b03b 243a 93bb
00000050: 95c6 ae3b 4d99 6eb9 5eb3 e03b 5351 11bc
00000060: 8b0b a4bb 57d4 8a39 c2f2 123c 988e 0e3c
00000070: b8b8 a7bb 7e6c 21bc 2707 9dbb 6db5 ee3b
00000080: 3c2f ce3b c3e2 063d e659 01bb d5a0 283c
00000090: cc6f 0cbb 11e4 e939 fcca 8339 de8d 05ba
000000a0: 8496 223b ed89 963b e378 fcba 2923 c73a
000000b0: a2d2 8b3b 36ac 82bb 18fc 553b 2ef4 163c
000000c0: da55 a83a 5502 c7bb a71e d53b c33f 0bbc
000000d0: b4ad d03b a7df bc3b 81db be37 4991 62bc
000000e0: 07c9 2639 16ba a2bb 0b69 0fbc b9ae 23bc
000000f0: aa42 c53b 7349 6bbb a71d 1fbc 682b 16bb
00000100: b36e b23a 0fe5 d6bb cb0b 9abb c7c8 a1bb
00000110: d535 adba 2de3 1db9 258c 00bc 2f8b 06bb
00000120: 23ff 4f3c 172f 253b 73d3 14bc 9ded f33b
00000130: 83ee 073b ed4b de3a 31b6 b2ba 742a 393c
00000140: 4fe9 3bbb f055 e03a 212b 43bb 8a81 943b
00000150: 9749 aa3a 9951 dc3b b608 86bb f4b6 b0bb
00000160: e762 87ba a22c 3d3c 883a ca39 34b8 85bb
00000170: aecd bbb9 d969 6fbb be51 063b 9cac 3fbb
00000180: ed1a 8e3b e011 26bc 0382 8e3b 60a8 b0bb
00000190: 0f91 dabb f9d1 c2bb 27f9 253a 1036 cb3b
000001a0: c4b6 b63a 32b0 88bb f5a3 103b 1c72 2e3b
000001b0: 4792 9abb d936 123c 54e1 103b 604b 5abc
000001c0: 1b49 a83b ceac bb3b c79f f4bb f7eb 7137
000001d0: 54dd 133b 1005 c9ba 441e b5bb 3bd4 e63a
000001e0: ac3e bcba ee3a 253b 2bfd 1cba 959d ca3b
000001f0: e7b8 413a d2f4 1c3c bf04 22ba bf44 16bb

action_model._continuous_distribution.log_sigma f4 [1, 2]
-0.006018028 0.015498194
00000000: e132 c5bb 23ec 7d3c

action_model._continuous_distribution.mu.weight f4 [2, 128]
-0.005979055 0.0045495373 0.037693337 -0.030320542 0.011842465 -0.040317357 -0.024704913 0.031611014
-0.011878657 -0.009187328 0.008284424 -0.0023757624 -0.009375089 -0.017292483 0.004322947 0.033588726
-0.021039624 5.4343218e-05 0.018768402 0.014160586 0.004444906 0.020708824 -0.09863975 0.020357097
-0.00033014108 -0.0033469626 -0.003784874 -0.04991474 0.018909913 0.014574954 0.007951799 -0.026510991
0.004279829 0.036954723 0.021006249 0.02635193 0.010356125 0.028749702 -0.028405067 0.013323133
0.010874824 0.00034633928 -0.01008169 -0.027122004 0.002227816 -0.006722332 0.0033384291 -0.00886565
-0.0012962193 0.01011846 -0.010009019 0.0059913285 0.007341594 -0.0071486346 0.01994835 0.0036129465
-0.01609242 0.0030226 0.018287418 0.025717445 -0.024150198 -0.006633298 0.021455228 0.0068617086
0.0017734172 -0.017380742 0.014068612 -0.0033244928 -0.027852632 -0.015103401 -0.040264096 0.027256295
-0.048756044 0.0064663924 -0.007814454 -0.022475878 -0.0051709325 -0.023446528 0.014412796 -0.027725305
-0.034533735 -0.0011728989 0.020670347 0.00094345794 -0.013831576 -0.0025958603 -0.017442705 0.001697195
-0.0021353872 -0.052403465 0.03364878 0.019331116 -0.021360222 0.011524776 -0.012315722 -0.0050371266
-0.006886071 -0.00028527933 -0.011683513 0.014575656 0.00720966 0.016282855 -0.010647323 -0.024399525
0.0039739343 -0.042855516 -0.003558384 -0.026703937 0.0041620666 -0.08665463 -0.006362691 0.017367395
-0.00082233385 -0.018462451 0.0051601087 0.02146875 -0.008652936 -0.015782848 0.009207595 -0.005571024
-0.026610292 0.026725367 -0.009522446 -0.010471905 0.011036935 -0.03119936 -0.0070652734 0.002541743
-0.025919683 0.0009862159 0.007789641 -0.0016936015 0.021713927 0.0021621606 0.0009756248 -0.0070028687
-0.030833852 -0.013560153 -0.0028127502 -0.0029198478 0.013794957 -0.0056487266 -0.03031233 -0.021944238
0.008605367 -0.019837998 -0.0014219529 0.02577526 -0.01920438 -0.024709491 0.04776922 -0.02027607
0.01745186 0.014600478 -0.040504884 0.080141045 0.025083644 -0.023645913 0.009925489 0.010506665
-0.022184124 -0.022975093 0.0050244066 0.014195214 -0.0016040329 -0.014755342 0.0044636414 0.022033742
-0.020569948 0.007858461 0.040081464 -0.009883452 -0.007537422 0.020762157 -0.029190034 -0.007558637
-0.020160997 -0.0009649535 0.034402493 -0.020597892 -0.03134523 0.0063069593 -0.014852386 -0.011753389
-0.036725424 0.013191882 0.014230693 0.006403887 -0.01987659 0.045718774 0.0011120524 0.0022160343
0.0272272 -0.004395418 0.0040500676 0.029932477 -0.0315062 0.0044694394 0.021353047 -0.016876172
-0.01580703 -0.009413855 0.012601586 0.046485186 0.0062785847 0.013047987 0.0032232315 -0.026153743
0.035892293 -0.010542725 -0.019490559 0.031252056 -0.00054346514 -0.029503232 0.020793492 0.022577265
-0.03312912 -0.03183221 -0.035834473 -0.0033867462 0.012989531 0.015852075 -0.014308304 0.011836572
-0.028002042 -0.00061193376 0.0074333097 0.041175008 0.008656629 -0.0006459495 -0.0025576206 -0.01650397
0.006999917 0.015808877 0.0019111655 0.0066850786 0.019552507 0.046826545 -0.012139852 0.02639975
0.016305232 -0.007158513 0.048237246 -0.031813238 -0.009492258 -0.0038475923 0.0003829045 0.0035505882
-0.023025952 -0.010717629 0.02032039 0.04052442 -0.017984835 -0.014801627 -0.016851373 -0.00705598
00000000: f3eb c3bb 4914 953b 5464 1a3d c962 f8bc
00000010: e606 423c d023 25bd f561 cabc 8d7a 013d
00000020: b39e 42bc 7286 16bc 65bb 073c aeb2 1bbb
00000030: f999 19bc f7a8 8dbc 82a7 8d3b 5594 093d
00000040: 4a5b acbc 96ee 6338 31c0 993c cd01 683c
00000050: 93a6 913b 8da5 a93c a303 cabd edc3 a63c
00000060: c916 adb9 b758 5bbb a60b 78bb 6673 4cbd
00000070: f6e8 9a3c cacb 6e3c 4348 023c 942d d9bc
00000080: cf3d 8c3b d65d 173d 4c15 ac3c 01e0 d73c
00000090: bdac 293c 7f84 eb3c beb1 e8bc 4549 5a3c
000000a0: 512c 323c df94 b539 ac2d 25bc f72e debc
000000b0: 8d00 123b 0247 dcbb 8cc9 5a3b 3b41 11bc
000000c0: e7e5 a9ba e6c7 253c defc 23bc e852 c43b
000000d0: c191 f03b 183f eabb b96a a33c 2fc7 6c3b
000000e0: 40d4 83bc d016 463b 7fcf 953c 64ad d23c
000000f0: a3d6 c5bc 235c d9bb e0c2 af3c 2fd8 e03b
00000100: 0272 e83a 0f62 8ebc 0980 663c bcdf 59bb
00000110: 342b e4bc 4174 77bc f7eb 24bd 9848 df3c
00000120: 6bb4 47bd 08e4 d33b 3208 00bc 551f b8bc
00000130: ed70 a9bb ef12 c0bc a623 6c3c 2e20 e3bc
00000140: 3f73 0dbd f5bb 99ba dc54 a93c 6452 773a
00000150: d69d 62bc 4f1f 2abb 01e4 8ebc 6a74 de3a
00000160: daf1 0bbb 04a5 56bd 4ed3 093d 4a5c 9e3c
00000170: a2fb aebc 6ad2 3c3c e2c7 49bc 7b0e a5bb
00000180: 8da4 e1bb 8b91 95b9 356c 3fbc bbce 6e3c
00000190: 033f ec3b 9f63 853c 1c72 2ebc 83e1 c7bc
000001a0: c737 823b 4489 2fbd c733 69bb 37c2 dabc
000001b0: f261 883b fc77 b1bd 1f7e d0bb 1146 8e3c
000001c0: e491 57ba 913e 97bc 2116 a93b 3bdf af3c
000001d0: 0bc5 0dbc 084b 81bc 74db 163c 238d b6bb
000001e0: d4fd d9bc 28ef da3c 0904 1cbc 5a92 2bbc
000001f0: 43d4 343c cd95 ffbc cf83 e7bb 5f93 263b
00000200: 8455 d4bc ea43 813a 3f40 ff3b d6fb ddba
00000210: 68e1 b13c 09b3 0d3b 12c1 7f3a 5278 e5bb
00000220: 4697 fcbc 672b 5ebc 1e56 38bb eb5a 3fbb
00000230: 3e04 623c f418 b9bb 9051 f8bc 67c4 b3bc
00000240: 86fd 0c3c 4c83 a2bc d260 baba a326 d33c
00000250: 8152 9dbc 8f6b cabc a8a9 433d 001a a6bc
00000260: 34f7 8e3c d836 6f3c 73e8 25bd fd20 a43d
00000270: 377c cd3c 13b5 c1bc 859e 223c 2624 2c3c
00000280: 7bbb b5bc 4336 bcbc c7a3 a43b 0b93 683c
00000290: 6a3e d2ba 64c0 71bc bd43 923b 1b80 b43c
000002a0: 4f82 a8bc c6c0 003c 762c 243d 34ee 21bc
000002b0: 7afc f6bb 6615 aa3c f01f efbc 71ae f7bb
000002c0: ad28 a5bc eff4 7cba a1e9 0c3d e9bc a8bc
000002d0: db63 00bd 9caa ce3b 6c57 73bc 4991 40bc
000002e0: 666d 16bd c322 583c da27 693c b3d7 d13b
000002f0: 3bd4 a2bc 9c43 3b3d 49c2 913a e33a 113b
00000300: 940b df3c 7007 90bb 6eb6 843b f434 f53c
00000310: a50c 01bd 6074 923b 96ec ae3c e63f 8abc
00000320: bf7d 81bc 923c 1abc e276 4e3c 4067 3e3d
00000330: 96bc cd3b 39c7 553c da3c 533b 6040 d6bc
00000340: cc03 133d 65bb 2cbc aaaa 9fbc 2802 003d
00000350: 5477 0eba c3b0 f1bc 1d57 aa3c f5f3 b83c
00000360: 66b2 07bd 7e62 02bd 2bc7 12bd 2cf4 5dbb
00000370: 0bd2 543c 36dc 813c 606d 6abc 2eee 413c
00000380: 8a64 e5bc 2e6a 20ba 1f93 f33b 20a7 283d
00000390: 89d4 0d3c f054 29ba c19d 27bb 5533 87bc
000003a0: 8f5f e53b 9e81 813c 1380 fa3a 810e db3b
000003b0: 942c a03c 31cd 3f3d 3be6 46bc 4a44 d83c
000003c0: 8d92 853c f691 eabb 6b94 453d 994e 02bd
000003d0: 6a85 1bbc e327 7cbb 92c0 c839 fcb0 683b
000003e0: eca0 bcbc ff98 2fbc f276 a63c effc 253d
000003f0: ef54 93bc 8682 72bc e40b 8abc da35 e7bb

action_model._continuous_distribution.mu.bias f4 [2]
-0.004459497 -0.0033461608
00000000: f920 92bb 434b 5bbb

exp_avg f4 [128, 6]
0.0012516477 -1.8428045e-05 -0.00068535464 0.0016020922 -8.692472e-06 -0.00047834136 0.00019513688 -3.0053176e-05
-0.00052754465 0.0003012047 -1.4176025e-05 -0.0007103693 0.0014690732 -8.6538406e-05 -0.0029514772 0.0013036603
-4.0820007e-05 -0.0029968119 -0.0016965272 1.9032788e-05 -0.0007699499 -0.001742182 8.9777295e-06 -0.00072639337
-0.00018259656 2.2131233e-05 0.00045599442 -0.0001181917 1.0439261e-05 0.00032859895 0.0009448693 -3.867629e-05
-0.00199612 0.0010846796 -1.8243536e-05 -0.0020592082 -0.00032356556 -0.00015738809 -0.002345061 -0.00082124595
-7.423967e-05 -0.0021414857 -0.00045922206 7.197854e-05 0.0021515829 -0.0004942299 3.3952143e-05 0.0022520856
-0.0014849934 -4.367333e-05 0.0012463011 -0.002126512 -2.0600633e-05 0.001460452 -0.0006377136 -9.9930134e-05
-0.0010573928 -0.001110666 -4.7136855e-05 -0.0008722321 -0.00044342497 -6.7494424e-05 -0.00096068106 -0.00059597637
-3.183699e-05 -0.0009841581 -0.0017496774 6.0002243e-05 -0.0040537114 -0.0009053899 2.8302951e-05 -0.0042237025
-0.00042426743 -7.1203016e-05 -0.0010568834 -0.0007600243 -3.3586326e-05 -0.0010261801 0.00060844416 6.3168096e-05
0.00088149274 0.00077001407 2.9796278e-05 0.00087199605 -0.00041242206 1.8461309e-05 -0.0013602121 -0.00051153364
8.708165e-06 -0.0016550379 0.0006506961 0.00013292284 0.0008094998 0.0013900376 6.2699444e-05 0.0004424992
0.00042707974 -2.1919735e-05 0.002300919 0.00015509134 -1.0339509e-05 0.002839434 -0.0027177094 -3.196545e-05
0.0005695459 -0.0029972496 -1.5078042e-05 0.0012455754 -7.083599e-05 -7.5254095e-05 -0.0011999533 -0.00021088624
-3.5497214e-05 -0.0011279029 -0.0021017566 -9.225669e-06 0.0035896231 -0.0028171232 -4.3517284e-06 0.0039753127
0.00027748427 5.809261e-07 -0.0001869285 0.00024192096 2.740203e-07 -0.00025550078 -0.00029335803 6.308519e-05
-0.004117263 0.0009963269 2.975717e-05 -0.0044485456 0.0019973684 -9.599514e-05 8.421751e-06 0.0018614274
-4.5280736e-05 -0.00011430532 -0.00015942342 -7.126052e-05 -0.0011322293 -0.0005067565 -3.3613458e-05 -0.0011073599
0.001291276 -2.56776e-05 -0.00034162978 0.00061092 -1.2112073e-05 -0.0011186359 0.00044053234 -5.9667876e-05
0.0022928517 -0.0006141685 -2.8145225e-05 0.0019064737 0.00047597048 3.1541596e-05 0.0010242108 -8.50378e-05
1.4878111e-05 0.0008632514 -0.0007945623 -1.7829045e-05 0.001124048 -0.0013869465 -8.409923e-06 0.0014033591
0.00055659615 -0.00011706926 0.0023078627 -0.00055469107 -5.522137e-05 0.002295035 -0.0024331221 1.1410309e-05
-0.0012219151 -0.0022512332 5.3822223e-06 -0.0010138787 0.0026769815 -2.2093504e-05 -0.0017632579 0.0028601536
-1.0421467e-05 -0.0027241257 0.0007302808 -1.9448782e-05 0.0007701176 0.00089139177 -9.173955e-06 0.0012104441
-0.005270452 -8.817613e-05 0.0006664768 -0.006224438 -4.1592513e-05 0.0010086038 0.0002644976 -4.2968073e-05
0.001496452 3.8077458e-05 -2.0267964e-05 0.0021459216 0.0018075851 6.3621724e-06 0.0013768048 0.0023924902
3.001015e-06 0.0024402472 0.0020663822 -1.7250853e-05 0.0006569637 0.0019971137 -8.137196e-06 0.00035864717
-0.00076194707 0.000100332196 -0.006120428 0.00044560077 4.7326514e-05 -0.0069178715 -0.0014123751 -6.714912e-05
0.0008971689 -0.0024003447 -3.1674117e-05 0.0012568345 0.0018146469 -3.0883748e-05 0.0020649503 0.001595951
-1.4567806e-05 0.0015871823 -0.0015523063 4.1682593e-05 -0.0010369591 -0.00090334076 1.9661598e-05 -0.00044634508
-0.00032775995 -8.969979e-06 -0.00013051176 -0.00043122677 -4.231122e-06 -0.000107374675 0.0015170381 3.2880682e-05
-0.0012017303 0.0019586126 1.5509755e-05 -0.0013970734 -0.0026694653 7.1527524e-05 -0.0033754876 -0.0010564235
00000000: 540e a43a ed95 9ab7 5fa9 33ba 4bfd d13a
00000010: e2d5 11b7 e4c9 fab9 a89d 4c39 b41a fcb7
00000020: ec4a 0aba 03eb 9d39 90d5 6db7 1438 3aba
00000030: eb8d c03a f47b b5b8 926d 41bb 95df aa3a
00000040: 2636 2bb8 2966 44bb 025e deba 9aa8 9f37
00000050: 77d6 49ba ed59 e4ba 0e9f 1637 6f6b 3eba
00000060: 6477 3fb9 76a6 b937 8912 ef39 b0dd f7b8
00000070: 4924 2f37 ce47 ac39 1bb1 773a 5a38 22b8
00000080: 56d1 02bb cf2b 8e3a b209 99b7 c8f3 06bb
00000090: 3ca4 a9b9 8b08 25b9 98af 19bb e248 57ba
000000a0: 1fb1 9bb8 2b58 0cbb bec3 f0b9 2ff3 9638
000000b0: 9201 0d3b 358f 01ba d667 0e38 ba97 133b
000000c0: 1ca4 c2ba e22d 37b8 ed5a a33a f35c 0bbb
000000d0: 86cf acb7 a36c bf3a 3c2c 27ba 9591 d1b8
000000e0: 3798 8aba c493 91ba d0b4 45b8 81a6 64ba
000000f0: 7e7b e8b9 cb8b 8db8 37d6 7bba 4c3b 1cba
00000100: b588 05b8 defe 80ba 6e55 e5ba ebaa 7b38
00000110: ffd4 84bb b057 6dba 206c ed37 fc66 8abb
00000120: 3670 deb9 d452 95b8 1f87 8aba 5e3c 47ba
00000130: 0bdf 0cb8 e480 86ba ff7f 1f3a 1d79 8438
00000140: fa13 673a c5da 493a 05f3 f937 aa96 643a
00000150: 5a3a d8b9 5cdd 9a37 2549 b2ba 7118 06ba
00000160: 4919 1237 dbed d8ba 7a93 2a3a 3461 0b39
00000170: 9d34 543a ec31 b63a 827d 8338 3dff e739
00000180: ace9 df39 46e0 b7b7 04cb 163b 04a0 2239
00000190: da77 2db7 cc15 3a3b 991b 32bb a412 06b8
000001a0: 944d 153a 816d 44bb b3f7 7cb7 9342 a33a
000001b0: c88d 94b8 bcd1 9db8 c047 9dba 5821 5db9
000001c0: d8e2 14b8 24d6 93ba a0bd 09bb f2c7 1ab7
000001d0: e23f 6b3b 7c9f 38bb 1005 92b6 5743 823b
000001e0: 4f7b 9139 f0f0 1b35 3d02 44b9 2aac 7d39
000001f0: 101d 9334 bcf4 85b9 d9cd 99b9 9a4c 8438
00000200: 1bea 86bb 2f97 823a 099f f937 1bc5 91bb
00000210: 48e6 023b 0051 c9b8 254b 0d37 24fb f33a
00000220: d2eb 3db8 34b7 efb8 e62a 27b9 b371 95b8
00000230: 5067 94ba dad7 04ba 2dfc 0cb8 d524 91ba
00000240: 0840 a93a 3a66 d7b7 c61c b3b9 2626 203a
00000250: f534 4bb7 319f 92ba 40f7 e639 e543 7ab8
00000260: ab43 163b 2600 21ba 6919 ecb7 a4e2 f93a
00000270: ad8b f939 884b 0438 d03e 863a 5256 b2b8
00000280: 009d 7937 d24b 623a 2c4a 50ba 958f 95b7
00000290: cb54 933a 34ca b5ba 5818 0db7 ebf0 b73a
000002a0: 89e8 113a 1583 f5b8 833f 173b b068 11ba
000002b0: 7f9d 67b8 4c68 163b 0475 1fbb e76e 3f37
000002c0: ab28 a0ba 6d89 13bb f098 b436 20e4 84ba
000002d0: 4c70 2f3b 7055 b9b7 1e1d e7ba 6a71 3b3b
000002e0: dcd7 2eb7 3f87 32bb 5170 3f3a f125 a3b7
000002f0: b8e1 493a 4aac 693a d6e9 19b7 c4a7 9e3a
00000300: c1b3 acbb 33eb b8b8 80b6 2e3a 5ff6 cbbb
00000310: 9f73 2eb8 2133 843a 44ac 8a39 9e38 34b8
00000320: 9924 c43a 5cb5 1f38 1f05 aab7 97a2 0c3b
00000330: 7eec ec3a a57a d536 e775 b43a 53cb 1c3b
00000340: 0c65 4936 8eec 1f3b 246c 073b edb5 90b7
00000350: 1638 2c3a 02e2 023b fe84 08b7 cf08 bc39
00000360: 67bd 47ba 7069 d238 df8d c8bb 869f e939
00000370: 7580 4638 50af e2bb 721f b9ba 69d2 8cb8
00000380: fc2f 6b3a 1a4f 1dbb d3d9 04b8 5ebc a43a
00000390: 72d9 ed3a 2c89 01b8 1e54 073b 3b2f d13a
000003a0: 4068 74b7 0009 d03a c276 cbba 58d4 2e38
000003b0: 93ea 87ba 2cce 6cba f6ee a437 6c03 eab9
000003c0: 32d7 abb9 c47d 16b7 fcd9 08b9 4716 e2b9
000003d0: 10f9 8db6 572e e1b8 5ad7 c63a 5de9 0938
000003e0: 6183 9dba 115c 003b f21a 8237 011e b7ba
000003f0: 32f2 2ebb 0c01 9638 4937 5dbb b177 8aba

exp_avg_sq f4 [128, 6]
6.746024e-05 3.651674e-08 0.00019901995 4.677416e-05 8.124955e-09 0.00016031816 5.479962e-05 3.4684167e-08
4.2294512e-05 6.61684e-05 7.717191e-09 4.4863547e-05 0.00021308562 9.206771e-08 5.333942e-05 0.00024233268
2.048499e-08 5.6952715e-05 5.395804e-06 1.2259412e-08 3.1064933e-06 4.961598e-06 2.7277078e-09 2.6677799e-06
1.9632225e-05 1.5221763e-08 3.7492607e-06 1.9956271e-05 3.386835e-09 3.3552517e-06 5.1469557e-05 2.6427259e-08
1.9606141e-05 5.9952225e-05 5.880047e-09 2.0768748e-05 0.00015617069 1.0031041e-07 2.2929657e-05 0.00016685356
2.2318977e-08 2.1103475e-05 0.00015087092 9.488349e-08 2.2069396e-05 0.00015795678 2.1111516e-08 1.9828707e-05
4.231969e-05 1.6155667e-08 5.411701e-06 4.7278223e-05 3.594619e-09 5.9304016e-06 3.188862e-05 2.1223698e-08
6.0860402e-06 3.5823676e-05 4.722259e-09 6.0784596e-06 3.4289944e-05 2.447266e-08 5.4940197e-06 3.5756213e-05
5.445151e-09 5.421722e-06 3.4606233e-05 2.7261851e-08 0.0001525743 3.9596045e-05 6.0657515e-09 0.00014826561
4.0317293e-05 2.832275e-08 6.1408045e-06 4.2917403e-05 6.3017835e-09 5.7639504e-06 5.336641e-06 9.151758e-09
2.2466338e-06 5.3274184e-06 2.0362603e-09 2.0105056e-06 5.847386e-05 2.6639698e-08 3.4116365e-05 5.305481e-05
5.9273124e-09 3.15011e-05 0.00019487989 1.16677825e-07 2.7498158e-05 0.00020563879 2.596071e-08 2.4729108e-05
4.641734e-05 3.3582477e-08 0.0002144592 2.9307987e-05 7.472074e-09 0.00018208224 6.0461938e-05 3.5493393e-08
0.00012643843 6.0995357e-05 7.897264e-09 0.00011079553 7.179772e-05 4.4554668e-08 1.0780842e-05 7.583444e-05
9.913364e-09 9.8280725e-06 3.7280497e-05 2.9646417e-08 9.5939926e-05 2.585498e-05 6.5963084e-09 8.15951e-05
2.2538334e-05 1.2897688e-08 3.2276967e-06 2.4101868e-05 2.869725e-09 2.7412352e-06 0.0001275141 7.993122e-08
0.0001292499 0.00015830886 1.7784616e-08 0.00013881172 6.71223e-06 1.0226466e-08 4.835829e-06 5.9327235e-06
2.2753828e-09 4.0733603e-06 7.4089985e-05 3.105467e-08 9.345949e-06 8.4410254e-05 6.9096333e-09 1.0357244e-05
2.9465076e-05 1.8692553e-08 7.997016e-05 2.386723e-05 4.1590758e-09 7.300357e-05 4.175622e-05 4.1662258e-08
0.00021221224 5.616588e-05 9.269842e-09 0.00021363069 6.3780724e-05 5.15809e-08 0.00019917951 7.317698e-05
1.1476722e-08 0.00019595229 4.9566665e-05 2.9815023e-08 2.2680311e-05 5.8924867e-05 6.6338197e-09 2.484367e-05
2.54072e-05 2.1135472e-08 3.6144273e-05 3.208935e-05 4.702616e-09 3.8273243e-05 2.1288915e-05 1.7465634e-08
8.515097e-05 2.33442e-05 3.8860977e-09 8.032708e-05 7.823028e-05 4.7976275e-08 0.00012640971 5.6559362e-05
1.0674686e-08 9.985703e-05 5.696262e-05 3.6817713e-08 0.000103858765 4.5694e-05 8.191901e-09 9.043911e-05
5.2020445e-05 2.9850163e-08 0.00011127183 6.68543e-05 6.64163e-09 0.00011167238 5.6183027e-05 3.604845e-08
0.00018372502 5.823292e-05 8.0207565e-09 0.00016989894 0.00016136775 1.1775338e-07 0.00059012964 0.00012582565
2.6200013e-08 0.00052776415 1.3029237e-05 1.00772874e-08 3.9287283e-06 1.109545e-05 2.242189e-09 3.150418e-06
0.00010694733 8.198852e-08 0.0003854697 9.9885794e-05 1.8242353e-08 0.00034988637 0.00012662566 6.541163e-08
9.638168e-05 0.00015898555 1.4554036e-08 0.00010429685 3.0167714e-05 1.7900174e-08 7.249899e-05 2.067317e-05
3.9827643e-09 5.6454897e-05 5.2029463e-05 3.2064754e-08 0.00013360691 3.7008493e-05 7.1343873e-09 0.0001136285
2.8942492e-05 1.371102e-08 3.3639083e-06 2.9443434e-05 3.050693e-09 3.0436877e-06 2.7230508e-05 1.3872903e-08
4.3838345e-06 3.0737574e-05 3.0867133e-09 4.660743e-06 0.00011657458 8.876455e-08 0.0004861511 9.249204e-05
00000000: 7179 8d38 95d6 1c33 03b0 5039 5f2f 4438
00000010: ee95 0b32 141b 2839 a5d8 6538 a5f7 1433
00000020: 6365 3138 e4c3 8a38 9194 0432 de2b 3c38
00000030: bc6f 5f39 c2b6 c533 c4b8 5f38 af1a 7e39
00000040: f8f6 af32 83e0 6e38 9a0d b536 779d 5232
00000050: 2679 5036 cd7b a636 5872 3b31 1c08 3336
00000060: e2af a437 03c1 8232 cf9b 7b36 c467 a737
00000070: d5bd 6831 c92a 6136 04e1 5738 2802 e332
00000080: de77 a437 3675 7b38 7109 ca31 8c38 ae37
00000090: c0c1 2339 3b6a d733 1059 c037 69f5 2e39
000000a0: f3b7 bf32 5e07 b137 1b33 1e39 c0c2 cb33
000000b0: ab21 b937 33a1 2539 b758 b532 d355 a637
000000c0: 6c80 3138 b0c6 8a32 2896 b536 9b4c 4638
000000d0: 3505 7731 c3fd c636 25c0 0538 684f b632
000000e0: b036 cc36 6141 1638 6e41 a231 92f5 cb36
000000f0: 8cd2 0f38 f337 d232 4559 b836 f1f8 1538
00000100: 0e18 bb31 3dec b536 2926 1138 722d ea32
00000110: 5afc 1f39 ee13 2638 ea6a d031 bf77 1b39
00000120: 5d1a 2938 634a f332 1c0d ce36 3602 3438
00000130: 1387 d831 f567 c136 6611 b336 db39 1d32
00000140: e0c4 1636 2dc2 b236 45ee 0b31 39ec 0636
00000150: d441 7538 51d5 e432 2b18 0f38 2b87 5e38
00000160: 31a9 cb31 0c20 0438 ac58 4c39 5090 fa33
00000170: d8ab e637 bea0 5739 3400 df32 5b71 cf37
00000180: 3db0 4238 533c 1033 74e0 6039 6cda f537
00000190: 875e 0032 54ed 3e39 8398 7d38 6671 1833
000001a0: 8f94 0439 44d5 7f38 89ac 0732 e65a e838
000001b0: 1b92 9638 605c 3f33 5ddf 3437 4e09 9f38
000001c0: 704f 2a32 40e3 2437 a15d 1c38 29a9 fe32
000001d0: 5b33 c938 26e3 d837 bea5 e231 091e ab38
000001e0: b410 bd37 a294 5d32 689b 5836 5e2e ca37
000001f0: bc34 4531 10f6 3736 4eb5 0539 a7a6 ab33
00000200: 4187 0739 b6ff 2539 c9c4 9832 fd8d 1139
00000210: 9e39 e136 79b0 2f32 7443 a236 b511 c736
00000220: f55c 1c31 e6ad 8836 c260 9b38 f960 0533
00000230: 8ccc 1c37 6905 b138 c769 ed31 06c4 2d37
00000240: c52b f737 5c91 a032 a7b5 a738 7c36 c837
00000250: 9ee7 8e31 7e19 9938 6623 2f38 23f0 3233
00000260: 4a85 5e39 a893 6b38 3241 1f32 0d02 6039
00000270: 04c2 8538 cd89 5d33 d8da 5039 9876 9938
00000280: 282b 4532 8b78 4d39 cde5 4f38 f70d 0033
00000290: 9941 be37 1826 7738 b2ef e331 6067 d037
000002a0: 8c21 d537 658d b532 9e99 1738 ad97 0638
000002b0: a694 a131 9587 2038 9995 b237 5607 9632
000002c0: 1493 b238 4ad3 c337 7a86 8531 4675 a838
000002d0: 900f a438 790e 4e33 d98c 0439 273a 6d38
000002e0: c463 3732 566a d138 26eb 6e38 8121 1e33
000002f0: c0ce d938 8fa7 3f38 5dbc 0c32 21aa bd38
00000300: 8730 5a38 9a34 0033 9c5a e938 2134 8c38
00000310: 6534 e431 a731 ea38 11a6 6b38 b1d3 1a33
00000320: 4fa6 4039 1f3f 7438 a9cb 0932 e626 3239
00000330: d334 2939 9bdf fc33 eeb2 1a3a 11f0 0339
00000340: 700e e132 a759 0a3a 2698 5a37 6120 2d32
00000350: 85d3 8336 9826 3a37 0215 1a31 c56b 5336
00000360: e948 e038 aa11 b033 de18 ca39 c779 d138
00000370: 5cb3 9c32 f470 b739 d1c6 0439 6d78 8c33
00000380: 8520 ca38 5cb5 2639 5409 7a32 f2b9 da38
00000390: ac10 fd37 e6c2 9932 990a 9838 4b6b ad37
000003a0: c4d8 8831 fcc9 6c38 363a 5a38 92b7 0933
000003b0: d518 0c39 9139 1b38 bc22 f531 d64b ee38
000003c0: 87c9 f237 b48d 6b32 81bf 6136 4bfd f637
000003d0: 5ca4 5131 2842 4c36 126d e437 ac55 6e32
000003e0: da18 9336 38ec 0038 091e 5431 7a63 9c36
000003f0: 8079 f438 d49e be33 19e2 fe39 49f8 c138

exp_avg f4 [128]
-2.1731186e-05 -3.5440065e-05 -0.000102050006 2.244433e-05 2.6098143e-05 -4.5608842e-05 -0.00018559919 8.488036e-05
-5.150161e-05 -0.00011784214 -7.959248e-05 7.0757356e-05 -8.3965824e-05 7.44907e-05 2.1770413e-05 0.00015674857
-2.5848749e-05 -3.7695092e-05 -8.8743036e-05 -1.0879323e-05 6.8505597e-07 7.4392934e-05 -0.00011320182 -8.403363e-05
-3.0280178e-05 -7.036306e-05 3.7195274e-05 -2.10248e-05 -0.00013805338 1.3455552e-05 -2.6053644e-05 -2.2934892e-05
-0.00010398129 -5.06699e-05 7.5025405e-06 -2.0342992e-05 0.00011831625 -7.9185294e-05 -3.641952e-05 4.9153998e-05
-1.0577807e-05 3.877439e-05 8.434848e-05 2.1139876e-05 -5.3097e-05 0.00014429104 0.00010126372 4.156657e-05
-1.7662347e-05 -1.254758e-05 -0.00011413724 9.219306e-05 5.2650164e-05 -3.2368258e-05 -2.2017137e-05 -3.5118224e-05
-1.9052091e-05 6.3754796e-06 7.8650846e-05 -7.813319e-05 -0.00013101651 -4.850941e-05 2.5255058e-05 6.0740018e-05
-5.549761e-05 -2.2030192e-05 -3.484512e-05 -1.0581256e-05 8.187892e-05 7.42186e-05 5.1961856e-06 -1.3735989e-06
8.849959e-05 2.4165518e-05 -6.772396e-06 1.8559693e-05 4.8194077e-05 -7.80591e-06 2.9723607e-05 -2.9843319e-05
-7.5234086e-05 2.375378e-05 -9.598218e-06 2.173768e-05 1.917191e-05 -7.276202e-06 9.660083e-05 -6.0249855e-05
4.5659443e-05 -1.6410506e-05 2.6943684e-05 -3.0738025e-05 5.8744004e-05 1.9476167e-05 6.869923e-05 -8.8206434e-05
0.0001835613 1.917471e-05 -5.716226e-05 8.039673e-05 9.596054e-05 -6.5319415e-05 2.2163105e-05 -5.5072698e-05
1.3661427e-05 -4.594907e-05 -5.750322e-05 6.439387e-05 2.98778e-05 6.23889e-05 7.290416e-05 0.00015395058
-2.9488605e-05 -3.0340361e-05 -5.272953e-05 -7.436438e-05 -2.9600043e-05 -0.000103849 7.293642e-05 2.0413432e-05
0.00015218415 -0.0001207183 -4.542866e-05 2.75568e-05 0.00012298385 -3.5284054e-05 0.00021825949 -1.9930505e-05
00000000: 5e4b b6b7 7ba5 14b8 ae03 d6b8 d546 bc37
00000010: 56ed da37 1f4c 3fb8 679d 42b9 cc01 b238
00000020: 6f03 58b8 0422 f7b8 e3ea a6b8 9163 9438
00000030: cf16 b0b8 e437 9c38 9b9f b637 e05c 2439
00000040: c4d5 d8b7 cc1a 1eb8 8e1b bab8 5686 36b7
00000050: b0e4 3735 6703 9c38 c466 edb8 363b b0b8
00000060: 3002 feb7 e18f 93b8 1f02 1c38 6a5e b0b7
00000070: 6cc2 10b9 28bf 6137 c68d dab7 4e64 c0b7
00000080: 8810 dab8 6486 54b8 55be fb36 3ea6 aab7
00000090: 8e20 f838 4810 a6b8 29c1 18b8 b42a 4e38
000000a0: 5677 31b7 afa1 2238 3fe4 b038 8a55 b137
000000b0: 78b4 5eb8 d54c 1739 8c5d d438 c457 2e38
000000c0: 9a29 94b7 7283 52b7 f75c efb8 c657 c138
000000d0: afd4 5c38 27c3 07b8 71b1 b8b7 e84b 13b8
000000e0: 0ed2 9fb7 f4ec d536 5af1 a438 70db a3b8
000000f0: 7a61 09b9 9576 4bb8 d3da d337 19c3 7e38
00000100: 1bc6 68b8 7acd b8b7 aa26 12b8 2686 31b7
00000110: 69b6 ab38 cfa5 9b38 e55a ae36 805c b8b5
00000120: db98 b938 0eb7 ca37 703e e3b6 a3b0 9b37
00000130: ff23 4a38 21f6 02b7 f656 f937 0a58 fab7
00000140: fec6 9db8 db42 c737 0808 21b7 5059 b637
00000150: 5dd3 a037 1926 f4b6 2d96 ca38 cab4 7cb8
00000160: 7482 3f38 4ba9 89b7 1f05 e237 b4ec 00b8
00000170: e563 7638 c060 a337 9e12 9038 78fb b8b8
00000180: 5c7a 4039 60d9 a037 82c1 6fb8 aa9a a838
00000190: 6c3e c938 18fc 88b8 e8ea b937 dcfd 66b8
000001a0: 6233 6537 70b9 40b8 9d2f 71b8 320b 8738
000001b0: 16a2 fa37 c9d6 8238 1fe4 9838 cb6d 2139
000001c0: 4c5e f7b7 6e83 feb7 e729 5db8 13f4 9bb8
000001d0: 9c4d f8b7 82c9 d9b8 71f5 9838 833d ab37
000001e0: 9f93 1f39 252a fdb8 a78a 3eb8 c729 e737
000001f0: 3af5 0039 f7fd 13b8 96dc 6439 6f30 a7b7

exp_avg_sq f4 [128]
5.0780947e-08 4.8232465e-08 1.2803109e-07 1.7048164e-08 2.116768e-08 3.675027e-08 1.3949344e-07 1.319469e-07
2.2466415e-08 2.9514101e-08 3.403214e-08 3.7910898e-08 3.9386148e-08 1.2726617e-08 3.7045684e-08 1.6225425e-07
4.6700407e-08 4.9357855e-08 6.1958545e-08 4.122689e-08 1.7935786e-08 1.1115382e-07 1.4221129e-08 4.3185143e-08
2.5994256e-08 5.7936482e-08 7.172953e-08 4.146139e-08 2.9391348e-08 2.4288092e-08 6.671674e-08 5.1199375e-08
4.151017e-08 5.012966e-08 1.6375019e-07 1.4013682e-08 1.1401466e-07 9.096268e-08 2.4892307e-08 4.4589836e-08
1.9066833e-08 1.929194e-08 1.2343762e-07 1.2453937e-07 1.7143531e-08 2.1323494e-08 8.6283485e-08 1.0192255e-07
2.0152099e-08 2.8872686e-08 5.7226437e-08 6.523355e-08 2.5857371e-08 2.6710085e-08 3.0010117e-08 3.046242e-08
7.107433e-08 3.4281687e-08 3.4491336e-08 7.059504e-08 1.315723e-07 1.468649e-08 2.8735906e-08 1.9185876e-08
1.8956065e-07 3.6849094e-08 4.018691e-08 2.3678975e-08 2.8062283e-08 1.7823933e-07 2.265224e-08 5.3610528e-08
2.2302904e-08 8.363837e-09 3.2685076e-08 1.0080119e-08 4.7516835e-08 7.3024374e-08 8.167887e-08 5.6390544e-08
1.8141431e-08 6.5862373e-09 8.8447734e-08 1.44660905e-08 9.160649e-09 2.1245692e-09 3.6705554e-08 2.98654e-08
2.8039075e-08 1.3548353e-08 1.8597971e-08 1.16226865e-07 2.498918e-08 9.921119e-09 6.549366e-08 1.2992794e-08
1.9851743e-07 9.0296496e-08 4.9999112e-08 2.9619883e-08 2.884292e-08 8.740065e-08 2.2788868e-08 4.0098865e-08
3.216676e-08 1.025205e-08 2.606051e-08 8.1261335e-09 1.7246288e-08 1.0824059e-08 3.220366e-08 3.3749547e-08
1.7112571e-08 3.2098697e-08 1.4377558e-07 4.3181355e-08 4.7229925e-08 8.3060165e-08 5.4360935e-08 2.2761746e-08
1.0909209e-07 2.104175e-08 1.10425376e-08 1.02502895e-08 1.4348949e-08 2.2276517e-08 1.674702e-07 7.833871e-08
00000000: 3e1a 5a33 2828 4f33 eb78 0934 4f71 9232
00000010: 38d4 b532 59d7 1d33 aac7 1534 4aad 0d34
00000020: 2bfc c032 3286 fd32 bc2a 1233 79d3 2233
00000030: 8729 2933 41a4 5a32 291c 1f33 1c38 2e34
00000040: a493 4833 89fd 5333 120e 8533 7211 3133
00000050: 3611 9a32 75b3 ee33 3051 7432 917a 3933
00000060: f949 df32 d6d5 7833 ba09 9a33 4813 3233
00000070: 4278 fc32 14a2 d032 ea45 8f33 4fe6 5b33
00000080: ea48 3233 254e 5733 4fd3 2f34 d3c0 7032
00000090: 39d8 f433 4357 c333 c3d2 d532 0b83 3f33
000000a0: 69c8 a332 6db7 a532 468a 0434 1fb9 0534
000000b0: 0643 9332 dc2a b732 d94a b933 84e0 da33
000000c0: ef1a ad32 b503 f832 22c9 7533 8616 8c33
000000d0: f61c de32 1970 e532 79e4 0033 c9d5 0233
000000e0: 87a1 9833 1d3d 1333 a023 1433 099a 9733
000000f0: 5246 0d34 de4f 7c32 edd6 f632 30ce a432
00000100: 098a 4b34 0244 1e33 fa99 2c33 9e66 cb32
00000110: 9d0d f132 0e62 3f34 cd94 c232 6641 6633
00000120: 9b94 bf32 8bb0 0f32 9f61 0c33 d52c 2d32
00000130: 5015 4c33 93d1 9c33 6f67 af33 0f32 7233
00000140: 6ed5 9b32 284d e231 a8f0 bd33 8a86 7832
00000150: f660 1d32 d1ff 1131 2fa6 1d33 5b45 0033
00000160: 94da f032 49c2 6832 5fc1 9f32 6598 f933
00000170: caa7 d632 8b71 2a32 85a5 8c33 ea36 5f32
00000180: 0e28 5534 06e9 c133 9bbe 5633 d06e fe32
00000190: 40c2 f732 04b1 bb33 40c1 c332 2b39 2c33
000001a0: ba27 0a33 fe20 3032 abdb df32 1d9b 0b32
000001b0: fd24 9432 b7f4 3932 4c50 0a33 05f4 1033
000001c0: f1fe 9232 e4dc 0933 bb60 1a34 6776 3933
000001d0: dad9 4a33 cf5e b233 7b7a 6933 9c85 c332
000001e0: 0346 ea33 4cbf b432 98b5 3d32 4019 3032
000001f0: 5883 7632 945a bf32 dcd1 3334 293b a833
